saved_models/FetchSlide-v1/model123.pt (torch, 563151 bytes, 8 tensors)

fc1.weight f4 [256, 28]
000000 33 62 4f 3f f9 63 d1 bd 1e 0f c6 bd 12 8a 71 3e
       0.81009215 -0.102241464 -0.09670852 0.23587826
000010 1d 19 ca 3e 14 1f 42 bf 3c 66 e2 3d a1 50 f8 3e
       0.39472285 -0.7582867 0.11054656 0.48499015
000020 3a f8 2c 3e f9 52 08 bf 4b 80 7d 3f 59 08 04 3f
       0.16891566 -0.53251606 0.99023885 0.5157524
000030 89 b8 1a bf c9 c0 7d bd 6e b5 85 3d 02 78 f1 bd
       -0.6043783 -0.061951432 0.065287456 -0.11790468
000040 56 72 07 bd ce 82 e3 3d 76 ac 2a be 76 ef 4f be
       -0.033068024 0.111089334 -0.16667351 -0.20306191
000050 39 6b 03 bd 72 0a 93 be 3d c3 c2 bc 7f 28 43 3e
       -0.032084677 -0.28718907 -0.023774737 0.19058417
000060 7c 98 15 bf 3a 3a f1 be c2 68 29 be d2 cd 8b bf
       -0.584358 -0.47114736 -0.16543868 -1.0922186
000070 dd a4 24 3e 7d 01 25 3d 21 c0 9a be 03 6f 0f 3f
       0.16078515 0.040284622 -0.30224708 0.56028765
000080 21 57 ea be 2b 51 a9 bf 52 b7 2f 3f 5c cd ec bd
       -0.457696 -1.3227895 0.686391 -0.11562607
000090 7d 3c 5d be c6 8b 0d bf b2 f7 81 3f a0 23 18 3e
       -0.21605106 -0.552914 1.0153716 0.1485734
0000a0 93 18 2a be 94 1f 9f bd 7e d7 0c 3f 8a 71 fd be
       -0.16610937 -0.07769695 0.55016315 -0.49500686
0000b0 ff 25 14 bf ba 6b e3 bc 12 75 6f 3d 78 0e be bd
       -0.5787048 -0.027761329 0.058461256 -0.092801034
0000c0 68 75 1c 3f 7a 34 f4 be 2a 3a 10 bf 8b 13 ab 3d
       0.6111665 -0.47696286 -0.5633875 0.08353337
0000d0 c7 23 8c 3d 5f 2b e0 3e e5 6e 43 3e bf 43 89 bf
       0.068427615 0.4378309 0.19085272 -1.07238
0000e0 26 19 81 3e 00 54 28 3e c5 91 5a bc 0e b7 ec 3e
       0.252145 0.16438293 -0.013340418 0.4623341
0000f0 02 00 0b be 75 ed 2a bf 8b 72 da 3e 4d 8d 08 bf
       -0.13574222 -0.6676858 0.42665514 -0.5334061
000100 3c 61 a4 bd 0f 9d b9 3d b5 55 36 bf 72 5b bf 3e
       -0.080263585 0.0906316 -0.7122453 0.37374455
000110 bb 3b 32 be 71 16 15 3e 76 6f b9 3e 7d bc c3 be
       -0.17405598 0.14559342 0.3621785 -0.38229743
000120 d1 28 24 be 0e 4b 3f 3d 19 fd c6 bc 1c e6 99 3d
       -0.16031195 0.046702437 -0.024290608 0.07514593
000130 51 a8 52 3e b0 c6 eb be 75 9c 6c be 7c 4e b4 bd
       0.2057202 -0.46050024 -0.23106559 -0.08804032
000140 32 ed 8d 3c 6c 62 4f bf 31 83 70 3e 6d a7 84 bf
       0.017325018 -0.81009555 0.23487546 -1.0363594
000150 a9 7a 1d 3f 0b ff cb 3e 5e 13 d3 bc 9c 62 85 3f
       0.6151529 0.3984302 -0.025766071 1.0420718
000160 3a bc 5c 3e cc 45 0c 3f 45 92 5f 3f cf 94 92 3d
       0.21556178 0.54794 0.87332565 0.07157289
000170 e8 91 ba bd 7a ef 75 3e 64 7c c8 bd 4d cf 68 3e
       -0.09109861 0.24017134 -0.09789351 0.22735329
000180 94 1c 2b 3e 54 77 91 3d 62 a1 9d 3e c0 2a 0c bd
       0.1671012 0.07102838 0.30787188 -0.034220457
000190 df 57 21 3e 64 bd 1f 3c 76 52 67 bb 5f 06 8f 3c
       0.15756176 0.009749744 -0.0035296953 0.017459093
0001a0 16 be 3c 3e e2 48 3e bc 51 b7 03 3e 8c 43 b5 bd
       0.18431887 -0.011614056 0.12862898 -0.08850774
0001b0 d7 40 59 be f7 1b dc bf bf 7e 77 bf 30 18 99 bd
       -0.2121614 -1.7196034 -0.96677774 -0.074753165
0001c0 5e 03 1f 3f 30 cd 18 be ef 56 85 3e fb f7 4b 3f
       0.6211451 -0.14922023 0.26042888 0.79675263
0001d0 96 e2 13 be 01 af 39 3e 1c 7f ee 3e f7 1c 87 bb
       -0.14441904 0.18133165 0.46581352 -0.004123326
0001e0 bb 9d 48 be 31 ed 9d be e7 05 50 3f 85 ee 95 be
       -0.1959142 -0.30845025 0.81259006 -0.29283538
0001f0 0b 1f e6 3e 1d a6 13 be 9f 77 a0 3d b7 e2 83 bd
       0.4494556 -0.14418836 0.07835316 -0.06439727
000200 b4 62 1e bb d5 ba 2f bd 82 39 8e 3d 53 59 ae 3d
       -0.0024167718 -0.042902786 0.069445625 0.08513131
000210 7d dc e8 bb be 0f 15 bd 1f ac 19 3d f5 bd ce bc
       -0.0071063624 -0.036391966 0.037517663 -0.025237063
000220 b8 28 f7 3c b1 a3 aa bf 86 71 96 3d 8d 70 90 be
       0.030170783 -1.3331205 0.073458716 -0.2821087
000230 08 d4 38 be 50 eb b1 3d 95 fb bb bd f8 bc 46 be
       -0.18049634 0.086874604 -0.09178845 -0.19408023
000240 eb 67 ce be 18 10 6a 3e d1 69 d0 bd 9c 8b cb 3d
       -0.40313658 0.22857702 -0.10176433 0.09938738
000250 aa 79 fa 3e 5b 93 91 bf e9 cb e4 3f 73 52 43 bf
       0.48920947 -1.1373094 1.7874728 -0.7629768
000260 31 9b 19 3f e6 1e be bc 2d b5 0e bf 6b 45 6e be
       0.6000243 -0.023208093 -0.557452 -0.23268668
000270 ef 0d 60 be 5c 8f 1d 3d 31 16 41 bd a7 a8 ae 3c
       -0.21880315 0.038466796 -0.047140304 0.021320654
000280 77 0f 18 bf 16 ce c6 bd dd 69 7e be d9 a1 b2 3e
       -0.593986 -0.097072765 -0.24845071 0.34889105
000290 d0 b3 7c be b9 81 2c 3e 9e 9c 6f 3e 88 21 97 bf
       -0.24677968 0.1684636 0.23399588 -1.1807108
0002a0 86 26 b2 bd 76 a4 7b 3d 76 62 95 be b1 26 6c be
       -0.08698754 0.06143614 -0.29176682 -0.23061635
0002b0 75 54 19 3d c5 06 9b bf ff 08 30 bf b5 f2 ad bd
       0.03743406 -1.2111441 -0.68763727 -0.08493558
0002c0 02 5d 54 bd ff db 86 3f e4 57 da bf 09 b2 d5 be
       -0.05184651 1.0535887 -1.7058072 -0.41737393
0002d0 54 7e 0e bd 99 82 d2 3c fa 9e c9 3e 80 7c 85 bd
       -0.034788445 0.02569704 0.39379102 -0.06517887
0002e0 a2 ff 83 be 61 6d 8e bc c1 4d ac bc c6 7a 11 3d
       -0.2578097 -0.01738614 -0.02103317 0.035517476
0002f0 56 08 89 be fa 23 f7 bd ae c9 4a be bd 01 73 bc
       -0.26764172 -0.12067409 -0.19803497 -0.014831957
000300 d0 d9 b9 bd e7 e7 fb 3d dd 09 22 be 00 73 22 bf
       -0.090747476 0.12300091 -0.15824075 -0.63456726
000310 7d a9 ce bd ca a2 92 bd 7d ab c8 3d 5f a3 39 3e
       -0.10090921 -0.07159956 0.09798334 0.18128727
000320 f0 21 17 3e 23 6b 88 bf 3c 68 06 bd 1d 30 d5 3e
       0.1475904 -1.0657696 -0.03281425 0.4163827
000330 71 b2 e2 3d 85 0b 46 be 4e 6a 54 3f ef fc 79 3e
       0.11069191 -0.19340332 0.8297471 0.24412893
000340 19 5f b8 be 05 1f 88 bb 89 22 5a bf 9f dd 60 3e
       -0.36010054 -0.0041540884 -0.85208946 0.21959542
000350 57 d1 42 3e c4 06 94 3e 4a fd 95 be 92 22 28 be
       0.1902517 0.28911412 -0.29294807 -0.16419438
000360 65 62 1b bf 5a 7a ec 3d c5 61 10 3d a7 da 8b bd
       -0.60697013 0.11546774 0.03524949 -0.06828814
000370 a9 31 a7 3e bb f2 e5 3d 26 6b 21 bf e3 c7 1e bf
       0.32655075 0.11227938 -0.6305412 -0.6202375
000380 b3 f8 39 3e e8 12 d6 be 62 63 6d be bf 36 8c 3e
       0.18161277 -0.418113 -0.23182443 0.27385518
000390 c9 45 22 bf fb 06 67 c0 b5 36 c3 3e c1 90 23 bf
       -0.63387734 -3.609801 0.38127676 -0.6389275
0003a0 b9 7f 92 be 86 d2 00 3f 44 aa 85 bf 8e 59 f7 bd
       -0.2861307 0.50321233 -1.0442586 -0.12077628
0003b0 34 bf cd 3d ac 67 b5 bd 95 33 0e 3d 66 01 fc be
       0.10046235 -0.088576645 0.03471716 -0.49219817
0003c0 ba 3f 53 bd a5 76 5f bd 04 a3 09 bd 7f f6 03 3c
       -0.051574446 -0.054556508 -0.03360273 0.008054375
0003d0 43 ec 38 3d 1c d9 ed be f7 51 0e be b5 ad 9c bb
       0.04514719 -0.46454704 -0.13898455 -0.0047814497
0003e0 e8 91 80 be 17 7c 4e bf a8 6a ac 3d ea 3a 41 bf
       -0.25111318 -0.80658096 0.084187806 -0.7548052
0003f0 3c 65 21 3e c8 61 8f be 31 cd 5f 3e 45 bd a5 3e
       0.15761274 -0.2800429 0.21855618 0.32370964

fc1.bias f4 [256]
000000 a0 4a a0 bf 50 66 fe bf e8 93 07 c0 05 06 22 bf
       -1.2522774 -1.9874973 -2.1184025 -0.63290435
000010 3e fc db bf bd 07 01 c0 ca cb 5a bf c0 cd fb bf
       -1.7186353 -2.0160973 -0.8546721 -1.9672165
000020 20 a0 fd bf aa 99 0e c0 ec 38 1d bf b7 c5 e9 bf
       -1.9814491 -2.228129 -0.6141498 -1.8263463
000030 f4 93 0e c0 3c d5 b6 bf e5 92 cd bf b1 2f c0 bf
       -2.2277803 -1.4283824 -1.6060454 -1.5014554
000040 73 88 db bf 57 08 e8 bf 23 f9 d1 bf f2 18 2e bf
       -1.7151016 -1.8127545 -1.6404155 -0.68006814
000050 e5 ab d2 bf a2 01 88 bf c6 3b 0b c0 b8 85 2d c0
       -1.6458708 -1.0625498 -2.1755233 -2.7112865
000060 50 e2 bf bf 92 ff 21 bf 5e 8c 82 3d 74 d5 94 bf
       -1.499094 -0.63280594 0.06374429 -1.1627641
000070 87 5a 05 c0 96 aa 12 c0 7c 12 f0 bf 3d d0 c7 bf
       -2.0836504 -2.2916617 -1.8755641 -1.5610424
000080 83 4e af be 16 a5 f5 bf 0a 8e c6 bf 9a 5e 8f bf
       -0.34239587 -1.9191005 -1.5512097 -1.1200745
000090 df e4 74 bf 8b 02 a6 bf 26 19 08 c0 cd 63 bc 3e
       -0.9566173 -1.2969526 -2.126535 0.36794892
0000a0 23 d3 cb bf 8e fd 0f c0 5c a7 b9 bf 35 c4 da be
       -1.5923809 -2.2498507 -1.4504199 -0.4272782
0000b0 13 87 ee bf c4 77 5f be dc a2 7d bf 6f d7 d1 bf
       -1.8634971 -0.2182303 -0.9907663 -1.639387
0000c0 99 6a b0 bf 1e 43 cf bf 9d e7 03 c0 2e 89 c4 3d
       -1.3782531 -1.6192358 -2.0610116 0.095964774
0000d0 61 87 85 bf 25 44 c1 be a5 ec d3 be 30 b8 0e c0
       -1.0431939 -0.37747303 -0.41391483 -2.229992
0000e0 5e 67 f3 be 45 d5 9a bf 6f 63 99 3e 4d ff 90 bf
       -0.475398 -1.2096335 0.29958674 -1.1327912
0000f0 a5 63 04 c0 6a ab ca be 8b 0b 85 bf 55 27 7f bf
       -2.0685818 -0.39583904 -1.0394148 -0.9966939
000100 2a 2a d0 be 45 ad eb bf 23 95 00 c0 a9 d6 2f be
       -0.4065717 -1.8412253 -2.0091026 -0.1717173
000110 ac c9 ea bf c1 51 bc bf 2f da 5a 3e 1a fb ad bf
       -1.8342795 -1.4712449 0.21372293 -1.3592255
000120 15 5e 79 bf ae 6c 49 bf 81 9c 87 bf df 50 f2 bf
       -0.9740918 -0.7868146 -1.0594636 -1.893093
000130 ae 1b c0 bf 3a c6 08 c0 a1 e3 58 bf 3d e5 0f c0
       -1.5008447 -2.1370988 -0.84722334 -2.2483666
000140 bf 9b 23 c0 a9 ae 7a bf 30 a5 d4 bf 66 8d 03 c0
       -2.556381 -0.9792276 -1.6612911 -2.0555053
000150 80 3d d1 bf ed 78 d3 bf 6a 27 03 c0 8f 77 06 c0
       -1.6346893 -1.6521279 -2.0492806 -2.1010473
000160 56 4a c4 bf 5d c9 55 bf d3 e0 a8 bf a3 be ba bf
       -1.5335186 -0.8351038 -1.3193611 -1.4589428
000170 b1 d1 be bf d1 4b 03 c0 a8 ae 47 bf 69 bb 9f bf
       -1.4907743 -2.0515025 -0.7800088 -1.2479068
000180 30 1f 7f bf 4c 99 73 bf 78 91 94 be 0b e0 fa bf
       -0.99656963 -0.9515579 -0.29017234 -1.9599622
000190 0c 9e 0d c0 58 54 15 3f 4b 6d 89 bf 1f 0e 25 c0
       -2.2127714 0.58331823 -1.0736479 -2.578987
0001a0 55 9e eb bf 77 74 04 c0 1c 9d 13 bf b0 ff 18 c0
       -1.8407694 -2.0696084 -0.57661605 -2.390606
0001b0 f8 03 a4 bf d0 0e 06 c0 2b 9e d5 bf 0a ed da bf
       -1.2813711 -2.094654 -1.6688894 -1.7103589
0001c0 c9 f2 44 bf 82 4d ea bf c9 a7 2d c0 f9 06 d5 bf
       -0.7693296 -1.8304904 -2.7133658 -1.6642753
0001d0 33 1d 81 bf 6a 32 a3 bf d4 4b ea bf 42 6a 0c c0
       -1.0087036 -1.274976 -1.8304391 -2.1939855
0001e0 88 98 d1 bf 7e a5 0a c0 d9 36 f7 bf 99 28 08 bf
       -1.6374674 -2.1663508 -1.9313613 -0.5318695
0001f0 75 12 f6 be 96 4c a8 bf 42 4d 58 bf 09 72 c0 bf
       -0.48060957 -1.3148372 -0.84492886 -1.5034801
000200 c1 43 fd bf e5 ba b2 3e bc 15 ed bf cb fe 04 c0
       -1.9786302 0.34908214 -1.8522258 -2.0780513
000210 0b e9 df bf 11 4e 99 bf 05 8f e7 bf a6 a9 d7 3e
       -1.7492994 -1.1976949 -1.8090521 0.4212162
000220 3b c9 9b bf 2e 36 92 bf 44 17 9c be 47 3a d1 bf
       -1.2170786 -1.1422784 -0.304865 -1.634591
000230 be 4b d0 bf 8d 73 97 bf 89 3e b1 bf 84 1f 03 c0
       -1.6273115 -1.1832138 -1.3847209 -2.0487986
000240 0b 50 f7 bf d2 07 9e bf f0 fa 96 bf 08 5b e3 bf
       -1.9321302 -1.2346137 -1.179533 -1.7762156
000250 4e 95 c7 bf 9c 45 50 3e 3c 10 8c bf 6f f0 b1 bf
       -1.5592439 0.20339054 -1.0942454 -1.39015
000260 1e f3 0c c0 3e 46 d6 3e 4e e5 ee be 7c d2 c6 3b
       -2.2023387 0.41850466 -0.4665932 0.006067572
000270 ea 9c 7f bf 4e 50 61 bf 81 c4 26 bf 80 b7 ff bf
       -0.99848807 -0.8801316 -0.6514359 -1.9977875
000280 4c f1 c7 bf 0f 03 ba bf 04 7b 02 c0 2b a4 7a be
       -1.5620513 -1.4532183 -2.0387583 -0.24476688
000290 f1 29 a8 bf 4c a1 10 c0 e3 c9 9f bf cb 85 85 bf
       -1.31378 -2.2598448 -1.2483486 -1.0431455
0002a0 2e d5 1f 3e 0f 8c 05 c0 c9 04 aa be 85 42 22 c0
       0.15608665 -2.0866735 -0.33206776 -2.53531
0002b0 2c 34 c8 bf 63 5e 79 bf a5 50 bd bf c6 65 de bf
       -1.5640922 -0.9740965 -1.4790236 -1.7374809
0002c0 4c 82 6b bf 75 d4 75 bf 40 1c ab bf 41 0c ca bf
       -0.9199569 -0.9602731 -1.3367996 -1.578499
0002d0 16 c3 42 bf 33 0b d0 bf 6a a7 6b bd 78 b8 85 bf
       -0.7607893 -1.6253418 -0.057532705 -1.044692
0002e0 b1 e2 ec be fc 63 e2 3e 93 5b 92 bf 10 29 da bf
       -0.46266702 0.44216907 -1.1434196 -1.7043781
0002f0 e5 1c f6 bf fb ef 9e bf 3e 62 d4 bf 75 6f d1 bf
       -1.9227568 -1.2416986 -1.6592481 -1.6362139
000300 58 45 a3 bf dc a8 0f bf cd 20 f4 bf 94 ef 85 bf
       -1.2755537 -0.56117034 -1.907251 -1.0463738
000310 14 8d 01 c0 95 18 e3 3e d4 14 a1 bf ba 41 ec bf
       -2.0242357 0.44354692 -1.2584481 -1.8457558
000320 cf b2 e3 bf d0 11 99 bf 0b e1 d5 bf 9d ac 66 bf
       -1.7788943 -1.1958561 -1.6709303 -0.90107137
000330 8b 4a f6 bf 37 7f e1 bf 7f 99 93 bf 56 7c fa bf
       -1.9241499 -1.7616948 -1.1531218 -1.9569194
000340 6c 22 bb bf 14 2e 92 be 76 35 cf bf ca c8 f6 bf
       -1.461988 -0.2855078 -1.618819 -1.9280026
000350 fa d5 b4 bf 67 6f f7 bf 0a a8 8b bf ab f5 0e c0
       -1.41278 -1.9330872 -1.0910656 -2.2337444
000360 81 8c 8b 3d e8 dd ff bf 01 29 d6 bf 34 24 13 c0
       0.06813908 -1.9989595 -1.6731263 -2.2990847
000370 6c 5b 2b c0 10 ad 7c bf be a5 98 bf d3 a1 d7 bf
       -2.677455 -0.9870157 -1.192558 -1.684626
000380 74 61 3b bf 45 04 f5 bf 29 70 ed bf 7b 72 19 c0
       -0.73195577 -1.9141928 -1.8549854 -2.3976123
000390 ca c3 ed bf 1d e7 f0 bf 4c db f7 bf 95 52 c0 bf
       -1.8575375 -1.882053 -1.9363799 -1.5025202
0003a0 68 dd d7 be c9 c8 f2 bd 50 c0 9d bf 08 12 13 be
       -0.42161107 -0.11854703 -1.2324314 -0.14362347
0003b0 85 0e f3 bf 1a 5c cb bf 76 2d 6c bf 08 84 d3 bf
       -1.8988806 -1.5887482 -0.9225687 -1.6524668
0003c0 0a 18 fe bf e4 de c0 be d1 8e de bf 60 ba bb bf
       -1.9851086 -0.37670052 -1.7387334 -1.4666252
0003d0 27 64 17 c0 d4 fc b4 bf 2b 44 82 bf a0 cc a2 bf
       -2.3654878 -1.4139657 -1.0177053 -1.2718697
0003e0 84 64 e8 bf d4 87 f2 bf 16 7a 00 c0 84 1b 8d bf
       -1.8155675 -1.8947701 -2.0074515 -1.1024022
0003f0 2f 90 b8 bf b0 1b 63 be 43 50 ab bf 57 95 87 bf
       -1.4419001 -0.2217853 -1.3383869 -1.059245

fc2.weight f4 [256, 256]
000000 79 bb 97 ba 08 52 e9 bc 16 ee 7e bd 24 7c 3a bd
       -0.0011576257 -0.028481498 -0.062238775 -0.045528546
000010 cb 27 a2 bd 81 82 64 bd 26 0b 19 bc fb 1a aa 3b
       -0.07917746 -0.05578852 -0.009341037 0.0051912046
000020 bb b2 6d bd 39 eb 63 bd f5 fd b8 bd 8f a9 31 bc
       -0.05803178 -0.055644248 -0.090328135 -0.010843649
000030 db 27 a9 3b cc 0e 50 bc e9 3a 23 3c cb 1a 9e bd
       0.005162222 -0.01269884 0.009962776 -0.07719954
000040 a8 d2 64 3c 0f 56 81 3c 69 8b 64 bd 78 8e 71 bd
       0.01396624 0.015788106 -0.055797014 -0.05897376
000050 9c 81 80 3c f2 c4 8f bc ea 07 b9 bb 49 c1 8f 3c
       0.015686803 -0.017549966 -0.0056466954 0.01754822
000060 39 54 69 bd 43 95 0e bd c7 9a ac bd 4d f9 79 bd
       -0.056965087 -0.034810316 -0.08427959 -0.061028767
000070 c0 b9 39 bc 73 2d 28 bd 94 8e c6 3c 76 83 9d bd
       -0.01133579 -0.04105897 0.024237908 -0.0769109
000080 03 5d 53 bd 43 22 96 bc 49 28 3b 3b 67 ea 1d bd
       -0.051602375 -0.018326884 0.0028557947 -0.03855362
000090 e4 6e e0 3c 59 61 19 3d 32 56 b6 bc 73 94 ee bb
       0.027396627 0.037446354 -0.022257898 -0.00728088
0000a0 8d 4e 80 3c 3c 3b f2 3b 6e d8 ee bc ac 25 ff 3a
       0.015662456 0.007392315 -0.029155936 0.0019466183
0000b0 0c 93 a8 bd b7 19 99 bc 5c 2a 21 bd ff ab 8d bd
       -0.08231172 -0.01868902 -0.039347038 -0.06917571
0000c0 06 00 e3 bc a8 7a f5 3c 3a 51 b0 bc 0a 9b 46 bd
       -0.027709972 0.029965714 -0.021523107 -0.0484877
0000d0 71 7e 4f bd 7d d6 38 bd 26 19 48 bd e1 81 1d 3c
       -0.050657693 -0.045126427 -0.04885211 0.009613485
0000e0 5f 13 9a bd ff a7 7e 3b 80 8c bd 3a 34 99 c8 3c
       -0.07523226 0.0038857458 0.0014461428 0.024487115
0000f0 b8 85 8d bd 99 05 08 bd 34 6b b1 bd 97 35 18 bd
       -0.069102705 -0.033208463 -0.086630255 -0.037160482
000100 f4 42 9a bc d6 69 86 bd bf 01 48 3c 8c 2b 29 bd
       -0.018830754 -0.06563155 0.012207448 -0.041301295
000110 bd a2 4d bd 6d 7d 03 3c a6 f0 c6 bc 4b f1 85 3c
       -0.050204027 0.008025509 -0.024284672 0.016350409
000120 51 14 a1 bd 45 a6 84 bc 8a a4 6d 3c 2e 34 36 39
       -0.07865203 -0.016192565 0.014504561 0.00017376311
000130 37 9f a2 b9 54 12 21 bc a9 6d e1 bc 3f 7d 8e bc
       -0.00031017672 -0.00983103 -0.02751811 -0.017393706
000140 8c f7 56 bd 0f 5a 7e bd f9 56 3d 3d da 64 ed bc
       -0.052482173 -0.062097605 0.04622552 -0.028978754
000150 d9 52 2c bd 63 8c 76 bd 8a b0 8e bc d9 29 89 bd
       -0.042071197 -0.060192477 -0.017418165 -0.06697435
000160 cc bb 59 bd 5d 48 9e bd af f0 ff 3c 44 26 73 bd
       -0.053157613 -0.07728646 0.031242697 -0.059362665
000170 5b 8a 0f 3a 98 1e d9 bc ae 08 74 bc 51 d9 5d bd
       0.00054756337 -0.026503846 -0.0148946475 -0.054162327
000180 2f ff c0 bd 35 b9 30 ba 19 04 33 bd d9 cb af 3b
       -0.094236724 -0.0006741465 -0.04370508 0.0053648767
000190 d8 6d 67 bc c3 30 99 bd 5d 4b c9 bc 5a 93 0b 3c
       -0.01412531 -0.07480004 -0.024572069 0.008519018
0001a0 c8 28 64 bc 66 03 22 3c 58 55 1f 3c 15 dd 4b 3c
       -0.013925739 0.009888506 0.009724937 0.012442847
0001b0 ff b6 ae 3c 98 68 54 bd 6e 0e fe bc 61 a0 fd 3c
       0.021327494 -0.05185756 -0.03101274 0.030960264
0001c0 1c db 9a bc 16 e0 34 3d 4e 7f 8e bd 04 dc 4b 3b
       -0.018903308 0.044159018 -0.06957875 0.0031106481
0001d0 10 a6 a5 bc de c3 3d bd 80 b6 3b bb 3e 75 1d b8
       -0.020220786 -0.04632937 -0.0028642714 -3.7540907e-05
0001e0 18 97 73 bd 57 0e 93 3b f8 e4 f3 3c 34 e2 da bb
       -0.059470266 0.0044877934 0.029772267 -0.0066797975
0001f0 21 cd a4 bc 99 78 5b bd a8 94 88 bd 00 fd 22 3a
       -0.020117344 -0.053581808 -0.06668979 0.00062175095
000200 fd 33 f5 3c a7 a0 8a bd 7e 1b 88 3c a8 a0 6c bd
       0.029932017 -0.06768923 0.016614672 -0.0577704
000210 9d 12 12 3c 9e 10 00 bc d8 5f e5 bb 2a 6f cd bd
       0.008915571 -0.007816462 -0.006999951 -0.100309685
000220 38 ed e1 ba f6 39 d0 3c 0a 1d cc bc 12 5b 25 bd
       -0.0017236834 0.025418263 -0.02491619 -0.040370055
000230 3a 41 4d bd 58 a2 d9 bc 91 c4 31 3d 57 eb 87 3c
       -0.050111033 -0.02656667 0.04340035 0.016591711
000240 9c c3 1e bd 91 8a d4 ba ea 0e e4 bd 64 28 68 bc
       -0.038760766 -0.0016215612 -0.11135657 -0.014169786
000250 d3 75 15 3d 54 72 76 bd 40 fc 6c bc c2 51 76 bd
       0.03648932 -0.060167626 -0.014464438 -0.060136564
000260 46 cb 00 3d 93 6e 28 bd de f1 2f bd f3 39 8c bc
       0.031443857 -0.041121077 -0.042955272 -0.017117476
000270 2b 0d 39 3d ec e6 85 3d cc f6 5e 3c 7e 36 bb bc
       0.045178574 0.065381855 0.013608646 -0.022853132
000280 0a 67 1b 3d 0e 1d 84 bc 2c 5a b0 bd 0b 46 9d bc
       0.037940063 -0.016127136 -0.08610949 -0.019198438
000290 ad 7c 76 bd 6a 48 7b bd 72 72 62 3d d4 2c 3b bd
       -0.060177494 -0.061348356 0.055284925 -0.04569705
0002a0 b9 9b c1 3c 70 4b ba b7 7a d5 bc bc da 39 d5 bc
       0.023633825 -2.2208056e-05 -0.023051012 -0.026028562
0002b0 6b 71 e1 3c 92 91 4c bd 19 e8 46 3d 4b 80 93 bd
       0.027519902 -0.049943514 0.04856119 -0.07202204
0002c0 52 c8 b5 3a dc 65 27 bd f2 b5 e1 3c 8c 70 d4 bc
       0.0013868904 -0.040868625 0.027552579 -0.025932573
0002d0 b9 d8 89 bd 1d 14 0a 3d 99 09 04 bc cb a1 06 3d
       -0.0673079 0.033710588 -0.008058929 0.03286914
0002e0 9b f7 11 3d f0 3a 7c bd ae 5f 02 bd 80 ed dc bd
       0.035636526 -0.061579645 -0.03182953 -0.10787487
0002f0 30 7c 2f bd 0c b9 26 3d b8 7b b0 3c 57 96 f5 bc
       -0.042843044 0.04070382 0.021543369 -0.029978914
000300 bf 59 9f bc 0f 7a 54 bc 8a 28 61 bd 83 ec 72 3c
       -0.019451974 -0.012968554 -0.0549703 0.014826897
000310 fd d9 17 bc 2b 1f 79 bd 30 72 6f bd 83 da 3f 3d
       -0.009268281 -0.06082074 -0.058458507 0.04683925
000320 6b 5b 2c bd f4 2b 19 bc a2 8d 10 bd 84 a6 2d 3c
       -0.04207937 -0.009348858 -0.03529132 0.010598782
000330 98 8e 11 bc f2 16 ae bd a2 d2 07 bd 04 9c 02 bd
       -0.008884095 -0.0850047 -0.03315986 -0.03188707
000340 b7 d5 19 bd b1 6b 8b bd f8 b0 32 bd c8 42 2c bd
       -0.03755733 -0.0680765 -0.0436258 -0.042055875
000350 16 d3 3b bd 0b f7 ea 3c 80 0a 04 bd 42 f6 a9 bd
       -0.045855604 0.028682252 -0.032236576 -0.08298923
000360 ab 25 c9 ba 7f a0 36 bd 49 9d 8d bd ff 8c 8f bd
       -0.0015346309 -0.044586655 -0.069147654 -0.07009315
000370 88 23 30 bd af f5 0c 3d 3c 40 ee bc d9 ca 39 ba
       -0.043002635 0.03441399 -0.029083364 -0.00070874166
000380 c9 26 48 bd 2f a8 8d bd 12 36 9e bc 0a 9c 8b bd
       -0.048865113 -0.06916844 -0.019312892 -0.068168715
000390 c9 5e 8f bd 10 6b b4 bd 34 26 c4 3c 15 f3 d0 3b
       -0.07000501 -0.08809483 0.023943998 0.006376634
0003a0 a5 b0 59 bc 14 d5 01 bd 23 e6 ab bd 2b 41 98 3c
       -0.013286744 -0.031697348 -0.083935045 0.018585762
0003b0 7c 76 4d bb 94 00 02 3d 67 1e 44 bd 5c 8c 27 3b
       -0.003135114 0.031738833 -0.047880556 0.0025565838
0003c0 10 61 ad bd 47 97 24 bd 15 fe 5b bd 89 9c 92 bd
       -0.08465779 -0.04018333 -0.05370911 -0.07158763
0003d0 ff 85 64 bc 2c f8 84 bd 6f d8 8d bd 83 3f 4c bd
       -0.013947963 -0.064926475 -0.06926047 -0.049865257
0003e0 98 e9 32 3b b2 ab 3c bd 0c b7 3b 3c 93 b1 08 3d
       0.0027299877 -0.04606218 0.011457216 0.033372473
0003f0 51 a4 79 bc ee 56 3e 3b 27 3d ec 3c 58 41 e8 38
       -0.01523693 0.0029043513 0.028837753 0.00011074793

fc2.bias f4 [256]
000000 6d d2 20 bd c9 29 17 bf 7f 7b 88 3f 5d c2 15 3f
       -0.039263178 -0.59048134 1.0662688 0.584997
000010 a5 9c aa bd 2d 83 91 3c 18 6e 39 bd 01 f1 64 3f
       -0.08330659 0.017762745 -0.04527101 0.8943024
000020 7f 4c e3 3e 96 b9 f0 3e 26 88 6e bd b1 20 80 be
       0.443943 0.4701659 -0.05823531 -0.25024942
000030 cd a4 4f 3e 7e 49 01 bd 37 5b 80 bf 60 e4 04 bf
       0.2027771 -0.03156423 -1.0027837 -0.5191097
000040 18 e4 13 be 43 48 89 3f 33 47 dc 3e aa 3d a4 bd
       -0.1444248 1.0725178 0.4302307 -0.08019574
000050 5d a2 5d bf 03 c6 f0 bd bb 99 b5 3f 95 08 15 bd
       -0.8657587 -0.11756518 1.418754 -0.036385138
000060 ec c1 a9 bd 3f 0f 10 40 7b ba a2 3e 4d a8 30 3f
       -0.08288941 2.2509305 0.31782898 0.69006807
000070 e4 fa 63 be d9 8c 02 3e 1c dc 30 3f 8a 15 88 3f
       -0.22263676 0.12749042 0.6908586 1.0631573
000080 e7 05 3f c0 22 a8 c9 bf ee 05 1d 3c dd 4f a4 3f
       -2.9847353 -1.5754435 0.009583933 1.2836872
000090 de 8b b7 ba 8f 29 d7 3f bd d0 2b bd 96 bc 75 bd
       -0.0014003476 1.6809558 -0.041947115 -0.059994303
0000a0 9e 9c a0 bd 88 53 5e 3f f7 4e 07 bd 11 4b e7 bd
       -0.07842372 0.8684621 -0.03303429 -0.11293615
0000b0 fd d6 3c 3e b2 36 3d bf 85 74 1b bf 5d 02 f4 bd
       0.18441387 -0.73911583 -0.6072467 -0.11914513
0000c0 17 ca f9 be a4 df 75 bd ee f1 3e bf 22 ff dd be
       -0.48786995 -0.060027733 -0.74587905 -0.43358713
0000d0 41 b9 c7 be 25 02 46 bc 65 a2 ee 3e fe 63 60 bf
       -0.39008525 -0.012085472 0.46608272 -0.87652576
0000e0 28 d2 00 bf e9 54 1e c0 5e 0d a6 3e e4 49 80 bd
       -0.50320673 -2.4739325 0.32432073 -0.062640935
0000f0 0a db 76 bf 85 ce 09 bf 58 7c cf bf e5 6f 01 3f
       -0.9642798 -0.5383075 -1.6209822 0.5056136
000100 41 a0 81 bc 26 41 43 3d 8c 35 03 3f f0 02 ce be
       -0.015823485 0.047669552 0.5125358 -0.40236616
000110 09 01 23 bf 4c 2b f9 bc 20 56 82 bd 33 3a 15 3e
       -0.63673455 -0.030416153 -0.06364083 0.14572982
000120 ce 6b c0 3e 0e 7a c0 bd 8e c9 a9 be 69 38 b2 be
       0.37582248 -0.0939828 -0.33161587 -0.34808663
000130 d7 c1 8a bd ad 98 4d be 4b ab d0 3d 32 d8 e3 bd
       -0.06775253 -0.20077772 0.101889215 -0.1112522
000140 f4 1e 3f 3e 16 71 3c 3e d5 3b 38 bd d8 71 28 bf
       0.18664151 0.18402514 -0.044978935 -0.6579871
000150 89 1e 13 bf 5d 07 34 be 98 43 43 3e 9e c6 4a bf
       -0.5746847 -0.17580934 0.19068754 -0.79209316
000160 f6 0d 74 be d9 a1 27 be 27 f1 d9 3c f6 42 01 be
       -0.2383345 -0.16370334 0.026604248 -0.126232
000170 06 21 75 3f fc 77 b2 be 95 42 9d 3e 06 85 01 bf
       0.95753515 -0.34857166 0.3071486 -0.505936
000180 64 69 60 3e 4f 21 86 3f 99 1d 25 be 82 28 bd bc
       0.21915203 1.0478915 -0.16124572 -0.023090605
000190 11 67 5c bd fa cd 48 3f c4 c5 77 bf f4 aa 4b bb
       -0.05380923 0.78439295 -0.9678614 -0.0031077238
0001a0 cc 81 fb be 14 ec e7 bd eb 27 1d bd df 7d b5 3f
       -0.49122465 -0.11324325 -0.038368147 1.4179038
0001b0 2a fa 64 bd 49 3f 5e 3e bb f3 99 be af 16 b8 bf
       -0.055902638 0.21703829 -0.30068764 -1.4381922
0001c0 11 6d f9 bd 74 61 26 bf 5b a2 41 3f 0c 4f a3 3d
       -0.12179006 -0.6499245 0.7563836 0.07974061
0001d0 bd 82 43 3e 4b f2 8a be fd 78 a9 bd 7b 7a c0 bc
       0.19092841 -0.2713798 -0.0827503 -0.023495903
0001e0 73 96 84 3e b5 8f e7 bd c5 22 86 bd 3f 15 a5 3e
       0.25896034 -0.11306707 -0.065496005 0.32242772
0001f0 5a 58 8f be 0c 24 12 bd 10 ef aa 3e 5d 99 c7 be
       -0.27997094 -0.03567891 0.33385515 -0.38984194
000200 67 db 8d 3e c6 6f a4 3e 53 18 e7 3e 71 00 92 be
       0.27706453 0.32116526 0.45135745 -0.28515962
000210 66 bf 2e 3f 27 b8 00 3f 2d 30 c1 3f 57 9d 58 bf
       0.682608 0.50280994 1.5092827 -0.8461508
000220 68 06 52 3f 24 df 05 be ad bd c5 3f 64 37 f9 bc
       0.82041025 -0.13073403 1.544851 -0.03042192
000230 2b ed 25 be 0d 2a 96 be 5b 0d 43 bd 26 4b 15 3e
       -0.16203754 -0.29328957 -0.04762016 0.14579448
000240 c5 93 86 be 72 0c 56 bd 4f 0f cf bd 50 34 19 c0
       -0.26284614 -0.052257963 -0.10110342 -2.393818
000250 e9 34 f4 be 8b f8 00 bf ad 29 79 c0 a1 a4 4a bd
       -0.47696617 -0.50379246 -3.8931687 -0.04947341
000260 fd e8 b4 3f 0f e4 44 3e 9b 7d ff be 1a 74 1c bf
       1.4133602 0.19227622 -0.49900517 -0.61114657
000270 7f a6 a5 be 58 e3 49 bd c1 41 88 3f 96 aa 11 bf
       -0.3235359 -0.049289078 1.0645066 -0.5690092
000280 cf 64 70 bf 57 2c 16 3e 78 df a7 bd c3 55 46 bf
       -0.9390382 0.14665352 -0.0819692 -0.7747461
000290 ac fd 7a bd a2 92 29 be 60 b7 06 be b3 77 7c bd
       -0.061277077 -0.16559842 -0.1315589 -0.06163759
0002a0 2d b3 a7 bd e2 65 40 bf fc 90 4a 3f 4f 96 d1 be
       -0.08188472 -0.7515546 0.7912748 -0.4093499
0002b0 f2 26 cc 3d eb 6f ef 3e a4 b6 e7 3e bb 29 95 bd
       0.09968366 0.46765074 0.4525653 -0.0728335
0002c0 b6 bd c9 bd 60 dd 9e bf 1a c0 02 bd fc 71 8b bc
       -0.098506376 -1.2411308 -0.031921484 -0.017022125
0002d0 67 07 81 be da e2 25 bd 3c 29 cd be 77 9e c4 3d
       -0.2520096 -0.040499546 -0.40070522 0.09600537
0002e0 4d 47 a6 be 60 9e 86 bd 85 3a cb 3e aa d7 19 be
       -0.32476273 -0.065731764 0.39693084 -0.15023676
0002f0 3c 07 51 3f 6f a5 97 be 9b a0 da be 13 ff 13 bf
       0.81651664 -0.29618403 -0.42700657 -0.5781109
000300 88 bb 09 be ec 5f 25 be 76 ea 24 bf 05 f4 49 bd
       -0.13450444 -0.16149873 -0.6442026 -0.04930498
000310 c5 33 25 bd 2b 92 a4 bd 1e b9 00 c0 00 9f 4d be
       -0.040332574 -0.08035692 -2.0112987 -0.20080185
000320 ad 61 70 bf 8c b0 a2 bd 31 f4 8c bd d2 54 96 3e
       -0.9389904 -0.0794383 -0.06882513 0.29361588
000330 98 ee 74 bf 54 b2 03 be 1d 7a bd bd c0 1a 94 3f
       -0.95676565 -0.12860996 -0.09251807 1.1570663
000340 dc 98 e5 bd 43 87 18 bf 6f 89 cc bd 6b 54 a3 bd
       -0.11210796 -0.59581393 -0.09987151 -0.07975086
000350 fc cb d5 be da 53 45 bf 95 19 f6 bc 9f 36 b2 bd
       -0.4175719 -0.7708107 -0.030041495 -0.087018244
000360 c3 af 2e be 4e 9e 17 be 8c b7 d2 3e 9a c1 94 bb
       -0.17059235 -0.14806482 0.4115566 -0.0045396807
000370 9f 3b 1d bf 30 b5 8b 3e b8 f1 47 bb 52 2c 52 3f
       -0.614191 0.27286673 -0.0030509066 0.8209888
000380 eb 69 b2 bd e9 29 3f be fd 02 32 3f 66 ae 81 bf
       -0.087116085 -0.18668331 0.6953581 -1.0131347
000390 84 33 12 bd 41 e5 1b 3f e0 f9 ff 3d ec 0a a8 be
       -0.03569366 0.6089669 0.12498832 -0.32820833
0003a0 de 40 ca be 41 e9 4a bf 75 fd 81 3e 18 39 23 bf
       -0.39502615 -0.7926217 0.25388685 -0.63758993
0003b0 66 36 d6 bf 35 9f 2a bf cc 3a c0 3f 16 8c 6c 3e
       -1.6735351 -0.6664918 1.5017943 0.23100314
0003c0 31 7c cd 3e f9 f5 2e bd 8a 3d 21 c0 7d 3b 6e bf
       0.40133813 -0.042715047 -2.519381 -0.9305952
0003d0 98 3c 81 bc f3 62 65 c0 d3 72 50 bd d8 0a 15 3f
       -0.015775964 -3.5841644 -0.050890755 0.5821967
0003e0 73 82 cf 3e 7e 93 f4 be 6f 79 39 be 6f 06 e6 bc
       0.40529212 -0.47768778 -0.1811273 -0.02807924
0003f0 a8 8f e4 be fa 80 3d bd 20 9d 34 3f 76 2a 15 3f
       -0.4464085 -0.04626558 0.70552254 0.58267915

fc3.weight f4 [256, 256]
000000 56 89 61 3d 9b 09 77 be af 73 ab 3e 70 3f 8a be
       0.055062614 -0.24124758 0.33486697 -0.27001524
000010 14 a3 79 bd 92 92 e9 3e b1 13 07 39 ef 61 c6 be
       -0.06094654 0.45619637 0.00012881939 -0.38746592
000020 50 0e 6d be 30 0f 8b bc b7 be 55 3b d8 24 03 be
       -0.23149991 -0.016975015 0.0032614896 -0.12807024
000030 db 8f a2 3d 17 59 d6 bb c8 10 38 bf b1 9e 2a 3d
       0.079375945 -0.006541382 -0.71900606 0.041655246
000040 f1 f7 9d 3c a0 0c 10 be fb 3f 24 bf 4c d0 52 bd
       0.019283267 -0.14067316 -0.64160126 -0.05146818
000050 c9 10 09 bf 9b 02 a4 3c 13 b2 16 bf 42 b9 60 3b
       -0.5354124 0.020020774 -0.5886547 0.003429011
000060 db e0 70 bd 6c 53 72 bf a5 ff 54 be 4c 25 92 be
       -0.05880819 -0.9465854 -0.20800646 -0.2854408
000070 1c d7 0a bf 8f 9e 82 bf 37 14 da 3d e9 04 91 bf
       -0.5423448 -1.0204638 0.10648387 -1.1329623
000080 36 c6 b4 bf d0 78 45 bf 17 15 db be 89 47 03 be
       -1.4122989 -0.7713747 -0.42789528 -0.12820257
000090 94 4b 67 3d ac 92 19 3e 39 e7 83 be aa 7e 3d 3d
       0.05646856 0.14997357 -0.25762346 0.046263374
0000a0 1a 53 c2 be f7 4f 28 bf 8d 47 00 bd af 69 44 3b
       -0.37954026 -0.65747017 -0.031318236 0.002997022
0000b0 73 53 15 3f 3e ab 5c 3b 00 fe 18 3e 57 2a 95 be
       0.5833046 0.0033671404 0.14940643 -0.29133865
0000c0 b6 91 fc be f4 fd 77 bd 8e 5b e7 be 98 de 12 bf
       -0.4932992 -0.060544923 -0.45187038 -0.573709
0000d0 6d 5b b0 3d b9 18 4a 3d 5a 4c d3 be 62 6f 75 be
       0.08611188 0.049339984 -0.4126919 -0.2396827
0000e0 72 93 28 bf 27 f5 c5 bc 15 6d fe bd b8 21 80 3d
       -0.65849984 -0.02416475 -0.124231495 0.06256431
0000f0 98 f6 06 bf 84 2c 90 3e 1d 4d c6 be 27 eb d9 be
       -0.5272002 0.28158963 -0.38730708 -0.4256222
000100 0a dc 07 bd bd 89 22 3d d9 9e ea be 82 5a f6 be
       -0.03316883 0.03968214 -0.45824316 -0.48115927
000110 b6 bb 41 be ee 6c 86 bc bb 71 83 bb b4 ac dc 3e
       -0.18919262 -0.016409364 -0.0040113605 0.43100512
000120 b1 6f bf be 39 da 2e bb 76 9e 7a be 9a 5b ce bd
       -0.373899 -0.0026680364 -0.2447451 -0.10076065
000130 a0 4b 55 bc 27 6b 5e bf f4 15 c8 3e be e5 0f be
       -0.013018519 -0.8688225 0.3907925 -0.14052483
000140 c6 31 d5 3d bf 1a 12 bd 04 50 c7 bc 0b 1a 3d be
       0.10409884 -0.03567004 -0.024330147 -0.18466966
000150 0c 8d e3 be 7c 82 0f bd 72 25 c8 be 4f e7 96 3d
       -0.44443548 -0.03503655 -0.39091069 0.07368337
000160 5b 85 73 be 9a 5a 29 bd 69 40 0b be e1 86 05 3d
       -0.2378134 -0.04134617 -0.1359879 0.032599334
000170 9b 5c ce be fc e0 9a bd 03 6f 08 3e 7c 16 24 bf
       -0.40305027 -0.075624436 0.13323598 -0.6409681
000180 7d 95 9a bf 11 aa b2 bc 53 6d ef 3b b1 be 18 3d
       -1.207687 -0.02180961 0.0073067336 0.037291232
000190 32 34 a6 bc 19 42 fe be 97 35 18 be 4d 0e 33 3e
       -0.02028856 -0.49659804 -0.14864193 0.17485924
0001a0 97 8e 89 bf 3c 9a b9 3c ac 32 51 bd 0e 02 ca be
       -1.074664 0.022656552 -0.051073715 -0.39454693
0001b0 0a c3 1c bd bf 08 83 bf 4c ce 81 be b2 7f 0b 3e
       -0.03827194 -1.0237044 -0.25352705 0.1362293
0001c0 4a b9 a4 3d c5 fc d5 3d 17 28 90 3e b1 fe 4c 3e
       0.080431536 0.104486026 0.28155586 0.20019032
0001d0 46 b6 e6 be e7 ee 44 be fc 51 49 bd 35 6d 41 bc
       -0.4506094 -0.19231759 -0.049150452 -0.011805822
0001e0 dd 1d 8f 3e 7d 87 20 3d b4 24 b9 3c c3 e1 2f bf
       0.2795247 0.03919171 0.02260051 -0.6870386
0001f0 25 af a1 be 4c 57 2a 3d 97 44 e3 be 74 a4 7b bd
       -0.31578937 0.04158716 -0.44388267 -0.06143613
000200 90 99 a3 3d ba 7d d7 bd c3 40 22 3f 0e 44 19 be
       0.07988274 -0.10522027 0.6338007 -0.14967367
000210 49 a1 18 be df 6a 9b 3b 95 d1 23 3e ab 93 a9 be
       -0.14905275 0.0047429646 0.15997918 -0.33120474
000220 4a eb cd 3c d0 f1 27 3d 83 18 61 be 16 67 72 3d
       0.025136609 0.041002095 -0.21982007 0.05918034
000230 3b d1 07 be 71 a6 c2 be 37 6a 16 bd f2 e1 f8 be
       -0.13263409 -0.3801761 -0.036722388 -0.48609883
000240 52 90 ad 3c a1 e3 25 3c 83 2c 20 3e 91 7f 63 bf
       0.021186981 0.010125072 0.1564198 -0.88866526
000250 dd 10 ee 3e de 9e ff be 96 5b fd bf 0a 89 4a bd
       0.4649724 -0.49925894 -1.9793575 -0.049447097
000260 0e 0d 8b bf a8 45 18 bc ba 7d 14 3f 21 13 15 3f
       -1.0863359 -0.009293951 0.58004344 0.58232313
000270 2b 4f 72 be 74 dc 51 3b 1e 92 f5 be 08 c0 e5 bf
       -0.23663013 0.003202227 -0.4796304 -1.7949228
000280 5a 21 32 be d7 24 2b bf e1 5d fb bc 54 f5 a0 be
       -0.17395535 -0.6685309 -0.030684413 -0.3143717
000290 11 32 00 3c 8a 10 10 bf 68 d5 85 3d 8e 5c 84 3c
       0.007824437 -0.56275237 0.06534845 0.016157415
0002a0 1d b5 b2 bc eb 5e d9 be 25 4b 2e 3f b3 77 8e 3e
       -0.021814877 -0.4245523 0.6808341 0.27825698
0002b0 69 f7 71 bd e5 bd 32 bd 5e 1c d1 be 31 0f 2a 3d
       -0.05907384 -0.04363813 -0.40841955 0.041518394
0002c0 6a d6 6c 3d 54 cc 46 bf a9 8f 4c 3b 0b 33 bd bb
       0.05782167 -0.7765553 0.0031213558 -0.005773907
0002d0 59 c0 bf be f2 15 28 3d 9f 33 2b 3d ea 3e ef 3d
       -0.37451437 0.041036554 0.041797277 0.11681922
0002e0 68 b8 f6 be 67 58 17 bd f3 9b 07 3e 71 4a 39 be
       -0.48187566 -0.03694954 0.13243084 -0.18094803
0002f0 7e d6 06 be 3d 96 28 3d 51 99 18 be ee 89 a3 be
       -0.1316776 0.041158903 -0.14902236 -0.3194117
000300 6f fa 8a bd f0 a5 e9 be db bc 7b 3e 93 c0 05 bd
       -0.06786048 -0.45634413 0.24583761 -0.032654356
000310 54 6c 5e 3c a5 e0 35 3d cb a1 ea 3d 2a c0 2a 3f
       0.013575632 0.04440369 0.11456641 0.6669947
000320 77 15 9c be bb 1e 18 bb 0a 41 35 bf 81 c2 e8 be
       -0.30485126 -0.0023211676 -0.70802367 -0.45460895
000330 39 e7 00 bf 1e 5f 60 3e ea 1d af 3d b1 84 08 bf
       -0.5035282 0.21911284 0.085506275 -0.5332747
000340 0b c3 34 3d 9b 8f 94 be f2 c1 1b bc 18 0a 33 3d
       0.04413132 -0.29015812 -0.009506689 0.043710798
000350 57 be db bd ee 17 e1 be b1 23 09 3d 3e 93 7a 3c
       -0.10729664 -0.4396357 0.033481304 0.015293894
000360 38 fd 9a 3e 83 bd b3 bc e2 a6 61 be 46 fb e2 3c
       0.30271316 -0.021940952 -0.22036317 0.027707707
000370 7c 3c e0 3e f9 bc b8 3d 53 09 5b 3d 9f 26 28 3d
       0.43796146 0.09020419 0.05347569 0.041052457
000380 b3 3f 29 3c 27 ae 12 bf cb 7f a0 3c 44 63 8c bd
       0.0103301285 -0.57296985 0.019592186 -0.06854871
000390 4c 4c c3 38 6a 7c 89 be 0c 68 a6 bf 27 60 85 3a
       9.312536e-05 -0.26852733 -1.3000503 0.001017575
0003a0 b0 75 22 bf a9 7b a1 bd c9 7d d1 bf 46 97 d5 be
       -0.63460827 -0.078849144 -1.6366512 -0.41716975
0003b0 e4 4f 98 be c7 16 34 bd bd 5c 61 be d2 da 8a be
       -0.29748452 -0.043967035 -0.22008033 -0.27120072
0003c0 68 00 da be fd e0 1b 3c 85 fc 5f 3e f8 99 e8 3d
       -0.42578435 0.009514091 0.21873672 0.11357492
0003d0 0a 6b 37 bd 09 ec 87 bf 83 d2 d9 3d f4 bc 1f be
       -0.044779815 -1.0618907 0.10635855 -0.15599424
0003e0 83 47 51 3f e2 8e 97 3e 23 40 bf 3e 45 71 4d bd
       0.81749743 0.29601198 0.3735362 -0.05015685
0003f0 98 74 a0 bc f4 50 e2 3b 84 40 a4 3e d4 12 05 bf
       -0.019586846 0.006906623 0.32080472 -0.51981854

fc3.bias f4 [256]
000000 3f da 88 be ba 95 62 bd 2f 0a d7 bd 43 f8 e0 3e
       -0.2672901 -0.05531857 -0.10499989 0.4393941
000010 c0 48 7e 3f c6 59 67 3e ec a0 b0 3e 1a aa 25 bd
       0.9932976 0.2259284 0.34497774 -0.040445425
000020 85 45 3e bf c9 5e 8a bf f4 a2 35 3e b3 9e 92 bf
       -0.7432483 -1.0810176 0.17737943 -1.1454681
000030 f7 6c b8 3e f2 b5 2e bf b1 aa 97 be 0e d5 02 3f
       0.36020634 -0.68246377 -0.29622415 0.51106346
000040 92 36 f7 3c f1 7b 3d 3e 85 94 ed be 98 82 04 40
       0.030177388 0.18504311 -0.46402374 2.0704708
000050 6e f3 43 bf 14 f7 87 be a4 53 9a be 36 e2 08 bf
       -0.7654332 -0.26555693 -0.30141938 -0.5347017
000060 ee 74 8c 3e 03 df 29 be e3 b7 f9 be e4 77 15 40
       0.2743296 -0.16588978 -0.48773107 2.3354425
000070 c0 cf 59 bf 23 77 59 bf b3 64 34 bf a6 07 fa be
       -0.85082626 -0.84947413 -0.70466155 -0.4883396
000080 5f 9f 8a be b7 ef 64 3f e8 e8 02 be 39 65 93 b9
       -0.27074715 0.89428276 -0.12784159 -0.00028113442
000090 cd df 3d bf 06 de ce 3e ea 62 e9 be ed ae cd 3d
       -0.7416962 0.40403765 -0.45583278 0.1004313
0000a0 bb 8c 9a be 79 46 ca bd 17 fe dc bd 86 35 a2 3e
       -0.30185494 -0.09876723 -0.10790651 0.3168146
0000b0 43 19 9e bd 98 07 3f 3f e6 55 75 bf 3d 85 44 bf
       -0.07719662 0.7462096 -0.95834196 -0.76765805
0000c0 e8 8d 82 3e 65 c5 17 be 3b 7b 1a 3d a0 1d 9c bd
       0.2549889 -0.14821394 0.037715178 -0.07622838
0000d0 9b 08 23 3e 36 26 e4 3d 57 a9 a8 be df c4 b8 be
       0.15921251 0.11140101 -0.32941696 -0.360877
0000e0 29 8a 00 bc e6 9c 5f bf 1e a4 13 bf d5 85 30 bf
       -0.00784544 -0.87348783 -0.576723 -0.6895421
0000f0 43 68 e2 3d 8e a1 a2 be c6 d1 73 be ac e6 10 bd
       0.110550426 -0.3176388 -0.23810491 -0.035376236
000100 ce 1c 30 3f e6 83 b6 be 29 86 2b bf 80 d6 1a 3e
       0.6879395 -0.35647506 -0.6700159 0.15120888
000110 e7 3b fd be 96 55 a8 be 66 f0 d2 3e 9d 6e d5 3e
       -0.49459764 -0.32877797 0.41199034 0.41685954
000120 ed 67 51 bf 71 4e 45 bf c8 35 25 bf 38 e6 c3 be
       -0.81799203 -0.7707282 -0.6453519 -0.3826158
000130 73 f3 24 bf f6 f0 89 3d b7 3e ba 3d f3 26 b1 be
       -0.64433974 0.06735413 0.09093993 -0.34600028
000140 28 4b e2 be 60 3c 12 bf 34 43 49 bd cb ff 13 be
       -0.44197965 -0.57123375 -0.049136356 -0.14453046
000150 ff 06 45 bf 19 3b cf be 59 dc 9a be 74 34 07 bf
       -0.769638 -0.40474775 -0.30246237 -0.5281441
000160 ac 06 e3 bd e4 14 f4 3e 17 e3 2e 3e c7 bc c2 bd
       -0.11085257 0.47672188 0.17078815 -0.09508663
000170 f6 7f 6a bf 8d cd 8d 3e 66 e3 00 bf ac ba 35 3e
       -0.916015 0.27695885 -0.5034698 0.17746991
000180 02 2c 55 3f 46 c1 f7 be d1 53 67 be 31 9a 09 bf
       0.83270276 -0.48389643 -0.22590567 -0.537509
000190 06 6d 4e be 55 4f e1 be c2 ad ed be ac b6 39 be
       -0.20158777 -0.44005838 -0.4642163 -0.1813609
0001a0 79 4d 01 3e 38 06 1e 3f 97 db 09 3e ce 4c 36 be
       0.1262721 0.6172824 0.13462673 -0.17802736
0001b0 34 e8 4b be e7 53 b7 be 9f 6f d9 3e 27 f2 4d be
       -0.19912797 -0.358062 0.42467973 -0.20111905
0001c0 10 1f e2 be 2a 7c b4 be ff d5 73 bd 89 77 ab be
       -0.44164324 -0.3525098 -0.059530254 -0.33489636
0001d0 b7 b7 7a 3e 13 dc 2e 3e da c0 04 3f 6d 46 8c be
       0.24484144 0.17076139 0.5185677 -0.2739748
0001e0 22 e0 4c 3e cd f2 45 bd 35 a5 b9 be 00 24 81 bf
       0.20007375 -0.048327256 -0.36258855 -1.0089111
0001f0 88 b1 1c bf 96 fd 3f 3e 8f 49 3f bc 56 6e e8 3e
       -0.6120839 0.18749079 -0.011675253 0.4539668
000200 bd 32 37 be 35 f9 9c be c8 59 43 be 7c 09 e5 3d
       -0.17890449 -0.3065888 -0.19077218 0.111834496
000210 ce 46 97 bd ac e8 02 bf 9a 26 c0 3e f0 d9 9d 3e
       -0.07386552 -0.5113628 0.3752945 0.30830336
000220 57 87 c1 be 96 8f 0a be be 88 f5 be 13 3d 8b bf
       -0.3779857 -0.13531336 -0.47955889 -1.0878013
000230 8d ef b4 be 9d 87 2e be 0c e7 01 3f 76 6f a9 bd
       -0.35339013 -0.1704392 0.50743175 -0.082732126
000240 4a a3 22 3e f5 7c 52 be 3d f1 19 be b5 aa 17 3e
       0.15882602 -0.2055548 -0.15033431 0.14811213
000250 ba 9b 1a 3e a3 22 96 be 11 b3 fa bd f9 e9 f3 3f
       0.15098467 -0.293233 -0.122411855 1.9055778
000260 97 b9 fb bd e7 d7 3a 3f 4a c2 2f 3f 28 2f 03 be
       -0.12291258 0.7298569 0.68655837 -0.12810957
000270 e9 0c 39 3f 4b 8b 85 3e bd 90 9d 3d 82 b6 d8 be
       0.72285324 0.26082835 0.07693622 -0.42326742
000280 80 16 42 bf ea b8 fb bb b5 0b 49 3f 0e 08 db bd
       -0.7581558 -0.0076819556 0.7853349 -0.10694896
000290 5d a3 58 3d 87 44 30 3e 6a 64 4c be de fd 74 be
       0.05289017 0.17213641 -0.1996018 -0.23924968
0002a0 43 6e 09 3e 9d 12 9d bf cc c5 51 3e 43 79 a1 3e
       0.13420968 -1.2271305 0.2048561 0.31537828
0002b0 31 d2 e5 be 09 81 60 be eb 56 70 3f d3 41 84 3c
       -0.44886926 -0.21924223 0.93882626 0.016144669
0002c0 bf c7 d2 3f d7 30 64 be f8 91 46 bf 49 be b4 bd
       1.6467208 -0.22284256 -0.7756648 -0.088253565
0002d0 a0 9b d3 bc 8b 7c 6c 3f db ec de 3d 25 84 3b be
       -0.025831044 0.9237754 0.1088502 -0.18312128
0002e0 1e c7 33 bf 40 89 2e bf c9 a7 e4 be 2c dc d8 be
       -0.70225704 -0.68178177 -0.4465926 -0.42355478
0002f0 64 1d 9c 3e d3 c0 46 bd 86 b7 2f bf 4b 9d c1 bd
       0.30491173 -0.048523735 -0.6863941 -0.094538294
000300 58 fb 7c 3e ff 60 87 3e c3 14 98 bd b2 6d 91 be
       0.24705255 0.2644119 -0.07425835 -0.28404003
000310 97 d4 7a bc e3 17 ca be 38 4e 30 bf a2 e2 67 be
       -0.015309474 -0.3947135 -0.6886935 -0.22645047
000320 1f 34 0d bf 0c 8e 36 bf 6b e7 39 3f 0e 74 fd be
       -0.55157655 -0.71310496 0.7261874 -0.49502605
000330 eb 55 f2 bd 45 2c 06 bf 56 87 11 be 97 f0 cd be
       -0.11832794 -0.524113 -0.14211783 -0.40222618
000340 54 a8 c7 be 27 92 91 3f 9c 9e 84 3e e8 84 4c 3e
       -0.38995612 1.1372727 0.2590226 0.19972575
000350 78 9b 14 be 1c e1 3f 3e 1e e8 b8 bd 32 23 8e be
       -0.14512432 0.18738216 -0.09028648 -0.27761227
000360 a5 3e bd be 15 10 ba be 67 f4 99 3e 9d e6 5a 3f
       -0.36961856 -0.36340395 0.30069277 0.8550814
000370 1f 08 1f bf 46 55 9a bd 83 11 93 3c 07 bb f6 3f
       -0.62121767 -0.07535796 0.017952686 1.9275826
000380 b7 6b ed be 2b bb 61 bf b0 07 2c 3e c7 7a e6 be
       -0.46371242 -0.8817622 0.16799808 -0.45015547
000390 c0 af 4b bf 2b 5c ea be 08 39 69 3c f1 b9 e9 bd
       -0.7956505 -0.45773444 0.014234789 -0.11412419
0003a0 4f 1a d5 3d 37 62 c9 be 93 5e fa be 96 96 01 bf
       0.104054086 -0.39332744 -0.4890028 -0.506204
0003b0 0c 45 e1 bc 97 a1 d1 3d 15 cd ed be e8 2f 27 3e
       -0.027498744 0.10235899 -0.46445528 0.16326869
0003c0 3f c3 87 bd 7a b1 c1 bc f5 fe 2c be 17 33 31 bf
       -0.06629037 -0.023644198 -0.16894133 -0.6921858
0003d0 0c 5e 07 bd 0e 95 76 bc 81 73 ca 3e 58 05 02 bf
       -0.033048674 -0.015050186 0.39541247 -0.50789404
0003e0 d3 7e e3 be bf 8c 92 be 74 72 1a bf 7a b6 29 be
       -0.44432697 -0.28623006 -0.6033089 -0.16573516
0003f0 34 75 58 bf 0a 55 74 be 18 e8 49 be 76 80 e9 bd
       -0.8455384 -0.23860565 -0.19717443 -0.11401455

action_out.weight f4 [4, 256]
000000 0c 45 1d bd d4 e0 de be 12 05 21 3e 97 a6 84 3b
       -0.038395926 -0.43530905 0.1572459 0.0040481794
000010 dd 40 95 3d 34 90 46 39 62 c7 52 3d 57 c9 3c 3d
       0.07287762 0.00018936471 0.051459678 0.04609045
000020 98 0f 1a be f9 84 9c 3e e6 de 92 bd 04 ba 34 3f
       -0.15045011 0.305702 -0.07171421 0.7059634
000030 ec a8 3d bd a6 02 5f 3e 53 86 86 3d 97 ca a5 bd
       -0.046303675 0.21778354 0.06568589 -0.080952816
000040 40 04 9c 3c 16 14 f3 3b 1e 2d 22 3d 22 9e 58 3d
       0.019044995 0.007418166 0.03959381 0.052885182
000050 57 8f 83 3d f9 e9 25 3e 38 39 37 3f e4 2d a0 be
       0.06423824 0.16202535 0.71571684 -0.31285012
000060 a0 f0 b3 3d 64 44 75 3e 47 55 a7 bc af d1 1b 3e
       0.0878613 0.2395187 -0.020426406 0.15216707
000070 d3 92 3b 3f 29 8d 63 3f 74 0d 06 3e 23 0a d1 3d
       0.7327091 0.8888727 0.1309107 0.102070116
000080 48 85 6e bd d3 e2 9b bc bf 3d 10 bb 40 03 c5 3d
       -0.058232576 -0.019029057 -0.002200946 0.096197605
000090 e4 28 23 3e 89 5c b9 3d be 1d e7 bd ab 28 2b 3e
       0.15933567 0.09050853 -0.1128497 0.16714732
0000a0 a3 f1 bc 3e 1a 97 a8 3c 7e 38 34 3d 19 bb a8 bc
       0.36903104 0.020579863 0.043999188 -0.020597028
0000b0 bc 76 94 3e fa 07 d5 bd 2e 6d 37 3f 7f 73 84 bd
       0.28996837 -0.10401912 0.7165097 -0.06467342
0000c0 92 4a 8c bd e1 70 8f 3d 5b be 14 3f 1c 2a a3 3e
       -0.06850161 0.07003952 0.5810296 0.31868064
0000d0 0a 0d 44 be 5f 9f 4c be 60 d7 96 3e d4 6a 25 bd
       -0.19145599 -0.1998267 0.29461193 -0.040385082
0000e0 e9 10 8a bd 58 7b 46 be 7c 20 56 3d db a2 fe 3e
       -0.067415066 -0.1938299 0.052277073 0.49733624
0000f0 e4 51 ce bd ab 5f 0c 3f 7e 7f 46 bd 03 b7 ba bd
       -0.10074213 0.5483348 -0.04846143 -0.09116938
000100 52 16 7a 3c 85 b0 1f bf 08 5c 63 3e d0 03 5a bd
       0.015264111 -0.6237872 0.22203076 -0.053226292
000110 20 2c fa bc e1 bc 50 be e3 53 00 3e d5 1a 87 bd
       -0.030538619 -0.20384552 0.12532 -0.06596915
000120 a2 30 0d be 76 13 60 3d d3 91 99 bd a5 dc 3c 3d
       -0.13788083 0.05470606 -0.07498517 0.04610886
000130 a5 16 4d 3d b2 7d f0 3f cb ce 07 3f fc 2b b1 3d
       0.050070424 1.8788359 0.53049916 0.086509675
000140 7e 13 0f be aa 35 03 bf cd 22 aa bd 6a c4 45 be
       -0.1397228 -0.5125376 -0.08307419 -0.19313207
000150 c6 00 11 3d e4 f2 0b be 35 22 d5 bc a9 70 f2 3e
       0.03540113 -0.13666874 -0.026017288 0.47351578
000160 93 de aa 3d b4 34 81 bd ad 96 eb 3d 90 38 b7 3d
       0.08343234 -0.063088804 0.115033485 0.08946335
000170 a8 af 1e bf d0 f6 e6 bd ce 3c b3 bd a4 bd 6a bd
       -0.6198678 -0.112775445 -0.08751832 -0.05730976
000180 ac 1d d0 3e b9 c4 e3 bd f9 21 c9 3e 46 75 9f 3d
       0.40647638 -0.11121506 0.39283732 0.0778604
000190 ca c0 fc 3c 16 53 a0 be 82 df bc bc 33 33 42 bd
       0.030853648 -0.3131339 -0.023055796 -0.04741211
0001a0 40 09 66 be 12 8e 36 bc d0 9e dd 3e b4 a6 fd 3f
       -0.22464466 -0.011142271 0.43285227 1.9816499
0001b0 48 ff 53 bc 93 6f 92 3d ad a3 3a bc 4c af 8c be
       -0.012939282 0.07150187 -0.011391562 -0.2747749
0001c0 97 14 55 bd fa 86 b1 3c 91 27 73 3d 47 f6 01 be
       -0.05202159 0.021670807 0.059363905 -0.12691604
0001d0 06 a3 3e 3f 92 96 6b 3c 4b dc 3e 3b 1d da 68 bc
       0.74467504 0.0143791605 0.0029123004 -0.0142121585
0001e0 f9 ab db bc a6 d7 81 3e 3a 40 6b 3e b7 5f a7 3d
       -0.026815401 0.2535984 0.22973719 0.08172553
0001f0 c5 58 63 be d0 33 03 3d dd 98 bc 3e e8 be 9c bd
       -0.22201832 0.032031834 0.36835375 -0.076536
000200 df 4b 48 3c bd 5e 3b be 05 36 0e 3e 67 8e f3 3a
       0.01222512 -0.18297859 0.13887794 0.0018581868
000210 d7 80 a7 3d 27 80 27 3e 9b 44 8f bd be d7 de 3b
       0.08178871 0.1635748 -0.06995507 0.006800621
000220 24 96 bd ba 9e a6 fd bc 54 b0 2c 3c 3e b1 50 3f
       -0.0014464301 -0.030963238 0.010540087 0.8152045
000230 68 d7 05 3e 65 b0 be bd 8f 69 a7 3d fc 18 76 3e
       0.13070452 -0.09310988 0.081744306 0.24032968
000240 39 af a0 bc 58 0b 83 3d 26 bd 73 3d d5 84 72 3c
       -0.019614803 0.06398648 0.059506558 0.014802177
000250 81 a4 dd 3d e0 27 99 3d 53 32 2d bd a0 82 da 3d
       0.10822392 0.07478309 -0.04228432 0.10669446
000260 36 24 60 3d bd 31 25 be 23 62 f8 3b 6f 8e a9 3d
       0.054722033 -0.16132255 0.007580058 0.0827912
000270 ce 12 8c 3d 17 91 a7 3c 61 0d 5a bb 02 3d 37 bc
       0.06839524 0.020454926 -0.0033272135 -0.011183979
000280 45 67 ab 3e 4f 53 23 be 81 9d 5c bd 2b 38 0c be
       0.33477226 -0.15949748 -0.053861145 -0.13693301
000290 ab ad ed bb cb 74 dd bd 92 cb 35 bd 93 a8 01 3c
       -0.007253369 -0.10813292 -0.044383593 0.007913726
0002a0 96 bc 5e 39 5e ae 81 3d 9f 3e 24 bf 9a 80 0f be
       0.00021241824 0.06332086 -0.6415805 -0.14013901
0002b0 4f 32 22 be 8e 0f ac bc a5 97 4a 3c 70 93 2d 3f
       -0.15839504 -0.02100351 0.012365256 0.67803097
0002c0 bc 2d 29 3e d9 ed 9b 3d 38 7d d2 bb 5d 72 7c 3b
       0.16521353 0.07613725 -0.0064236186 0.0038520314
0002d0 02 c0 48 be 70 5e 0e 3d 06 f2 bc bd 88 90 17 3c
       -0.19604495 0.03475803 -0.0922585 0.0092507675
0002e0 6a 2b c1 3b c1 fd c7 bd 91 c6 1f 3e e6 a1 92 bd
       0.005895068 -0.097651966 0.15603091 -0.07159786
0002f0 95 57 58 be fb fe a0 bd 6e 21 ee bc b4 fd 41 3f
       -0.2112716 -0.07861134 -0.029068675 0.75777745
000300 d6 ce 12 3d 7c c3 1f be 2e fa 3b be 53 cf 1b be
       0.035841785 -0.15601915 -0.18357155 -0.15215807
000310 9e 19 f6 bd 7e 86 bd 3c 33 84 80 3e eb ce 9b 3e
       -0.12016605 0.02313542 0.2510086 0.30431303
000320 11 b6 32 3f 04 85 cb 3d 95 0b b2 3d 96 ea bb bd
       0.6980906 0.0993748 0.08693615 -0.09175603
000330 1b c3 43 3e 25 d2 5c bd 91 f6 16 bd 8f 1f 3e 3e
       0.19117396 -0.053911347 -0.036856238 0.18566726
000340 94 4f ef 3e 64 6f f2 3c 6b a7 9e 3d dc 67 15 be
       0.467404 0.02959413 0.07746776 -0.145904
000350 86 7b 00 3e 1e c1 0d bd 00 da b6 3e b7 a8 ca bd
       0.1254712 -0.034608 0.35713196 -0.09895461
000360 c7 31 de bd 7c 6c c8 be 11 59 a1 bd d3 3f 64 bc
       -0.10849338 -0.39145267 -0.07878316 -0.0139312325
000370 5c 0d 96 3d e8 09 d5 bd 85 e2 9f bd 66 ef e7 3d
       0.07326767 -0.1040228 -0.07806877 0.113249585
000380 4f db 19 3f 4b c0 96 bc 7a 65 57 be ea 52 1f 3f
       0.60100263 -0.01840224 -0.21034804 0.6223589
000390 b6 88 0d 3f 71 7c 98 bd eb d0 e1 3d 8b e4 87 3c
       0.5528673 -0.0744561 0.11026176 0.01658847
0003a0 14 37 8c 3d 1a 9e 0a 3e cd 52 72 bb 02 e6 76 bc
       0.06846443 0.13536873 -0.0036975623 -0.015069487
0003b0 8b 0d ae bc 62 03 b7 3d 97 be 00 3e af fc a4 be
       -0.021246692 0.08936192 0.12572704 -0.32224032
0003c0 ef f9 ad bc 4a 38 a0 bd 77 50 36 3f bb 61 77 bd
       -0.021237342 -0.07823236 0.7121653 -0.060395937
0003d0 51 b6 28 3e d3 61 94 bd c0 e5 01 3d e5 ab 80 be
       0.16475798 -0.07245221 0.031713247 -0.25131145
0003e0 6b 62 fe bb 9e 49 b7 3d 42 79 0c bd 77 e0 af 3d
       -0.007763197 0.08949588 -0.034295328 0.08587735
0003f0 39 28 8b be 1f 93 c4 3c 6f 57 69 3b 42 ba f0 3e
       -0.27179125 0.023995934 0.0035605093 0.47017103

action_out.bias f4 [4]
000000 1e 7b b3 3c 81 3e 8d 3c 0e 1d 24 3d 43 57 8b bc
       0.021909293 0.017241718 0.04006677 -0.017009383
