saved_models/FetchSlide-v1/model125.pt (torch, 563151 bytes, 8 tensors)

fc1.weight f4 [256, 28]
00000000: b7b9 803e b1cb debd 7d7f b43d 00d1 3d3f
00000010: 1615 31be e20d 0ebd 00eb 3e3f f188 95be
00000020: c7e4 513d 4149 b0bf 41a8 ed3f 26cb 38bc
00000030: af5b c53d 3311 8dbc cdc2 c83f 5ff8 35bf
00000040: a5b4 393e 9626 56bd bc2b 0fbd dd65 6ebc
00000050: 773f ad3f 56d1 1ebf c920 243e bb84 e7bd
00000060: 2d39 e5bd 9a9b a8bf 5fc7 cb3e 3a56 7bbe
00000070: 0ef5 6a3e 547f c5be a280 cb3e da25 163f
00000080: de7d 29be f69b 16bf 359b bb3e 92ef 903d
00000090: 34cc 32be cd82 68bf ae21 b23f 3d09 353e
000000a0: 0e87 0ebe c913 73bd 84da 003e 6c3d 07bf
000000b0: a20c d2bd 5efd 73bd 6142 38be bddb 0bbc
000000c0: e879 0b3e cdfc bebe b545 85bc 59bc 32be
000000d0: 2489 1cbe d40f 33bd 643e 7e3f ee7e febf
000000e0: bde3 f53e 98d6 0abf e44b 26bd a393 3b3e
000000f0: 1c13 993e f6ec d5be 382e 18bc a1a1 4b3f
00000100: bacc 893d 0bff 0cbe 3a52 b73e a3de 0a3d
00000110: 9418 2f3e 9c85 093c 79cf f23e 96ed d73e
00000120: d523 cf3d 1eb9 c4bd 4a90 4a3c a451 ca3d
00000130: ea03 d63e abf0 b63e 188a c13d d03f 243d
00000140: 8746 1f3e 9141 a4bf 2de0 95bd 9276 4dbf
00000150: d5b5 013f 4115 1ebe 8e34 6e3f 4fc8 5dbf
00000160: 55f3 773e 74bd c6bd 7336 b8bf 3a98 6a3f
00000170: 9a23 38bf 7d7e 81bd 605e 783e 8e1e f73c
00000180: f984 043e 3c06 173d e03a 81bd c196 3f3c
00000190: 52ec 8abd aca8 01bd d7fb a7bb 2ff8 0fbd
000001a0: beea a1bd a63d a53b 1aa4 173c b2bb 8e3d
000001b0: 42d7 11bd 5276 61bd 8d95 953d fb22 a03c
000001c0: ae5a 853e 0aa3 a3bd cf6c 423e 2157 48bf
000001d0: f672 173e 68d1 c5bf 3127 c1bf 22a1 1abd
000001e0: 39ba fdbe 16d1 be3e b09b 02bf d6d4 aebe
000001f0: 66a4 2f3e 3262 2a3d 236a acbd 316f af3d
00000200: 80ea aebf a3fb feb9 20a3 aabd 44f5 a9bc
00000210: 8f72 cf3c 1c06 913d 8ead 8cbf 9268 8dbc
00000220: 36c8 42be b0ba 383d 12b4 24bc 92fd 413f
00000230: ae9a ea3d 5bad d53e 4eb9 8b3d f064 ed3e
00000240: c924 323f 57fd a63e 2f3e 9d3e 46fa d93e
00000250: c3c3 df3c b9a8 e23e 7cf8 06bf 3597 88bc
00000260: b367 c3bb 31a7 ee3c 3e95 a23e 755d 663f
00000270: b4b1 ecbd 356b 0bbd 1bc7 04bc 770c dc3c
00000280: 6f5d 923e 41b8 523f 4ee6 75bd 9064 19bc
00000290: ebe2 27bd 629c 33bf 6b93 a0bf 4706 053f
000002a0: bf09 933e 12c2 4bbe 7fd2 843e 4e1d 36bd
000002b0: 5abe 70be b28e 19bf 858a f1be 6219 b0be
000002c0: 0b7f 80bd cb7b 7c3f 89e0 08c0 d61e 8abc
000002d0: 4b86 273f ad21 6d3e 53a8 9dbe 5350 2dbf
000002e0: 5fa4 82bf 039a aabd fd7c ad3d 6a10 4bbd
000002f0: c77f e8be 5654 bdbe c31c 72bf 83b4 9fbc
00000300: e5b0 4cbe 2dae ae3e d52b 7e3e 3ef8 1abf
00000310: eac8 b03e 918b 613e 12f4 c2bd 34de 48be
00000320: 1156 823e 0376 01c0 8d7c 8dbf 1060 d13e
00000330: 4f84 22bf c26c cd3e 34f2 d8be 71b8 2dbe
00000340: 14f9 753e a000 783e af29 b03e c96f f43e
00000350: 5233 f73e fbe3 f43c 9d71 063e 4735 03be
00000360: 5ac5 d43e 1f9f 083f 91dd bc3e 6e50 e63d
00000370: 79a6 0ebd 71e8 da3d 82a0 07bf ae95 41bf
00000380: 1129 803e 185f 013e a571 0cbf 05f6 b53e
00000390: 9815 81be cc4d 31bf 4cdf 1d3f 7e0f e1be
000003a0: 0253 dd3e fb00 07c0 b751 3240 c4e9 143e
000003b0: ebbe d5be 88cf 91bd 3594 223f aec4 e4be
000003c0: 2c11 15be 6329 673d 0710 d83c 9590 893d
000003d0: 8fb2 e03e 66f7 c8be d269 69be 48bc 3fbd
000003e0: 3980 5fbd 1a30 63bf 98e3 ea3e 0e19 09bf
000003f0: 438f 71be 9643 2cbe 1383 1d3c b093 d33d
0.2514169 -0.10878695 0.08813379 0.74147034 -0.172932 -0.03468121 0.7457733 -0.2920604
0.05124357 -1.3772355 1.8566972 -0.011278903 0.09636628 -0.017220115 1.5684448 -0.7108211
0.18135317 -0.052282892 -0.034953818 -0.014550653 1.3534993 -0.6203817 0.16028132 -0.11304613
-0.11192546 -1.3172486 0.39800546 -0.24544612 0.22945043 -0.38573706 0.39746577 0.58651507
-0.16551921 -0.5883173 0.3664185 0.070769444 -0.1746071 -0.90824586 1.3916528 0.17679305
-0.13918707 -0.05934504 0.12583357 -0.528281 -0.10256316 -0.0595678 -0.17994072 -0.008536276
0.13620722 -0.37302247 -0.01626859 -0.17454661 -0.1528669 -0.043716267 0.9931395 -1.9882486
0.48025313 -0.54233694 -0.04059972 0.18318038 0.29897392 -0.4178235 -0.009288363 0.795435
0.067285016 -0.13769166 0.3580492 0.03390373 0.1709922 0.008393671 0.47423914 0.4217345
0.10114256 -0.09605621 0.012363503 0.09878853 0.4179986 0.3573049 0.094501674 0.04009992
0.15554248 -1.2832509 -0.07318149 -0.8025905 0.5066808 -0.15437795 0.9304894 -0.8663377
0.24213918 -0.09704104 -1.4391617 0.9163853 -0.71929324 -0.06322954 0.24254751 0.030165937
0.1294135 0.03687118 -0.06310058 0.011693657 -0.06783356 -0.031655 -0.005126457 -0.035148796
-0.07906102 0.0050427495 0.009255433 0.06969394 -0.035605676 -0.05504448 0.07303915 0.01954793
0.26045746 -0.079900816 0.1898682 -0.7825795 0.14789948 -1.5454531 -1.5090085 -0.037751324
-0.4955614 0.37268895 -0.5101881 -0.34146756 0.17152557 0.041597553 -0.084186815 0.0856613
-1.3665314 -0.0004863414 -0.08331895 -0.020746835 0.02532318 0.070812434 -1.0990465 -0.017261777
-0.19021687 0.045099914 -0.010052698 0.7577754 0.11455284 0.41733822 0.068224534 0.46366072
0.6958738 0.32615158 0.30711505 0.42573756 0.027315026 0.4426935 -0.5272291 -0.016673664
-0.0059632896 0.029132457 0.31754488 0.89986354 -0.11557332 -0.034037787 -0.008104111 0.026861412
0.2858691 0.823124 -0.06003409 -0.009362355 -0.04098789 -0.70160496 -1.2544988 0.51962703
0.28718373 -0.1989825 0.25941846 -0.04446154 -0.23510113 -0.5998336 -0.47175995 -0.34394366
-0.062742315 0.98626393 -2.1387045 -0.016860407 0.6543929 0.23157378 -0.30792484 -0.6770069
-1.0206412 -0.08330157 0.08471105 -0.0495762 -0.45409986 -0.36978406 -0.94575137 -0.019495254
-0.19989355 0.3411726 0.24821408 -0.6053504 0.34528285 0.22025897 -0.09519209 -0.19616014
0.25456288 -2.0228279 -1.1053635 0.40893602 -0.63483137 0.40122038 -0.42372286 -0.1696489
0.24020797 0.24218988 0.34406802 0.47741535 0.48281342 0.029893866 0.13129278 -0.12813292
0.41556817 0.533678 0.36887792 0.112458095 -0.03482673 0.10688866 -0.5297929 -0.7561902
0.2503133 0.12633932 -0.5486091 0.3553926 -0.25211787 -0.69259334 0.6166885 -0.43957132
0.43227392 -2.1094348 2.7862375 0.145423 -0.4174722 -0.071196616 0.63507396 -0.44681305
-0.14557332 0.056435954 0.02637483 0.0671703 0.4388623 -0.3925125 -0.22794273 -0.04681042
-0.054565642 -0.8874527 0.45876765 -0.53553855 -0.23589806 -0.16822657 0.00961377 0.103309035

fc1.bias f4 [256]
00000000: e132 c3bf ee15 45bf deed 8dbf 22fd e0bf
00000010: 6eeb 9abf c1d6 0d3f 8930 19c0 9697 b0bf
00000020: 11b4 79bf 9425 09c0 3fa4 d4be 4671 553e
00000030: a563 edbf 4217 00be d3be 1cbf e3c0 0ec0
00000040: a59d 51bf f51a f2bf 28a5 a6bf d58e 0ebf
00000050: 0dc0 41bf 3f1d 7ebf 0462 03c0 abd3 b6bf
00000060: 4c99 8abf 372d 07c0 8859 8cbf 3039 b1be
00000070: adba b5bf 4acb bfbf 5101 55bc c107 183f
00000080: 354a b1bf 026a 5fbf c968 9fbf d930 bfbf
00000090: 6a23 febf 7cfa a5bf 70c8 23bf 9c80 f0bf
000000a0: 96b9 e7bf 83eb 9abd e2a2 eebf 439a 67bf
000000b0: 9f87 72bf 1c96 cabf 6d15 c3bf 27ad e5bf
000000c0: 92e8 babf 3998 ddbf a583 1fc0 4ec2 07bf
000000d0: e811 85bf ba1a 1f3f 0683 17bf 2320 efbf
000000e0: 6451 c2bf 501f 5abf e4db c2bf 4680 81bf
000000f0: a78a 38bf c85a 7bbf 40f3 a9bf 4788 23be
00000100: 931e 4ebf 391f 92bf ad89 9dbf ef65 9cbf
00000110: 158c c7bf d02a 04c0 5b7f 0ac0 e3f6 2dbe
00000120: 3eec adbf 90f3 0dc0 be35 babf ee89 0bc0
00000130: 1c28 7ebf bd3a bfbf 622d e4bf ff1b d5bf
00000140: 36ef 4abf 4916 5ebf 4206 a7bf be8d 63bf
00000150: 1d61 c4bf 2ff7 2cc0 8961 a73c 09f3 8bbf
00000160: 2676 edbf 9e67 a9bf cfc6 09c0 4f2f f3bf
00000170: 1166 a7bd ddc1 aabf 6d76 0ec0 907a edbe
00000180: 78c0 cabf 0b1f c6bf 59c8 b8bf 433f 89bf
00000190: 9337 78bd 9d39 9ebf f95e 89bf 9507 b9bf
000001a0: 4ead b4bf 2816 82bf 72d3 0dc0 9580 84bf
000001b0: b118 0fc0 6c8c 5e3f 7e05 85bf 18cf d2bf
000001c0: 0406 e1bf dd70 e5bf bf13 ccbf 5cf8 b8bf
000001d0: a475 35bf 6d7b 5bbf d876 cabf a044 08c0
000001e0: c998 1fbf 4e64 80bf 5843 eabf 0a69 b1bf
000001f0: 9cd5 29c0 94f1 1ec0 3430 57bf 8fbc f3bf
00000200: 0d32 b7bf 479a d0bd 5ae8 f5bf 22fe d4bf
00000210: bee8 d8bf 64d0 ee3e 84b0 c1bf be12 12c0
00000220: a483 debf d0c4 61bf c52e a2be e8bf 0bc0
00000230: 263b 19c0 d3ef a5bf b5f6 81bf c1d8 09bf
00000240: 0f72 05bf 88e5 b1be 2982 eabf cc88 c3bf
00000250: 54a4 65be 2a4c 7cbb b361 11c0 222c 0bc0
00000260: 269c 36bf 6b47 34bf be0f c4bf eda6 56bf
00000270: b84d 953e b13c 9bbf 74c2 cfbf 4b29 64bf
00000280: 78c5 88bf ee0e 00c0 f524 b0bf 6e60 bebf
00000290: 3a50 0ec0 bf2a 06c0 74ad 6bbf 25d0 6bbf
000002a0: a325 06c0 72b5 11c0 e1e0 37bf bd59 77bf
000002b0: 00be 11be b384 84bf 8537 0ebf 5227 b7bf
000002c0: 96e3 cdbf cf4d 60bf 9d3c babf 205b acbf
000002d0: a7ba 85be c5af b7bf b281 25c0 dc3a fdbf
000002e0: 0a2f 04c0 abf3 cdbf 26a7 0ebf 1f3c d2bf
000002f0: 6e99 c8bf 4aa2 7abf d948 81be 39d1 75bf
00000300: 58ec 94bf 3584 9dbf d781 19c0 ed0e 52bf
00000310: c505 0bc0 3d16 7abf 8695 85bf ac35 dabf
00000320: 4cfa 6abf ed93 b4bf 459e 40be 4d5b b8bf
00000330: d887 21bf e1e8 d1bf cfd2 b8bf bfc1 c7be
00000340: 4077 f9be 87c2 c8bf 8545 78bf 6fbb e5be
00000350: 02e2 cfbf 5be4 e1bf 35e2 0dc0 8eea 3ebf
00000360: e9e7 bfbe 3c4f 39be 236d f7bf bf86 bfbf
00000370: b410 9abf 3146 83bf 09c8 fbbf 9d27 01c0
00000380: 4c3f 93bf 2255 893e a49c 0ec0 7b97 b7bf
00000390: db88 22c0 85e2 60bf 6585 9ebf b6de 563f
000003a0: 393f 2cc0 7fe2 94bf 4a73 f0bf 1d6f 85bf
000003b0: 83b4 c8bf b657 9bbf e059 50bf 6425 a1bf
000003c0: 73c8 14c0 0510 61bf c5d3 31c0 9c53 01c0
000003d0: c9e1 febf 8a40 22bf c351 16c0 76a8 fabe
000003e0: 668f 13c0 9da8 f7bf 030a 1cc0 5959 a3bf
000003f0: 2a88 e8bf 77ad f6bf acae 1dc0 16bb fcbd
-1.5249902 -0.7698659 -1.1088216 -1.757725 -1.2103097 0.55405813 -2.3935874 -1.379626
-0.97540385 -2.1429186 -0.4153156 0.20843992 -1.8546034 -0.12508872 -0.61228675 -2.2305229
-0.8188117 -1.8914477 -1.3019152 -0.55686694 -0.7568367 -0.99263376 -2.0528574 -1.4283346
-1.0828032 -2.1121347 -1.0964823 -0.34613943 -1.4197594 -1.4983914 -0.013000802 0.5938683
-1.3850771 -0.8727113 -1.2453853 -1.4936782 -1.9854558 -1.2967067 -0.6397772 -1.8789248
-1.8103511 -0.075644515 -1.8643458 -0.9046976 -0.9473819 -1.582706 -1.5240914 -1.7943467
-1.4602225 -1.731208 -2.49241 -0.5303086 -1.039609 0.62150156 -0.591843 -1.8681682
-1.5181088 -0.8520403 -1.5223355 -1.0117271 -0.72086567 -0.98185396 -1.3277359 -0.15969954
-0.805154 -1.1415778 -1.230764 -1.2218608 -1.5589625 -2.065113 -2.1640232 -0.16988711
-1.358772 -2.2179909 -1.4547651 -2.1802936 -0.9927995 -1.49398 -1.782635 -1.6649169
-0.79271257 -0.86752754 -1.3048785 -0.88888156 -1.5342137 -2.702587 0.02043225 -1.0933543
-1.8551681 -1.3234746 -2.1527593 -1.8998812 -0.081737645 -1.3340412 -2.2259781 -0.4638257
-1.5839987 -1.5478224 -1.4436141 -1.0722431 -0.060599875 -1.2361332 -1.0732108 -1.4455439
-1.4115388 -1.0163012 -2.2160306 -1.035174 -2.235882 0.86933017 -1.0392301 -1.646945
-1.7579961 -1.7925068 -1.5943526 -1.4450793 -0.7088263 -0.8573521 -1.5817518 -2.1291885
-0.62342507 -1.003061 -1.8301802 -1.386018 -2.6536627 -2.4834948 -0.8405793 -1.9041919
-1.4312149 -0.10185676 -1.9211533 -1.6640055 -1.6946027 0.46643364 -1.5131993 -2.282394
-1.7383924 -0.8819094 -0.31676307 -2.183588 -2.3942351 -1.2963814 -1.0153414 -0.53846365
-0.52127165 -0.3474543 -1.8320972 -1.5276122 -0.22425967 -0.0038497546 -2.271588 -2.1745687
-0.71332014 -0.70421475 -1.5317304 -0.8384846 0.29160857 -1.2127897 -1.6231217 -0.8912551
-1.0685263 -2.0009112 -1.3761278 -1.4873178 -2.2236466 -2.096359 -0.92061543 -0.9211448
-2.0960472 -2.2766995 -0.7182751 -0.96621305 -0.14232635 -1.0352997 -0.55553466 -1.4308875
-1.6085079 -0.87618726 -1.4549748 -1.3465309 -0.26118967 -1.4350516 -2.586041 -1.9783587
-2.065371 -1.6089987 -0.557238 -1.6424598 -1.5671823 -0.97903883 -0.2525089 -0.96022373
-1.1634626 -1.2305971 -2.3985498 -0.82054025 -2.1722271 -0.9769018 -1.0436256 -1.7047629
-0.9178817 -1.4107643 -0.18810375 -1.4402863 -0.63097906 -1.6399194 -1.4439334 -0.39015004
-0.48723793 -1.5684365 -0.9698108 -0.44869563 -1.6240847 -1.7647814 -2.2169316 -0.7457665
-0.3748162 -0.18096632 -1.9330181 -1.4962996 -1.2036347 -1.0255796 -1.9670421 -2.0180428
-1.1503692 0.26822764 -2.2283106 -1.4343103 -2.539603 -0.8784564 -1.2384459 0.8393358
-2.6913588 -1.1631621 -1.8785183 -1.0424534 -1.5680088 -1.2136142 -0.8138714 -1.2589536
-2.3247344 -0.8791507 -2.7785504 -2.020728 -1.9912654 -0.6337973 -2.3487403 -0.4895665
-2.3056273 -1.9348332 -2.438111 -1.2761642 -1.8166554 -1.9271687 -2.4637861 -0.12340371

fc2.weight f4 [256, 256]
00000000: 28f2 ec3d e2d3 f0bf c686 cbbe 6c5f 1f3f
00000010: 1804 e83e a169 55be 5096 cbbe eebe 183f
00000020: 4b31 613f 5b19 55bf a206 583e fb2e 59bd
00000030: 4a43 873f 7ee0 70bf bd07 c83e bee1 4fbf
00000040: bce1 4abe 4f88 03c0 bca9 5f3d 7907 5f3d
00000050: 31b9 2c3f 1d3b aebe a70e 16bf 19c7 a2bf
00000060: 5abe bf3e e093 55bf 0175 e7be 2935 47bf
00000070: d696 34bf 67e3 80bf c15f c4be f749 57be
00000080: 551d ac3e 5e0c c8be b54c dabf 6411 ffbd
00000090: a527 a7bf 44a1 083f 1747 2cbe f6db 913e
000000a0: b03b 773e 27b1 cc3e 35b3 27bf 99e3 12bf
000000b0: 6ce2 923e 3962 8d3f 4a3d e73e 97ee 8abe
000000c0: 87fb 8a3f 0332 f5be 674b afbe f983 173f
000000d0: 4ebd f7be d181 7cbf f0a9 60bf 5f70 cebe
000000e0: 858d 543f f8f0 3abf f854 963d ad7e a1bf
000000f0: 8502 1fbe ca5f 70bf a3a4 33bf 58a4 a83e
00000100: d886 7e3e 9bae d2bf 28eb bdbe 3711 a63d
00000110: 05c5 fb3d d47b 2d3f da58 20bf 1f3f 943d
00000120: 2de4 5e3e 1f4e d8be 39d6 95be 7ad7 70bf
00000130: 4735 373f 3e55 2abf a0a0 f7be 681e fd3e
00000140: 63ac d6bc 4d7b 6ebe 7a2a 7bbe 9f86 0d3e
00000150: 2a08 7c3c b60f c0be 19a0 d9be 8a65 80bf
00000160: 5d85 fdbe ee4c 1f3d 8e2a c3be 6764 9f3e
00000170: 750c 93bf f016 893f fd22 d23e ae5a cc3e
00000180: cda7 37bf 203e 573f dae8 5c3f b05d e33d
00000190: 60b2 e13c 8b32 46be 0692 403e 7b96 683e
000001a0: 23cb 823e 6d2b d03c ba1e 16be 3a6f dabe
000001b0: b0e3 fabb 7b2f 82bf 5d9c 15bd 1c72 e6be
000001c0: f40a adbf 2509 8cbf 4239 10be 47fc ae3f
000001d0: d0bf 02bf ba15 c5bf c5d2 a7be f40c 87bf
000001e0: 203d b9be af11 013e 6111 a1bd c953 e2be
000001f0: c2b6 b93e a6fa afbf fba5 a0be 0bbb fdbe
00000200: 1f1a e6bd 400c 82be 23c0 3abe be56 0cbf
00000210: cbc8 133f f02d b2be 19fd 3f3f b273 48bc
00000220: 2aea 32be 2f19 193f 2b5b 82bd 15cf afbc
00000230: 9893 f33e 29b6 e13e 6d4c 7fbf 73dc f63e
00000240: 16bb 903e aab7 6abe 5c2f 19bf e479 4dbf
00000250: 2bc7 6dbf a914 18bf 2973 27bf 6e93 173e
00000260: e33c 5b3f 12c5 5dbf 2d72 283f 5eb4 27bf
00000270: 659e dabf 81b6 e7bc c746 55bf e851 f83c
00000280: 2978 83bf 623d 33be 559c ddbd 4be7 fe3e
00000290: a46a 0dbf 3983 09bf ff58 a5be 39f1 013f
000002a0: 9870 b5bf 1abb b4bd 4777 423f 919b e5be
000002b0: 0784 be3d b40e 6abf c4fb c8be 7622 3dbf
000002c0: 4873 83be ff10 c6be cfd8 183f b132 bd3e
000002d0: 27f6 c1bc 3196 2f3e a9f4 7b3e 0dab c03e
000002e0: f969 7abe e224 2c3e 08e2 49bf 93bf e83d
000002f0: b5ae d0be 1c6b 79bf 5bff 4bbf ec35 7f3e
00000300: 81e0 8ebc 93f8 69bd a6c9 593e be45 fabe
00000310: b216 91bf acce 883d 756b 0fbd f4eb c43d
00000320: ccac 48bf f5a7 d63e 7090 9abf 7975 1cbe
00000330: 730b 4abe a3eb e9bf 5b11 4abd 9a3d d03e
00000340: d487 83bd 7c0e 4fbf 3f3d bb3e 6d31 093f
00000350: 0651 afbe c57a 35bd e4c0 9abe e446 a7be
00000360: 0d3a 5e3e fc44 ac3a f0b3 c5be ccac a9be
00000370: 4250 b5be 9725 9f3e 9992 46bf cec3 3fbe
00000380: 1247 9cbf 51d7 083d e07b 60bf 6cfe 173f
00000390: a4ab ccbe b463 ff3d aaea 80bf 8b02 3ec0
000003a0: f431 36bf 607d 333f 4dda 0e3f 057b 29bf
000003b0: 520b b6bc 8f5c f13d ff10 ddbe 0d6e bbbe
000003c0: 32f2 83bf e866 313f 09b7 2dbe 1a4b 87be
000003d0: fb8a 65bd 4d24 543f 2029 4dbf b497 8cbe
000003e0: cb33 debe f3f7 e5be e0b8 dcbe 5aef cd3e
000003f0: 23b5 313e d8da 4b3f 0850 80be 180d 27bd
0.11569625 -1.8814662 -0.3975126 0.6225498 0.45315623 -0.20841075 -0.39763117 0.59666336
0.8796584 -0.83241814 0.2109628 -0.05302332 1.056741 -0.9409255 0.39068404 -0.8120383
-0.19812673 -2.0551946 0.05460523 0.054450486 0.6747008 -0.34029475 -0.5861611 -1.271701
0.37449914 -0.83428764 -0.45206454 -0.7781549 -0.7054266 -1.0069398 -0.38354304 -0.21024309
0.3361613 -0.39071935 -1.7054659 -0.12454489 -1.3058974 0.5337107 -0.16823994 0.2848813
0.24143863 0.39978907 -0.65507823 -0.57378536 0.2868837 1.10456 0.45163947 -0.27135155
1.085801 -0.47889718 -0.34237215 0.5918575 -0.48386616 -0.98635584 -0.87759304 -0.40320107
0.8302844 -0.7302394 0.07340425 -1.2616783 -0.15528305 -0.9389616 -0.7017309 0.32937884
0.24856126 -1.6459535 -0.37093472 0.08108752 0.12293438 0.6776707 -0.62635577 0.07238602
0.2176673 -0.42247102 -0.29265 -0.9407879 0.7156567 -0.6653632 -0.48364735 0.4943726
-0.026205247 -0.23289223 -0.24527922 0.13820885 0.015382806 -0.37511986 -0.42504957 -1.0030987
-0.4951581 0.038891725 -0.38118404 0.31131288 -1.1488177 1.0710125 0.4104232 0.39912933
-0.7174042 0.8407917 0.86292803 0.11101854 0.027550876 -0.19355218 0.18805704 0.22713654
0.25545606 0.025411332 -0.14660159 -0.42662984 -0.007656537 -1.017074 -0.036526073 -0.45008934
-1.3518968 -1.0940291 -0.14084342 1.3670739 -0.5107393 -1.5397255 -0.32777992 -1.0550828
-0.36179447 0.12604402 -0.07864643 -0.44204548 0.36272246 -1.3748367 -0.31376633 -0.49556765
-0.11235451 -0.2539997 -0.18237357 -0.5481986 0.5772826 -0.34800673 0.7499557 -0.012234615
-0.17472139 0.5980405 -0.06365045 -0.02146105 0.47573543 0.4408429 -0.9972599 0.48215064
0.28267735 -0.22921625 -0.5983789 -0.80264115 -0.9288203 -0.59406525 -0.65410095 0.14802334
0.8563978 -0.8662883 0.6579922 -0.65509593 -1.7079588 -0.028285267 -0.8331112 0.030312493
-1.0271045 -0.17503884 -0.108208336 0.49785838 -0.55240846 -0.53715855 -0.3229446 0.507587
-1.4174986 -0.08824749 0.7596325 -0.4484525 0.09302526 -0.91428685 -0.39254582 -0.7388071
-0.2567389 -0.38684842 0.59705824 0.36952737 -0.023676945 0.17147137 0.24605049 0.376305
-0.24454488 0.16810945 -0.7886052 0.11364665 -0.4075829 -0.9742906 -0.79686517 0.24922913
-0.017441036 -0.057121824 0.21268329 -0.48881334 -1.1335051 0.066800445 -0.03501459 0.09615317
-0.7838867 0.41925016 -1.2075329 -0.15279187 -0.1973093 -1.8275036 -0.049332958 0.40671998
-0.064223915 -0.80881476 0.36570165 0.5359104 -0.34241503 -0.044306535 -0.3022529 -0.32671273
0.21701832 0.0013143118 -0.38613844 -0.33139646 -0.35412794 0.31083366 -0.7756744 -0.18727037
-1.2209189 0.033408467 -0.8768902 0.5937259 -0.399747 0.12470189 -1.0071614 -2.9689052
-0.7116997 0.7011318 0.5580185 -0.6620334 -0.022222195 0.11785232 -0.4317703 -0.366074
-1.0308287 0.6929765 -0.16964354 -0.26424485 -0.056040745 0.8286789 -0.80140877 -0.2745949
-0.4339889 -0.44915733 -0.43109798 0.40221673 0.17354254 0.79630804 -0.2506106 -0.04078397

fc2.bias f4 [256]
00000000: 0681 f8be 10a8 61bd a629 93bf fff9 acbf
00000010: c738 c7bd 47cf 98bd 5526 d2be b7bd d23d
00000020: e62c e8be b7de febc 437f 83be 148a f6bd
00000030: f1cc 653e 9f80 00be 3062 febd 2b59 26be
00000040: 5490 553e 67d8 2a3e 121d 603f ef84 723f
00000050: ce56 fa3e 63ac 86bd 0dde 38bc 1f19 c3bc
00000060: 5109 b0be b488 c9bf 99d6 813e 7faf 64bd
00000070: c83f bebd 5193 333e 2f5a eb3f 3c97 2240
00000080: e5ab 28bf cf6a 47bf d641 aebd dd56 9a3b
00000090: 7e62 01bf c5b2 d1bd e4d9 393e 1cf8 c13d
000000a0: ca70 42be 5406 03bc 8b19 bdbd 74a0 92bd
000000b0: 3d31 dbbe 4f45 71bd d274 25be a0f7 ccbd
000000c0: d291 e2be bb14 1ebf d80f 5cbf 5656 33bf
000000d0: 8793 bdbd d248 eebe 524d d5bd 74a7 5dbf
000000e0: 4cf8 763f 1f15 1abf bbad b53d eed0 61bd
000000f0: 77a9 53bf 6211 3ec0 728b 8fbd 8dbf cf3c
00000100: 73d6 b3bd 3a01 7b3d 661d 30bf 2ce0 a6be
00000110: 576d 5fbf a33b 8bbd f973 53be fd34 dfbd
00000120: 9893 64bf ee9c 75be 4f4c cebc 6ee4 9a3f
00000130: b414 55bd 6528 bc3c db4d 1ebd 3fa2 e33e
00000140: 4972 8bbf dfb9 863f 5e0b 57bd ae02 51bf
00000150: 163a 90bd 057b 703c ab32 b4bd 07f7 f2bd
00000160: 54a3 91bf 01cf 883d 8608 4cbf 2f8c cdbd
00000170: bb0c f6be 44a8 663f 6714 133f bb08 3a3f
00000180: 9fa8 1bbf 1530 c5be 51f3 24bd 8170 233a
00000190: 9969 7e3f 34be 26ba 873a 6bbe 5d73 b5bf
000001a0: 41e1 2cc0 314f c5bd defb 0dbe 6dde 56be
000001b0: d832 5abf ff8d 90bf f9cb 88bf c9d7 92bd
000001c0: dd93 4bbf bed8 a1bf fff1 26bd 7e7a e13d
000001d0: dc97 fcbe f4ed c4bf 0198 51bf d0d2 aabc
000001e0: 01a7 7f3e c961 af3e 1c3f f7bb 6fba ec3f
000001f0: b10c 9bbf 1c15 053f 88dd e3be b948 bfbd
00000200: 9159 9f3f f70b 05bd 6eb3 3bbf e154 c4bd
00000210: d08a bcbd b47b 91bc 922d b93f 3560 c23f
00000220: 7aa5 72bf 0ce6 a43f 7c13 4dc0 5cc1 323f
00000230: 17ef 89bd 761f 56bf 0718 223e 75d7 d33f
00000240: 5fa3 febc 31bd 5dc0 5915 1dbf e65f 85bd
00000250: 01c8 f43e 7c40 c6bd fe04 dc3e 7797 553e
00000260: 89ec 9dbe 9af6 993f 3db5 48c0 ce77 593f
00000270: ff57 efbd 09c1 00bf 23ca d1be 8123 41bf
00000280: ec64 9ebd d1fa 46be ce0c 3dbf 5362 88bd
00000290: 53a7 3f3f 3e19 9d3c d007 76bf ae5a 3f3e
000002a0: 9a0f 913e e6c4 1b40 28f0 943c cad4 b2bc
000002b0: af23 d5bd e610 0cbf a8dd e03e 7226 bdbd
000002c0: dc94 8ebd 69d2 dd3e 661c 13be f892 193b
000002d0: 7233 933f e712 fdbd 9256 2abf 45d8 b13e
000002e0: d2e9 8dbd 1aa0 8dbd 4940 aabc 31b9 893f
000002f0: ae77 47be e9ea 67be 623c c1bd 89b0 95bd
00000300: c946 2bbd 5409 a0bb f1ff 31bd e5d3 6abf
00000310: d3a5 703d e9e7 cf3f e0b4 a83e efd9 6abf
00000320: f680 efbc 40ff bf3e 6492 9ebe 77b1 8abc
00000330: 7286 49bd 3b79 c0be 2dfd 4dbe fba9 873f
00000340: 663e 8c3f 9784 5c3d 36fc 23bd 406d a0bd
00000350: d1e7 80be 23cf a6bd 1a51 27be d840 463f
00000360: 7676 ecbd 428c e93d 5e50 e2bd a8ad ccbf
00000370: f351 e33f 7f5c 82bd cac9 d7bd d047 73bf
00000380: 7fe7 453e 4841 813e 8407 d0bd 24cc 45bd
00000390: 33ee 9e3e 7ef8 fabe 5b25 cf3e 3cd7 483d
000003a0: 4396 1ebf fcd6 393f 9e22 2cbd 6405 0bbe
000003b0: e83f 0ebe f017 e3bd 1060 f4bd 22ec bdbd
000003c0: 457f 00bd c5e9 763d 3fcd 9c3e 4d97 563f
000003d0: af03 bd3e d19b 743f ec08 cb3b 8599 69be
000003e0: c5ae 8c3f d6ba ebbf b498 1cbe 1574 b7bd
000003f0: e73b 093d cd96 55bf 8734 6ebf bb76 f8bd
-0.48535937 -0.055091918 -1.1497085 -1.3513793 -0.09727626 -0.0746141 -0.4104487 0.102900915
-0.45346755 -0.031112058 -0.2568303 -0.12038055 0.2244146 -0.12549065 -0.124210715 -0.16244952
0.20855838 0.16684113 0.8754436 0.9473409 0.48894352 -0.06575849 -0.01128341 -0.02381569
-0.34382108 -1.5744843 0.25359038 -0.05583143 -0.09289509 0.17536665 1.8386897 2.5404806
-0.6588729 -0.7789735 -0.08508651 0.004710062 -0.5054091 -0.10239176 0.18149525 0.09471151
-0.18988338 -0.007997114 -0.092333876 -0.0715951 -0.42811003 -0.05890399 -0.16157845 -0.10008168
-0.44251877 -0.6175038 -0.85961676 -0.70053613 -0.09256654 -0.46539932 -0.10415138 -0.8658364
0.9647262 -0.6018848 0.08871027 -0.05513089 -0.8268046 -2.969811 -0.07009019 0.025359893
-0.08781137 0.061280467 -0.6879486 -0.32592905 -0.87276214 -0.06798484 -0.20649709 -0.108987786
-0.8928771 -0.23985645 -0.025182871 1.2100961 -0.052021697 0.02296848 -0.038648468 0.4445972
-1.0894252 1.0525473 -0.052501075 -0.81644714 -0.07042329 0.014677768 -0.08798727 -0.11863523
-1.1377969 0.06680108 -0.79700506 -0.100365035 -0.48056588 0.901005 0.57453007 0.7266957
-0.6080417 -0.38513246 -0.040271107 0.0006234721 0.9937988 -0.000636074 -0.22971545 -1.4175831
-2.7012484 -0.09634245 -0.13865611 -0.20983286 -0.8523383 -1.1293334 -1.0687248 -0.07170064
-0.79522496 -1.264427 -0.04075813 0.11009692 -0.4933461 -1.5385118 -0.81872565 -0.020852476
0.2496605 0.34254292 -0.007545365 1.8494395 -1.2113248 0.51985335 -0.44504952 -0.093400426
1.2449208 -0.032482114 -0.7332066 -0.09586502 -0.09206164 -0.017759182 1.4467032 1.518561
-0.9478375 1.2882705 -3.2043142 0.69826293 -0.06735056 -0.83641756 0.15829478 1.6550127
-0.03108376 -3.4646723 -0.613607 -0.06512432 0.4780884 -0.09680268 0.4297256 0.2085856
-0.30844525 1.2028382 -3.136062 0.8494843 -0.11686706 -0.5029455 -0.4097453 -0.754448
-0.07734093 -0.19431616 -0.73847663 -0.06659379 0.7486469 0.019177075 -0.9610567 0.18686935
0.28332216 2.4338927 0.018180922 -0.021829981 -0.10407197 -0.54713285 0.4391911 -0.092358485
-0.069619864 0.43324593 -0.14366302 0.0023433547 1.1500075 -0.12357121 -0.66538346 0.34735313
-0.06929363 -0.069153026 -0.020782607 1.0759641 -0.19479248 -0.22648205 -0.09435345 -0.07309062
-0.041815553 -0.0048839245 -0.043456975 -0.91729575 0.058751892 1.6242648 0.32950497 -0.9173879
-0.029236298 0.37499428 -0.30971062 -0.016930325 -0.049200483 -0.37592492 -0.2011611 1.0598749
1.0956542 0.053837385 -0.04003545 -0.07833338 -0.25176862 -0.08144977 -0.16339532 0.77442694
-0.11546032 0.11403705 -0.11050485 -1.5990496 1.7759384 -0.063652985 -0.10536535 -0.9503145
0.1932659 0.25245118 -0.101576835 -0.048290387 0.31041107 -0.4901771 0.40458187 0.04903339
-0.6194803 0.72593665 -0.0420252 -0.13576275 -0.13891566 -0.1108855 -0.11932385 -0.092735544
-0.031371374 0.060281534 0.3062534 0.83824617 0.36916873 0.95550257 0.006196132 -0.2281247
1.0990835 -1.8416393 -0.15292627 -0.08957688 0.033504393 -0.8343323 -0.930489 -0.12132021

fc3.weight f4 [256, 256]
00000000: fad3 11bc 0515 963b 92ad a0bd 2169 ab3e
00000010: 71b5 d6bc 821b e43c 7695 92be e889 acbe
00000020: 1ec8 4fbe 02a7 423d 1335 dabd 5c64 80bc
00000030: c06f afbe 6911 2bbe 426b e4be f2f0 fb3c
00000040: ed77 e6bd c65c 6cbc 3a21 8bbe 3a65 35bf
00000050: 71e8 3cbe cef8 26be acaf 4bbb 05fc 66bd
00000060: ca21 71bf 0b82 4bbf dbc6 b6be 8c3f 9c3d
00000070: cf13 d4bc aced 58bf 9530 b1be d3c1 67bf
00000080: 4542 60bb 1bfc c1be 103c 5dbd e0f2 9b3e
00000090: 06b8 1dbe 6bee 473d 7de3 83be 9c6d c1be
000000a0: 049c c4be 1986 253d f17c 53bc cfd7 83bd
000000b0: ce26 e8be 7f0b 08bf 1ddb bd3e 8723 72bd
000000c0: 0b53 8abe 1f27 0f3d 1b64 6abf 19c1 e3be
000000d0: 1f35 c13c 5b56 543d aa0a c13c 1823 26bf
000000e0: 2fe2 08bf dc41 ca3e e100 24bf 8538 67bd
000000f0: 165c c3be 118e 0cbf f8b9 c13d e709 28bf
00000100: db3f c23d 0741 58bf 3576 85be 2e0a 1b3e
00000110: 444f 99bd f762 d4bd ec2f 4abf 6492 753d
00000120: 0b44 96be dc9c 2ebc 796a e6bc 1030 07bf
00000130: 7021 433c b31f 91bc fa76 a6be 256f 3abf
00000140: cada 10bf 0a90 523e e421 7fbc 82c7 14be
00000150: adea 48bc b80b 683e 2044 013d 2d03 a93d
00000160: 2c2b 86bf 17a3 013e 4bbe 59bf d950 a5be
00000170: b844 fdbd a4bb 2fbf 6878 dcbe 98bd 043f
00000180: bb64 24bf 9436 6e3d 6fed 6f3e 9cec c5bc
00000190: 6301 cfbe d994 44bc 2b97 a7be e991 32be
000001a0: fee2 dbbd 1f4c 663d 252f 98be 919c f4be
000001b0: 1638 b3be 7cd5 03bf e90f f9bc 56d6 41ba
000001c0: dd97 70bd 7848 c0bd fef7 ac3d 358c d43e
000001d0: 0931 d63e 047a 8bbf 7b38 f3be 8902 603d
000001e0: 6d89 8bbe d024 c73c 81fe d2bd 3cd9 12be
000001f0: e334 d0be 62cd 3bbf cf6b 92be 055a 4cbd
00000200: f6cf 2fbf 1fb7 763d 0ee8 32be 6626 303d
00000210: 488d e4bd e4c8 823c 8c96 623e 6615 91bf
00000220: e64b 41bf d21b b5be c661 03c0 0497 5fbf
00000230: 74b3 42bd 8552 09be 1602 d5bb 6093 b4be
00000240: dcc8 d5bc d52f 1dbf 8156 74bd b28b a43c
00000250: 020c 8b3e e018 70bb 7240 2c3e 0f30 b5bd
00000260: 8c07 20be 9d01 4c3d 3aa0 26be 5882 1bbf
00000270: 6e56 b73d 2967 99be e2a7 d83e 4853 43be
00000280: 2e3b 023c 398d 10be 0a99 96bd b97d 873c
00000290: 62d9 4abe 21f3 813d e4c5 04bf 00de e8be
000002a0: 5be3 ebbe 9629 52bf 0391 3ebd 394e 663d
000002b0: 016d 943c 3cdd b7be 8bf9 ba3e 5721 a03e
000002c0: 956c e43c 91e2 f43e aaf2 a33d 976f 0dbf
000002d0: 6edc bbbd 03db be3d 9d93 f03e 5b19 a83d
000002e0: a92b bdbc e25b 0cbe e77b 3b3b da75 e5be
000002f0: e60a 96bd c431 edbe ba16 06bb a186 21bd
00000300: de54 3ebd fbf3 c9be 9880 863c ed45 7fbd
00000310: b88d 95bd 944f 5c3e c9e0 ebbe b460 72bd
00000320: b5be 11bb 992c 5cbe 6cfb 183e 704f 09be
00000330: 3e74 7a3d f66e 9dbe 0849 593d 7e37 aabe
00000340: 554a 27be 626b 42bd 42c9 643d cb8c d53c
00000350: ac91 b83d 85ae b83d ec9c 01bf f890 33bf
00000360: 979d d3bd e575 03be c677 9b3d 9c44 d0be
00000370: 8fa6 f5bf 8842 5c3d 3a60 53ba 77c8 ecbe
00000380: b16b 51bf 7a48 54bd d1a3 293b f4d6 02be
00000390: 8c25 503e 0db3 3abf 33c6 62be 466f bc3c
000003a0: 5302 0c3e c42c 24bf 0f55 623d 2bc6 f53c
000003b0: 61c3 173d 4441 843d 953b bdbe 97cb 1f3d
000003c0: 1177 1cbd b983 1abf 58ba cfbe 0388 9bbe
000003d0: 20c2 31bf 929c 49be 7580 593e d10b 36bf
000003e0: b280 1ebe 2e07 73bf 1250 4abd 3a1f 22bd
000003f0: 9bc0 0e3d e6c7 a43e 8b4e 9d3d eea9 573e
-0.008900637 0.0045801424 -0.07845606 0.33478644 -0.026209565 0.027845148 -0.28629655 -0.33698964
-0.20291182 0.047522552 -0.10654654 -0.015672855 -0.34264946 -0.1670586 -0.4461308 0.03075454
-0.11253343 -0.014426416 -0.27173787 -0.70857584 -0.18448044 -0.16305849 -0.003108005 -0.05639269
-0.94192183 -0.79495305 -0.3569859 0.07629308 -0.025888352 -0.8473766 -0.34607378 -0.9053013
-0.0034219187 -0.37887654 -0.05401236 0.30458736 -0.1540223 0.048811357 -0.25759497 -0.37778938
-0.3840028 0.04041109 -0.012908206 -0.064376466 -0.45342106 -0.5314254 0.37081233 -0.059115913
-0.27016482 0.03494942 -0.91559 -0.4448326 0.0235849 0.051840167 0.023564655 -0.648973
-0.5347013 0.39503372 -0.6406384 -0.056450386 -0.38156193 -0.54904276 0.09459299 -0.6564011
0.09484836 -0.84474224 -0.26066747 0.15140602 -0.07485822 -0.103704385 -0.7897937 0.059954062
-0.29348788 -0.010657515 -0.028126942 -0.5280771 0.011909828 -0.01771531 -0.32512647 -0.72825843
-0.56583846 0.20562759 -0.015572045 -0.14529231 -0.012262982 0.2266072 0.03155911 0.08252559
-1.0481925 0.1265987 -0.8505599 -0.32288244 -0.12366623 -0.6864569 -0.43060613 0.518518
-0.642162 0.05815752 0.23430417 -0.024160676 -0.40430745 -0.011998379 -0.3273252 -0.17438473
-0.10736655 0.05622494 -0.29723468 -0.477757 -0.35003728 -0.51497626 -0.030403094 -0.0007394304
-0.058738578 -0.09388822 0.08445738 0.4151322 0.41834286 -1.0896611 -0.4750403 0.054689918
-0.27253285 0.024309546 -0.10302449 -0.14340681 -0.4066535 -0.73360264 -0.28597876 -0.049890537
-0.686767 0.06023323 -0.17471334 0.04300537 -0.1115976 0.015964933 0.22127742 -1.1334655
-0.75506437 -0.35372788 -2.0528426 -0.87339807 -0.04753442 -0.13410385 -0.006500493 -0.35268688
-0.026096754 -0.6140111 -0.05965281 0.020086143 0.271576 -0.003663592 0.16821459 -0.08847057
-0.15627879 0.049806226 -0.16272059 -0.60745764 0.08952032 -0.29961517 0.42315584 -0.19074738
0.00794868 -0.14116372 -0.07353409 0.016539441 -0.19809487 0.06345201 -0.5186446 -0.45481873
-0.46071896 -0.82094705 -0.046525013 0.056226943 0.018118383 -0.35910976 0.3651851 0.31275436
0.027883807 0.47829106 0.08005269 -0.552484 -0.09172903 0.09319117 0.4698762 0.08207961
-0.023092108 -0.13706926 0.0028607787 -0.44816476 -0.073262975 -0.4632703 -0.0020460323 -0.039435033
-0.046467654 -0.39443955 0.01641874 -0.062322546 -0.07302421 0.21514732 -0.46069935 -0.059174255
-0.0022238914 -0.21501388 0.1493966 -0.13409209 0.061146013 -0.3074872 0.053048164 -0.33245462
-0.16336949 -0.04746569 0.055855997 0.026068112 0.0901216 0.09017662 -0.5063007 -0.7014308
-0.10332792 -0.12837942 0.07591204 -0.40677345 -1.9191455 0.053774387 -0.000806335 -0.46246693
-0.8180495 -0.05182693 0.0025884996 -0.1277731 0.20326823 -0.7292946 -0.2214592 0.023002278
0.13672762 -0.64130807 0.0552569 0.03000172 0.037051562 0.06457761 -0.3695952 0.039012518
-0.038199488 -0.6035724 -0.40571856 -0.30377206 -0.69436836 -0.19688633 0.21240409 -0.7111178
-0.15478781 -0.9493283 -0.049392767 -0.03958056 0.03485165 0.3218376 0.076809965 0.21060917

fc3.bias f4 [256]
00000000: 99ac 21bf 6f93 debe 9222 4cbe 9569 57bd
00000010: 917c 69be 88e7 d73e fbb8 8dbe 3031 b5bc
00000020: 41e0 2a3e 7484 05bf 7e46 1ebe 7291 8cbe
00000030: 0c79 f9bd 6e3d 15bf 1643 dcbc 4d7b 263e
00000040: 0f13 83be 525a 1e3e 7f59 1e3d 32ca 6ebf
00000050: 085b 363d 4527 23be 008c a8be 4aa5 b6bd
00000060: 5948 fdbe f8f4 babe cd9d 20be b766 85bf
00000070: 726b 74be f9e7 35be 4ab4 9b3d 3d29 eabe
00000080: 5b8f c73d f5ee f33e f9dd 08bf 51bf f3bd
00000090: 9782 03be ac90 f1be 5f19 11bd 6f20 19be
000000a0: 979f a83d 0194 5ebe 67ca 13bf 7592 6cbf
000000b0: b9e4 1ebe b0b0 90be be60 29bf 377f 13bd
000000c0: d664 64be d413 493f 7513 b0bd fc20 06bf
000000d0: 22f7 42bf d1d3 d0be 8c00 39bf 7933 b6be
000000e0: 0a24 183e a28f 6a3e b80e 94be 554d ddbe
000000f0: 5963 99be a43d d93e 001e d8be 0a98 44be
00000100: 25b2 17be 713b c13f b61d 0c3f 792a d6be
00000110: 2af8 99be 6ce6 5cbf c394 41bd b473 27be
00000120: 2f89 88bc 598f 27be 446b 81be 82e7 6dbe
00000130: e37d 9a3f e6f7 24bd 2171 e1bd 85d1 84bf
00000140: 0365 3e3f 8967 70bc e7ce 5bbf aa0b 9f3f
00000150: ff55 8cbc ed59 85be 35c3 af3f 3ac4 97be
00000160: a210 e3be 9ca1 54bf 5df6 e83d 4699 68be
00000170: 2c24 ebbe 8cbd f8be cba9 0d3d b040 b7be
00000180: 37d3 febe 27ec b63e fbcb 20bf 436b 023d
00000190: d314 3ebd 90e2 49be 9f0f 8ebe f2f4 2abe
000001a0: 956b cbbe 7d74 dd3d e0b0 98be 0bf3 68bf
000001b0: 6ee6 8bbe 9472 8abe 412a c5bd 446a 65be
000001c0: 4c72 a4be b56a 723e c6d6 5dbf 705a 133e
000001d0: 230c 8fbe 5897 26be 3c68 3fbf 5b24 2abf
000001e0: eff4 26bf bfa7 d6be 90e6 28be 1bc7 fbbe
000001f0: 5a93 babe eb4f 34be 1079 03bf d076 98be
00000200: c17c b53d 3477 3abd a18c 80bf 22ed 1ebf
00000210: 7cef 08be 357e ecbd bdca d03e 3119 8a3e
00000220: 732c d2bc d58c f4be 0f8d 3abf e487 a53e
00000230: 503b 1abf baac c8be 9d38 2fbe 1de3 223e
00000240: 542d 9c3f 7c3f 67be 5022 3e3f cd4f 593e
00000250: 4701 a9be 3418 1abe e0e4 dcbc f2f2 b6be
00000260: e000 8dbe 7cd8 d3bd f29a 24bf 5cf1 aebd
00000270: 7055 9cbe 5530 c5be 04d3 703e b9ed 72be
00000280: 9af9 4cbe 97b2 febe bc9d 7d3d 5906 d2be
00000290: b2f4 64be df43 c73e 6596 2cbe 79a3 04bf
000002a0: bfd9 febc f41f f1bd 238b f6be 3ed5 e0bc
000002b0: ef96 7fbe daad eebe 9c7d 183e 084b 6abe
000002c0: 3267 fabe f1cb a0bd 1b06 5b3f ac15 35bf
000002d0: dd14 6ebe 86c8 7f3e 5759 83bf 6f6b 52be
000002e0: 1381 5dbf c3f6 babe 3e24 5abe 502d 59be
000002f0: 4fb1 e43e 0bdd 49bf 5ea0 f03d 4b43 3c3e
00000300: f47b 6cbf a203 00bc 496a 5dbe f0dd 253f
00000310: cdb5 033f 6ee5 27be ab4a 2dbf 10aa 11bd
00000320: 73b9 14bf 3a04 d0bd c17d 48bf e491 7b3e
00000330: 3fb9 b83e c523 a23e e535 ba3e 0452 653e
00000340: 2f2b 38be 05c3 c5be e905 39be 0f5b 213f
00000350: c153 31bf e9e9 3bbe 9130 3fbf 162a c6be
00000360: 921e aa3e f4c0 21be cb64 493d d573 593e
00000370: bcf3 9fbd 8c88 a6be 229a 40be 02e9 c6bc
00000380: 2b41 fdbe ffab 8fbc 4626 0a3f c106 36bf
00000390: 885d c0be a191 793b 6e85 1d3c 61d5 44be
000003a0: fb12 c8be 6851 333f 2d99 2040 25b7 e4be
000003b0: 90a0 28bf aa90 30bf 415b 5bbe 46bc 8ebe
000003c0: d739 c83c 44fd 163f a781 e8bd 10d8 a23c
000003d0: 456b c3bd 43b8 2b3e dbb2 c0be 4ebc bbbe
000003e0: f763 3b3e 2690 b9be 9faa 5bbf 49c9 353f
000003f0: fb1e d63d 36f9 8abf fb0e ffbe 419f 2bbf
-0.6315399 -0.43471858 -0.19935063 -0.052590925 -0.22801425 0.42168832 -0.2768019 -0.022118181
0.16687109 -0.5215523 -0.15456578 -0.27454716 -0.12181291 -0.5829686 -0.026887458 0.16257973
-0.25600478 0.15464142 0.03865957 -0.93277276 0.044520408 -0.15932949 -0.32919312 -0.08918245
-0.4946926 -0.3651502 -0.15685196 -1.0421971 -0.23869112 -0.17764272 0.07602747 -0.45734587
0.0974414 0.47643247 -0.53463703 -0.11901725 -0.12842785 -0.47180688 -0.035424586 -0.14953779
0.08233564 -0.21736147 -0.57730716 -0.92410976 -0.15516938 -0.28259802 -0.6616324 -0.036009993
-0.22304091 0.7854588 -0.08597461 -0.5239408 -0.76158345 -0.40786603 -0.7226646 -0.35586146
0.14857498 0.22906354 -0.2891748 -0.43223062 -0.2995861 0.4242984 -0.42210388 -0.19198623
-0.1481405 1.5096265 0.54732835 -0.4182928 -0.30072147 -0.86289096 -0.04726101 -0.16352731
-0.016666977 -0.16363277 -0.2527715 -0.23232844 1.2069668 -0.040275477 -0.11007906 -1.037644
0.7437288 -0.014673122 -0.8586258 1.2425435 -0.01713085 -0.2604517 1.3731447 -0.29641896
-0.44348627 -0.83059096 0.11375115 -0.22714719 -0.45926034 -0.48582113 0.034585755 -0.3579154
-0.4977052 0.35727045 -0.6281125 0.031840574 -0.04640658 -0.19715333 -0.27746293 -0.16695002
-0.39730516 0.10813234 -0.29822445 -0.90995854 -0.2732424 -0.2704054 -0.096272 -0.22403818
-0.32118452 0.23673518 -0.86655843 0.14389968 -0.27938947 -0.1626867 -0.74768424 -0.66461724
-0.6521749 -0.41924855 -0.16494203 -0.49175343 -0.36440545 -0.17608611 -0.513566 -0.29778147
0.088616855 -0.045523837 -1.0042917 -0.62080586 -0.13372606 -0.115475096 0.40779677 0.26972345
-0.02565596 -0.47763696 -0.7287149 0.3233024 -0.60246754 -0.3919428 -0.1711144 0.1590695
1.2201333 -0.22582811 0.74271107 0.21221848 -0.33008787 -0.15048295 -0.026964605 -0.35732228
-0.2753973 -0.103440255 -0.6429893 -0.085421294 -0.30533934 -0.38513437 0.23517996 -0.23723496
-0.2001709 -0.49745628 0.061918005 -0.41020468 -0.22358969 0.3891897 -0.16854246 -0.5181194
-0.031109689 -0.11773673 -0.48153028 -0.027445432 -0.2495992 -0.46617013 0.14891666 -0.22880185
-0.48906857 -0.07851399 0.8555619 -0.70736194 -0.23250146 0.24978837 -1.0261639 -0.20548795
-0.86525077 -0.3651639 -0.21302888 -0.21208692 0.44666526 -0.7885291 0.117493376 0.18385045
-0.9237664 -0.007813366 -0.21622576 0.64791775 0.5144928 -0.16396114 -0.6769206 -0.035562575
-0.58095473 -0.10157056 -0.78316885 0.24567372 0.36078832 0.31667915 0.36369243 0.22394568
-0.17985223 -0.3862535 -0.18068661 0.6302957 -0.69268423 -0.18350948 -0.7468348 -0.38703984
0.33226448 -0.15796262 0.04916839 0.21235593 -0.078101605 -0.32526052 -0.18808797 -0.024281029
-0.49463782 -0.017538069 0.5396465 -0.71104056 -0.3757136 0.0038081186 0.009614332 -0.19222023
-0.3907698 0.7004609 2.509349 -0.44670978 -0.6587 -0.6897074 -0.2142153 -0.27878016
0.024441643 0.589802 -0.11352854 0.019878417 -0.095419444 0.16769509 -0.37636456 -0.36667103
0.18299852 -0.3624279 -0.8580722 0.7101026 0.10455128 -1.0857303 -0.49816117 -0.6703988

action_out.weight f4 [4, 256]
00000000: 4acd 693d 2312 923d 6b0e a93e 36c7 343f
00000010: 8bf0 e63d 085d 2cbd 2f20 2bbd d95d 62bd
00000020: b295 d4bc 7822 c93d 8e88 93bc 3ce8 803e
00000030: 17a9 2f3d 9e9a 5abe bf93 58be ffc1 8ebd
00000040: d1ee 893d 1048 0abe 3fde 24be b17a 35bf
00000050: 5da8 1bbe 60b4 283e cec3 ab3e f729 833d
00000060: fd72 d93d 182a 7239 e775 863e c5f4 bd3d
00000070: 1eb2 63bd e8ce 913e 1a93 633e ef0e 7abe
00000080: 9dc3 803d cfd6 65bc 98ee ea3e 3eed be3d
00000090: f025 33be 11f6 2bbe 4dfe 70be 92af 493e
000000a0: 374b a93d ac16 7dbe cef8 653e 986b d23e
000000b0: 5a35 0e3b d729 a43d f812 00be 67dc 843e
000000c0: f1eb c23d edf9 13bc 320c 3abc 25c9 ac3c
000000d0: 9141 78bd 5446 7ebc 1202 513f 3f37 6f3e
000000e0: aead 903b 3a17 dabd ac5c 203d 11d2 9abd
000000f0: 979d dabc a237 38be 7482 9f3e bc06 243e
00000100: 6d68 f33d 1040 e13d 8f63 c2bd 1eb1 893d
00000110: 43e8 be3c 84fd 8f3d 2eab ffbb 31b3 bf3d
00000120: df80 0c3f 9272 483d f14a 3bbd 03e0 183c
00000130: 68e4 813e af18 493c 328c 23be 498d 733f
00000140: 57bd a03c 81c4 6dbe 960b cabe 6f2f d53c
00000150: 739a 39be 6921 063f 1eb8 793d 5396 1e3c
00000160: 9a18 83be 69fc 51be aea8 10bd bf3b 8abd
00000170: 6b9f 243d 76f6 4b3e 8bce ab3c 48be f23d
00000180: 535b 7d3e 218d 27be 2b16 a7bd 7236 b83e
00000190: 0405 96be 14d0 e9bd e325 b83f 9acc a73d
000001a0: 89e6 bd3d 9ca1 f03e 3702 f53c 0e24 b7bd
000001b0: d638 fa3e 6728 25bd ad44 ea3d 4c96 0a3e
000001c0: 0fff babd 8c5e e6bd d624 5f3e 04f7 b03b
000001d0: a6c8 253f 3507 64bc b4f0 b63e db68 16bd
000001e0: c3ef 273e ffc5 1e3f a318 a0be 8c6f 913b
000001f0: cdf5 1a3e 91d7 37bc 2d44 20bb 74dd 7a3d
00000200: 46f8 d9bd fe47 643e a6ad 1c3f b745 c2bd
00000210: 2a66 ac3c 9271 a73d bdfe a4bd 0708 d33b
00000220: d5a5 f83c 19fa cb3d 1697 903e a457 cf3f
00000230: 6a67 593d 3afc 303e e564 b93d e761 6dbf
00000240: afe2 a53d fddb b83d 401a 32bb 0c49 aabe
00000250: dbe2 043e 0a55 dbbe 08d1 c1bc 8e0c 8fbe
00000260: e2cb c7bc 15cb 083f 307b df3c 8d5e c2be
00000270: e102 16bc 347b 0cbd 94ba 14bd 8eb6 453e
00000280: 5de2 e4bd f720 2cbe 9831 80be db12 2a3e
00000290: 9fe4 c53e 37b9 2dbe 34ff dcbc 368a 133f
000002a0: 9387 e4bd cc5a 593d 5645 75bd e159 833e
000002b0: 9d9b ffbd 39cf 5c3e 7a8c 9f3d be78 9dbd
000002c0: d5dd adbc 6152 0fbe ccba c2bc c4c0 4a3e
000002d0: f27f e3bd 44f3 c83c cc62 fc3d 3212 e0bd
000002e0: 3795 0cbe fc2b 7a3e 23b7 7d3d 8234 01bd
000002f0: 4654 f73d 0dcc 6e3e fe0d e73e 80de f33e
00000300: 8c23 37bb eb71 633b 0b27 813c 4ab6 a2bd
00000310: 4a6a 0b3c 3b4d 2c3f 1534 963d d16e e0bd
00000320: eaa9 a4bd 2456 223e 7e0f 47bd 9fbe 1ebe
00000330: 7b77 363e 4203 88be be68 1b3e 7385 f13d
00000340: ae81 123e c0ec a1bc 3a68 263d d454 f63d
00000350: 4ea9 90bc ba19 f8bc 7984 debb 9106 273d
00000360: 3afa 58bc 96e6 69be 98de ab3d da5f 9abc
00000370: 4561 b1be 8808 55bd 16f1 19bd 8719 43bd
00000380: d8a1 453e 385f b03d af41 debb ac45 6fbe
00000390: 047b 4c3d 6ef8 a1bd ab3f 863a 7d93 9f3e
000003a0: d8b8 b43e 539d b33d 5628 443e 0455 2a3b
000003b0: e034 c53f 237c c5be 5f58 1d3f 1e6b 183f
000003c0: 42f5 473c c6e1 8c3d 4392 653d 9050 ae3c
000003d0: ce84 79bd 8b5d a83d 6c1f 82bc d43d 07be
000003e0: 82bf eb3d 083d e03e 2dc9 f43e 743f 05be
000003f0: 65eb 8cbe ea3b 993d c58d 953e 3932 89be
0.057080545 0.071323656 0.33018813 0.7061647 0.11276349 -0.04208091 -0.04177874 -0.05526528
-0.025950287 0.098210275 -0.01800945 0.2517718 0.042885866 -0.21348044 -0.2115011 -0.069705956
0.06735004 -0.13504052 -0.16100405 -0.7089034 -0.15200944 0.16475058 0.33547825 0.064044885
0.106176354 0.000230946 0.26261827 0.09275202 -0.055589788 0.2847817 0.22224084 -0.24419759
0.0628731 -0.014028265 0.45885158 0.09322594 -0.17494941 -0.16793086 -0.23534508 0.19695881
0.08266299 -0.2471568 0.22458193 0.41097713 0.002169928 0.08015793 -0.12507236 0.25949404
0.095176585 -0.009031755 -0.011355447 0.021092007 -0.060609404 -0.015519697 0.81643784 0.23360918
0.0044152355 -0.10648961 0.03915088 -0.07559598 -0.026686473 -0.17989972 0.31154215 0.16018194
0.11885152 0.10998547 -0.094916455 0.067232355 0.02330411 0.07030776 -0.0078023886 0.0936035
0.5488414 0.048937388 -0.045725767 0.009330752 0.25369573 0.012273951 -0.15971449 0.9513746
0.019621534 -0.23219492 -0.39461964 0.026023595 -0.18125324 0.5239473 0.060966603 0.009679395
-0.25604707 -0.20506443 -0.035317115 -0.06749677 0.040191095 0.19918236 0.02097251 0.118526995
0.24741869 -0.1636243 -0.08158525 0.35979038 -0.29300702 -0.11416641 1.4386562 0.081933215
0.09272487 0.46998298 0.029908283 -0.08942424 0.48871487 -0.040321734 0.1143888 0.13533896
-0.0913068 -0.11248502 0.21791396 0.0054005403 0.6475929 -0.013917734 0.35730517 -0.03672109
0.16400056 0.6202087 -0.31268796 0.0044383463 0.15132828 -0.011220829 -0.0024454698 0.06124635
-0.106430575 0.22293088 0.61202466 -0.09485953 0.02104481 0.08175959 -0.080564 0.006440166
0.030352512 0.09959812 0.2824027 1.6198621 0.05307714 0.17283717 0.09052447 -0.9272751
0.08099877 0.090263344 -0.002717629 -0.33258855 0.12977163 -0.42838317 -0.023659244 -0.27939266
-0.024389211 0.5343488 0.02728042 -0.37962762 -0.00915596 -0.034297183 -0.036310747 0.1930792
-0.11175988 -0.1680945 -0.25037837 0.16608755 0.38650987 -0.16965185 -0.02697716 0.5763277
-0.11158671 0.053065106 -0.059880577 0.2565451 -0.12480853 0.21563424 0.07790466 -0.07689045
-0.021223942 -0.13996269 -0.023770712 0.19800097 -0.11108388 0.02453006 0.123235315 -0.109409705
-0.13728796 0.24430841 0.06194223 -0.031544216 0.12076621 0.23320027 0.45127863 0.47630692
-0.0027944772 0.0034705352 0.015765687 -0.07944925 0.008509228 0.67305344 0.073341526 -0.109586366
-0.08040221 0.15853173 -0.04859876 -0.15502404 0.17819016 -0.26564986 0.15176675 0.117930315
0.14307281 -0.019766212 0.040626742 0.120278984 -0.017658856 -0.030285705 -0.0067906943 0.040777747
-0.013243252 -0.22841868 0.08392066 -0.018844534 -0.34644523 -0.05201009 -0.037583433 -0.047631767
0.1930002 0.086119115 -0.0067827324 -0.23366421 0.049922004 -0.07908712 0.0010242363 0.31167212
0.35297275 0.087702416 0.19156012 0.0025990615 1.5406761 -0.3857127 0.6146297 0.5953845
0.01220447 0.06879 0.05604769 0.02127865 -0.060917668 0.08220967 -0.015884124 -0.1320718
0.115111366 0.43796563 0.47809735 -0.13012487 -0.27523342 0.07482131 0.29209724 -0.2679613

action_out.bias f4 [4]
00000000: 1521 603d 0776 b63c ffca c6bc 2ad6 3b39
0.05471905 0.022273077 -0.024266718 0.00017913492
