saved_models/FetchSlide-v1/model127.pt (torch, 563151 bytes, 8 tensors)

fc1.weight f4 [256, 28]
000000 86 29 86 3e 1f 4d 56 3d 4e 29 aa bd e7 80 e9 3e
       0.26203555 0.052319642 -0.083086595 0.45606157
000010 fe 87 a2 3e 7f 15 8f be 90 48 ab 3e 33 ed 8c 3e
       0.3174438 -0.27946088 0.33453798 0.2752472
000020 3c 0e e5 bd 4d d3 4e bf bc bc 4b 3f 5d 42 5b 3e
       -0.111843556 -0.8079117 0.7958486 0.21412034
000030 86 15 8c 3c ac 12 99 bc 90 fb a7 3f d8 10 36 3f
       0.017100107 -0.018685661 1.3123646 0.7111945
000040 ce 74 f6 3d f3 26 90 3c 8b b3 e0 3c 2c 08 01 3d
       0.120339975 0.017596697 0.027429363 0.031501934
000050 a0 d0 8e 3f 71 54 24 3f a4 83 41 3e e8 8a c7 bd
       1.1157417 0.6419135 0.18897873 -0.09743291
000060 92 57 f2 bc 3b 1f 64 bf 7d 7e a6 be 02 e9 97 be
       -0.029582772 -0.89110154 -0.32518378 -0.29669958
000070 9a a6 13 3e d4 13 e9 be 27 05 76 bd 0b 3f 8d be
       0.14419022 -0.4552294 -0.060063507 -0.2758716
000080 14 5b e9 be 19 fd 50 c0 ce b5 1e be 9f 5f 42 bf
       -0.455773 -3.2654479 -0.1549904 -0.75927156
000090 9f b5 6c be d7 fd dd be 2a 37 5d 3f 41 36 ed 3d
       -0.23116158 -0.43357727 0.864123 0.11582614
0000a0 ac 16 a1 bd 11 a3 9e bd ea 66 27 be 6d 37 65 bf
       -0.078656524 -0.07745946 -0.16347852 -0.895377
0000b0 9e ec 8f bf df ef 05 bd 71 cf 3e 3b 6b 50 b4 3d
       -1.1244085 -0.032699462 0.0029115344 0.08804401
0000c0 db 06 2a be 1c 64 53 bf 6d 07 77 bf 57 33 1f be
       -0.16604178 -0.8257463 -0.96495706 -0.15546928
0000d0 4c b8 f8 bc aa c1 b4 3d a2 69 2e 3e c6 2b 89 bf
       -0.030361317 0.08826001 0.17032483 -1.0716484
0000e0 df e0 92 3e c2 32 77 3d b8 9c a6 3d c0 02 47 3f
       0.28687188 0.06035114 0.081353605 0.7773857
0000f0 36 38 39 3e fd 35 ed bd 8a 90 da 3e 0a ec b5 3e
       0.18087849 -0.11582563 0.426884 0.35531646
000100 52 ab ac 3d 81 fb cb be 56 08 8c 3f 95 0f b0 be
       0.08431114 -0.3984032 1.0940044 -0.34386888
000110 35 44 47 3d a8 0f 19 bc 2f 8c a2 3f 69 d8 77 3f
       0.04864903 -0.009342112 1.2699031 0.9681459
000120 43 a8 c5 3d fe 77 64 3a d5 20 48 bd 5c 98 fe bc
       0.09651234 0.000871539 -0.048859436 -0.03107851
000130 be 58 85 3f 84 5d 5b 3f c6 02 8f 3d 04 11 13 3e
       1.0417707 0.8568957 0.06982951 0.1436196
000140 3c f3 92 3d 6e 2c 4f bf e1 6d 2c 3e 9d 90 81 be
       0.071752995 -0.8092717 0.1683879 -0.25305644
000150 76 18 6a 3e c0 72 e1 39 04 90 09 3e 81 84 83 be
       0.22860894 0.0004300084 0.13433844 -0.2568703
000160 f0 be 3a 3e 96 96 8d bf 7b 6c 84 be 19 b5 8a 3d
       0.182369 -1.106158 -0.25864014 0.06772823
000170 6d b7 06 bf e2 75 8f bf f5 a5 db 3f 71 24 f2 3e
       -0.52623636 -1.120785 1.7160021 0.47293428
000180 a6 84 ea 3e 7a e4 2a 3d 2f cc f9 3d 81 b9 cb bc
       0.45804328 0.0417218 0.12197148 -0.024868729
000190 ab f8 b9 3e bd a6 69 be 4b 33 13 be 8b 97 0a 3e
       0.3632253 -0.22817512 -0.14375035 0.13534372
0001a0 2c e6 4a 3d 2c 73 02 be 8e 4b 01 be 6e b8 c0 bd
       0.049535915 -0.12739247 -0.12626478 -0.09410177
0001b0 7b 95 c5 3e f2 40 24 be 7b fb 19 3e 4f 97 aa bf
       0.38590607 -0.160404 0.15037338 -1.3327426
0001c0 4c 3c 21 3f 47 83 dc 3e 4d 55 c8 3d 61 a9 8f bf
       0.6298263 0.43068907 0.09781895 -1.1223565
0001d0 c6 73 24 bf c4 98 bf bf 77 4d 9d bf df 84 66 bf
       -0.64239156 -1.4968495 -1.2289265 -0.90046495
0001e0 8d be e0 be 69 b1 0c c0 64 6b 48 40 5b 9f 80 3e
       -0.4389538 -2.1983283 3.1315546 0.2512158
0001f0 db 6b 0f 3d 70 83 62 bd 4d 24 a0 be 42 bc ab 3d
       0.03501497 -0.05530113 -0.31277695 0.08385517
000200 ec b9 f5 be e0 ff b9 bc 8b a2 d3 3d 1d 98 9c bd
       -0.4799341 -0.022705019 0.10333737 -0.07646201
000210 e3 33 8b be 08 e3 13 3e aa ca b6 be 8e 9c e8 3d
       -0.27188024 0.14442074 -0.35701495 0.113579854
000220 db 33 10 3f 4a 63 36 3d 8a 5c 24 3e ff 38 a1 bf
       0.56329125 0.044528283 0.16050926 -1.2595519
000230 b5 6a 9e 3e fc 00 1e bf b6 dc f7 bd 95 aa e9 3e
       0.30940786 -0.6172025 -0.12102644 0.45637956
000240 96 7d 7f bd 7f 3b 19 bf 76 d0 b6 3e d4 ae dd 3e
       -0.062375627 -0.5985641 0.35705918 0.43297446
000250 19 6e 24 be 49 91 bd 3f c1 47 f5 bf 0d b1 d7 be
       -0.16057624 1.4809963 -1.9162523 -0.42127267
000260 b3 b5 55 be 09 67 a9 bd 53 0a d9 bd bb d0 e1 3e
       -0.20870094 -0.082716055 -0.10597672 0.4410456
000270 f2 dd 8a 3e e1 ae 74 3d 2d dc 12 bd 6e b0 c5 3d
       0.27122456 0.05973709 -0.035854507 0.09652792
000280 ee 5c 14 be 2c 6e 83 3e 7c c4 83 3e 31 a7 ac bd
       -0.14488575 0.25669992 0.25735843 -0.08430327
000290 e5 48 75 bd 27 0f 2c 3e 91 16 e6 be 03 ef 86 bf
       -0.05988397 0.16802655 -0.44939092 -1.054169
0002a0 03 07 22 3f d9 b6 3d be 10 b0 85 3c 79 9c 45 3e
       0.6329195 -0.18526782 0.016319305 0.19297971
0002b0 8d a0 36 be 84 20 4d bf ef ed 4c be 8c e9 e9 bc
       -0.17834683 -0.8012774 -0.2001264 -0.028553747
0002c0 20 5f 94 be 02 d2 17 bf f2 a4 11 3f 7f 10 20 3f
       -0.28978825 -0.5930482 0.5689231 0.6252517
0002d0 d5 82 26 3e de b6 53 3d 31 d8 49 3f df e9 17 bf
       0.16260846 0.051688068 0.78845507 -0.59341234
0002e0 b7 a0 0d bd a0 38 ba ba 3d cd a8 bd 2b 53 66 bd
       -0.034577098 -0.0014207549 -0.08242271 -0.05623166
0002f0 6c 9f ff 3e 76 27 ef be 34 7a 35 b9 93 17 4e 3e
       0.49926317 -0.46709794 -0.0001730703 0.2012618
000300 fd dd 84 3e 66 a7 66 bf 86 f9 d6 3c 5e 2e 9b bf
       0.25950614 -0.9009918 0.026242029 -1.2123525
000310 9d b8 f9 3e 50 ec 09 3e f4 dd 7e be 6f a7 68 bf
       0.4877366 0.13469052 -0.24889356 -0.90880483
000320 76 e5 10 be 22 f4 2c bf 44 b1 e0 bf 29 6e 72 bf
       -0.14150032 -0.6756002 -1.7554097 -0.9469934
000330 47 0f d2 bc 49 6b 1d 3e c4 ac f2 3d fe 8e 45 3e
       -0.02564205 0.15372957 0.11849359 0.19292828
000340 a8 dc 3b be 40 3c a8 ba f1 78 49 bd e8 28 e0 3d
       -0.18345892 -0.0012835339 -0.049187604 0.10945302
000350 f2 12 32 be 08 09 7b bd 5f 8a 16 3d 74 2a 7a 3d
       -0.1739004 -0.06128791 0.036753055 0.061075643
000360 41 76 04 bd 72 f8 ab 3d a8 74 76 be 5b 0f a8 bd
       -0.03233934 0.083969966 -0.24067938 -0.08206054
000370 52 05 16 be c0 7e 3b 3e 54 9d 9f bd 25 2b 62 3e
       -0.14650467 0.1831007 -0.0779368 0.22086771
000380 53 24 a1 3f d9 31 9d bc 84 bb d1 bc 81 ca ba 3e
       1.258921 -0.019188808 -0.02560211 0.36482623
000390 ba 53 84 3e 80 03 52 bf 66 fe b8 be 77 92 e2 bd
       0.25845128 -0.8203659 -0.3613159 -0.11063092
0003a0 d3 6a aa be 17 03 cf be e2 95 00 3f 61 e9 ac 3e
       -0.33284625 -0.40432045 0.50228703 0.33771804
0003b0 80 89 cd bc f7 c2 39 3b aa 66 d9 bd df c6 8d 3c
       -0.02508998 0.0028344968 -0.10615285 0.017306743
0003c0 2e cd 48 3c 50 f1 87 3d 31 22 98 3c cf 4f 23 3d
       0.01225595 0.066378236 0.018570991 0.039871033
0003d0 2a 9d 41 bc 1a 97 30 3d 19 93 e8 3d af cc 13 bc
       -0.011817256 0.04311285 0.11356182 -0.009020968
0003e0 5f 05 b8 bd 5a 78 88 be 38 61 53 be 3f 90 34 bf
       -0.089853995 -0.2665432 -0.20642555 -0.705326
0003f0 ab 7f 39 3e 97 c0 03 bf cf 73 66 3d 05 58 61 3e
       0.18115108 -0.51465744 0.056262787 0.22006233

fc1.bias f4 [256]
000000 c4 0a 73 bf 00 ad ff bf 11 f8 c8 bf 7c 04 f0 bf
       -0.949383 -1.997467 -1.5700704 -1.8751369
000010 c9 79 f4 bf 19 38 43 bf 96 cc e8 bf 25 7e d1 bf
       -1.9099666 -0.76257473 -1.8187435 -1.6366621
000020 8d 15 9c bf d2 99 d5 bf af e3 12 c0 37 c1 01 3e
       -1.2194077 -1.6687567 -2.2951467 0.12671362
000030 6c 7b 37 be 5e b5 cb bf 73 03 7e bf ad be 95 bf
       -0.17918175 -1.5914724 -0.99224013 -1.1698815
000040 00 37 8f bf e0 6b 95 bf 74 79 7c bf 7a e1 d1 bf
       -1.118866 -1.1673546 -0.9862282 -1.6396935
000050 42 63 a5 bd 2a 25 06 c0 41 1c f0 bf b4 dc c5 bf
       -0.080755726 -2.0960183 -1.8758622 -1.5457978
000060 03 24 d1 bf 5b 27 d8 bf c4 42 0d bf 64 7c a4 be
       -1.6339115 -1.688701 -0.5518 -0.32126153
000070 18 34 58 3e 25 55 12 c0 b6 dd 01 c0 a6 85 9f bf
       0.21113622 -2.2864468 -2.0291572 -1.2462661
000080 1d dd eb be 0f 27 44 be 0b f6 b2 bf a8 b1 50 bf
       -0.46067134 -0.19155525 -1.3981336 -0.8152108
000090 71 cb fd bf d4 50 bf bf 15 24 ac bf 01 a1 9f bf
       -1.982771 -1.4946542 -1.3448511 -1.247101
0000a0 3f ee 78 bf 48 0e 95 bf 9c f4 01 bf 37 a3 95 bf
       -0.97238535 -1.1644983 -0.5076387 -1.1690434
0000b0 08 49 50 bf 8e a9 78 3f f5 f2 0e c0 f3 f7 ee bf
       -0.81361437 0.9713372 -2.233579 -1.8669418
0000c0 6f 76 a7 bf b7 9b 66 bf 5d 25 06 c0 ca 21 da bf
       -1.3083018 -0.9008135 -2.0960305 -1.7041562
0000d0 42 ab 5c bf d4 c0 b3 bf bb 1f 79 bf b4 16 4f bf
       -0.8619882 -1.4043221 -0.9731404 -0.8089402
0000e0 86 bf 81 bf 94 a7 ea bf 78 d2 fb bf 09 80 62 bf
       -1.0136573 -1.8332391 -1.9673605 -0.88476616
0000f0 01 47 bf bf c3 c6 0f c0 99 f8 0b c0 ca ca 85 bf
       -1.4943544 -2.2465065 -2.1870482 -1.0452511
000100 1d 0f b1 bf 22 ec 1c bf cb de b3 bf 3a 6f b4 bf
       -1.3832737 -0.6129781 -1.4052366 -1.4096444
000110 d8 b7 c4 bf 2d 18 b3 bf c5 56 a1 bf 52 ad d1 bf
       -1.5368605 -1.3991753 -1.2604605 -1.6381018
000120 d9 70 81 bf 18 0b ed bf f4 4d 0b c0 ba f8 4c bf
       -1.0112563 -1.851901 -2.176633 -0.80067027
000130 71 b7 78 3d 3e 12 ee bf 0a ae c4 bf 87 42 18 bf
       0.06072182 -1.8599317 -1.5365613 -0.5947651
000140 94 53 fa bf 12 70 54 bf 02 e0 2b bf 17 e9 bf bf
       -1.9556756 -0.82983506 -0.67138684 -1.4993008
000150 06 75 b3 bf 7f 17 ee bf ea eb ed bf cb 20 8e bf
       -1.4020088 -1.860092 -1.858762 -1.1103758
000160 de 31 78 bf c0 8d bd bf b6 8d eb bf d9 30 0b c0
       -0.9695109 -1.4808884 -1.8402622 -2.1748564
000170 9a 19 0f 3d aa 67 c9 bf d8 b3 fa bf 99 23 0c c0
       0.034936525 -1.5734761 -1.9586134 -2.1896727
000180 a9 bb 9b bf 3e 4a ce bf 01 a0 81 3f 2d 2c 50 3e
       -1.2166644 -1.6116407 1.0126954 0.20329352
000190 f4 f3 13 c0 2c 69 07 bf 39 4d e6 bf cb 45 fa bf
       -2.3117647 -0.52894855 -1.7992316 -1.9552549
0001a0 09 72 fc bb f2 7f 16 bf a4 18 12 3f 00 2c 29 3e
       -0.0077040237 -0.5878898 0.5706885 0.16520691
0001b0 61 f9 fb bf 59 79 f3 bf c0 12 ed be cd 1a df be
       -1.9685479 -1.9021407 -0.46303368 -0.43575135
0001c0 28 b3 c7 bf dc 9e 4b bf 53 8a 81 bf 0e 88 9d bf
       -1.5601549 -0.79539275 -1.0120338 -1.2307146
0001d0 f5 80 86 bf 00 28 87 bf e0 73 03 c0 61 28 8f bf
       -1.0508105 -1.0559082 -2.0539474 -1.1184198
0001e0 7f b1 b4 bf d0 bb d8 bf 93 15 02 bf 4b e3 39 bf
       -1.4116668 -1.6932316 -0.5081417 -0.72612447
0001f0 62 95 1c c0 3c db d8 bf ff 8d 04 c0 f8 1a b7 bf
       -2.4466176 -1.6941905 -2.0711668 -1.4305105
000200 51 48 dd be c7 0d d8 bf f1 83 db bf 45 52 2f c0
       -0.43219236 -1.6879205 -1.714964 -2.7393963
000210 c8 c3 00 bf c5 f6 05 c0 38 9c fd bf 09 47 2f c0
       -0.5029874 -2.0931866 -1.9813299 -2.7387106
000220 67 8f c4 bf 26 0d 05 c0 21 b6 1f bf 2e 14 bf bf
       -1.5356263 -2.0789275 -0.6238728 -1.4928033
000230 b9 d8 86 bf f5 ea c7 bf 5d a9 0e c0 e5 1c f8 bf
       -1.0534889 -1.5618578 -2.229087 -1.9383818
000240 d8 c3 03 3e 57 fc 0b c0 fd 6a dd bf ee c8 03 c0
       0.12867677 -2.1872766 -1.7298275 -2.0591388
000250 14 b0 9d bf 8c 33 bd 3e b1 c9 ee bf c3 bd d2 bf
       -1.231936 0.3695339 -1.8655301 -1.6464161
000260 95 41 b4 bf d4 97 f2 3e 0b 78 8b bf 9a 99 8b bf
       -1.4082514 0.4738146 -1.0896009 -1.090625
000270 ad 63 e0 3e 1d 3f d9 bf e0 2f 13 c0 af 81 a1 bf
       0.43826047 -1.6972386 -2.299797 -1.2617701
000280 54 dd b6 bd c6 49 ac bf 24 fa 1a c0 2f 9c e8 bf
       -0.08928934 -1.3460014 -2.4215174 -1.8172663
000290 82 23 c2 bf 49 bd c5 be c0 f2 81 bf fc 19 b8 bf
       -1.5167086 -0.38620976 -1.0152206 -1.438293
0002a0 b8 90 d3 bf 85 3c c7 bf a6 62 c0 bf 04 1b 12 bf
       -1.652854 -1.5565344 -1.5030105 -0.5707247
0002b0 81 95 bb bf fb 61 9b bf d5 93 25 c0 be 71 dc bf
       -1.4655 -1.2139276 -2.587148 -1.7222211
0002c0 f4 f5 eb bf da 72 dc bf 33 c4 bf bf 36 d6 19 bf
       -1.8434434 -1.722255 -1.498175 -0.60092485
0002d0 7d 41 be bf b8 45 7a bf 85 de fe bf 35 48 a8 bf
       -1.4863735 -0.9776263 -1.9911658 -1.3147036
0002e0 c3 d0 e6 bf 38 ff e0 bf 1c 52 84 bf da cc e8 bf
       -1.8032459 -1.7577887 -1.0337558 -1.8187516
0002f0 8f a3 8e bf 52 b1 b5 bf 63 c5 8d bf 2a 23 a9 bf
       -1.1143664 -1.4194739 -1.1075863 -1.3213856
000300 5c 98 85 bf bb fa d2 bf 9e 9b e7 bf 3c 32 41 bf
       -1.0437121 -1.6482767 -1.8094366 -0.75467277
000310 84 0c 4b bf 8b f9 c4 bd 15 44 9e bf 9a 8d df bf
       -0.7931597 -0.09617909 -1.2364527 -1.7465088
000320 f1 d4 02 c0 c2 b7 33 bf a2 ad f6 bf 9b 64 b8 bf
       -2.044247 -0.7020227 -1.9271739 -1.4405702
000330 5a 76 a8 bf 01 66 de bf 47 fe 4f bf 17 d6 3f bf
       -1.3161118 -1.7374879 -0.8124737 -0.7493605
000340 89 35 aa bf 8d 37 58 bf 6f ce a2 bf 76 43 df 3e
       -1.3297588 -0.84459764 -1.2719249 0.43606156
000350 a7 d6 c3 bf 66 ba c7 bf 20 0a be bf 79 c0 f3 bf
       -1.5299882 -1.5603759 -1.484684 -1.9043113
000360 bd 43 4e bf d7 c6 77 bf 3e 18 71 bf 73 91 cf bf
       -0.8057211 -0.9678778 -0.94177616 -1.6216263
000370 cf 02 c9 bf 9c d8 1b c0 e7 81 9c bf ee 2b f5 bf
       -1.5703982 -2.4350958 -1.2227143 -1.9154031
000380 45 32 ad bf bf cd 11 c0 62 ce 1a bf bb 94 e3 be
       -1.3530966 -2.2781827 -0.60471165 -0.4444941
000390 17 bc f4 bf 60 20 e2 bf cc ae 85 bf 77 5d 8d be
       -1.91199 -1.766613 -1.0443969 -0.2761037
0003a0 b9 fd de bf d6 43 d1 bf 31 8c 9c bf b2 4b e6 bf
       -1.742118 -1.6348827 -1.2230283 -1.799185
0003b0 b9 93 a2 bf 21 bd 40 bf 33 30 c6 bf be 84 03 c0
       -1.2701331 -0.7528859 -1.5483459 -2.054977
0003c0 a8 1d 19 c0 28 81 df bf 01 24 e6 bf 9f 17 38 c0
       -2.392435 -1.746129 -1.7979738 -2.8764417
0003d0 43 44 00 c0 a0 1f 7c bf bc f7 dc be 1e 09 a5 bd
       -2.0041664 -0.98485756 -0.43157756 -0.080583796
0003e0 a9 5a 1b c0 47 1a 16 bf 5b 4c 93 bf 8a 36 ff bf
       -2.4274085 -0.58633846 -1.1507677 -1.9938519
0003f0 46 1e 3f bf a7 6f 7a 3f 0d dd e5 bf 7e 31 b2 bf
       -0.7465557 0.9782662 -1.7958084 -1.3921354

fc2.weight f4 [256, 256]
000000 55 4f 21 bd 1e 2d 7b bd b7 82 4b bd 1f 8a bd bc
       -0.039382298 -0.061322324 -0.049685206 -0.02313715
000010 52 cc b6 bd 71 e2 31 3d d5 b5 ef bd 97 7c 9b 3c
       -0.0892569 0.043428842 -0.117046036 0.018980308
000020 7e 1f c9 bd 94 1f ab 3b e5 89 45 bc 6e 8b c7 bc
       -0.0982046 0.0052222703 -0.012056802 -0.024358477
000030 45 bf cb 3c fb a1 da bd 7e 3e 77 3c db 43 57 bd
       0.024871478 -0.106754266 0.015090583 -0.052554946
000040 fe e4 77 bd ba ef 25 bc 1c 82 8f 3d df d2 14 bd
       -0.06052112 -0.010127956 0.07007238 -0.036333915
000050 d7 18 4e bd 83 1a e7 3b bd 5f e8 bd 8e f7 b3 3c
       -0.050316658 0.007052721 -0.11346386 0.02196863
000060 a0 ba a8 bd 0b fb 8b bd 2f ee 83 bd e7 f4 77 bc
       -0.08238721 -0.06834992 -0.06441914 -0.015134073
000070 54 32 33 be 84 aa 0c bc 71 5a 0b 3d 17 5c 48 bd
       -0.17499667 -0.008585576 0.0340218 -0.04891595
000080 4b 41 45 bd bc 2e 2b 3d db 9a 5e bd 35 d4 bc bd
       -0.04815797 0.041792616 -0.0543469 -0.09220163
000090 84 78 27 3d 39 60 68 3c 83 9d b3 bd 6f b5 73 3c
       0.040886417 0.0141830975 -0.08770277 0.0148748
0000a0 bc f5 3a bd 1a 08 64 bc b2 b4 b6 bd 72 8a 69 bc
       -0.045644507 -0.013917947 -0.08921184 -0.014254199
0000b0 ac c2 8e bd 5c af 3f bd f1 07 53 3d af 5e 42 3c
       -0.069707245 -0.046798095 0.051521245 0.011863395
0000c0 ae 2b 9d 3c 0d 45 87 bd b8 c6 b4 bc 9c 64 54 3c
       0.019185867 -0.06604967 -0.022067413 0.01296344
0000d0 9c 2f 4d bd ec c2 e5 bc e5 8d cc bd 8e 29 b3 bd
       -0.050094232 -0.028047048 -0.09988002 -0.0874816
0000e0 1f 36 e5 39 49 91 af 3c a1 3a 1a bd 5d 8b 1f 3b
       0.00043718607 0.021431582 -0.03765357 0.0024344542
0000f0 11 87 0f bd da 9b f1 3c 2b d6 6b 3c f5 86 b4 bd
       -0.03504092 0.029493261 0.014394323 -0.088148035
000100 8d 2b 8c 3b 7d 60 0d 3c ec 9f 1c 3d bd 46 68 bd
       0.0042776526 0.008628962 0.03823845 -0.056708086
000110 0d 8c 6c bd 26 d3 1e bd eb 64 16 be 16 1f e4 bc
       -0.05775075 -0.038775586 -0.14686935 -0.027846854
000120 41 e5 3f bd b0 b2 3b bd a3 09 36 3d 6d 89 02 3c
       -0.046849493 -0.045824707 0.044442784 0.007967335
000130 cb 8a dc 3c b8 dd bb 3a 2f af f3 3c 23 8f 95 bd
       0.02692165 0.0014333045 0.02974662 -0.07302692
000140 f9 63 0e 3c 1b a8 d9 bd c5 95 83 bd a6 4c e9 bb
       0.0086908275 -0.10627767 -0.06425051 -0.007119733
000150 62 dd a7 bd 72 68 a8 3c 64 ee b8 3c 83 46 97 bd
       -0.08196522 0.020557616 0.022574611 -0.07386496
000160 26 43 32 bb 5f 2d 3e bd c2 b0 5f 3d 79 0b b9 bd
       -0.0027200668 -0.046429988 0.05461193 -0.09035391
000170 42 a4 d5 bd ba 95 a7 bc 07 32 37 be 9f 10 6c 3a
       -0.1043172 -0.020457137 -0.17890178 0.0009005162
000180 e0 fc 88 3c 5b e7 db 3c 36 ab f2 bd 9b 2d 59 bd
       0.016722143 0.026843717 -0.11849062 -0.05302201
000190 88 11 5d 3d d9 ae e2 bd 12 6d 0f 3c 9a c9 a9 bc
       0.053971797 -0.11068506 0.008754032 -0.020726014
0001a0 43 51 ac bd 4d 82 12 bd d6 4c a3 3b 95 2d 81 bc
       -0.08413937 -0.035768796 0.004983525 -0.015768806
0001b0 21 e7 01 be 05 30 b4 bc f1 bb 07 3d c2 19 01 bd
       -0.12685825 -0.021995554 0.03313822 -0.031518705
0001c0 9b b6 30 be a2 50 44 bc 94 cb 9d bd d0 4d 00 bd
       -0.17257158 -0.011982115 -0.07704845 -0.031324208
0001d0 02 2d 37 bc d5 a1 28 3d 4c 5a 6a bd 5e a5 ab 3c
       -0.011180164 0.04116996 -0.05721502 0.020952877
0001e0 15 60 bb bd 54 98 1e bd d7 0b bb bd ff f4 c5 bc
       -0.091491856 -0.03871949 -0.09133118 -0.024164675
0001f0 73 7f 9d bd b9 8a fd 3b 2d 0d 8a bd e3 16 7c bd
       -0.07690325 0.0077374843 -0.06740794 -0.061545264
000200 df f3 12 3c 65 ce 48 bd d4 4e c8 bd 6f 9e 25 be
       0.008969276 -0.04902496 -0.0978066 -0.16173719
000210 a8 88 c3 bd 69 0d 4f bd e0 d0 1e bd de 0a 87 bd
       -0.095475495 -0.0505499 -0.038773417 -0.065938696
000220 a1 a2 82 bd bf f9 84 bd a4 2c c4 bd 40 be 1d 3d
       -0.06378675 -0.06492948 -0.09578827 0.038511515
000230 ab e2 7c bd 19 84 8c bd 94 68 22 bd ad 34 e0 bd
       -0.061739605 -0.06861133 -0.039650515 -0.10947547
000240 3e f1 44 bd 82 af d8 bd dd 6b 4f bd be b5 51 bd
       -0.04808163 -0.105803505 -0.050639976 -0.051198713
000250 a3 e1 0a 3c d9 2f 86 bd be be be bd 0a 76 84 bd
       0.008476648 -0.06552095 -0.09313725 -0.06467827
000260 8f d0 df bd 26 5d 41 bd 40 a5 c0 bd 8f 2f 82 bc
       -0.10928451 -0.047207974 -0.09406519 -0.015891818
000270 70 fb 50 3d 1d 25 c1 bd 75 f9 a2 bd 2b ba f0 bd
       0.05102104 -0.09430907 -0.079577364 -0.11754259
000280 65 52 ce 3c f3 3c ab bd ce 3d f0 bb 61 fb 44 bd
       0.025185773 -0.083612345 -0.0073315864 -0.048091296
000290 ef b9 65 3d b4 a9 c0 3c 3d d4 ce 3c ad f3 bb bb
       0.056085523 0.02351842 0.025247687 -0.0057358355
0002a0 cf 49 55 bc 00 90 49 3d 6d 23 70 bc d2 25 1b bd
       -0.013018086 0.049209595 -0.014656884 -0.037877865
0002b0 79 a2 c2 bd 63 d3 cf ba 95 ea 00 be b4 00 c8 bd
       -0.095036454 -0.0015855845 -0.12589486 -0.09765759
0002c0 39 b6 1f 3d 28 9f 67 bd f7 66 2e bd 0c a2 d3 bc
       0.03899214 -0.056548268 -0.042578664 -0.025834106
0002d0 cc cd 15 3d af 96 9a 3c 39 9f 25 3b 4b d7 a2 bd
       0.036573216 0.01887068 0.0025271906 -0.0795122
0002e0 15 7a f1 bd 2f d0 25 bc 10 a3 de bc bc 49 b6 bd
       -0.117908634 -0.010120436 -0.027177364 -0.089007825
0002f0 62 4f bf bc e5 eb ce 3c 9f ee 46 bd 7d 85 78 bb
       -0.023353282 0.025258968 -0.04856741 -0.0037921362
000300 01 76 07 be 56 62 08 3d 4a aa 21 bd 82 86 a9 bc
       -0.13228609 0.033296905 -0.03946904 -0.020694021
000310 71 3c 3f bc b3 a2 0f be 90 ee 81 bd c6 4c 03 bd
       -0.011672125 -0.14026909 -0.0634433 -0.03205564
000320 74 8d 24 bd 2a af b3 bd 99 d5 73 3c 55 82 ea 3c
       -0.040173963 -0.08773644 0.014882469 0.0286266
000330 6f 3f 44 3d e2 30 1e ba 00 d9 ad bd f6 8e ef 3b
       0.047912057 -0.0006034506 -0.08488655 0.0073107434
000340 46 79 d8 bc 95 26 97 bd 25 4c d9 bd 08 c2 0b be
       -0.026425015 -0.07380406 -0.106102265 -0.13648236
000350 38 e2 c1 3b d7 88 fd bb aa 5e 19 bd 6a d2 c6 3d
       0.00591686 -0.00773726 -0.037443794 0.09708102
000360 d0 9d c8 bd d3 aa 67 bc 7f b4 65 bd f4 73 e0 3b
       -0.09795725 -0.014139849 -0.056080338 0.00684976
000370 33 d8 d9 bc bb c5 49 be 63 b8 b7 bc 95 01 a6 bd
       -0.02659235 -0.19704334 -0.02242679 -0.081057705
000380 27 df 16 bd 9b d5 d6 bd e5 dc 9a bd e5 e5 f1 3c
       -0.03683391 -0.10489961 -0.075616635 0.029528568
000390 57 b7 38 bc 7e 48 0c 39 cf 57 b7 bd be 01 e6 bc
       -0.01127418 0.00013378446 -0.08952295 -0.028077003
0003a0 12 3e 8e bd c0 07 5d bd e4 20 cd bc 8d 96 16 bd
       -0.06945433 -0.05396247 -0.025040098 -0.03676467
0003b0 ea 8a c4 bd 29 dd 1a 3c 58 7e 04 be ed 9d bd bd
       -0.09596808 0.009452143 -0.12938821 -0.092586376
0003c0 9d e3 8f bd 21 6d b2 bd f9 c0 83 bc c0 19 db bc
       -0.07025836 -0.08712221 -0.016083227 -0.026745677
0003d0 ad f6 3a 3c e7 ba 64 bc 68 80 58 bb 02 a5 96 3d
       0.011411351 -0.013960577 -0.003303552 0.073556915
0003e0 e8 e2 a2 bd 79 67 a8 bd 5e 0c 92 bb 3c b1 5c bb
       -0.07953435 -0.08222861 -0.0044570407 -0.0033674976
0003f0 56 c7 79 3c cc 71 fa bd 0e 6b 65 bd d5 4a f1 bc
       0.015245279 -0.12228736 -0.0560103 -0.029454628

fc2.bias f4 [256]
000000 83 3e a7 bd 37 ad fd 3d 94 2c 8e bc 25 fb 1d bd
       -0.0816622 0.12386554 -0.01735524 -0.03856959
000010 13 40 d0 3d b6 32 57 bf d2 9a 98 bd 72 65 5a 3f
       0.10168471 -0.84061754 -0.07451405 0.85311043
000020 d1 df 9c bd 86 8f 9c bf bb 79 a9 be 34 88 0e be
       -0.07659877 -1.22313 -0.33100685 -0.13919145
000030 c7 6c 11 bd d7 aa 55 be 47 4c d3 3f 9c f2 04 bf
       -0.03550413 -0.20865951 1.6507653 -0.5193269
000040 28 25 8d 3e f8 6f 92 bb 22 8b da 3e d1 f7 27 3f
       0.2756741 -0.004468914 0.42684275 0.6561251
000050 1a 53 af 3e de 4e 19 bd 22 7d b8 bd bc c2 f6 bc
       0.3424309 -0.03742873 -0.09008242 -0.030122153
000060 54 49 22 bd 29 71 d2 3c e1 73 3c bf 59 b0 92 be
       -0.039620712 0.025688725 -0.7361432 -0.28650168
000070 77 dc a2 bd 4f 36 a2 bd f5 98 ef 3e b8 d2 b4 be
       -0.079522066 -0.07920515 0.46796384 -0.35317016
000080 f3 79 9d bd c2 16 aa bd 7b 7b 71 be bf c3 58 be
       -0.076892756 -0.08305122 -0.2358226 -0.21168421
000090 8e cb 92 bd b7 3b fd 3f c3 62 ac 3f ea 2c 14 c0
       -0.07167731 1.9783849 1.346764 -2.3152413
0000a0 5e 1f b7 bd 8d 7b 71 bf 65 85 46 be bd 50 26 bd
       -0.0894153 -0.9432915 -0.19386823 -0.04060434
0000b0 32 cc 36 3e 3d ac 44 be 68 d7 83 3e e6 74 15 bf
       0.17851332 -0.19206329 0.2575028 -0.583815
0000c0 6a 1b cc 3d 77 e6 a5 bf cd e2 55 bf f3 17 90 bd
       0.09966166 -1.2960957 -0.83549196 -0.07035818
0000d0 ba 41 af bf cf 3b 99 be 23 3f 78 3d 5f 2b 81 3c
       -1.3691933 -0.29928443 0.060607087 0.015767751
0000e0 61 9d db bd da b9 17 be dd 77 23 bf f7 f3 16 bf
       -0.10723377 -0.1481699 -0.6385477 -0.5896601
0000f0 93 89 ec 3e f9 1c cc be 49 4b e8 bc 9b 27 83 bf
       0.4619871 -0.39865854 -0.028356211 -1.0246462
000100 bd 61 0b bd 10 0f 58 3e 49 94 93 bd f5 cd 28 bf
       -0.034028757 0.21099496 -0.072060175 -0.65939265
000110 1a 8e 57 c0 85 aa 6c 3f 21 9b 27 bd 4a be 14 3f
       -3.3680482 0.9244769 -0.040919427 0.5810286
000120 94 83 84 3f 54 4d 67 3d 09 56 13 bf 04 60 38 3f
       1.0352654 0.05647023 -0.57553154 0.7202151
000130 8b 5d 9a bd 3d 01 be bd 47 b4 3a c0 2d de 08 bd
       -0.07537373 -0.0927758 -2.9172533 -0.03341501
000140 33 15 dd bc b7 1c bf bd e4 1a 73 bd f7 b5 c5 bd
       -0.026987648 -0.09331649 -0.059351817 -0.09653848
000150 5a 35 9c bd b6 34 b5 be ce c1 f6 be c6 ef b1 bd
       -0.076273635 -0.35391778 -0.48194736 -0.08688311
000160 44 54 c2 3e 2a 8f d9 bd dc 62 74 c0 90 04 20 bd
       0.37954915 -0.106230095 -3.818534 -0.03906685
000170 c2 ba 98 bd 7e d4 82 3e a1 f2 eb bd 31 49 08 bf
       -0.07457496 0.25552744 -0.11520887 -0.5323668
000180 9a e4 f1 bb 31 19 72 3e b0 6e 24 3f 68 dd 6c bf
       -0.0073819878 0.23642422 0.64231396 -0.9252534
000190 a3 20 84 3e 17 35 32 3f ee 6f 17 3f 6b 7e c6 be
       0.2580615 0.6961226 0.59155166 -0.38768324
0001a0 24 37 9a bd 1c 89 18 3f 5f a9 e8 bd 96 e8 57 bf
       -0.075300485 0.5958421 -0.1136043 -0.8433927
0001b0 2e 58 44 3f 70 a0 00 3f 88 6c 9d bd b2 a9 c3 3e
       0.7669705 0.5024481 -0.07686716 0.38215405
0001c0 25 4a a5 bd 25 07 2a bf 3b 22 74 3f 49 df 3c bd
       -0.080707826 -0.6641715 0.9536473 -0.04611138
0001d0 97 f5 b5 bd 2d 33 fc bc 11 fc 19 bc 7a 44 bc bd
       -0.08884733 -0.030786121 -0.009398476 -0.09192748
0001e0 1c d7 8d 3f 8c 74 12 3f d1 79 7b be 61 e3 c8 bc
       1.1081271 0.57209086 -0.24558188 -0.024522485
0001f0 0a 9d 09 40 92 dc b6 3e 57 86 89 3e 91 8d 4e 3e
       2.15021 0.35715157 0.26860306 0.20171191
000200 4c 6c e3 bf 91 0f 4d bf 5a 50 8b bd 71 cd e0 bb
       -1.7767425 -0.8010188 -0.06802435 -0.006860428
000210 59 0d a2 3f fa cd f2 bc b4 6c 49 bf cb 15 c1 3e
       1.2660323 -0.029639233 -0.7868149 0.3771194
000220 44 ce d0 bd 07 3d b6 bd 54 ed 4f 3d de d2 ca be
       -0.10195592 -0.08898359 0.050763443 -0.39614004
000230 5e 33 8d bf cc 72 e1 bd 67 a7 41 bd a0 24 38 3f
       -1.1031301 -0.11008224 -0.047278788 0.71930885
000240 e7 b6 77 3f 94 2e 9f 3e 34 c8 03 bf b1 4c a5 3e
       0.9676346 0.31090224 -0.5147736 0.32285073
000250 30 14 92 bc 78 5b 6f bd 9e a3 f2 bd 7a 03 d9 be
       -0.017831892 -0.05843684 -0.11847614 -0.42385465
000260 9a 01 70 bd 62 ac 83 be c1 a0 a9 bd 4b d5 60 3f
       -0.058595277 -0.25717455 -0.082826145 0.8782546
000270 a9 92 87 3f a7 f8 2f bf d9 c6 ce 3f a3 c8 44 c0
       1.0591632 -0.6873879 1.6154433 -3.074746
000280 ea 89 c8 bd 90 12 83 bd 3d 22 95 3e 5a 8c e3 bf
       -0.0979193 -0.06400025 0.29127684 -1.7777207
000290 c1 ce 40 3f 74 7d c9 be c8 9f 9d be 81 81 91 bd
       0.7531548 -0.39353526 -0.30785966 -0.07104779
0002a0 9b db 21 3f 14 5a 63 3f 0f 06 0d be 9f bb 11 bf
       0.63225716 0.88809323 -0.13771842 -0.5692691
0002b0 97 7b 14 3e 12 de e3 bc 05 96 d3 3e a8 58 ce 3e
       0.14500271 -0.027815852 0.41325393 0.40302014
0002c0 0f f6 8c be 16 a7 3c be 42 30 ba bf f8 1f 12 bd
       -0.27531478 -0.18423113 -1.4545977 -0.03567502
0002d0 99 83 6e 3e 18 75 f0 be 26 52 71 bd b7 c8 26 be
       0.23292388 -0.46964335 -0.058916233 -0.16287504
0002e0 5c e4 c9 3f da dc fc be bb a9 38 3c 24 00 fe 3e
       1.5772815 -0.49387246 0.011270936 0.49609482
0002f0 03 41 8b bc 80 86 e6 3f fa ec 8c bc 5a 75 d1 3f
       -0.016998773 1.8009796 -0.017202843 1.6363938
000300 27 0f 32 be 71 f3 e2 3d 1a 99 68 3d f2 87 40 3f
       -0.17388593 0.11081589 0.056786634 0.75207436
000310 45 37 f5 3e 5b 99 4e 3d af d1 18 be 68 0c db bf
       0.4789373 0.05043922 -0.14923738 -1.7113161
000320 e0 97 62 bd c0 07 c1 bd f8 40 98 bc ea 21 de 3e
       -0.05532062 -0.09425306 -0.018585667 0.4338525
000330 0c c2 bc bc 88 8d eb be 3e 5f ca bc ad 32 bf be
       -0.023041748 -0.46006417 -0.024703618 -0.3734335
000340 49 9e e5 bd 25 82 50 bd 1f 19 9d 3d 3e 52 b1 3f
       -0.11211831 -0.050905365 0.07670807 1.3853223
000350 59 81 b5 3f 74 81 e1 3e 4c 2d 81 be 9b c8 0a bf
       1.4180099 0.44044077 -0.2522987 -0.5421235
000360 5f 96 84 be 5f ad 1e 3e 30 fb 76 be c8 01 f9 3e
       -0.25895974 0.15495823 -0.24119258 0.4863417
000370 f5 eb c7 3e b6 f2 d3 3e b2 be b0 bd 67 fe dc 3c
       0.39047208 0.4139611 -0.08630122 0.026976777
000380 8d ab d9 3d 55 3c ed bd 98 77 28 bf 71 40 5b bf
       0.10628424 -0.11583773 -0.65807486 -0.85645205
000390 89 1f 79 bd 86 63 79 bd 0f 88 6a bd 16 07 7b be
       -0.06082109 -0.06088593 -0.05725866 -0.24514422
0003a0 bd 71 e2 be 08 77 cc 3f 2a 49 a4 3e 3c 72 c2 3c
       -0.442274 1.5973825 0.3208707 0.023736112
0003b0 d5 e3 c8 bd 0b f8 a4 bd d7 d2 79 bd 52 1f d8 bd
       -0.098090805 -0.08055123 -0.06099209 -0.10552849
0003c0 f3 72 f7 bc 41 2e 1a bd e9 67 66 3b 80 4a 82 bf
       -0.03020618 -0.037641767 0.003515715 -1.0178986
0003d0 58 d2 ce bf 7b 0e 8e be 11 ba 11 3d 57 6f b0 3e
       -1.6157942 -0.27745423 0.035577837 0.34459946
0003e0 ab 7b 5d be 54 a4 0c be a7 1c bc 3c 2d 6a eb bc
       -0.21629207 -0.13734561 0.022962881 -0.028737152
0003f0 8e 49 e2 3c a7 46 07 bb 3c 5d e6 3d 65 f9 81 bd
       0.027622964 -0.0020641477 0.11248252 -0.06346396

fc3.weight f4 [256, 256]
000000 e2 02 8a bd 75 5a 82 be 85 32 87 bd c8 d0 54 bd
       -0.06738831 -0.25459638 -0.06601433 -0.05195692
000010 34 00 6b be 91 df 62 bd 91 b6 e0 bc b8 61 c9 bc
       -0.22949296 -0.05538899 -0.027430804 -0.024582729
000020 ad 44 1b bd a0 62 0e 3d 27 e5 84 be cd 1c 36 bc
       -0.03790729 0.034762025 -0.2595608 -0.011115265
000030 b3 b3 08 bd f7 a6 55 3c ca aa 0e be e5 b4 2a 3d
       -0.0333745 0.013040296 -0.13932338 0.04167642
000040 f2 6f e1 3b 2e a3 a6 3b a6 a7 fa be 96 14 0f 3d
       0.0068798 0.0050853705 -0.4895603 0.03493174
000050 d7 58 7e bd a5 8f 0c bd 5c 33 55 3d df 55 05 be
       -0.062096443 -0.034316678 0.052050933 -0.13021038
000060 b8 44 41 3d b1 2e 9f 3d 78 fb 8f be f7 91 bb bd
       0.047184676 0.077725776 -0.28121543 -0.091587
000070 80 37 86 bd 6c 6f 47 bd fc 49 df bd 40 7e ca bb
       -0.065535545 -0.048690245 -0.10902783 -0.006179601
000080 91 b7 6b bc 4f 2e 48 bd d5 87 56 3d 53 5e 98 bd
       -0.014387027 -0.04887229 0.052375633 -0.07439866
000090 5c cb 6a 3c 4e 38 df 3c 1c 78 b5 be 64 e7 8d be
       0.014330711 0.027248528 -0.354432 -0.277156
0000a0 58 76 2b 3d 22 90 db bd 9a 84 ed bd 9f cf 06 be
       0.04186091 -0.107208505 -0.11597557 -0.13165139
0000b0 3c a2 1b 3c fa dd 47 be 59 32 77 3d b6 8b 9d be
       0.009499129 -0.19518271 0.06035075 -0.30770653
0000c0 11 79 0e be b6 06 e3 be 12 f5 0c bd cf 14 14 3d
       -0.1391337 -0.44341058 -0.034413405 0.036152657
0000d0 c7 54 e8 be c2 3a 55 be a4 c5 32 be ff f8 53 bd
       -0.4537718 -0.20823196 -0.17458206 -0.051751133
0000e0 ee 5a 20 bd 67 96 8c bd d6 c6 ee bd 69 30 3b 3d
       -0.039149217 -0.068646245 -0.11659019 0.045700464
0000f0 2f 61 dc be bd ed 75 be 6e 36 3a bd 91 65 3d be
       -0.43042895 -0.24016471 -0.045462064 -0.18495776
000100 db cd 00 3d cc 05 27 bd 42 5b 4f 3d 0d 8d 0d bc
       0.03144632 -0.040777013 0.05062414 -0.008639586
000110 d4 ec fb be c7 66 1f be 6a 78 82 b9 eb 56 09 bf
       -0.49204123 -0.1556655 -0.00024885248 -0.5364825
000120 21 20 54 3d 40 cf 27 be 79 c8 ab be d0 fb 08 3e
       0.051788453 -0.16387653 -0.33551386 0.13377309
000130 e1 79 ca bd ef 98 3e 3d e1 c2 63 3d 26 ab 40 3c
       -0.09886528 0.046532568 0.055605773 0.011759555
000140 4c 08 07 bd c5 00 78 bc 91 47 39 bd 04 30 8f bc
       -0.032966897 -0.015136902 -0.045234267 -0.01747895
000150 d6 bc 36 3d 5a db 9a be 05 5b 14 3e 1d 3d b8 3d
       0.04461368 -0.30245477 0.14487846 0.089960314
000160 27 21 48 be d7 72 75 be 4d 1d 6b be 39 ef 47 3d
       -0.19543897 -0.23969589 -0.22960396 0.048812125
000170 53 7d 8f 3c fc eb 40 bd 0d e4 db bd d8 86 92 bd
       0.017515814 -0.047100052 -0.107368566 -0.07154626
000180 b9 5d 3e bd 97 ce f8 bb 84 4e 7e be ea d9 06 bd
       -0.0464761 -0.007592987 -0.24834639 -0.032922663
000190 3e 5c 5d be 5f 41 35 bd 47 a0 b6 3d 8f df 23 3e
       -0.21617219 -0.044251796 0.08917289 0.1600325
0001a0 41 ea 63 3b fa d9 1d 3e 83 62 b4 3c 4d a6 8a be
       0.0034777077 0.15415183 0.02201963 -0.27080002
0001b0 5e 04 f4 be 99 04 40 be bb 7d 22 bd e5 d5 ae be
       -0.47659582 -0.18751754 -0.039670687 -0.34147564
0001c0 a5 b1 f1 bd cc 04 c7 be 21 1e 57 bd 8f 8a 6f be
       -0.11801461 -0.38870847 -0.052518968 -0.233927
0001d0 41 d2 3b bf 10 dd c0 3c df a5 ba bc f2 d0 34 bd
       -0.73367697 0.02354291 -0.022784172 -0.04414458
0001e0 02 93 55 be c8 be 3c be d5 7a 08 bb 0b e9 63 bc
       -0.2085686 -0.18432152 -0.0020825167 -0.013910542
0001f0 f8 e0 10 be 88 d5 d2 be f4 ca b5 bd 35 b5 81 be
       -0.14148319 -0.41178536 -0.08876601 -0.25333562
000200 21 2b 79 bc 7a 48 9a be 7c 26 04 bd e2 47 c8 3d
       -0.015208037 -0.3013342 -0.032263264 0.097793356
000210 c2 af 0e be f7 1e a2 bb f3 7b 35 3e 40 80 fe bd
       -0.13934234 -0.004947539 0.17723064 -0.124268055
000220 dc 51 45 3c ec ae 12 3d 4e e9 5b be 92 4c 73 bc
       0.012043443 0.03581135 -0.21475717 -0.014849799
000230 2e 54 c0 be 3a 8a 84 bc d0 00 e0 3c d1 46 7f bd
       -0.37564224 -0.016179193 0.027344137 -0.062323395
000240 2f bf 88 3d 1d ef 52 3d 76 3a 78 bd b0 64 04 bd
       0.066770904 0.051497567 -0.060602628 -0.032322586
000250 32 6d 2c bd bd dc 4c 3d fe 18 44 bd 51 6b 66 bc
       -0.042096324 0.0500152 -0.047875397 -0.014063672
000260 fd d5 74 bc ec 01 3f be c1 3f 77 be 7b 85 c5 3d
       -0.014943597 -0.18653077 -0.24145414 0.096446
000270 5d 13 f5 3c c6 cf 10 bc b4 e1 fa bd 00 a5 b8 be
       0.02991646 -0.0088386 -0.12250081 -0.36063385
000280 68 47 31 3d a3 ac f2 ba 12 8b 8c bd d1 b1 22 be
       0.04328099 -0.0018514585 -0.06862463 -0.15888144
000290 f1 f1 58 bc da 84 df bd e6 33 ed 3d 9e 92 bc 3c
       -0.013241277 -0.10914011 0.115821645 0.023019131
0002a0 dd 43 18 3e 4d f7 11 bd 25 72 8b bd 58 b0 4e bc
       0.14869638 -0.035636235 -0.06808881 -0.012615286
0002b0 ca 70 98 3d f2 6f f5 3c 8c 85 0a be 36 96 9e 3d
       0.07443388 0.029960606 -0.13527507 0.07743494
0002c0 d8 f1 04 bd b4 d0 f9 3d b5 69 83 3d aa f0 3d bd
       -0.032457203 0.1219801 0.064166464 -0.046372093
0002d0 29 cc 37 b8 ce a4 35 be a3 3b 4e bd 38 ed aa bc
       -4.382074e-05 -0.17738649 -0.050349843 -0.020865068
0002e0 1d 4b 8c bd a0 0c 92 bc af a9 79 bd 0d f1 a7 be
       -0.06850264 -0.017828286 -0.06095284 -0.32801095
0002f0 0d 66 f3 3c 10 6a af bd 90 1b 28 3d 8c 66 a1 bd
       0.029711748 -0.08565152 0.04104191 -0.078808874
000300 9e e9 62 bc 0e 93 d1 be b4 6a af 3c bb 42 54 be
       -0.013849644 -0.40932506 0.021413185 -0.2072858
000310 01 ec a1 be fc 0f 05 be 79 66 98 3c 03 2f a7 be
       -0.3162537 -0.12994379 0.01860355 -0.32653055
000320 e4 46 32 bd ae 7e b8 bc 88 43 59 bd 81 68 d3 be
       -0.043524638 -0.022521343 -0.05304292 -0.41290668
000330 27 15 87 bd 91 2f d8 be d6 90 1d 3d c0 85 fc be
       -0.06595831 -0.4222379 0.038468204 -0.49320793
000340 4e ad 91 bd b2 9b ac bd 5c ea da bd 00 a2 ba be
       -0.07113133 -0.08428134 -0.10689232 -0.3645172
000350 c6 7d 97 bd 2c 06 40 be e9 e1 81 3d 95 f8 84 3d
       -0.07397036 -0.18752354 0.06341917 0.06492726
000360 9d b7 e1 bd b0 54 a6 bd b2 91 ad be 16 f3 32 be
       -0.110213496 -0.081216216 -0.3390022 -0.17475542
000370 55 f2 24 bd 6e 31 a4 3c 1f f7 78 3d 13 01 b4 be
       -0.04027017 0.020043101 0.060782548 -0.3515707
000380 8a 72 1e bd 15 ab 87 bd 52 b8 5f be bf b9 28 bf
       -0.03868345 -0.06624428 -0.21847656 -0.65908426
000390 78 8c 96 3d 23 e3 6a ba ec cf 96 bb 8a 2b 86 be
       0.07351011 -0.00089602376 -0.004602423 -0.26205093
0003a0 4e 13 20 bd 34 00 4f 3d 4d 15 03 3d a1 4a d8 bb
       -0.03908091 0.050537303 0.032002736 -0.0066006933
0003b0 f9 f7 19 3d fb 0b 2f 3c d4 51 ba 3c 36 f9 a7 3c
       0.03759 0.010684009 0.022744097 0.020504575
0003c0 41 2c 09 3d d5 16 35 3c 8e 96 c7 bd b4 71 c0 be
       0.03348947 0.011052807 -0.09745513 -0.3758675
0003d0 1b dd fb bd 63 e7 fa be 93 8b 20 3e fe af 4b 3b
       -0.12298032 -0.4900466 0.15678243 0.0031080241
0003e0 ef d7 44 bd 3d cc 0e 3d d0 a1 d1 3d 36 5b 03 3d
       -0.048057493 0.034862746 0.102359414 0.032069407
0003f0 2d d9 75 3d aa 91 24 bc 7b 48 30 be 93 cd de bc
       0.060021568 -0.010044495 -0.17215149 -0.027197635

fc3.bias f4 [256]
000000 86 2c 7d be 06 85 1a be 27 73 6d bf 1e e4 09 be
       -0.24724016 -0.15089807 -0.92753834 -0.13465926
000010 17 2c 74 be 05 9d af be 14 ac ed be 4c 39 3b bf
       -0.23844944 -0.34299484 -0.46420348 -0.73134303
000020 c7 87 0b bf c2 6f e1 bb 9b 8d ef be 84 73 a7 be
       -0.54504055 -0.0068797776 -0.46787724 -0.3270532
000030 cb 14 95 3e 28 3f c2 be 66 06 76 bd 8b 82 41 bf
       0.29117426 -0.3793881 -0.060064696 -0.7558982
000040 bc 9d 51 3e 85 e3 8c bf 54 f0 de bd fe a6 8a be
       0.20470327 -1.1006933 -0.10885683 -0.2708053
000050 ad 7f 8c bf 49 96 d9 be 5e f1 02 bf f7 21 72 be
       -1.0976464 -0.4249747 -0.5114955 -0.23645769
000060 8d b0 97 bd 81 74 26 bf 8e 64 20 be 5c 55 91 be
       -0.07406721 -0.6502152 -0.15663359 -0.28385437
000070 bb e0 e0 3e 1a cc 5a be 5f 2c 9f be d1 88 d4 be
       0.43921456 -0.21366921 -0.3108854 -0.41510633
000080 89 ee ed be da d5 bb be 05 a1 6b bf 3b 97 82 bf
       -0.4647105 -0.36686593 -0.9204257 -1.0202402
000090 6b 8e 90 3c f7 43 e7 be a1 90 14 bf 1c 21 02 bf
       0.017646035 -0.4516904 -0.58033186 -0.5083177
0000a0 6e 2d 1b bd d9 ba 90 3d bd 67 0c 3e c5 15 27 3f
       -0.037885122 0.07066888 0.13711448 0.6526759
0000b0 b1 5f 4a 3e c6 c9 84 be bb f3 88 bf 6a f2 b5 be
       0.19763066 -0.2593519 -1.0699381 -0.3553651
0000c0 f7 57 1b bf 8f 73 42 bf 3d f9 b2 bd 21 4b e4 3f
       -0.606811 -0.7595758 -0.08738945 1.7835428
0000d0 42 b7 aa be c9 7d bb be 12 88 21 bf 17 0b 07 be
       -0.3334294 -0.36619404 -0.6309825 -0.13187824
0000e0 fc e6 dd be f3 99 80 bf f4 09 f5 be b3 61 3c bf
       -0.4334029 -1.0046982 -0.47859156 -0.7358658
0000f0 5b ba 5d bd 2b b2 03 bf 1a 26 92 bf 85 3b 74 be
       -0.0541328 -0.5144374 -1.1417878 -0.2385083
000100 46 74 cc be 30 3b f6 bd 9a ed 08 3f 0b f7 41 3e
       -0.3993246 -0.12023008 0.5348755 0.18941896
000110 92 b6 e2 bd ae 1d 44 bf a5 54 16 bd e2 41 21 3f
       -0.11069979 -0.7660779 -0.036701817 0.62991154
000120 a5 d1 00 3e 99 5f b1 3d e5 88 84 bf a0 66 45 be
       0.12579973 0.08660812 -1.0354277 -0.1927743
000130 bf dd 22 bf 27 e2 98 be a6 67 7e be 8c 15 76 be
       -0.6361961 -0.2986004 -0.24844226 -0.24031657
000140 86 98 06 bf b0 3d 70 be 05 6e e7 be 3c 5a 9a bd
       -0.5257648 -0.23461032 -0.45201126 -0.07536742
000150 ac d3 dc bf b5 0b 59 bf 0c da 72 bf 88 65 7e bf
       -1.7252097 -0.8478349 -0.94863963 -0.99373674
000160 d7 56 ec bf a7 2c db be c8 93 80 3e 57 72 a2 bf
       -1.8464001 -0.42807505 0.25112748 -1.2691144
000170 8b f5 12 bf cb af c9 3e 4b b3 54 be dc 86 9e be
       -0.5740592 0.39391932 -0.2077152 -0.30962265
000180 6f 00 74 bd 65 e8 03 bf 76 4f 02 3f 84 ef 93 be
       -0.059570726 -0.5152648 0.509025 -0.28893673
000190 24 37 ed be 92 d2 92 be 2e fc 1a be 93 22 7c bf
       -0.4633113 -0.28676277 -0.15135261 -0.98490256
0001a0 9a 55 43 bf 30 32 34 3e d6 b2 71 bf 1f 2d 03 bf
       -0.7630249 0.1759727 -0.94413507 -0.51240724
0001b0 7b f3 aa 3e c6 c9 17 bf 9b 37 2d be 51 5b 1f 3e
       0.33388886 -0.59292257 -0.16915743 0.15562178
0001c0 9f 0d 09 bf 0a eb 08 3f 15 9b 0a 3e f5 e3 20 bf
       -0.5353641 0.5348364 0.13535722 -0.62847835
0001d0 c9 e1 bf be f6 42 59 bf de 8f a0 bf 13 dd d0 be
       -0.37476948 -0.848678 -1.2543905 -0.40793666
0001e0 0b dc 2b bf 06 e5 2d 40 5d 10 51 3e 42 2a a6 be
       -0.67132634 2.7171035 0.20416398 -0.32454115
0001f0 67 9d 94 bd 07 8a 46 bf 3e 58 d0 3e 10 05 0a bf
       -0.072565846 -0.77554363 0.40692323 -0.53913975
000200 ad 13 34 be 80 b6 c5 3e 9b d5 e1 be f1 2f 36 3e
       -0.1758563 0.386158 -0.4410828 0.17791726
000210 1e c7 39 bf 2c 8f ff 3e 60 89 39 bf e3 da 64 bf
       -0.72569454 0.4991392 -0.7247524 -0.89396495
000220 12 7d 7c 3e 19 c6 25 bf 3c 20 f7 3d 82 ae 1f bf
       0.24657086 -0.647554 0.12066695 -0.6237565
000230 7a 19 99 3f 18 de 1f be 00 9a b0 be 8e da 86 be
       1.19609 -0.15612066 -0.34492493 -0.2633862
000240 72 74 3a be a6 7c 58 bf 20 68 77 be b5 fc 94 be
       -0.18208483 -0.845652 -0.24160814 -0.2909905
000250 b7 c0 ac be d7 f3 f6 be 49 66 33 3e df 1e 16 3e
       -0.3374078 -0.4823291 0.17519487 0.14660214
000260 99 d3 d9 bd 5b 0f 1b bf 07 0d 87 be 0c c2 bd 3d
       -0.10636062 -0.60570306 -0.26377127 0.09265527
000270 e3 f6 46 be 5a c6 08 bf 97 93 82 be 9f 85 c0 be
       -0.19430117 -0.5342766 -0.25503227 -0.37601945
000280 ac 7f 26 be d5 ea 1f bf 66 88 df bd 45 b6 5d be
       -0.1625964 -0.624677 -0.10914688 -0.21651562
000290 a5 ac 67 3d f2 91 43 be 90 0c de be 2f 66 ce be
       0.05656113 -0.19098642 -0.4336896 -0.40312335
0002a0 cc 4d a9 be ae 94 1f bf 3f 54 91 be f9 17 78 bf
       -0.33067167 -0.6233624 -0.28384587 -0.9691158
0002b0 c2 c0 8b be d9 54 7b be d7 5c a7 bc cd f1 86 3e
       -0.272955 -0.24544086 -0.020430012 0.26356354
0002c0 9a a1 14 bd f8 f8 f1 bc ba 5c 9a 3f c0 c7 98 be
       -0.036286928 -0.029537663 1.2059548 -0.29839897
0002d0 f5 8e 5b be 4e c4 db bd fe b3 23 bf 76 b6 40 3d
       -0.21441253 -0.107308015 -0.6394652 0.04704901
0002e0 e1 d3 f9 3c 84 d6 e6 3d f4 09 a2 be fc 69 d9 bd
       0.03049654 0.11271384 -0.3164822 -0.10615918
0002f0 ae c9 88 be 94 e3 54 3c f4 27 77 be 66 28 a6 bf
       -0.2671637 0.012993712 -0.24136335 -1.2981079
000300 5e fa 36 be 4e 21 bd be 5c 81 d4 bc b5 ee ac 3e
       -0.17868945 -0.36939472 -0.02594059 0.3377587
000310 02 9b 3b 3e 03 b5 3c bf 6f 7c d2 3f f5 0b 04 3e
       0.1832085 -0.737137 1.6444224 0.12895186
000320 6e 1a 80 bf c7 8b 84 be 30 42 46 bf ca d7 e0 be
       -1.0008066 -0.25887892 -0.77444744 -0.43914634
000330 b0 b9 7f bf f5 08 3e bf 65 11 4e be 29 73 9f bf
       -0.9989271 -0.7423242 -0.20123823 -1.2457019
000340 47 2d ec bd 21 26 fc 3b a5 8d 8c be 30 8d f4 bd
       -0.115320735 0.007694975 -0.27451816 -0.11940992
000350 6d 3f e3 be 1e 40 63 bf 45 ee f0 be 0d 3f 9d 3c
       -0.44384328 -0.8876971 -0.47056785 0.019195104
000360 f5 30 87 be 8e 93 a4 be 2c 1a d5 be 46 67 ac 3e
       -0.2640454 -0.32143825 -0.4162153 0.3367254
000370 13 40 9d be 99 8b ec 3e d6 93 47 be a4 4e 49 bf
       -0.30712947 0.46200255 -0.19489989 -0.7863562
000380 94 6d 5e be a8 54 83 bd 3b 8b 31 be ab 96 d1 bd
       -0.21721488 -0.06412631 -0.17338268 -0.10233816
000390 31 d9 53 bc 55 e6 da be 81 d4 7c bd d6 f6 90 3f
       -0.0129302 -0.42753854 -0.061726097 1.1325328
0003a0 37 fc 55 be 7a d8 16 be f2 de 3b 3f e2 96 11 3f
       -0.20896994 -0.14731017 0.7338706 0.56870854
0003b0 55 ff 0d 3f 34 a7 7f bc 4c 1d 5a 3f a1 c4 91 3e
       0.5546773 -0.015603829 0.85200953 0.28470328
0003c0 b0 93 06 bf 6c 16 b3 be 6a 32 ea be 15 1d 8b be
       -0.52569103 -0.34978044 -0.45741588 -0.27170625
0003d0 ff 4a d9 3e 0f d7 ab bd a8 4a 01 bf 63 ca 36 bf
       0.4244003 -0.083906285 -0.5050454 -0.7140257
0003e0 aa a4 5f be 91 55 8b 3e 9c b0 86 bf 98 33 a5 3f
       -0.21840158 0.2721372 -1.0522647 1.290637
0003f0 85 2c f9 be 9b 35 c4 be 82 f2 05 bf 80 36 10 3f
       -0.48666778 -0.38322148 -0.5232316 0.5633316

action_out.weight f4 [4, 256]
000000 ff f8 62 3e 15 47 a2 3c 54 1a d1 3c e1 4e 2f bd
       0.22165297 0.019809285 0.02552525 -0.042799834
000010 0a fd 94 bd b4 3c 87 bd 0f 5b d7 bd 3d a6 16 3d
       -0.07274826 -0.06603375 -0.10515415 0.03677963
000020 f8 bf 38 3d 37 ed fc 3d dd f6 4f 3d c0 23 08 3e
       0.04510495 0.12349933 0.050772537 0.13294888
000030 23 31 91 bc 75 9d d9 3d 38 ae 72 3e 80 7c 38 3c
       -0.017723626 0.10625736 0.23699272 0.011260152
000040 f6 6b 7a be e1 4f 6b be 26 6d 8d 3d 49 d9 db 3b
       -0.24455246 -0.2297969 0.06905584 0.006709252
000050 62 25 8c 3d 0c 0c 09 bd 86 7e 85 3d d1 af 1b be
       0.06843068 -0.033458754 0.06518273 -0.15203787
000060 84 45 74 3d a6 2d a9 bd 7d 57 37 bd a3 69 c6 3d
       0.059636608 -0.0826066 -0.04476117 0.09688117
000070 58 1c 8b bc 46 fd 4b bd 9f d4 84 bd 0a ba 1c bc
       -0.016981289 -0.049802087 -0.06485867 -0.00956584
000080 28 4d bf bc 84 7f 1d bc 8e 9a e9 bd bc b6 6c 3f
       -0.02335222 -0.009612922 -0.11406432 0.9246633
000090 42 73 9a bd 92 95 5a 3e 45 ea 94 3c 1c 73 30 ba
       -0.07541515 0.21346119 0.018178115 -0.000673102
0000a0 18 cb e7 3d 38 0e 25 3d 3f 59 1b 3e 98 a4 21 3d
       0.11318034 0.040296763 0.15170763 0.03946361
0000b0 f4 56 1b 3b d9 16 f9 3d 3e 0e 93 3f 7e 25 42 be
       0.002370295 0.12162561 1.1488721 -0.18959615
0000c0 14 d9 de 3d d3 50 9b bd 6d 5b 70 3d e2 d0 06 3e
       0.10881248 -0.07583775 0.05868094 0.1316562
0000d0 a5 fc df 3e f5 4b 33 3e c4 6f 80 3b c9 f4 06 bd
       0.4374744 0.17509444 0.0039195735 -0.03294829
0000e0 b4 eb da 3d b8 21 d3 3d a6 08 9c 3b 6b 63 c5 bd
       0.10689488 0.10309166 0.004761773 -0.09638103
0000f0 f8 ed 8d 3d 20 56 5f 3d 6f 57 37 3c b2 37 b2 bd
       0.069301546 0.054525495 0.011190279 -0.08702029
000100 7e 7e fd bc 7c dc 6b bd 3c 84 fa 3c 96 2e 0a 3e
       -0.030944105 -0.057583317 0.030580632 0.13494334
000110 57 55 cb 3c 2b 4e b6 bc b2 a4 2e 3d 53 37 c7 3d
       0.024820967 -0.02225407 0.042637534 0.09727349
000120 1d ac 9b bd 3f 0a 1f 3d 1d 6d 47 3d 1f 39 ab bd
       -0.076011874 0.03882813 0.048688043 -0.08360504
000130 ef 86 be bb 8e 43 aa be cd 4a ee bc 48 55 a6 3d
       -0.005814425 -0.33254665 -0.029088402 0.08121735
000140 22 b3 0e 3f f0 32 93 3d 51 90 49 bf 2d 7b fb bc
       0.55742085 0.0718745 -0.78735834 -0.030698383
000150 3f a4 ff 3d bd db 8a 3e 78 5a 66 be dd 9b fd bc
       0.12482499 0.27120772 -0.22495449 -0.03095811
000160 88 2a 5d bd 8e 78 f4 3e 8d ec 01 bf 5e df 0e bf
       -0.05399564 0.47748226 -0.5075157 -0.5580958
000170 0c c7 a0 3d 74 b0 82 bd ad 5c 68 bd 4f 66 8f be
       0.07850465 -0.06381312 -0.056729008 -0.28007743
000180 e4 b0 e9 bc 6b f6 ca bc 43 e9 28 39 42 71 bd 3e
       -0.02852673 -0.024775704 0.00016108625 0.3700047
000190 76 cc 6d bc e9 19 bd 3e b2 76 1f 3c 1b bc 40 3c
       -0.014514079 0.3693383 0.009732889 0.011763598
0001a0 c2 f1 26 3d 97 1d 44 3c 7d 08 8e 3d 63 f1 16 be
       0.040757902 0.011969945 0.06935213 -0.14740519
0001b0 54 5e 85 3d 4b 51 f1 3c 7b 40 91 3e b0 57 b2 3c
       0.06512132 0.029457709 0.28369507 0.021770328
0001c0 b8 2b e4 3e b3 b3 b1 3c 59 02 43 3d 85 09 17 3f
       0.44564605 0.021692133 0.04760966 0.589989
0001d0 17 d7 c7 bc b7 ba 8c 3d 34 45 71 3e b9 68 a7 3e
       -0.024394555 0.068715505 0.23561555 0.32697085
0001e0 bd 01 7e bd 35 a4 54 3e 21 b4 14 3e 08 14 55 be
       -0.062013377 0.20765765 0.14521839 -0.20808423
0001f0 8c bf 88 3d f0 84 49 3d 40 7e aa 3d 58 bb 17 bf
       0.0667716 0.049199045 0.083248615 -0.5927024
000200 a8 3f e9 3d 36 5f 8a bd bc de 05 bf 04 e8 c4 bd
       0.113890946 -0.06756441 -0.5229299 -0.09614566
000210 cc 2e 3a be 8a c8 a6 3c a2 5d 87 3c 80 60 a9 3d
       -0.18181914 0.020359296 0.01652414 0.08270359
000220 7e 23 e3 bd 60 2d 6a bd fe ba 36 3e 15 2e f5 bd
       -0.11090754 -0.05717218 0.1784477 -0.1197168
000230 60 c7 3c 3e b1 c5 56 bc 7b 6f 8a 3e 13 7c ad 3e
       0.1843543 -0.013108657 0.27038178 0.33883724
000240 06 29 e2 3e 10 3b 90 bc 3f 20 e6 3d 75 c0 c2 bc
       0.44171923 -0.017606288 0.11236619 -0.023773411
000250 3a 89 1f be 36 cf 3e bd a1 8a 0c be 5f 68 b3 bd
       -0.15579692 -0.04658433 -0.13724758 -0.087601416
000260 e5 ed 14 3d 8b 17 30 3f 34 f9 3b bd 10 6a de 3d
       0.036359686 0.68785924 -0.045891955 0.108600736
000270 c2 cf 36 3e 05 7a 39 3f 54 3b d1 bd 8b 95 9a be
       0.17852691 0.7245181 -0.10216394 -0.30192217
000280 92 39 10 be a5 ef 79 bc 87 97 57 3d a5 2e 6e 3f
       -0.14084461 -0.01525489 0.052634742 0.93039924
000290 0b 9f cd 3e e3 21 e1 bd 10 d4 87 bd 39 08 0e 3c
       0.40160403 -0.109927915 -0.066322446 0.008668953
0002a0 98 73 7b 3d 81 9f 49 bd b2 b7 84 3e 3e 25 82 3d
       0.061389536 -0.04922438 0.25921398 0.0635476
0002b0 10 d5 ef bc 02 f2 2a 3d eb 73 e0 bd a9 3c 13 bd
       -0.0292764 0.041734703 -0.109596096 -0.035946522
0002c0 af 94 22 3f dd e0 99 be f1 1c 29 3d 84 6c 01 be
       0.63508123 -0.3005437 0.041287366 -0.12639052
0002d0 b5 02 04 be fc 1d 4c be f6 46 d9 3d 66 e4 ac 3d
       -0.12891658 -0.19933313 0.10609238 0.08442001
0002e0 e7 e6 93 bd 5d d5 ac be a0 82 bc 3d 41 04 81 bc
       -0.072217755 -0.33756533 0.09204602 -0.015749099
0002f0 7b db a9 3d 38 3b 7e bd 78 10 00 be 60 14 f7 3e
       0.08293816 -0.062068194 -0.12506282 0.48257732
000300 c4 f9 a3 bc a8 8e 1c 3f ad 51 64 3e 8e 9b 05 3d
       -0.020016558 0.61155176 0.22296782 0.03261905
000310 0e 08 c1 3d dd 51 26 3f 39 33 93 3d cb 40 85 3d
       0.094253644 0.64968663 0.07187504 0.06506499
000320 2d f0 de 3e 45 b1 96 3d 55 9f 6d 3c 07 25 44 3d
       0.43542615 0.0735803 0.01450332 0.047886875
000330 ee 0a df bc d4 12 9d bd ed db 09 be f1 e1 70 37
       -0.027226891 -0.07669607 -0.13462801 1.4357721e-05
000340 3b 3a b7 bd e6 6b 05 3f cd 08 9b 3b c7 c1 1f bd
       -0.089466535 0.52117765 0.0047312737 -0.03900316
000350 23 a7 49 bc fa 3a 95 3d 4e 3c 3c 40 7c 2f 6c bc
       -0.012307915 0.072866395 2.9411807 -0.014415618
000360 a9 a2 9a bc 74 2c 5e 3b 75 8c 9f bc 8a 81 6f be
       -0.01887639 0.0033901008 -0.019476155 -0.23389259
000370 ac 27 1b bd 9d 90 88 bd ca c6 1f 3e 14 eb 61 3d
       -0.03787963 -0.06668208 0.15603176 0.05515583
000380 c2 9c 9e bc ae a0 88 3e 84 1c 6f 3f 2e b5 cc 3d
       -0.019361857 0.2668509 0.93402886 0.09995495
000390 01 b6 59 3d 5e 66 70 3c 74 60 84 3c 61 5a 0f 3e
       0.053152088 0.014672844 0.016159274 0.1399932
0003a0 70 51 c6 3d f0 03 f5 3d ab 68 85 3a 09 eb b5 3b
       0.09683502 0.11963642 0.0010178288 0.0055517
0003b0 2d 5a 4d 3e 2e 7b 9e 3d 9b 48 5b bc e3 43 fa 3c
       0.2005393 0.077383384 -0.01338401 0.030549949
0003c0 ba 79 75 3e d4 45 06 3c 5c e1 8b 3e ff a4 e5 3c
       0.23972216 0.008195359 0.27320373 0.028032778
0003d0 4e e3 3f bd 17 79 68 3b 81 87 9b 3e bd b9 51 3a
       -0.046847634 0.0035472566 0.3037682 0.00080003944
0003e0 90 23 26 be 6e 39 88 3c e9 83 32 b9 5d 9f 63 3d
       -0.16224504 0.016628947 -0.00017024543 0.055571903
0003f0 44 ee cc 3c 8c 8d bb 3d 5c d5 94 bc dd 57 b5 bd
       0.025015958 0.09157857 -0.018168144 -0.08854649

action_out.bias f4 [4]
000000 49 85 33 3d 6a 29 26 3c 5e 17 f6 bb f4 7e 43 3c
       0.043828283 0.01014171 -0.00751011 0.011932123
