saved_models/FetchSlide-v1/model121.pt (torch, 563151 bytes, 8 tensors)

fc1.weight f4 [256, 28]
0	0xbe8f6aa4	-0.28011048
1	0x3f074cca	0.52851546
2	0xbd4f3d9d	-0.05059587
3	0x3e09e434	0.13465959
4	0x3e9c25cb	0.30497584
5	0xbfd4de1e	-1.6630285
6	0x3cb79571	0.022410126
7	0x3e1fc49f	0.15602349
8	0xbea82b66	-0.3284561
9	0xbe0e0c23	-0.13871817
10	0x3ffa62bf	1.9561385
11	0xbe60c302	-0.2194939
12	0xbf10c93a	-0.5655705
13	0x3d59f006	0.05320742
14	0x3e10104e	0.1406872
15	0x3caebbb3	0.021329736
16	0xbe625b26	-0.22105083
17	0x3b2502a0	0.0025178567
18	0xbe16246c	-0.14662331
19	0xbe365274	-0.17804891
20	0xbdcac40a	-0.09900673
21	0xbd2590b7	-0.040421214
22	0xbde1b338	-0.110205114
23	0xbd28df7f	-0.041228767
24	0x3d85e86e	0.06538473
25	0xbee56b73	-0.4480854
26	0x3dfed59d	0.12443087
27	0xbfde7210	-1.7378559
28	0xbd9f628a	-0.07782467
29	0xbd391eb1	-0.045195285
30	0xbc333764	-0.010938499
31	0x3e00e173	0.12586002
32	0xbd84101d	-0.06448386
33	0xc00e58b5	-2.2241642
34	0xbe77f948	-0.24216187
35	0xbe2d8542	-0.16945365
36	0xbe8a9af3	-0.27071342
37	0xbf8469b7	-1.0344762
38	0x3fcdc510	1.6075764
39	0x3efec42b	0.4975904
40	0x3e9ca2bf	0.30592915
41	0xbc314d8d	-0.010821712
42	0xbdf667ff	-0.120315544
43	0xbecf8e7f	-0.40538403
44	0xbeacc802	-0.33746344
45	0xbd44e783	-0.04807235
46	0x3db53fe8	0.0885008
47	0xbe4ea74a	-0.20181003
48	0xbd04501a	-0.032302953
49	0xbefe6c45	-0.49691978
50	0xbeed3d44	-0.46335804
51	0xbe725168	-0.23663867
52	0xbddd98c7	-0.108201556
53	0xbe8d894d	-0.27643815
54	0x3e8e38dc	0.27777755
55	0x3fc29985	1.52031
56	0x3db8c8c9	0.09022672
57	0xbe0bf8b2	-0.13669088
58	0xbc9e3dc5	-0.019316563
59	0xbda6569e	-0.0812199
60	0x3ec024bf	0.37528035
61	0xbfb07128	-1.3784533
62	0xbe17236d	-0.14759608
63	0x3f818852	1.0119727
64	0xbdb327dc	-0.08747837
65	0x3e1b0c4e	0.15141413
66	0xbe06fadd	-0.13181634
67	0x3d8ec8df	0.06971907
68	0x3ba93dcc	0.0051648375
69	0x3da0e3e5	0.078559674
70	0x3f0ccf89	0.55004174
71	0x3ef2aad0	0.47395945
72	0xbf1bfc1c	-0.60931563
73	0x3dbcd485	0.092202224
74	0xbde00cec	-0.10939965
75	0x3d9a7505	0.07541851
76	0x3ed89781	0.42303088
77	0x3eaae2e1	0.3337622
78	0xbee95857	-0.4557521
79	0x3dc81018	0.09768695
80	0xbe25826b	-0.16163032
81	0xbf8af92d	-1.0857292
82	0xbea933e8	-0.33047414
83	0xbea3a187	-0.31959173
84	0x3e41caa5	0.18924959
85	0xbebae1c4	-0.3650037
86	0x3d271bc3	0.04079796
87	0x3ec0c0d5	0.3764712
88	0xbe4ec70d	-0.2019312
89	0xbe4a89f3	-0.19779186
90	0x3e7455b6	0.23860821
91	0xbeae0b56	-0.33993024
92	0xbdb7c6e6	-0.08973484
93	0xbd579e56	-0.052641235
94	0xbe3f2c6d	-0.18669291
95	0xbc3eb93d	-0.011640844
96	0x3ddcaa0d	0.10774622
97	0xbde5f249	-0.11227853
98	0x3d470daf	0.048597034
99	0xbf07d717	-0.53062576
100	0x3e81f7dd	0.25384417
101	0xbd955742	-0.07292034
102	0xbd14c657	-0.036321964
103	0xbd85d8ac	-0.065354675
104	0x3a005a10	0.0004896233
105	0xbecafa5a	-0.39644128
106	0x3e913b4f	0.2836556
107	0xbce4f1eb	-0.027947387
108	0x3d949c10	0.07256329
109	0x3f828d2d	1.0199333
110	0x3f01527f	0.50516504
111	0x3eb27ba5	0.34859958
112	0x3eb16217	0.3464515
113	0xbe677cd4	-0.22606212
114	0x3e6c31e3	0.23065905
115	0xbe863ec1	-0.26219752
116	0xbe3273a3	-0.17426924
117	0xbfe5c7c8	-1.7951593
118	0xbf239e30	-0.6391325
119	0xbe9261bb	-0.28590187
120	0xbf4b2eb2	-0.79368126
121	0xbfe8f11c	-1.8198581
122	0x401bbc90	2.433384
123	0x3f526306	0.8218235
124	0xbd49dab3	-0.049280833
125	0xbe8cc7de	-0.27496237
126	0x3d16ebf2	0.03684611
127	0x3e2bdafd	0.16782756
128	0x3e5bfa30	0.21482158
129	0x3e143705	0.14474113
130	0xbd8eb7af	-0.069686286
131	0xbd68854e	-0.056767754
132	0xbe327460	-0.17427206
133	0x3e10424c	0.1408779
134	0x3e737694	0.23775703
135	0x3c54fadd	0.012999264
136	0x3e9e9d70	0.3097949
137	0xbf48f297	-0.7849516
138	0xbea729a8	-0.3264897
139	0xbeb4f893	-0.35345897
140	0xbeeffd8c	-0.46873128
141	0x3e0a91f7	0.13532244
142	0xbe947f07	-0.29003164
143	0xbf0ee883	-0.55823535
144	0xbdcad92e	-0.09904705
145	0xbf9ea61d	-1.2394444
146	0xbf50764f	-0.81430525
147	0xbd456345	-0.048190374
148	0x3be74049	0.007057224
149	0x3eb04638	0.34428573
150	0xbe616745	-0.2201205
151	0x3de90377	0.11377614
152	0x3e278879	0.16360654
153	0xbd6fa602	-0.058507927
154	0xbf69be3e	-0.9130591
155	0xbe05e12b	-0.13074176
156	0xbdc68d85	-0.096949615
157	0x3e1ebf8f	0.15502761
158	0xbcc787ed	-0.024356807
159	0xbd68fc7c	-0.056881413
160	0xbf4077ae	-0.75182617
161	0xbdd65be4	-0.104667455
162	0xbd97713c	-0.073946446
163	0x3d0390fc	0.03212069
164	0x3e84241f	0.25808808
165	0x3e8bda76	0.2731511
166	0xbea0fd55	-0.31443277
167	0xbece2880	-0.40265274
168	0xbca0784b	-0.01958861
169	0x3e043127	0.12909375
170	0x3d3ff830	0.04686755
171	0x3daf3371	0.085547335
172	0x3e101bfe	0.14073178
173	0x3eb284fb	0.3486708
174	0x3e2dcdbe	0.16973016
175	0x3e89970f	0.2687306
176	0x3e764474	0.2404955
177	0xbf46969a	-0.7757355
178	0x3f5fc53b	0.87410325
179	0xbd043ca1	-0.032284383
180	0x3d849a74	0.06474772
181	0xbc27e0b6	-0.010246446
182	0xbdcebf3e	-0.1009507
183	0xbd0072cc	-0.03135948
184	0xbf289c8d	-0.6586388
185	0x3d8718d9	0.06596536
186	0xbd4f8de1	-0.050672416
187	0x3d2b7b80	0.041865826
188	0xbd154035	-0.036438186
189	0xbc65ebda	-0.014033282
190	0xbf274564	-0.65340257
191	0xbe61fed6	-0.22069868
192	0xbd8042e7	-0.062627606
193	0xbe61d9dd	-0.22055764
194	0xbeea89e0	-0.45808315
195	0xc0d587bc	-6.672819
196	0x3ec03b91	0.37545446
197	0xbe26eed7	-0.16302048
198	0x3db1ba6b	0.086781345
199	0x3e846346	0.2585699
200	0xbda2e57e	-0.079539284
201	0xbec96025	-0.39331165
202	0x3f041455	0.51593524
203	0x3e270aaf	0.16312669
204	0x3e5d3331	0.21601559
205	0xbee58660	-0.44829082
206	0x3f08c619	0.53427273
207	0xbe433035	-0.19061358
208	0x3d6e2000	0.058135986
209	0x3da20a91	0.07912172
210	0x3e4882ae	0.195811
211	0xbc7e77f9	-0.015531533
212	0xbe753289	-0.23945059
213	0xbd14965e	-0.036276214
214	0xbd041cbb	-0.032253962
215	0xbde5e16a	-0.11224635
216	0x3e3fbdde	0.18724772
217	0xbda927b0	-0.08259523
218	0xbe420985	-0.18948944
219	0x3d6c29fa	0.05765722
220	0x3c89e157	0.016831083
221	0x3e7f2126	0.24914989
222	0xbf17d5a5	-0.5931037
223	0xbefafe7b	-0.49022278
224	0x3ee78091	0.45215276
225	0xbf256b70	-0.6461706
226	0xbe17be06	-0.14818582
227	0x3eb7cea3	0.3589984
228	0xbf1fcba9	-0.62420136
229	0xbfd7eedb	-1.6869768
230	0x3e1c6839	0.15274133
231	0xbf5d3a5b	-0.8641717
232	0x3db92f96	0.090422794
233	0xbf7ceb51	-0.98796564
234	0x3fd558ff	1.6667784
235	0xbe9e851d	-0.30960932
236	0xbecdf141	-0.40223125
237	0x3d2eab9f	0.04264414
238	0x3d803a9f	0.06261181
239	0xbf2b5884	-0.6693194
240	0xbee2ec55	-0.44320932
241	0x3d8e2945	0.06941465
242	0x3c740c28	0.014895476
243	0xbe00a4db	-0.12562887
244	0xbdecfc48	-0.11571556
245	0xbf32486e	-0.6964177
246	0xbef6f291	-0.48231938
247	0x3e905b81	0.28194812
248	0x3c5261b4	0.012840677
249	0xbdf8f3fe	-0.12155913
250	0x3f20406d	0.62598306
251	0xbf6ca1cd	-0.9243439
252	0x3cad59af	0.021160929
253	0x3e1faec9	0.15594019
254	0x3d825dbf	0.06365537
255	0xbc42a927	-0.011881149

fc1.bias f4 [256]
0	0xbff7e1b2	-1.9365752
1	0xbfe84311	-1.8145467
2	0xbfcde8ec	-1.6086707
3	0xbf922006	-1.1416023
4	0xc00cde69	-2.2010748
5	0xbfc9232a	-1.5713856
6	0x3f21c684	0.63193536
7	0xbe846dd7	-0.2586505
8	0xbffeefc0	-1.9916916
9	0xbf9376ec	-1.1520667
10	0xbf9d8906	-1.2307441
11	0xbf1a9ce6	-0.6039566
12	0xc0004f23	-2.0048301
13	0xc01a451c	-2.410468
14	0xbfe4078d	-1.7814804
15	0xbf599c2a	-0.8500391
16	0xbfaa9f6e	-1.3329904
17	0xbfb817c4	-1.4382253
18	0xc0012f79	-2.0185225
19	0xbf82e0aa	-1.0224812
20	0xbf4a7fb6	-0.7910112
21	0xbfbac853	-1.4592384
22	0xbfc9398c	-1.5720687
23	0xc015a071	-2.3379176
24	0xbf8dbc9f	-1.1073188
25	0xbfb920d7	-1.4463147
26	0xc00c4ceb	-2.1921947
27	0xbedd1c7c	-0.43185794
28	0xbfe78b2c	-1.8089347
29	0x3f180123	0.59376734
30	0xc0180aa9	-2.3756506
31	0xc00742bd	-2.1134484
32	0xbf810414	-1.007937
33	0xbeccfe44	-0.4003774
34	0xc00ee09d	-2.2324593
35	0xbfd5c13f	-1.6699599
36	0xbf9a520d	-1.205629
37	0xc0150b7e	-2.3288264
38	0xc014e176	-2.326261
39	0xbf66816e	-0.90041244
40	0xbf56a6bb	-0.8384816
41	0xbfc15916	-1.5105312
42	0xbfbb5c02	-1.4637454
43	0xbf806a0d	-1.0032364
44	0xbfc0dc94	-1.5067315
45	0xc010a935	-2.2603276
46	0xbf816dd6	-1.0111644
47	0xc009a8ed	-2.1509354
48	0xbf8aa8ee	-1.0832803
49	0xbf665667	-0.8997559
50	0xbfd144b7	-1.6349095
51	0xbfe32df4	-1.7748399
52	0xbfd5c498	-1.6700621
53	0xbf77ebcc	-0.9684417
54	0xc0001f44	-2.0019083
55	0xbfe87430	-1.8160458
56	0xbfe4ee2a	-1.7885182
57	0xc0009374	-2.0089998
58	0xbff4ae03	-1.9115604
59	0xbf6e293a	-0.93031657
60	0x3f2639d3	0.6493198
61	0xbfcaf91c	-1.5857272
62	0xbff65f26	-1.9247787
63	0xbff5cd13	-1.9203209
64	0xbfef5710	-1.8698444
65	0xbf5e821c	-0.8691728
66	0xbf6c873f	-0.9239387
67	0xbff7cd7a	-1.9359581
68	0xbe24628a	-0.16053215
69	0xbfffab01	-1.9974061
70	0xbfff3100	-1.9936829
71	0xbf6ee935	-0.93324596
72	0xbf84a0e7	-1.0361603
73	0xbf207915	-0.62684757
74	0xbfb3147c	-1.3990626
75	0xc00001e7	-2.000116
76	0xbf4f308d	-0.8093346
77	0xc00eb3d9	-2.229727
78	0xbe69c4ed	-0.22829027
79	0xbff86232	-1.9404967
80	0xbfaf5be6	-1.369992
81	0xbf829396	-1.020129
82	0xbfefc72d	-1.8732659
83	0xc01f9235	-2.4932988
84	0xbfe151b4	-1.7603059
85	0xbf345ad7	-0.7045111
86	0xbfc3cdae	-1.5297143
87	0xbf94a710	-1.1613483
88	0xbfb70f86	-1.4301612
89	0xbefe0866	-0.49615782
90	0xbfe71d51	-1.8055822
91	0xbfde8c9a	-1.7386658
92	0xbf3612e3	-0.7112257
93	0xbfabc2ec	-1.341886
94	0xbf76b3b7	-0.96367973
95	0x3e1961d4	0.14978725
96	0xbf9e19db	-1.235164
97	0xc015f4df	-2.3430707
98	0xbf8f8137	-1.1211308
99	0xbf8a84c4	-1.0821767
100	0xbfdde62b	-1.7335867
101	0xbda8468f	-0.08216583
102	0xbf27fe17	-0.65622085
103	0xc01772a8	-2.366373
104	0xbff95924	-1.9480329
105	0xbfcd3585	-1.6031958
106	0xbfc2c258	-1.5215559
107	0xbfe30dc7	-1.773858
108	0xbfbebb12	-1.4900839
109	0xbf901049	-1.125497
110	0xbeae5fc3	-0.34057435
111	0xbfcd3c83	-1.6034092
112	0xbf00500e	-0.50122154
113	0x3db063d6	0.08612792
114	0xbeaa567c	-0.33269107
115	0xbf75954b	-0.9593093
116	0xbffb63d8	-1.9639845
117	0xbf8b5b97	-1.0887326
118	0xbfeed24b	-1.8657926
119	0xbf9905e5	-1.1954924
120	0xbf921f24	-1.1415753
121	0xbf33fc7f	-0.70307153
122	0xbf75ec6a	-0.96063864
123	0xbf950e54	-1.1644998
124	0xbfcd9c24	-1.6063275
125	0xbfbffaad	-1.4998375
126	0xbfd0e8ab	-1.6321005
127	0xc00412c7	-2.063646
128	0xbf8d28be	-1.1028059
129	0xbfa7dfe7	-1.3115205
130	0xbff4e6d6	-1.9132946
131	0xbf3eb272	-0.74491036
132	0xbe2f6fb3	-0.17132454
133	0xbfbb0cac	-1.4613242
134	0xbfe7e7db	-1.8117632
135	0xbf629b18	-0.88517904
136	0xbf22f5b5	-0.6365617
137	0xbf4c73cf	-0.7986421
138	0xbfd55775	-1.6667315
139	0xbf931f1f	-1.1493872
140	0xbf0930f8	-0.53590345
141	0xbfa099f1	-1.2546979
142	0xbf94e1d6	-1.163142
143	0xc01e105c	-2.4697485
144	0xbfd9fe78	-1.7030783
145	0xbf81eaf2	-1.0149825
146	0xbfbfdf9f	-1.4990119
147	0xbd44acaf	-0.048016246
148	0xbfc3aba4	-1.5286756
149	0xc00d0d74	-2.203946
150	0xbfb05263	-1.3775142
151	0xbfe8d0e3	-1.8188747
152	0xbf82c8ac	-1.021749
153	0xbfa39336	-1.27793
154	0xbfe1d8e5	-1.7644316
155	0xbf91c60e	-1.1388566
156	0xbf681a71	-0.90665346
157	0xbfa01fb1	-1.2509671
158	0xbf744a4c	-0.9542587
159	0xbf933a3d	-1.1502148
160	0xbf8d4d32	-1.1039183
161	0xbff1dd2b	-1.889562
162	0xbfe3c21c	-1.7793612
163	0xbfa707b5	-1.3049227
164	0xc01a8d40	-2.4148712
165	0xbecd2a50	-0.40071344
166	0xbfafe55e	-1.3741872
167	0xbfe08dd1	-1.7543279
168	0xbf718b71	-0.94353396
169	0xc0229a2b	-2.5406597
170	0xbf98d80d	-1.1940933
171	0xbfee0cdf	-1.8597678
172	0xbfb46345	-1.4092795
173	0xbfa4eb69	-1.2884341
174	0xbf6ad742	-0.9173471
175	0xbfc44b25	-1.5335432
176	0xbfb35641	-1.4010698
177	0xbf7a1bd0	-0.9769869
178	0xbfb760e5	-1.4326445
179	0xbfc9629a	-1.5733216
180	0xbfd140c6	-1.6347892
181	0xbfcbde65	-1.5927244
182	0xbff4d29f	-1.9126776
183	0xbfc717e1	-1.5554162
184	0xbf9be1f0	-1.2178326
185	0xbfd380ce	-1.6523683
186	0xbff25c6f	-1.8934458
187	0xbf914a5c	-1.1350818
188	0xbf91820d	-1.1367813
189	0xbf9e8e5b	-1.2387193
190	0xbf303577	-0.6883158
191	0x3d98cd92	0.074610844
192	0xbf6789b9	-0.90444523
193	0xbf8792db	-1.0591692
194	0xbfdeab97	-1.7396115
195	0xbfc6e383	-1.5538181
196	0xbef41e03	-0.47679147
197	0xbf50d48b	-0.81574315
198	0xbf90e606	-1.1320198
199	0xbfc2cacb	-1.5218138
200	0xbfcba777	-1.5910481
201	0xbf327423	-0.6970846
202	0xbfe8543d	-1.8150707
203	0xbf5b4009	-0.85644585
204	0xbfe5aedd	-1.7943989
205	0xbff4385d	-1.9079701
206	0xbf818b16	-1.0120571
207	0xbd95a325	-0.07306508
208	0xbd64af1b	-0.055831056
209	0xbfc7853e	-1.5587537
210	0x3f023258	0.5085807
211	0xbeb4a819	-0.35284498
212	0xbf98d237	-1.1939152
213	0xbc818035	-0.015808204
214	0xbf0a01a8	-0.5390878
215	0xbf74ccf8	-0.9562526
216	0xbfc046bb	-1.5021585
217	0xbe5522e4	-0.20814091
218	0xc009e269	-2.154444
219	0xbf826716	-1.0187709
220	0xbfe2d2b9	-1.7720557
221	0xbd6a5a6d	-0.057215143
222	0x3ea175d1	0.315352
223	0xbd5c1d61	-0.053738955
224	0xbfcf7ffa	-1.621093
225	0xbffffa13	-1.9998192
226	0xbf893552	-1.0719397
227	0xbfb03b9b	-1.376819
228	0xc0019bf0	-2.0251427
229	0xbfb88250	-1.4414768
230	0xbfad876a	-1.355695
231	0xc0007429	-2.0070899
232	0xbfadd6fc	-1.3581233
233	0xbffc2c86	-1.9701087
234	0xc00f1e94	-2.2362413
235	0xbfe4de74	-1.7880387
236	0xbf1fe75f	-0.6246242
237	0x3e74db54	0.23911792
238	0xbf8f8827	-1.1213425
239	0xbf09e9ef	-0.5387258
240	0xbfc7e761	-1.5617486
241	0xbfcbf9ed	-1.5935646
242	0xc00279c4	-2.038682
243	0xbf914dc3	-1.1351856
244	0xc003b710	-2.0580482
245	0xbfc3ae6b	-1.5287603
246	0xbf660945	-0.89857894
247	0xbfbf3a3f	-1.493965
248	0xbfb3a031	-1.4033262
249	0xbfd2dd98	-1.6473875
250	0x3f177a14	0.5917065
251	0x3f50c9d0	0.8155794
252	0xbfc03c5d	-1.5018421
253	0xbfa358ff	-1.2761534
254	0xc00a73a1	-2.1633074
255	0xbf591091	-0.84790903

fc2.weight f4 [256, 256]
0	0xbd928127	-0.0715354
1	0xbba6e6e8	-0.005093444
2	0x3d07c738	0.033148974
3	0xba1fab4a	-0.0006090893
4	0xbc620ea8	-0.01379744
5	0xbd7f50f5	-0.062333066
6	0xbcd2efb9	-0.025749074
7	0xbdcee8ec	-0.1010302
8	0x3c870197	0.01648025
9	0xbd816896	-0.06318776
10	0xbd203c04	-0.039119735
11	0x3c40facc	0.011778545
12	0x3c31e27a	0.010857219
13	0xbd1ebf5c	-0.038756713
14	0x3a57d932	0.0008233964
15	0xbb423192	-0.0029631597
16	0xbcd99dfd	-0.026564592
17	0xbc80e451	-0.01573387
18	0xbd57b59c	-0.05266343
19	0xbd87043a	-0.06592603
20	0xbd2551cf	-0.040361222
21	0xbda6d43e	-0.08145951
22	0xbd49656a	-0.04916898
23	0xbd0e617d	-0.03476094
24	0x3c7c5eac	0.015403431
25	0xbd8a18cb	-0.0674301
26	0x3d365d1a	0.044522382
27	0x3c1da378	0.0096214935
28	0x3b1cc0b7	0.0023918578
29	0xbd061af2	-0.03274054
30	0xbc2f16b8	-0.010686569
31	0xbcd5172b	-0.026012024
32	0xbd719295	-0.058977682
33	0xbdf9814a	-0.12182863
34	0x3ce972e9	0.028497176
35	0xbd078440	-0.033085108
36	0x3cc89a12	0.024487529
37	0x3bf6eeb6	0.007535781
38	0xbd8122bc	-0.06305453
39	0xbc9d4c40	-0.019201398
40	0xbcaca4cd	-0.021074677
41	0x3d40021a	0.046877004
42	0xbd4fc3d1	-0.050723854
43	0xb8a3b465	-7.806047e-05
44	0xbd87bccb	-0.06627806
45	0xbd1b683b	-0.0379412
46	0xbdac1854	-0.08403078
47	0x3bf29fe0	0.0074043125
48	0xbd8bcc4d	-0.06826077
49	0xbb2b455f	-0.0026133878
50	0xbd21ecb3	-0.039532375
51	0x37ab5040	2.0422158e-05
52	0xbd815253	-0.0631453
53	0x3cee22d6	0.029069345
54	0xbd7a2e49	-0.061079297
55	0x3cf9515a	0.0304343
56	0xbb50540c	-0.0031788377
57	0xbd5ca537	-0.0538685
58	0x3b9c7b01	0.0047754054
59	0xbd83fadb	-0.06444331
60	0xbd56b9bb	-0.05242322
61	0xbdac3e3e	-0.08410309
62	0x3c971e6a	0.01844712
63	0xba2d5d17	-0.0006613298
64	0xbd9c82e2	-0.076421514
65	0x3c3f8e6b	0.01169167
66	0xbcf4c6c4	-0.029879935
67	0x3bedd998	0.007258605
68	0xbb99ab54	-0.0046896134
69	0xbd59dfb2	-0.053191848
70	0x3bff31c7	0.0077879163
71	0xbd917468	-0.07102281
72	0xbb2f34c3	-0.002673433
73	0xbba322b1	-0.004978501
74	0x3c07dd99	0.008292579
75	0xbae3c87c	-0.0017378475
76	0xbd881316	-0.06644265
77	0x3cee3d21	0.029081883
78	0xbd6fc3ca	-0.05853633
79	0xbca81bee	-0.02052113
80	0xbc9e1922	-0.019299094
81	0xbc8e7ec2	-0.017394427
82	0x3c0884f0	0.008332476
83	0xbc21509b	-0.009845878
84	0xbd99f887	-0.07518106
85	0xbcbb9a5a	-0.022900749
86	0x3bdfc220	0.0068285614
87	0xbd4dc49b	-0.050236326
88	0x3c7be473	0.015374291
89	0xbd7320c7	-0.05935743
90	0x3cee3b27	0.02908094
91	0x3cc28af1	0.023747893
92	0x3cf7b43a	0.030237306
93	0xbb16e3af	-0.0023023894
94	0xbd3ca1fe	-0.046052925
95	0xbd774b48	-0.06037453
96	0xbddb3eac	-0.10705313
97	0xbd563d5a	-0.052304603
98	0xbd2206a2	-0.039557107
99	0xbdb5fd81	-0.08886243
100	0x3d39c1fd	0.045351017
101	0xbd8d25b1	-0.06891955
102	0x3a546aa8	0.0008103051
103	0xbcc82763	-0.024432844
104	0xbd84a3b7	-0.06476539
105	0xbc89661c	-0.016772322
106	0xbd4adb1e	-0.049525373
107	0x3bc22c05	0.0059256577
108	0x3cf51d52	0.029921208
109	0x3d2327b5	0.03983279
110	0xbc3e4567	-0.0116132265
111	0xbd85d0ec	-0.06533989
112	0xbc580e72	-0.013187038
113	0xbd0d7938	-0.03453943
114	0xbd32fdfa	-0.043699242
115	0xbb97d02c	-0.0046329703
116	0xbd6c2302	-0.057650574
117	0xba87b111	-0.0010352453
118	0xbd67d3a9	-0.05659834
119	0xbdd7ef36	-0.10543673
120	0xbc99e7f0	-0.018787354
121	0x3d33d501	0.04390431
122	0xbda9826f	-0.08276831
123	0xbd5c9712	-0.05385501
124	0xbd2dda93	-0.042444777
125	0x3aae8c40	0.0013316944
126	0xbd01e53f	-0.031712767
127	0xbd9f645a	-0.077828124
128	0x3be597f1	0.007006638
129	0xbd617a09	-0.055048022
130	0x3d128acb	0.035776895
131	0xbd26e1ef	-0.04074281
132	0xbcf81d29	-0.030287342
133	0x3d464b68	0.048411757
134	0xbd8c59a8	-0.06853038
135	0x3d3d524f	0.046221074
136	0xbd2b9574	-0.041890576
137	0xbd5ce740	-0.053931475
138	0x3b38f4ae	0.0028222012
139	0xbd620e2c	-0.055189297
140	0xbb981191	-0.004640766
141	0xbd90f16f	-0.070773
142	0xbdabd5db	-0.08390399
143	0x3c20acb5	0.009806802
144	0xbdb0bf9c	-0.086302966
145	0xbd23f9b3	-0.040033054
146	0x3c4fbff3	0.012680042
147	0xbc635b6f	-0.01387678
148	0xbc4e4c9c	-0.012591507
149	0xbcf7e58e	-0.030260827
150	0xbd2c8b24	-0.042124882
151	0xbd1a671a	-0.03769598
152	0x3d1c7ff4	0.038207963
153	0x3ce00426	0.027345728
154	0x3d434c4f	0.047680195
155	0x3d1c457c	0.038152203
156	0xbd81856c	-0.06324276
157	0xbc80bec2	-0.01571596
158	0x3c5cdb8b	0.0134800775
159	0xbcac59f0	-0.02103898
160	0xbd586689	-0.05283216
161	0x3ba70c97	0.0050979364
162	0xbd034aa9	-0.032053623
163	0xbb970217	-0.0046084034
164	0xbda2e1dc	-0.079532355
165	0xbd39cd86	-0.045362018
166	0xbcd603da	-0.026124883
167	0xbc877fb1	-0.01654038
168	0xbd3d530d	-0.04622178
169	0x3cabf344	0.020990022
170	0xbc0ac1b9	-0.008469039
171	0x3d375984	0.044763103
172	0xbd5cc0ef	-0.053894933
173	0xbd72a599	-0.059239957
174	0xbd83b7f3	-0.0643157
175	0xbb9215ae	-0.004458151
176	0xbd4d5c9b	-0.050137144
177	0xbd9bf2b2	-0.0761465
178	0xbda42e73	-0.08016672
179	0x3d0df3f3	0.034656476
180	0xbc06f474	-0.008236993
181	0xbc1b9e70	-0.009498224
182	0xbc20801f	-0.009796171
183	0xbd83bc59	-0.06432409
184	0xbd3cff1e	-0.046141736
185	0xbd352590	-0.044225276
186	0xbcd6350a	-0.026148338
187	0x3c8d7add	0.0172705
188	0x3c725aad	0.014792127
189	0xbd53f313	-0.051745486
190	0xbd7e5255	-0.062090237
191	0xbd17927b	-0.03700493
192	0x3b4d695b	0.0031343314
193	0xbca204dc	-0.019777708
194	0x3c9a6b8b	0.018850109
195	0xbd843229	-0.0645488
196	0xbd8855fd	-0.06657026
197	0xbd2fc829	-0.042915497
198	0xbd39cfe3	-0.04536427
199	0xbd620de7	-0.05518904
200	0x3d31bb7f	0.0433917
201	0xbc68033d	-0.014160928
202	0xbc046635	-0.008081009
203	0xbc02306f	-0.007946118
204	0xbbe284eb	-0.0069128177
205	0xbd48e28c	-0.049044177
206	0xbd93eb3c	-0.07222602
207	0xbcb51962	-0.02210683
208	0xbd40a595	-0.04703291
209	0xbd456194	-0.04818876
210	0xbdbe223c	-0.092838734
211	0xbbdea5e0	-0.006794676
212	0xbdbda86a	-0.09260638
213	0xbd266c42	-0.040630586
214	0x3b9f8a1f	0.0048687602
215	0xbb35588d	-0.0027671189
216	0x3c201880	0.009771466
217	0x3bb756f2	0.0055950815
218	0xbcc81932	-0.024426077
219	0xbd819c1c	-0.063286036
220	0xbd8d5737	-0.069014005
221	0xbd8037f6	-0.06260674
222	0xbd792bc1	-0.060832743
223	0x3c77a315	0.015114565
224	0xbca5db2d	-0.020246113
225	0xbc1b60a8	-0.009483494
226	0x3cbf1b3e	0.02332842
227	0xbcb90314	-0.022584476
228	0xbce5a887	-0.028034462
229	0x3cb54733	0.022128677
230	0xbd2a7ab7	-0.041620936
231	0xbd26206e	-0.04055827
232	0x3cfb8d79	0.030707108
233	0xbc691175	-0.0142253535
234	0xbcbaf1ff	-0.02282047
235	0xbcd6538f	-0.02616289
236	0xbd58b27f	-0.052904602
237	0xbdb3e01e	-0.08782981
238	0xbce78a7b	-0.028264275
239	0xbcadbff4	-0.021209694
240	0xbd947435	-0.07248727
241	0x3d57aab9	0.05265305
242	0xbd33e639	-0.04392073
243	0xbd788983	-0.060678016
244	0x3b97b4cf	0.0046297084
245	0xbcbd8dfe	-0.023138996
246	0xbda9d6e6	-0.08292942
247	0xbd754c74	-0.059887365
248	0xbd9ffd9f	-0.07812046
249	0xbd02c9df	-0.0319308
250	0xbdab3c20	-0.08361077
251	0xbd7db4ee	-0.061940126
252	0xbdae0ff8	-0.084991395
253	0x3c948e4a	0.018134255
254	0x3d474d7e	0.048657887
255	0xbcdfa58a	-0.027300615

fc2.bias f4 [256]
0	0xbd3c71a7	-0.046006825
1	0xbccfc75e	-0.02536362
2	0xbd29a941	-0.04142118
3	0xbf152cba	-0.5827137
4	0xc05728cc	-3.361865
5	0xbdde9fd7	-0.10870331
6	0x3f32c63a	0.6983372
7	0xbe8b03ad	-0.27151242
8	0xbd1bc66a	-0.03803102
9	0xbed0c093	-0.40771922
10	0x3eb34860	0.35016155
11	0x3ee3e1b8	0.44508147
12	0xbf63d8f1	-0.890029
13	0x3fac14e5	1.3443877
14	0xbd1833b6	-0.03715869
15	0xbe540d13	-0.20708112
16	0x3f233a83	0.63761157
17	0x3ca76f72	0.020438883
18	0xbde4bca8	-0.11168796
19	0x3f2fb0ae	0.68628967
20	0xbf4a275e	-0.7896632
21	0xbd992b8b	-0.07479008
22	0xbf9a2e49	-1.2045375
23	0xbf01e219	-0.5073562
24	0xbdcd841d	-0.10034964
25	0x3f1d76e4	0.6150954
26	0x3f1312c0	0.57450485
27	0xbe4d8a89	-0.20072378
28	0xbedc786b	-0.43060622
29	0x3d34b97b	0.0441222
30	0x3d10b818	0.035331815
31	0xbd6c156d	-0.05763762
32	0x3f0dd836	0.55408037
33	0xbf0a9da4	-0.5414679
34	0xbe984cd5	-0.29746118
35	0xbd83c017	-0.064331226
36	0xbebd6f4e	-0.3699898
37	0x3e41e241	0.18933965
38	0xbe1c324a	-0.15253559
39	0x3cb3555e	0.021891292
40	0x3ec1609c	0.3776902
41	0xbe1849a1	-0.14871837
42	0xbbe23ab2	-0.0069039697
43	0xbdbd3912	-0.09239401
44	0xbd84491a	-0.064592555
45	0xbcf9a1e6	-0.030472707
46	0xc05ef5e2	-3.4837575
47	0xbf883988	-1.0642557
48	0xbde9903c	-0.11404464
49	0xbd9687c0	-0.07350111
50	0xbde454b8	-0.11148971
51	0xbdabad5b	-0.08382674
52	0xbdfdfd7c	-0.12401864
53	0x3eff8233	0.49904022
54	0xbf0bcf95	-0.5461362
55	0xbef29d8a	-0.47385818
56	0xbfb345c8	-1.400567
57	0xbe7f170f	-0.2491114
58	0xbea39a12	-0.31953484
59	0xbf43d1d9	-0.7649208
60	0xbcde04ed	-0.027101958
61	0xbd8ab53b	-0.06772848
62	0x3ed044d1	0.40677503
63	0xbe86199e	-0.2619142
64	0x3e831d7a	0.25608426
65	0x3f26d42e	0.6516751
66	0xbd2795c4	-0.040914312
67	0xbed3f662	-0.41398913
68	0xc0130b02	-2.2975469
69	0xbd89173a	-0.06693883
70	0xbdd80b7b	-0.10549065
71	0xbd5770f5	-0.05259796
72	0x3ee82496	0.45340413
73	0xbdd1573b	-0.10221716
74	0x3dbd9350	0.09256613
75	0xbddfcd83	-0.1092787
76	0x3e066be6	0.13127097
77	0xbf5f5daf	-0.87252325
78	0x3ee5fb5c	0.44918334
79	0x3dc27a25	0.094959535
80	0x3d979c0f	0.07402813
81	0xbf309836	-0.68982255
82	0xbd92d0da	-0.071687415
83	0x3f98aa01	1.1926881
84	0xbf296a9a	-0.66178286
85	0x3e49afc3	0.19695954
86	0xbde41932	-0.11137618
87	0xbddff9af	-0.10936295
88	0xbcaf03ac	-0.021364056
89	0x3d0e9c65	0.03481712
90	0xbf61a437	-0.88141197
91	0xbf1796ff	-0.59214777
92	0xbe098583	-0.13429837
93	0xbdb48c3c	-0.0881581
94	0xbf6c8bd4	-0.9240086
95	0x3e82e24f	0.25563285
96	0x3f8fccf9	1.1234428
97	0x3f06127e	0.52371967
98	0xbd96aed6	-0.07357566
99	0xbefdb34e	-0.4955086
100	0x3f8eb8ba	1.1150124
101	0x3f3bb6bf	0.73325723
102	0xbf162407	-0.58648723
103	0x3e3827e9	0.17983975
104	0x3f9d5641	1.2291948
105	0xbfbc37c2	-1.4704516
106	0xbdf7ff15	-0.121092
107	0xbd38c9ea	-0.045114435
108	0xbf325ddf	-0.69674486
109	0xbd2dbd23	-0.042416703
110	0xbd86dbe7	-0.06584912
111	0xc025408d	-2.5820649
112	0xbdf4301b	-0.11923238
113	0xbd86ac82	-0.06575872
114	0xbda04f3a	-0.07827611
115	0x3de950a9	0.11392338
116	0xbe6c7ade	-0.23093745
117	0x3f3bf6c3	0.73423404
118	0x3e157e0f	0.14598869
119	0xbe353268	-0.1769501
120	0xbde7ca82	-0.11317922
121	0x3fb21f95	1.3915888
122	0xbed4d71f	-0.41570374
123	0xbcdca6d7	-0.026935024
124	0xbea29a33	-0.3175827
125	0xbd0dd6ae	-0.034628563
126	0x3f900ba9	1.1253558
127	0xbf1e92e2	-0.61942875
128	0x3f962036	1.172858
129	0x3f2361da	0.63821185
130	0x3ed7096b	0.41999373
131	0xbf07c09c	-0.53028274
132	0x3e7d3dba	0.24730578
133	0x3f07a24a	0.5298201
134	0xbe1843f3	-0.1486967
135	0x3ee0f6fa	0.43938428
136	0x3faa0565	1.3282896
137	0xbdbbe2e0	-0.09174132
138	0xbec49851	-0.38397458
139	0xbe7419db	-0.23837988
140	0xbde02ed2	-0.1094643
141	0xbe976b6c	-0.29574144
142	0x3f851bd4	1.0399117
143	0x3f91bed9	1.1386367
144	0xbda35151	-0.07974494
145	0xbdaafa5d	-0.08348534
146	0xbdae8c7f	-0.08522891
147	0x3f5e1e16	0.8676466
148	0x3efa7c11	0.4892278
149	0x3e32f801	0.17477418
150	0xbf7f8e32	-0.9982635
151	0xbd6fb6a5	-0.058523793
152	0xbed2ed5c	-0.41196716
153	0x3fc36217	1.526431
154	0x3f9c669a	1.2218812
155	0xbf71f0d9	-0.9450813
156	0x3e886c98	0.2664535
157	0xbee4c6bf	-0.4468288
158	0xbe0ee695	-0.13955148
159	0x3ea218cc	0.31659544
160	0xbdd14f9e	-0.10220264
161	0xbebf573a	-0.37371236
162	0xbfc5c0b1	-1.544943
163	0x3d9b220d	0.07574854
164	0x3f338419	0.7012344
165	0xbf6cc00e	-0.9248055
166	0x3f0659d9	0.52480847
167	0x3f908c33	1.1292785
168	0xbd992390	-0.07477486
169	0xbd892234	-0.06695977
170	0x3f43eba0	0.7653141
171	0xbe166af8	-0.14689243
172	0x3f166984	0.58754754
173	0xbdb67749	-0.089094706
174	0x3ffd5e72	1.9794447
175	0xbdc93953	-0.09825387
176	0xbf979fee	-1.1845682
177	0xbd25c21b	-0.040468317
178	0xbc053ad4	-0.0081317015
179	0xc037ed2a	-2.8738503
180	0xbef4c211	-0.4780431
181	0xbd691454	-0.056904152
182	0xbca97920	-0.02068764
183	0x3f0a9ada	0.54142535
184	0xbc99e882	-0.018787626
185	0xbdc84a96	-0.09779851
186	0xbd879a1a	-0.066211894
187	0x3f9b84b4	1.2149873
188	0xbdccb0b4	-0.09994641
189	0x3e826f6e	0.2547564
190	0xbd6097e9	-0.054832373
191	0xbfa40c95	-1.281634
192	0xbd8e215b	-0.06939956
193	0xbf02a944	-0.5103953
194	0xbdb2d32c	-0.08731684
195	0x3e927ff8	0.28613257
196	0xbf3f27cc	-0.746701
197	0xbe98a705	-0.29814926
198	0x3f6d70c2	0.9275018
199	0xbd71e2dc	-0.05905424
200	0xbf8e81e8	-1.1133394
201	0xbe0456f9	-0.12923802
202	0xbdcd1160	-0.1001308
203	0xbd93696e	-0.071978435
204	0xbd7e81a0	-0.06213534
205	0xbe48e1f8	-0.1961745
206	0x3f563101	0.83668524
207	0xbf741a68	-0.9535279
208	0xbdf6bd0c	-0.120477766
209	0xbd960884	-0.07325843
210	0xbe7d8bd4	-0.24760371
211	0xbdedc24a	-0.11609323
212	0xbe0ba918	-0.13638723
213	0x401d9eb0	2.4628105
214	0x3f20f34c	0.6287124
215	0x3f120aba	0.5704762
216	0xbd9753b5	-0.07389013
217	0xbe825739	-0.2545717
218	0x3feb0de7	1.8363618
219	0xbdc734b1	-0.09726847
220	0x3fd71de3	1.6805996
221	0xbe165df7	-0.14684282
222	0x3e92ce5e	0.2867307
223	0x3ecbfdad	0.39841977
224	0xbdb886c4	-0.090100795
225	0xbdae4f82	-0.08511259
226	0x3fdc80ca	1.7226803
227	0xbf1feb91	-0.6246882
228	0xbd4c0aa8	-0.04981485
229	0xbe9c4198	-0.30518794
230	0xbdc8d9b9	-0.09807152
231	0xbcca982b	-0.024730762
232	0xbd5618cf	-0.052269753
233	0x3fb03eae	1.3769128
234	0xbdf1e72c	-0.11811671
235	0xbe055a52	-0.13022736
236	0xbf0adc2e	-0.5424222
237	0xbf7f8362	-0.9980985
238	0xbea8745b	-0.32901272
239	0x3f5c5d1f	0.8607959
240	0x3de3d0e0	0.11123824
241	0xbcc5db9e	-0.024152573
242	0xbe8e5504	-0.27799237
243	0xbf346bb6	-0.70476854
244	0xbddcf7d8	-0.1078946
245	0x3f31ba9a	0.69425356
246	0xbfc4ccd6	-1.5375011
247	0x3f8cd862	1.1003535
248	0xbeab5015	-0.33459535
249	0xbdb4efcf	-0.08834802
250	0xbf080dd4	-0.531461
251	0xbd66c517	-0.056340303
252	0xbda696c4	-0.08134225
253	0xbde937fa	-0.1138763
254	0x3ee4df6a	0.447017
255	0xbf5edb82	-0.8705369

fc3.weight f4 [256, 256]
0	0xbd63dba9	-0.055629406
1	0xbc8d3d9e	-0.017241295
2	0x3b585ac9	0.0033013097
3	0xbf23fe69	-0.64060074
4	0xbf25e0c8	-0.64796114
5	0xbccd319e	-0.025048073
6	0x3e9d8130	0.30762625
7	0xbe1cf90c	-0.15329379
8	0xbc2319a5	-0.009954845
9	0x3d056601	0.03256798
10	0x3e15ebab	0.14640681
11	0xbf04396b	-0.5165011
12	0xbef0c764	-0.47027123
13	0x3d251555	0.040303547
14	0x3c6e0393	0.014527219
15	0x3e39627f	0.1810398
16	0xbf19bc47	-0.60052913
17	0x3cb74711	0.022372754
18	0x3c9331c9	0.017968075
19	0x3e2098d3	0.15683298
20	0xbe10065c	-0.14064926
21	0x3c604e33	0.013690519
22	0xbfa15909	-1.2605296
23	0xbf1444d6	-0.57917535
24	0xbd551b57	-0.052028026
25	0xbea775e0	-0.3270712
26	0xbe6e115b	-0.23248808
27	0xbda8a8ec	-0.08235344
28	0xbf129a22	-0.5726644
29	0xbf179fff	-0.5922851
30	0x3e567f49	0.20946993
31	0xbea52322	-0.32253367
32	0xbf600832	-0.87512505
33	0xbeee009e	-0.46484846
34	0xbfcaeea9	-1.5854083
35	0x3c8fdf23	0.017562455
36	0xbedd56cb	-0.4323028
37	0xbdd5185a	-0.10405035
38	0xbf7c254f	-0.9849443
39	0xbf24e5f3	-0.64413375
40	0xbef279fb	-0.4735869
41	0x3eaf423e	0.34230226
42	0x3c606fff	0.013698577
43	0x3d2fc961	0.04291666
44	0x3c87f917	0.016598267
45	0xbce6914b	-0.028145453
46	0xbf28ffc7	-0.66015285
47	0x3d0c426d	0.034243036
48	0x3db70832	0.0893711
49	0xbc02206c	-0.0079423
50	0x3d9f6a16	0.07783906
51	0xbd425ea8	-0.047453552
52	0xbee67e1f	-0.45018098
53	0xbe5a3013	-0.21307401
54	0x3db7137c	0.08939263
55	0xbf08c2ce	-0.5342225
56	0x3d4d8ac5	0.05018117
57	0x3b993fbf	0.0046767886
58	0xbf8b9948	-1.0906153
59	0xbf3c54c8	-0.73566866
60	0xbcb0c544	-0.021578439
61	0xbbe0d184	-0.0068609137
62	0xbf8b1b11	-1.0867635
63	0xbf1027dc	-0.5631082
64	0xbe3f40b6	-0.18677029
65	0xbf9e7f8d	-1.2382675
66	0xbb956fbb	-0.0045604385
67	0xbf7ebcfc	-0.9950712
68	0xbea4e173	-0.32203254
69	0xbcd1042d	-0.025514686
70	0xbe4d30b1	-0.20038106
71	0x3c2b0bfe	0.010439871
72	0xbf915f13	-1.1357139
73	0xbdcd893c	-0.10035941
74	0x3d5971af	0.053086933
75	0xbe2503eb	-0.16114776
76	0xbfaa48e0	-1.330349
77	0xbe89c706	-0.26909655
78	0xbf195565	-0.59895927
79	0x3ee05e2e	0.43821853
80	0xbee48a8e	-0.4463696
81	0xbeb7b500	-0.3588028
82	0x3caf61d1	0.021408947
83	0xbf0b9c86	-0.5453571
84	0xbf6bfb32	-0.9218017
85	0x3ebfea04	0.37483227
86	0xbcd87e82	-0.026427511
87	0x3c36e648	0.011163302
88	0xbec2ec7c	-0.38071048
89	0x3db26228	0.08710128
90	0xbf03e812	-0.51525986
91	0xbf6430e2	-0.8913709
92	0xbcae2016	-0.021255534
93	0xbe2fa1d1	-0.17151572
94	0xbef35a71	-0.4752994
95	0xbf255dc9	-0.6459623
96	0xbf03958c	-0.51400065
97	0xbf45df46	-0.77293813
98	0x3cdff83b	0.027340045
99	0xbe642bf3	-0.2228239
100	0xbf9e8014	-1.2382836
101	0xbf2ec91f	-0.68275636
102	0xbf84d54f	-1.0377597
103	0x3f0f24a7	0.559153
104	0x3eac771d	0.33684626
105	0xbf23e82f	-0.6402616
106	0xbd00ff92	-0.03149373
107	0x3b5992a8	0.0033198986
108	0xbe2791c9	-0.16364206
109	0xbf1676b1	-0.5877486
110	0xbd1e9413	-0.038715433
111	0xbf505cfa	-0.8139187
112	0x3c5907d4	0.013246495
113	0x3d834706	0.06410031
114	0x3cff258a	0.03114583
115	0xbb817118	-0.0039502494
116	0xbecdbc75	-0.40182844
117	0xbf73f69b	-0.95298165
118	0xbf720806	-0.9454349
119	0x3e17e6e4	0.14834172
120	0x3d52b0a3	0.051437985
121	0xbf3f32c0	-0.74686813
122	0xbf25f89d	-0.6483248
123	0xbd8a5563	-0.067545675
124	0xbccd2925	-0.025044033
125	0xbafd1946	-0.00193099
126	0xbf6dba8c	-0.9286277
127	0xbebef06c	-0.37292802
128	0xbe174a77	-0.147745
129	0xbe8d98ba	-0.27655584
130	0x3ecce1f2	0.40016133
131	0xbf38912c	-0.72096515
132	0xbf29e734	-0.6636841
133	0x3e1f6e5a	0.1556944
134	0x3e8894d4	0.26676047
135	0xbe950593	-0.29105815
136	0xbda51ddd	-0.080623366
137	0xbd57513d	-0.05256771
138	0xbec386ab	-0.3818868
139	0xbfa417fb	-1.2819818
140	0xbcc93b35	-0.024564365
141	0x3e42d154	0.19025165
142	0xbebef9e4	-0.37300026
143	0x3f1ab338	0.60429716
144	0xbe41d844	-0.18930155
145	0x3d8c4456	0.068489715
146	0xbd1cf2a5	-0.03831734
147	0xbde55332	-0.11197509
148	0xbe9215f8	-0.28532386
149	0xbe30308a	-0.17206016
150	0xbe1ced09	-0.15324797
151	0x3c44d19a	0.0120128635
152	0xbec94c8f	-0.39316222
153	0xbef97002	-0.48718268
154	0x3e9ba3f2	0.30398518
155	0xbf012e1d	-0.5046099
156	0xbf1197d7	-0.56872314
157	0xbde89d80	-0.11358166
158	0xbd3ad3b5	-0.045612056
159	0xbf9ba459	-1.215953
160	0x3d87b7c9	0.06626851
161	0xbeadaaa4	-0.3391925
162	0xbf39ad4a	-0.72530043
163	0xbfbadac8	-1.4598017
164	0xbf2ca505	-0.674393
165	0xbfb7519e	-1.4321783
166	0x3d2475fa	0.040151574
167	0x3d8b8b02	0.06813623
168	0xbdafb49f	-0.085793726
169	0x3d3f95b3	0.046773624
170	0x3cd92ad0	0.026509672
171	0x3e250790	0.16116166
172	0x3f192118	0.5981612
173	0x3cb9444b	0.022615572
174	0x3dc78b9e	0.09743427
175	0x3d6e982d	0.058250595
176	0xbf3a1e51	-0.7270251
177	0x3c46cb96	0.0121335
178	0x3c928f4f	0.0178906
179	0xbe7887d4	-0.24270564
180	0xbea16573	-0.31522712
181	0xbab6a292	-0.0013933948
182	0x3d46a2a7	0.04849496
183	0xbfbc0a59	-1.4690658
184	0xbd67ccaf	-0.056591686
185	0xbf19d0bf	-0.60084146
186	0x3d281b24	0.04104151
187	0xbf9cda61	-1.2254144
188	0xbdb15886	-0.08659463
189	0xbf85aa0c	-1.0442519
190	0xbcae3451	-0.02126518
191	0xc00074c6	-2.0071273
192	0x3cbc3029	0.022972183
193	0x3e07d1fd	0.13263698
194	0xbd78de94	-0.060759142
195	0xbf02c853	-0.5108692
196	0xbccbb4a2	-0.024866406
197	0xbddec925	-0.10878209
198	0x3e915c17	0.2839057
199	0x3d2d9891	0.042381827
200	0xbf22f0bd	-0.6364859
201	0xbc80a8ab	-0.015705427
202	0xbd6333d6	-0.055469356
203	0xbcfe62c4	-0.031052954
204	0x3c758f66	0.014987802
205	0xbda8d4cb	-0.08243712
206	0xbf7924bd	-0.97321683
207	0x3c8900d1	0.016724022
208	0xbcc5bde2	-0.024138395
209	0xbc3b3377	-0.011425844
210	0xbf1a4e36	-0.6027559
211	0x3cee2cf0	0.029074162
212	0xbd824e70	-0.06362617
213	0xbd9c44de	-0.07630323
214	0xbf8ef98f	-1.1169909
215	0xbece06dc	-0.40239608
216	0x3deb802c	0.11499056
217	0xbe030f2a	-0.12798753
218	0x3e16e591	0.1473601
219	0x3d0dcdfb	0.034620266
220	0x3eeab22b	0.45839056
221	0x3d74c8fe	0.059761994
222	0xbde12cc2	-0.10994865
223	0x3e4b7a77	0.19870935
224	0x3d02d6aa	0.031943
225	0x3ddbf1c3	0.10739472
226	0xbe17c197	-0.14819942
227	0x3f1dd823	0.61657923
228	0xbbbbb605	-0.0057284855
229	0xbdc92eac	-0.09823355
230	0xbcbec399	-0.023286628
231	0x3c5c75f4	0.013455857
232	0xbf60572d	-0.8763302
233	0x3b9355d8	0.0044963174
234	0x3d9b75cf	0.075908296
235	0xbc72996c	-0.014807086
236	0xbf89266c	-1.071485
237	0x3e532868	0.20620883
238	0xbf9b2791	-1.212145
239	0xbe594284	-0.2121678
240	0x3e1bcc30	0.1521461
241	0xbed8c492	-0.4233747
242	0xbe320728	-0.17385542
243	0xbe9d07b2	-0.30669934
244	0xbc8a8ec2	-0.016913775
245	0xbeec388f	-0.461369
246	0xbee33669	-0.4437745
247	0xbf8c9a74	-1.0984635
248	0x3ee178bc	0.44037426
249	0x3cc1a722	0.023639265
250	0xbf4d17ca	-0.80114424
251	0xbd2753c2	-0.040851362
252	0xbcbc2931	-0.02296886
253	0xbf4a48d8	-0.790174
254	0xbf540d7d	-0.8283308
255	0xbe84ef3e	-0.25963777

fc3.bias f4 [256]
0	0xbe855a2a	-0.26045352
1	0x3e4a79cd	0.19773026
2	0xbe7f2bf1	-0.24919106
3	0xbe6ae31d	-0.229382
4	0xbe80e4ce	-0.25174564
5	0x3d9c6033	0.07635536
6	0xbf0dadb9	-0.55343205
7	0x3e5853c7	0.21125709
8	0xbf2e9142	-0.68190396
9	0xbeb27a1c	-0.34858787
10	0xbeade605	-0.33964553
11	0x3ed1af20	0.40953922
12	0x3f7588c1	0.95911795
13	0x3f65ad7d	0.8971785
14	0xbeb568c5	-0.35431495
15	0x3e29b1f6	0.16571793
16	0xbe1d5a91	-0.1536658
17	0xbed961d4	-0.4245745
18	0x3e2f9908	0.1714822
19	0xbdcacf5a	-0.099028304
20	0x3ea9784b	0.3309959
21	0xbe0e2e51	-0.13884856
22	0x3c0da9c3	0.008646431
23	0x3f555d53	0.83345526
24	0x3ed7d5b6	0.42155236
25	0xbf5eb495	-0.86994296
26	0xbe7a0cbe	-0.24418923
27	0xbf0641cf	-0.52444166
28	0xbe574478	-0.21022213
29	0xbf025351	-0.5090838
30	0xbf42a843	-0.76037997
31	0xbed19db5	-0.40940633
32	0xbf0979d7	-0.5370154
33	0xbef67335	-0.4813477
34	0xbe43fb49	-0.19138826
35	0xbe65ff40	-0.22460651
36	0xbde12700	-0.10993767
37	0xbf35596b	-0.70839566
38	0xbf03cbe9	-0.5148302
39	0xbeaf3530	-0.34220266
40	0xbedd0606	-0.43168658
41	0xbd7b3a5b	-0.06133495
42	0xbdd00af6	-0.10158341
43	0x3c3c00f2	0.011474835
44	0x3d9766ce	0.07392655
45	0x3d92203e	0.07135056
46	0x3e1e5f4d	0.15466042
47	0x3cb856d3	0.022502339
48	0x3f6c7483	0.9236528
49	0x402a5e48	2.6620045
50	0x3e776ee7	0.241634
51	0xbe7d8571	-0.24757935
52	0xbf0a7ec8	-0.540997
53	0x3e99859c	0.29984748
54	0x3c81c636	0.015841585
55	0xbf3c07ce	-0.7344941
56	0xbe5296b8	-0.20565307
57	0xbe00eea2	-0.12591031
58	0xbf733545	-0.9500316
59	0x3f039ab6	0.51407945
60	0x3e858a27	0.26081964
61	0xbf4e54b6	-0.8059801
62	0xbf20898f	-0.627099
63	0x3e92208d	0.2854046
64	0xbe742a22	-0.23844197
65	0xbe9a4267	-0.30128786
66	0xbd981516	-0.07425897
67	0x3eccf738	0.40032363
68	0x3f3b7b04	0.7323458
69	0x3ec79df5	0.389877
70	0xbca63ecc	-0.020293616
71	0xbeac6ba0	-0.3367586
72	0xbecdbe8e	-0.40184444
73	0x3c613173	0.0137447
74	0xbdfeda50	-0.124439836
75	0x3bb80de4	0.0056168903
76	0x3e1be1c6	0.15222844
77	0xbf1b3930	-0.60634136
78	0x3eb1872c	0.3467344
79	0xbf26574b	-0.6497695
80	0xbd47de31	-0.048795883
81	0xbe4901a2	-0.19629529
82	0x3f2c36d1	0.67271143
83	0xbe7033ff	-0.23457335
84	0xbf2292e5	-0.63505393
85	0xbef2881d	-0.4736947
86	0xbd67fb5d	-0.056636203
87	0xbd15f354	-0.03660901
88	0x3e98c8ea	0.29840785
89	0xbe2a6e2f	-0.16643594
90	0xbd8b6a9f	-0.06807446
91	0xbec22cc2	-0.37924773
92	0x3d03841e	0.03210842
93	0xbeb174f9	-0.34659556
94	0x3e3c6420	0.1839757
95	0xbf38a814	-0.72131467
96	0xbcd3e048	-0.025863782
97	0xbecc8782	-0.39947134
98	0xbea58c5f	-0.32333657
99	0xbf1b4eba	-0.60667
100	0xbc86465f	-0.016390977
101	0xbe1049f6	-0.14090714
102	0x3e7c0ffa	0.2461547
103	0xbf1f3dce	-0.6220368
104	0xbe84d42a	-0.25943118
105	0xbe3044cc	-0.17213744
106	0xbd92246e	-0.07135855
107	0xbc8d0dfe	-0.017218586
108	0x3f2b2b06	0.66862524
109	0xbe8d80cc	-0.27637327
110	0xbec4b9fb	-0.38423142
111	0xbf0935e1	-0.5359784
112	0xbf2ba7fc	-0.670532
113	0x3e3798d8	0.17929399
114	0xbe39a713	-0.1813014
115	0x3d8d045b	0.06885596
116	0x3e5d36fd	0.21603008
117	0x3e662437	0.22474752
118	0x3ed70e9d	0.42003337
119	0x3f37cff1	0.7180167
120	0xbf1d5e15	-0.6147168
121	0xbe1fb856	-0.15597662
122	0x3d3f890a	0.04676155
123	0x3eedbccf	0.46433112
124	0xbf2af286	-0.6677631
125	0xbea30897	-0.3184249
126	0xbf0a7188	-0.54079485
127	0x3e14eaed	0.14542742
128	0x3ef9b908	0.4877398
129	0x3d284bdb	0.041087966
130	0xbf21692f	-0.6305112
131	0xbe155bc3	-0.14585786
132	0xbf2e45b1	-0.6807509
133	0xbdcd138f	-0.10013496
134	0xbf700dd7	-0.9377112
135	0x3f5da7ef	0.8658437
136	0x3e08d8a9	0.133639
137	0xbe373759	-0.17892207
138	0xbd8bd944	-0.068285495
139	0xbe4ce8e8	-0.20010722
140	0xbf77ad0b	-0.9674842
141	0xbf318d3c	-0.6935613
142	0xbecfd1c7	-0.40589735
143	0x3ddcfb96	0.10790174
144	0x3f80c175	1.0059038
145	0xbf036068	-0.5131898
146	0xbe71563d	-0.23568054
147	0xbe433c10	-0.19065881
148	0xbf7dd315	-0.9915021
149	0xbe2fca12	-0.17166927
150	0xbebd2001	-0.3693848
151	0xbf0c1078	-0.5471263
152	0x3e88b22f	0.26698443
153	0x3dfaf6ce	0.122541055
154	0x3e6cc82b	0.23123233
155	0xbe6e7d4c	-0.23289984
156	0xbf497f7d	-0.78710157
157	0xbcc669b5	-0.024220327
158	0xbee1f0fd	-0.44129172
159	0xbef9b33f	-0.48769566
160	0xbeabb922	-0.33539683
161	0xbed65f45	-0.4186956
162	0xbf038ddb	-0.5138833
163	0x3e911a1e	0.28340238
164	0xbe76753a	-0.24068156
165	0x3e582c1f	0.21110581
166	0xbe9b42f1	-0.3032451
167	0x3c9c1d17	0.01905684
168	0xbf405ed1	-0.7514468
169	0xbe8eb8ab	-0.27875265
170	0xbdd9b1ae	-0.10629593
171	0xbe7ac9df	-0.2449107
172	0xbecbe649	-0.3982413
173	0xbe3d42d1	-0.1848252
174	0xbf243a5b	-0.64151543
175	0xbe5c1dfb	-0.21495812
176	0xbf1fb77e	-0.6238936
177	0xbe962e76	-0.29332322
178	0xbdfa8750	-0.1223284
179	0x3fdaf4ac	1.7105918
180	0xbf081036	-0.53149736
181	0x3ea2c69d	0.31792155
182	0xbf5e5adb	-0.86857384
183	0x3dcc7e20	0.09984994
184	0x3dce0d76	0.10061161
185	0xbe841ee6	-0.25804824
186	0xbee498a8	-0.44647717
187	0xbd111d85	-0.035428543
188	0xbf054219	-0.5205398
189	0x3f3f8ca0	0.7482395
190	0xbead55ed	-0.3385462
191	0xbf24ee95	-0.6442655
192	0x3e801fa4	0.2502414
193	0x3ee47d6b	0.44626936
194	0xbf2ed9aa	-0.6830088
195	0xbe3faaac	-0.1871745
196	0xbf3580e9	-0.70899826
197	0xbcfe226c	-0.031022273
198	0x3f1ed0de	0.62037456
199	0x3df324f9	0.11872286
200	0xbe2bd9fc	-0.16782373
201	0xbe87cde3	-0.26524267
202	0x3f8fc91b	1.1233248
203	0xbe92bcc0	-0.2865963
204	0xbe41296b	-0.18863456
205	0xbe02c1ea	-0.12769285
206	0xbdb655dc	-0.08903095
207	0xbf0e085e	-0.5548152
208	0x3ed6baef	0.41939494
209	0xbf06c864	-0.5264952
210	0x3df1ede7	0.118129544
211	0xbea30284	-0.31837857
212	0xbf037d25	-0.5136283
213	0xbeb241bd	-0.3481578
214	0xbec0c84d	-0.37652817
215	0xbee433c6	-0.4457075
216	0x3e7d0fec	0.24713105
217	0xbf8e758a	-1.112962
218	0xbe9066ee	-0.2820353
219	0xbed04b17	-0.4068229
220	0xbea7e114	-0.32788908
221	0x3e91d719	0.2848442
222	0x3e49d55a	0.19710293
223	0xbeaa1bbb	-0.33224282
224	0xbe4709be	-0.1943731
225	0xbd72e05c	-0.059295997
226	0xbeda8ca6	-0.4268543
227	0xbedb5a2b	-0.4284223
228	0xbea76f74	-0.3270222
229	0xbe209db1	-0.15685154
230	0xbe9596c0	-0.29216576
231	0x3eb37b00	0.3505478
232	0xbe1bf710	-0.15230966
233	0xbed240e4	-0.41065133
234	0xbe843f5b	-0.25829586
235	0xbe6f691d	-0.23379941
236	0xbf180ab5	-0.5939134
237	0x3ef89721	0.48552802
238	0xbe826091	-0.254643
239	0xbd734ec6	-0.059401296
240	0xbe93696e	-0.28791374
241	0x3eea2eab	0.4573873
242	0xbe3efa93	-0.18650274
243	0xbc78801b	-0.0151672615
244	0xbea901d7	-0.33009216
245	0xbf2caefd	-0.6745451
246	0x3e8c5eea	0.27416164
247	0xbeba18d9	-0.36347082
248	0xbfba6c96	-1.4564388
249	0xbe847cc9	-0.25876454
250	0x3f451ad2	0.7699405
251	0xbec48c22	-0.38388163
252	0xbf27c4a4	-0.65534425
253	0xbe5d6cff	-0.2162361
254	0xbf722716	-0.9459089
255	0x3f45ac5d	0.7721613

action_out.weight f4 [4, 256]
0	0x3e1fc16b	0.15601127
1	0xbd84f309	-0.06491668
2	0x3dbba054	0.091614395
3	0xbba85ac6	-0.005137774
4	0x3db36d56	0.087610886
5	0xbd823022	-0.06356837
6	0x3f256577	0.6460795
7	0x3e776f0e	0.24163458
8	0xbd354a32	-0.04426021
9	0x3d831711	0.06400884
10	0x3bd1fce9	0.006408323
11	0xbd15ed33	-0.036603164
12	0x3e2c931a	0.1685299
13	0xbd4ee0f5	-0.050507504
14	0x3e00a977	0.12564646
15	0xbea528d9	-0.32257727
16	0xbc965fed	-0.018356288
17	0x3f4c5c68	0.798285
18	0xbd4392d5	-0.04774745
19	0xbd5eaa4c	-0.054361627
20	0xbdcab376	-0.09897511
21	0xbce1adff	-0.027548788
22	0x3d67757c	0.056508526
23	0x3d0bc7ca	0.03412608
24	0xbde1f684	-0.11033347
25	0x3fb5380f	1.4157733
26	0xbe910218	-0.2832191
27	0x3d6323ad	0.055453945
28	0x3e6378a2	0.22213987
29	0x3f92c395	1.1465937
30	0xbd936729	-0.071974106
31	0x3eb62cab	0.35580954
32	0xbd7e1d2a	-0.06203953
33	0x3db9d2a5	0.090733804
34	0x3e04718f	0.12933944
35	0xbd422b83	-0.047404777
36	0xbeebedaf	-0.46079776
37	0x3df07b62	0.117422834
38	0x3e029bc5	0.12754734
39	0x3de53585	0.11191849
40	0xbd7ef7f8	-0.0622482
41	0x3d45f455	0.048328716
42	0xbe2a5a3e	-0.16635987
43	0xbe4b5b04	-0.19858938
44	0x3d9c6cdb	0.0763795
45	0xbe109ef3	-0.14123134
46	0xbdc3d754	-0.09562555
47	0x3f3d81dc	0.74026275
48	0x3d7f0258	0.062258095
49	0x3e1530f7	0.1456946
50	0xbd9d88a2	-0.07692076
51	0xbe0f7326	-0.1400877
52	0xbd83d902	-0.06437875
53	0xbf4311d5	-0.76199085
54	0x3d05a682	0.032629497
55	0x3e23bc81	0.15989877
56	0xbe3891ec	-0.18024415
57	0x3d7d7070	0.061874807
58	0x3dfe985e	0.124314055
59	0xbd0c8838	-0.034309596
60	0xbcacb070	-0.021080226
61	0x3d428fee	0.047500543
62	0x3d2303ab	0.03979842
63	0xbd07354d	-0.033009816
64	0x3bf4c789	0.0074700755
65	0xbd445e37	-0.047941413
66	0x3dd23109	0.10263259
67	0xbf048218	-0.5176101
68	0xbda37474	-0.07981196
69	0xbe00c0cb	-0.12573545
70	0xbdfe35fa	-0.12412639
71	0xbd825ffb	-0.06365963
72	0xbd97fca4	-0.07421234
73	0xbbd54709	-0.006508712
74	0x3eb4ea70	0.35335112
75	0x3e3bea88	0.18351185
76	0xbdbab536	-0.091165945
77	0xbea3f9ce	-0.32026523
78	0x3b163c27	0.0022924037
79	0x3fb6aa35	1.4270693
80	0x3c932abc	0.017964713
81	0x3e0f8a6a	0.14017645
82	0xbdb2efe2	-0.0873716
83	0xbcbf2320	-0.023332179
84	0x3e96702e	0.2938246
85	0x3d48e499	0.049046133
86	0x3edb55d7	0.42838928
87	0x3e8376a8	0.25676465
88	0x3e16713f	0.14691637
89	0x3da94c0c	0.08266458
90	0x3d981335	0.074255385
91	0xbd4cbaf6	-0.049982987
92	0x3ca7e8ff	0.020496843
93	0x3e393b05	0.1808892
94	0xbba7e455	-0.005123655
95	0xbe8bd738	-0.27312636
96	0xbe4a7067	-0.1976944
97	0x3ed27657	0.4110591
98	0x3f2927ff	0.66076654
99	0x3d9cc6c6	0.076551005
100	0xbe7275a0	-0.23677683
101	0x3f130675	0.5743173
102	0x3d5523c1	0.05203605
103	0x3e9e7b84	0.3095361
104	0xbdbb79a9	-0.09154064
105	0xbe4a11b7	-0.1973332
106	0xbc22976d	-0.009923798
107	0x3bbf33a1	0.005835012
108	0xbdd38557	-0.10328167
109	0xbd08e325	-0.033419747
110	0xbe3e7f1f	-0.1860318
111	0xbe3670b7	-0.17816435
112	0x3db8a562	0.09015919
113	0x3e938c76	0.288181
114	0x3d46d448	0.04854229
115	0xbdd33b98	-0.10314101
116	0x3d8c5703	0.06852534
117	0xbe9d90f0	-0.3077464
118	0x3d13d4d4	0.03609164
119	0xbd8f6aff	-0.0700283
120	0xbdc7c5e1	-0.09754539
121	0xbbb349bf	-0.0054714377
122	0x3d093e8e	0.033506922
123	0x3d826414	0.06366745
124	0xbddac19a	-0.10681458
125	0x3807e1eb	3.239691e-05
126	0x3c7196f9	0.014745467
127	0xbcc40664	-0.023928829
128	0x3c119cc4	0.0088874735
129	0xbd64f10e	-0.05589395
130	0x3f61f815	0.8826917
131	0xbcccdff4	-0.025009133
132	0xbd753c92	-0.059872217
133	0x3deb1140	0.114778996
134	0xbcbc0d56	-0.022955578
135	0x3d9604ea	0.07325156
136	0x3d26763c	0.0406401
137	0xbc6fc250	-0.01463373
138	0x3e85c721	0.26128486
139	0x3c44d9d5	0.012014826
140	0x3e0cdf17	0.13756977
141	0x3d5748af	0.05255955
142	0x3dfb218f	0.1226226
143	0x3deb4933	0.11488571
144	0x3dd526b4	0.10407773
145	0x3d7913ac	0.060809776
146	0xbec92d72	-0.39292485
147	0x3de9fac8	0.11424786
148	0x38db182b	0.000104472354
149	0xbb9c780c	-0.004775053
150	0x3e22ca95	0.15897591
151	0x3c272a5d	0.010202971
152	0xbc8634d6	-0.016382616
153	0x3f1f0e99	0.6213165
154	0xbdc5b45a	-0.0965354
155	0x3e881587	0.26578924
156	0xbce5e448	-0.028062955
157	0xbefc42a9	-0.49269608
158	0x3d6ebdb0	0.05828637
159	0xbe6a2585	-0.22865875
160	0x3ea659c1	0.32490352
161	0x3d85a333	0.065252684
162	0x3f9323df	1.1495322
163	0x3c90a917	0.017658753
164	0xbd846fbb	-0.064666234
165	0xbd1a8ec3	-0.037733804
166	0x3cf66c23	0.03008086
167	0x3cc33706	0.023829948
168	0xbc4fe438	-0.012688689
169	0xbe2a3e52	-0.16625336
170	0xbdb32b0c	-0.08748445
171	0xbdac22ca	-0.08405073
172	0x3d388707	0.045050647
173	0x3d1cc96d	0.038278032
174	0x3e2daa66	0.16959533
175	0xbde9d6e9	-0.11417944
176	0xbd140c80	-0.036144733
177	0xbe93b595	-0.28849474
178	0x3b873105	0.0041257166
179	0x3e0fb68b	0.14034478
180	0x3c94c5e3	0.018160766
181	0xbd9f8188	-0.07788378
182	0xbe52d1bc	-0.2058782
183	0xbbcc9a66	-0.0062439917
184	0xbcb46c0f	-0.022024183
185	0xbea76c37	-0.3269975
186	0xbed6b3d2	-0.41934067
187	0xbccd8fc1	-0.025092961
188	0xbdc4bd7d	-0.096064545
189	0x3d583a33	0.052789878
190	0xbe3a69c8	-0.18204415
191	0x3e0cf776	0.13766274
192	0xbb667ce7	-0.0035169662
193	0xbddc2ce9	-0.107507534
194	0xbcb53b75	-0.022123078
195	0x3ed26118	0.41089702
196	0xbe2e5394	-0.1702407
197	0x3c7ac045	0.01530463
198	0xbd98527b	-0.07437607
199	0x3e45c3b5	0.19312938
200	0xbdbdaa2d	-0.09260974
201	0x3e9d674d	0.30742875
202	0x3db2e698	0.087353885
203	0x3f033ac4	0.51261544
204	0x3e4b88bc	0.19876379
205	0x3d1cc1e2	0.03827084
206	0x3c8f932f	0.017526237
207	0x401a603c	2.4121237
208	0xbd71a1b6	-0.05899211
209	0x3eaa851d	0.33304682
210	0xbdad822f	-0.08472096
211	0x3e2a0b4a	0.16605869
212	0x3d1d6d86	0.038434528
213	0xbe1fc3a2	-0.15601972
214	0xbe1187c8	-0.14211953
215	0x3c30125c	0.010746565
216	0xbcae791c	-0.021297984
217	0x3f512508	0.8169713
218	0x3e854e10	0.2603612
219	0x3d15779e	0.03649103
220	0x3c0d0770	0.00860773
221	0xbd82a2f0	-0.06378734
222	0x3e483c7a	0.1955432
223	0x3e3af268	0.18256533
224	0x3c96813a	0.018372167
225	0x3e4f2eec	0.20232743
226	0x3f80a2aa	1.0049641
227	0xbd917bc5	-0.07103685
228	0x3f552ec9	0.83274513
229	0x3ee83565	0.45353237
230	0x3cfd49bd	0.03091895
231	0x3ec105e3	0.37699804
232	0x3d8ac2dc	0.06775448
233	0xbda672f3	-0.081273936
234	0x3e630f6c	0.22173852
235	0x3c1a1454	0.009404261
236	0x3f369d1e	0.7133349
237	0x3e1dd0ae	0.15411636
238	0xbb1e8145	-0.0024185937
239	0x3d019a82	0.03164149
240	0x3db1ba12	0.08678068
241	0x3ed7eb6f	0.4217181
242	0xbd99e1ab	-0.07513746
243	0x3deb5c01	0.11492158
244	0x3fa9dd66	1.327069
245	0x3e5c0a9d	0.21488424
246	0xbd4f32cb	-0.05058555
247	0x3ef16645	0.47148338
248	0x3da5979e	0.08085559
249	0x3c6adf42	0.014335455
250	0xbc8e4c47	-0.017370356
251	0xbd4b0f96	-0.04957541
252	0x3f3766ff	0.71641535
253	0x3e0a32fa	0.13496009
254	0x3fc40166	1.5312927
255	0xbe2d7b9e	-0.16941687

action_out.bias f4 [4]
0	0x3c14c732	0.009080695
1	0xbca727f9	-0.020404803
2	0xbd2f3d49	-0.042783055
3	0x3b9c6aae	0.0047734594
