saved_models/FetchSlide-v1/model133.pt (torch, 563151 bytes, 8 tensors)

fc1.weight f4 [256, 28]
000000 10 26 00 3f cc f0 a4 bd 81 8e 63 bd 85 df d2 3e
       0.5005808 -0.08053741 -0.055555824 0.41186157
000010 31 c1 09 bc 19 79 a1 be 2e b6 9b 3e b5 d0 51 3e
       -0.008407877 -0.31537703 0.3041243 0.20489772
000020 0f 29 30 3e ac 2e c1 bf 33 e4 08 40 41 1c da 3d
       0.17203163 -1.5092368 2.1389282 0.1064992
000030 ac 07 3e be d9 82 b6 bc 7b 3e b4 3f 6c d9 b6 3e
       -0.18557614 -0.02227919 1.4081568 0.35712755
000040 6f 71 3e bc 77 9d 80 3c c7 d5 52 3c 92 7b 16 3d
       -0.011623724 0.015700085 0.012868351 0.03673894
000050 aa 7f 93 3f 40 1f cf 3e d9 65 6f 3d c8 ab 49 be
       1.1523335 0.4045353 0.05844674 -0.19694436
000060 59 56 98 bc 0f 99 89 bf 53 f0 c1 3c 83 7b fb be
       -0.018595861 -1.0749835 0.023674166 -0.4911767
000070 b2 32 e0 3e 93 33 c1 bd c2 45 df 3d 18 e2 9c 3f
       0.43788677 -0.09433665 0.10901977 1.2256498
000080 f5 e3 2d be 71 5d fe 3e fc 7b 88 3f 32 f5 1f bd
       -0.1698149 0.49680665 1.0662837 -0.039052196
000090 10 fc 8f 3d 44 95 11 3f 98 9c 7a bf 1a 7c 97 bd
       0.07030499 0.56868386 -0.97895193 -0.07396717
0000a0 9c 9f 0e be 4f 61 45 bd 47 00 6e 3f 43 cc e1 bc
       -0.13928074 -0.048188504 0.92969173 -0.02756322
0000b0 9e 7d 09 3e c6 02 b0 3c ce 39 12 3d 22 cc 18 3d
       0.13426825 0.021485697 0.035699658 0.03730405
0000c0 65 3f 40 3f 73 d0 bb bc c1 de a3 3d b2 37 74 bd
       0.7509673 -0.022926545 0.08001471 -0.059623428
0000d0 85 b3 38 bc 10 51 dc bf 72 1a a8 3e 67 f0 93 3c
       -0.01127327 -1.7212238 0.32832676 0.018058969
0000e0 d2 13 0b be 89 7c 19 be 9b f5 67 3d 0f ef cd be
       -0.1358178 -0.14988913 0.056630712 -0.4022145
0000f0 3a 40 f3 3e 00 33 9e be 07 2d ca be f7 01 31 3f
       0.47509938 -0.30898285 -0.39487478 0.69143623
000100 bb 80 68 3e 53 ec ab 3f bd fb 37 c0 a5 e2 99 be
       0.22705357 1.3431495 -2.87474 -0.3005573
000110 71 e3 4f 3e 0f e6 39 be 7c a0 c9 be b6 e8 9b 3e
       0.20301606 -0.18154167 -0.39380252 0.30450982
000120 21 3f 07 bf 4a b7 84 bd df 2b 2c 3e 49 48 10 3d
       -0.528307 -0.06480272 0.1681361 0.035225186
000130 f3 7a ec be c3 d7 13 bd 9c eb d0 be 0f 5e 22 3d
       -0.46187553 -0.03609444 -0.40804756 0.039640483
000140 4b aa b9 bd 65 af ae bd c1 8d bd be 65 9b 69 bf
       -0.09065684 -0.085295476 -0.37022212 -0.9125274
000150 e2 ff 80 be 8a d4 60 be 66 2b 63 bd cf 7e 7e be
       -0.25195223 -0.21956077 -0.05546131 -0.24853061
000160 a4 e0 19 be a7 67 ba bf 16 a3 e9 be b8 5a 47 3e
       -0.150271 -1.4562882 -0.45632237 0.194682
000170 0d 60 27 be 5f 23 df 3f 52 39 90 c0 98 2e cb be
       -0.16345234 1.7432669 -4.506997 -0.39683986
000180 20 d1 fa 3c f1 c5 2f 3e 2e 4a 1e bf 6c 2d 69 3f
       0.030617297 0.17165352 -0.6183194 0.91084933
000190 3e fe b7 3e 82 84 62 3c 90 d4 95 3d 0d 88 0f 3d
       0.3593616 0.013825538 0.07315934 0.035041858
0001a0 b8 f8 77 be fd 02 38 3f 57 77 d0 3e 54 93 24 bf
       -0.24215972 0.7187956 0.4071605 -0.64287305
0001b0 28 9c 1b bd c1 fa 92 be 4e ef 48 3e 97 61 24 c0
       -0.03799072 -0.28706935 0.19622537 -2.5684564
0001c0 01 22 34 3e db de 9a 3e 89 e2 94 bd 47 a2 a5 3e
       0.17591096 0.3024815 -0.07269771 0.3235037
0001d0 9b 10 3a 3f 02 11 dd be bf ef 38 be 29 3d fb 3e
       0.7268159 -0.43177038 -0.18060206 0.490701
0001e0 06 41 75 3d a2 2f 56 bf 76 ed 9c 3f 91 80 1e 3d
       0.059876464 -0.8366643 1.2259967 0.03869683
0001f0 94 0c c5 be 50 62 95 3b cd 14 f4 3d 63 43 d8 3e
       -0.3848616 0.004558839 0.1191803 0.42238912
000200 8a 92 57 be fc f3 f5 3d b0 be a6 3d b9 10 5a bd
       -0.21051994 0.12009427 0.081418395 -0.053238604
000210 e2 e2 ad 3d 49 bf 93 3e 6e 89 0a be 84 bd 7c bd
       0.0849054 0.28856876 -0.13528988 -0.061704174
000220 c5 a6 2e 3e f8 f0 64 bf 33 ec bc bf 3f 6e 42 c0
       0.17055805 -0.8943019 -1.4759582 -3.037979
000230 c5 83 d4 3e 86 fc dc 3e 6c 67 04 be 9f 46 02 3e
       0.41506782 0.4316141 -0.12930077 0.12722252
000240 17 a7 1d be 3c 38 c8 bf 49 27 81 be 1c bd 67 bf
       -0.15395771 -1.5642161 -0.25225285 -0.90522933
000250 18 68 e1 be 9b 96 49 be d5 37 78 be aa 1a cf 3b
       -0.4402473 -0.19686358 -0.24240048 0.0063203173
000260 b4 d9 3c 3b 34 85 af 3d f5 ed 32 3e 85 79 be be
       0.0028816285 0.08570328 0.17473586 -0.37202087
000270 0d 6d c6 3e 8d 05 60 bd 2a 7d c9 bd 2e e8 2f 3b
       0.38755074 -0.054692794 -0.09838326 0.002684127
000280 27 44 dd bd 30 a3 04 bf 59 2e 8e 3e ef d1 b5 be
       -0.10804015 -0.51811504 0.27769735 -0.3551173
000290 40 47 28 3d d9 d1 9c 3e 8e 51 29 3d 3b 71 7c bf
       0.041083574 0.3062885 0.041337542 -0.98610276
0002a0 3e f0 19 3f 91 7f 07 be fd 78 1c 3d 1c e3 82 bd
       0.60132205 -0.13232256 0.03820132 -0.06390974
0002b0 e5 e1 f0 3d 49 0b 89 bf 7f 75 05 bf f3 a0 88 bd
       0.11761836 -1.0706569 -0.5213241 -0.066713236
0002c0 25 07 91 3d 4f 41 97 3e 69 f5 0a bf 28 36 d5 be
       0.07081441 0.29542014 -0.54280716 -0.4164288
0002d0 bd 76 15 bf e1 25 4c 3d 01 65 1d be de 18 23 3f
       -0.58384305 0.04984081 -0.15370561 0.6370982
0002e0 1b f7 91 be 0e 86 b4 3d e0 5f 40 be 87 2d 86 3a
       -0.2850884 0.088146314 -0.18786573 0.0010236957
0002f0 85 a8 0f be e2 04 ed 3e bc 34 52 be e6 53 48 3e
       -0.14029129 0.46292788 -0.20527929 0.19563255
000300 b5 96 10 3f b4 3b 1e bf 9b 09 8f 3e ba 1a 1b bf
       0.5647996 -0.6180985 0.27937016 -0.60587656
000310 f0 ab d5 3e 52 8b d6 be d2 e8 00 3e 15 0f 43 3f
       0.4173274 -0.41903168 0.12588814 0.7619489
000320 4a c1 45 bf 28 61 9c be bf 52 bc 3e 80 c4 43 bf
       -0.7724806 -0.30542874 0.3678188 -0.7647171
000330 5a 14 2d 3d aa 92 0e bd a5 e2 47 be 10 5d bb be
       0.042255737 -0.03480784 -0.19520052 -0.3659444
000340 4f c8 9e 3e 9e cd e6 bc 10 66 34 3e a3 c1 3d bf
       0.31012198 -0.028174218 0.17617059 -0.7412359
000350 ff eb 3a bc 6e 6c f9 39 0c 23 5b bd 2d 15 69 bd
       -0.011408805 0.00047573767 -0.05350022 -0.05690496
000360 a0 23 4e 3d ac bb 15 bf 19 df 92 3d a7 f4 96 bd
       0.050326943 -0.5848949 0.07171459 -0.073708825
000370 99 6a 02 bd 2b 13 de be 3f 4a 86 be 21 bd f8 bd
       -0.03183994 -0.43374 -0.2622852 -0.121454485
000380 88 1e 99 3d 3e 8d 2c bc 8a f4 ee 3d cf ce 98 3e
       0.074765265 -0.010531722 0.11667736 0.29845282
000390 86 89 9b bd 1b 33 18 be 86 05 b8 3e f9 2c 81 be
       -0.0759459 -0.14863245 0.35941714 -0.25229624
0003a0 b2 bb 00 be 36 20 c8 3e 95 b6 c3 bf 17 c8 57 3f
       -0.125716 0.39087075 -1.5290095 0.8428969
0003b0 5a ab 93 3c 7c 3b 47 3e 05 f8 18 3e 2a 7f 6a 3e
       0.018026043 0.19456285 0.14938362 0.22900072
0003c0 55 85 00 be 49 c3 94 ba 36 5f 73 3d 91 35 f6 3d
       -0.12550862 -0.0011349703 0.059416972 0.12021936
0003d0 b2 75 0c 3e 55 f6 79 3d a7 d5 78 be 2f 98 57 3e
       0.13716772 0.061025936 -0.24300252 0.21054147
0003e0 a0 59 c4 bb d7 ef bd bd 21 56 f4 be e4 3f 80 bf
       -0.0059921294 -0.092742614 -0.4772196 -1.0019498
0003f0 46 62 15 be 50 3c af 3e e1 2b 08 be f6 1b 51 be
       -0.1458827 0.34225702 -0.13297988 -0.20420823

fc1.bias f4 [256]
000000 57 5d 9b bf 64 34 6c bf a5 e3 05 c0 e8 08 02 c0
       -1.213786 -0.9226744 -2.0920193 -2.0317936
000010 e7 8b 5f bf 63 1f 8b bf 6d 1d 00 c0 86 7a a2 bf
       -0.8732285 -1.0868953 -2.001796 -1.2693641
000020 ff 26 03 c0 28 3d e5 bf e9 80 b0 bf a0 04 a7 bf
       -2.0492551 -1.7909288 -1.378934 -1.3048286
000030 ee 40 25 c0 cc 5b 03 bf af 97 d3 bf a1 77 f8 bf
       -2.582088 -0.51311946 -1.6530665 -1.9411508
000040 0d 83 ef be 3f 83 8d be 34 53 75 bf a8 ad a3 bf
       -0.4677967 -0.27639195 -0.9583008 -1.2787371
000050 f1 b9 3a bd 92 32 28 c0 eb b5 e7 bf 49 c0 7d bf
       -0.045587484 -2.6280866 -1.8102392 -0.9912153
000060 0e de df bf fc ae c2 bf 00 a8 1a c0 8f 9b b2 bf
       -1.7489641 -1.5209651 -2.416504 -1.3953723
000070 ae 8a 84 bf cf 1f 10 bf ca 4e 18 bf d2 6f 91 bf
       -1.0354822 -0.56298536 -0.5949522 -1.136225
000080 8f e3 35 be ec 79 a9 bf 86 47 dd bf 5c cf 88 bf
       -0.17762588 -1.3240333 -1.7287452 -1.0688281
000090 78 92 1e bf 84 ff f7 bf 3f cc b0 bf 1e 69 12 bf
       -0.61942244 -1.9374852 -1.3812331 -0.57191646
0000a0 2f 91 bf bf 90 83 b7 bf 45 a9 12 c0 3b 0b d5 bf
       -1.4966182 -1.4337025 -2.2915814 -1.6644052
0000b0 76 60 8b bf f0 ff 83 bf a2 dc d8 be 22 60 d5 bf
       -1.0888813 -1.0312481 -0.4235583 -1.6669962
0000c0 b4 79 28 bf 96 15 af bf d8 38 9a be bf e6 0d c0
       -0.65810704 -1.3678463 -0.30121493 -2.2172086
0000d0 83 43 ed bf 20 91 f8 3d 05 8f e5 bf 2e ce 17 3f
       -1.8536228 0.121370554 -1.7934271 0.5929898
0000e0 14 f6 a2 bf 62 cf 94 bf 28 d0 c5 bf 8b b3 05 c0
       -1.2731347 -1.1625788 -1.5454149 -2.0890834
0000f0 1d fb b0 bf d0 97 95 bf 83 d2 1f c0 fa 48 5e bf
       -1.3826634 -1.1686954 -2.4972236 -0.86830103
000100 d4 e4 03 bf 99 4f bd bf 22 c0 8f bf 15 a8 86 bf
       -0.5152104 -1.4789916 -1.1230509 -1.0520045
000110 b6 01 e5 bf c0 68 f1 bf 55 7e d0 bf 7c e4 1f c0
       -1.7891147 -1.8860092 -1.6288553 -2.4983206
000120 4e ef cb bf 8a 21 e9 be cb 3a 20 bf 22 a6 a7 be
       -1.5932405 -0.455334 -0.6258971 -0.32743937
000130 3c 4a da be 32 72 34 c0 63 5c 9a bf 0c 7b 0d c0
       -0.4263476 -2.81947 -1.2059444 -2.2106352
000140 dc df d8 bf a6 9b da bf 89 78 dc bf ca a9 1c 3f
       -1.6943316 -1.707875 -1.7224284 0.6119658
000150 9b 1f 98 3e 88 c4 7b bf 1e 79 a9 bf 0a f9 be bf
       0.29711613 -0.9834676 -1.3240087 -1.4919751
000160 06 e3 10 3f 41 97 00 c0 05 ec 0a c0 88 b0 49 bf
       0.5659641 -2.0092318 -2.1706555 -0.7878499
000170 b5 ae 2f bf 9b 24 ea bf e1 e1 b0 bf 4e 3e 6b bf
       -0.68625957 -1.8292421 -1.3818933 -0.91891944
000180 85 15 92 bf 7b 0f a2 bf 49 d9 86 be 90 fd 14 c0
       -1.1412817 -1.2660974 -0.2633765 -2.3279762
000190 e4 ad 77 be e2 ef 92 bf 25 d4 f8 bf 8b 0b 21 bf
       -0.24187428 -1.1479456 -1.9439741 -0.6290824
0001a0 59 ba 23 bf 2a 15 95 bf e4 ff 19 c0 16 4e c0 bf
       -0.6395622 -1.1647084 -2.4062433 -1.502383
0001b0 64 cf b7 bf 65 e4 85 bf 70 16 42 bf 1a b5 93 bf
       -1.4360166 -1.0460325 -0.75815487 -1.1539643
0001c0 e3 06 b2 bf db f3 b6 bf 73 3a a7 bf dc b7 e1 bf
       -1.3908352 -1.4293169 -1.3064712 -1.7634234
0001d0 b9 0e 18 c0 e7 95 87 bf 56 d6 1e bf 28 c7 fb bf
       -2.3758986 -1.0592622 -0.620458 -1.9670153
0001e0 53 71 4d bf 26 56 dd bf fd db 1e c0 ae ec 9a bf
       -0.80251044 -1.7291915 -2.482177 -1.2103479
0001f0 f7 44 09 bf 07 2b db bf 95 22 91 bf 2a e8 19 3f
       -0.53620857 -1.7122506 -1.1338679 0.6011988
000200 2d c0 49 bf 68 ff c3 bf b2 16 e8 bf fa 69 a9 bf
       -0.7880886 -1.5312319 -1.8131926 -1.3235466
000210 fb 2d 27 c0 05 57 00 c0 fd f8 03 c0 d0 6b 87 bd
       -2.6121814 -2.0053113 -2.062072 -0.066123605
000220 a0 d6 67 bf 6a 28 b1 bf 7c 02 36 bf 89 b1 d8 bf
       -0.90561867 -1.3840458 -0.7109754 -1.692918
000230 e1 02 8b bf f3 50 4a bf 66 97 81 bf 9b 39 08 c0
       -1.0860254 -0.7902977 -1.0124328 -2.128516
000240 73 39 cd bf cf a7 08 c0 3f 28 00 c0 82 9c 05 c0
       -1.6033157 -2.1352422 -2.0024564 -2.0876775
000250 8e a0 28 c0 40 61 02 c0 80 83 02 c0 bf ec 57 bf
       -2.6347995 -2.0371857 -2.0392761 -0.8434562
000260 4d 7d 79 bf 77 b1 98 bf 5d be 01 bf 27 ba ee bf
       -0.9745682 -1.1929158 -0.50681096 -1.8650559
000270 5a 5f 91 bf 13 64 e7 bf 64 fb 29 bf c1 59 61 bf
       -1.1357224 -1.8077415 -0.66399217 -0.8802758
000280 f2 60 a2 bf c0 0e 24 bf 57 7a 9b bf 06 60 01 3f
       -1.2685835 -0.64085007 -1.214671 0.50537145
000290 09 3a 0d c0 a3 c3 85 bf b6 d4 cc bf 1a 82 79 bf
       -2.2066672 -1.0450329 -1.6002414 -0.97464144
0002a0 16 89 c6 bf ae 21 b7 bf 3f 98 e3 bf 1b 56 0e c0
       -1.5510585 -1.4307153 -1.7780837 -2.2240055
0002b0 59 ac 97 bf 2d 50 96 bf e7 5e e4 bf fb df 24 3e
       -1.1849471 -1.1743218 -1.7841462 0.16101067
0002c0 59 61 ce bf c3 21 d7 bf aa e1 39 c0 a4 9e db be
       -1.6123458 -1.6807178 -2.9043984 -0.4289447
0002d0 b7 05 0e c0 ef 8b e7 bf 11 bd 9c bf 6e 85 50 bf
       -2.2190988 -1.8089579 -1.2245198 -0.814536
0002e0 a8 8e 93 bf 94 ea 97 bf 7d 82 21 c0 ef 30 e1 bf
       -1.152791 -1.1868463 -2.5235894 -1.7593058
0002f0 f4 d4 0d c0 c8 a7 58 bf f7 ac 7a be 8f f9 c6 bf
       -2.2161226 -0.84631014 -0.24480043 -1.5544909
000300 e0 5d df bf bc e7 a4 bf 21 99 bf 3e 7d 4f 97 bf
       -1.7450523 -1.288322 0.37421516 -1.1821133
000310 a5 1d d5 bf 03 21 fd bf 2b ca e9 bf 06 84 e8 bf
       -1.6649672 -1.9775699 -1.8264822 -1.816529
000320 28 ea 0c c0 a4 f5 e2 bf ee ac 13 bf 2e 0b ce bf
       -2.2017918 -1.7731214 -0.57685745 -1.6097162
000330 4a d0 e8 be 99 8d cd bf 92 cc b1 bf 31 a4 70 bf
       -0.45471412 -1.6058837 -1.3890555 -0.94000536
000340 78 89 88 bf f7 0f 82 bf 25 a7 fa bf 71 26 a2 bf
       -1.0666952 -1.0161122 -1.9582258 -1.2667981
000350 c9 03 04 c0 c4 33 be bf 46 e0 ef bf 31 74 f5 bf
       -2.062731 -1.4859548 -1.8740318 -1.9176084
000360 bf 21 0a c0 f4 d1 aa bf 9b b0 e8 bf 8b 6a 5a bc
       -2.1583097 -1.3345323 -1.8178896 -0.013331066
000370 68 91 e6 bf 26 b1 ce bf 12 ad 9e bf fe 14 ba bf
       -1.8013124 -1.6147811 -1.2396567 -1.4537656
000380 63 0f c9 bf 09 7c fa bf 21 ef 73 bf 5f 66 0c c0
       -1.5707821 -1.9569103 -0.95286757 -2.1937482
000390 5b 16 bf bf 05 34 a2 bf 42 b3 90 bf 07 51 fd bf
       -1.4928697 -1.2672125 -1.1304705 -1.9790353
0003a0 82 5f 02 c0 64 f3 c2 bf 47 07 f9 bf 4d 6d 72 bf
       -2.0370793 -1.5230527 -1.9455346 -0.9469803
0003b0 48 2a f2 bf b7 ad a0 bf 48 50 06 c0 66 69 9f bf
       -1.8919153 -1.2553014 -2.09865 -1.245404
0003c0 c2 2f f3 bf 8f 6a d5 be b5 53 a9 bf 73 94 73 bf
       -1.899895 -0.4168286 -1.322867 -0.9514839
0003d0 b6 05 80 bf a8 d1 b1 be 52 b2 6d 3e 20 b5 da bf
       -1.0001743 -0.34730268 0.23212555 -1.7086525
0003e0 1e 28 b8 bf b3 e5 f0 bf 7f ab c7 bf 7b 90 b9 bf
       -1.4387243 -1.8820099 -1.5599211 -1.4497217
0003f0 d8 f3 d3 bf f8 ae ec bd da 07 a1 bf ec 70 16 bf
       -1.655879 -0.1155681 -1.2580521 -0.58766055

fc2.weight f4 [256, 256]
000000 67 6b 8d bd 70 a0 d6 bc 9a f6 61 bd 82 bc 39 3b
       -0.06905251 -0.02619955 -0.05516682 0.002834112
000010 17 a4 f5 bd 1a 38 62 bd 55 07 4f 3b 83 0f 01 3d
       -0.11994188 -0.055229284 0.0031590064 0.031508934
000020 2e f6 0c bc c8 30 25 bc 86 53 88 bd f0 e1 5b bd
       -0.008603616 -0.010082431 -0.06656556 -0.053682268
000030 32 bd 30 bd 25 ff a2 bc ef 44 52 bc bc b4 a2 bd
       -0.04314918 -0.019897053 -0.012833818 -0.079446286
000040 5f 77 7a bd 92 94 52 3d 8d 06 8b bd ec 0c 23 3c
       -0.061148997 0.05141122 -0.06788359 0.009951811
000050 2c 5a 5c bc 96 05 22 3d 53 bf 9f 3c 0c 53 8f 3d
       -0.013449233 0.03955611 0.01950041 0.06998262
000060 ec ae b6 bd 88 74 c5 bd e5 9b 21 3d df 50 25 bd
       -0.089200824 -0.09641367 0.039455313 -0.040360328
000070 3a 1e 3d bd 50 40 fe 3b b4 2e 3a 3d c6 ed ca 3b
       -0.046171404 0.0077591315 0.045454696 0.0061928956
000080 9e c7 55 bd c7 91 80 bd 39 df c5 bd 72 cb 97 bd
       -0.052192323 -0.06277805 -0.09661717 -0.07411851
000090 3b dd ab bd 8d cb 21 bc 81 ae c2 bd 36 60 71 3d
       -0.08391806 -0.00987519 -0.0950594 0.058929645
0000a0 f5 26 89 bd 38 81 a0 3c 8c 3a b0 3b 31 74 a1 bd
       -0.066968836 0.019592866 0.005378073 -0.0788349
0000b0 1d e1 d0 3c 3e 58 a0 bc ca 36 cd bb ec 38 9a bd
       0.025497967 -0.019573327 -0.006262635 -0.07530388
0000c0 6f 40 27 3d 68 17 54 bd 3c b1 f8 bd 03 c0 b6 3c
       0.040832933 -0.051780134 -0.1214318 0.022308355
0000d0 35 96 78 bd e2 66 67 ba 14 cc 45 bd c5 41 c8 bd
       -0.060690124 -0.00088272814 -0.048290327 -0.097781695
0000e0 58 d9 5a 3c 08 b4 d0 bc d5 4a fe bc c4 6f b5 bc
       0.013357483 -0.02547647 -0.031041542 -0.02214802
0000f0 95 6a 87 bc f0 1d 86 bd 98 1b a2 3c 97 67 4f 3c
       -0.016530314 -0.06548679 0.019788548 0.012658975
000100 8e 10 fd bc dc 79 2a be 30 04 1c bd 00 e7 0f bd
       -0.030891683 -0.16648048 -0.03808993 -0.03513241
000110 32 35 32 bc 83 d4 fd bc 0e 1a 01 3d 6d b0 67 3d
       -0.010876941 -0.030985123 0.03151899 0.056564737
000120 f5 06 a1 bd fc 94 ee bb 6e a6 04 be c4 6e f8 39
       -0.07862655 -0.007280944 -0.12954113 0.00047384773
000130 7c 52 a8 bd e7 23 83 3d c0 a6 96 bc 72 ec be 3b
       -0.08218858 0.06403332 -0.01839006 0.0058265263
000140 56 ae a2 bc 7f 31 10 be 21 77 02 bd 94 d5 83 bd
       -0.01985852 -0.14081381 -0.03185189 -0.06437221
000150 b7 b9 23 bd 93 8c 73 3c 48 19 23 bd e9 ba 1b 3d
       -0.039972033 0.0148650585 -0.039819032 0.03802005
000160 c0 61 ba bd 4f 12 b1 3b 69 47 f1 3c a3 52 e7 3c
       -0.091006756 0.005403794 0.029452996 0.028237646
000170 ae 9d 66 bd 52 d1 9a ba 75 20 25 bd d3 8e 41 bd
       -0.05630272 -0.001181165 -0.040314157 -0.04725535
000180 9e 34 ed bd 7e fc 5a bd 2e 9d a7 bd 66 46 7c bc
       -0.115823016 -0.05346345 -0.081842765 -0.015397644
000190 8b a4 d0 bd 5f e9 b6 bd 95 0f 03 bd 9d 9f 35 bd
       -0.10187634 -0.08931231 -0.031997282 -0.044341672
0001a0 8b a1 cb bc 76 c8 87 bd 57 8b 92 bd 4f 85 ff bd
       -0.024857303 -0.06630032 -0.07155483 -0.124765985
0001b0 68 2b f0 bd 18 62 63 bd 8e 01 ab 3c 19 43 a0 bd
       -0.11727029 -0.05551347 0.020874765 -0.07825298
0001c0 b1 3a 87 3d f4 bb 63 bd cb 69 0c 3d 86 a4 49 3d
       0.06602991 -0.055599168 0.03428058 0.049229167
0001d0 33 8c da 3c 35 46 3d bd c9 45 55 bd c8 a6 4b bd
       0.02667818 -0.046209533 -0.052068505 -0.049719602
0001e0 d1 3e 3c bd 8d 58 29 3c c2 a4 0b 3d e5 e6 6c bd
       -0.045958344 0.010336054 0.034092672 -0.057837386
0001f0 97 db f7 bd 01 28 4d 3d 2f 0c 8c bd 30 56 4a bc
       -0.1210243 0.05008698 -0.06838261 -0.01234965
000200 63 4b 76 bc 98 3d 23 3d 4d ed 0e 3c 3a e1 b9 3c
       -0.015032622 0.039853662 0.008723569 0.022690404
000210 5e da 0b 3d e2 59 77 bd da aa fd bb c5 de f4 3c
       0.034143798 -0.060388453 -0.0077413144 0.029891381
000220 9b d7 42 bc 3b f6 f7 bc 03 90 ae bc b9 33 39 bd
       -0.011892225 -0.030268779 -0.021308905 -0.045215342
000230 eb ee b3 bd af 7c 17 bd 12 59 79 bd e7 dd 40 bd
       -0.08785804 -0.036984142 -0.06087596 -0.047086623
000240 a7 ec c7 bc 3c 01 9a bd 90 61 ab bc ed d1 5d bd
       -0.024404837 -0.07519767 -0.020920545 -0.05415528
000250 0a b1 25 bd 69 d8 09 bd 45 6d 66 bd 4d 0b f2 3c
       -0.04045204 -0.03365365 -0.05625655 0.029546404
000260 b7 69 dd bd d1 e0 dd bd 96 9a 5e bd e6 24 88 bd
       -0.10811179 -0.10833896 -0.054346643 -0.06647663
000270 52 aa 97 3a 37 dc a5 bb 4f 25 14 be cd 70 be bd
       0.0011571145 -0.005061652 -0.14467357 -0.09298859
000280 d3 20 45 bd 25 8b d4 bc da 67 86 bd 12 e7 a7 bd
       -0.048127007 -0.025945256 -0.06562777 -0.0819837
000290 56 7a 4a be e0 76 61 3c 04 21 51 3d 6b 1e d1 bd
       -0.1977323 0.013761252 0.051056877 -0.1021088
0002a0 ec 8a bf bc 7d 09 04 bd 52 04 d6 3b c5 ea 89 bd
       -0.023381673 -0.03223561 0.0065312767 -0.06734232
0002b0 6a 5d 9c 3c 2c 41 ab bc cb 0f 2f 3c 8e 3b ee bb
       0.019087512 -0.0209051 0.010684918 -0.007270283
0002c0 3e 71 55 3d 69 ae da 3c 18 8c b2 bd 3e b1 bc bd
       0.05210995 0.026694493 -0.08718127 -0.09213494
0002d0 48 4b dc 3c 84 44 bb 3d 26 15 6e bd 33 f6 39 bd
       0.026891366 0.09143928 -0.058125637 -0.04540081
0002e0 b8 90 b4 bc ff ac be bd 05 94 a3 bc c7 48 c2 bd
       -0.022041664 -0.0931034 -0.019968042 -0.094865374
0002f0 d9 5c 84 bd cc 98 9c bd 7f 6d d5 3c 9c 42 4f bd
       -0.06463022 -0.07646331 0.026053188 -0.050600633
000300 08 d5 c7 bc c3 0f 43 bc d5 65 a8 bd 2c 76 04 bd
       -0.024393573 -0.011905613 -0.08222548 -0.03233926
000310 65 14 44 bd 0d 82 b0 bc 5d 88 98 bd 30 31 b3 bd
       -0.047871012 -0.021546388 -0.07447884 -0.08749616
000320 ff 4d e0 bc cb 0a d8 bd 50 21 02 be 79 ba 8d 3d
       -0.027380941 -0.105489336 -0.1270802 0.069203325
000330 c0 54 3d bc e6 16 56 3d 40 3d d1 3c 38 f1 ff bc
       -0.0115558505 0.05226793 0.025541902 -0.031242952
000340 fe d7 c0 bd 24 7a 7a bd 97 7b 24 bd 12 43 66 bc
       -0.09416197 -0.06115164 -0.040156927 -0.014054077
000350 26 d4 00 be 73 17 ba 3d 9f 07 07 3d 9a e3 06 bd
       -0.12580928 0.09086504 0.032966252 -0.0329319
000360 b5 37 03 be d6 1d a5 bd 0a 26 a7 bc 9b e3 e5 bd
       -0.1281422 -0.080623314 -0.02040388 -0.11225053
000370 2b aa ff bb 17 3a 8b bd ea de 89 3c 1c 5b 55 bc
       -0.007802268 -0.06798189 0.016829927 -0.01302221
000380 e1 88 ac bd c3 43 39 3d b8 8d 9a bc a3 c1 a6 3b
       -0.08424545 0.04523064 -0.018866405 0.0050890013
000390 b3 6e 82 3c 5c 45 97 bd 47 cf 0d 3d 4f 68 81 bd
       0.015921926 -0.07386276 0.034621503 -0.063187234
0003a0 72 d5 ab bc d5 78 8b 3c 7a 38 a8 bd ab 76 35 bd
       -0.020975802 0.01702539 -0.08213897 -0.044302624
0003b0 a6 d3 3a bd f3 df 38 3c 53 89 c5 bb 7a 0f 22 bd
       -0.045612 0.011283862 -0.006028333 -0.03956554
0003c0 df c0 a7 bd 02 ca 11 3d 3b 60 18 3d 1b 6c 66 bd
       -0.08191084 0.03559304 0.037201148 -0.05625544
0003d0 26 9e 0d bd 8a 81 c8 bd ea bc e4 bd 16 34 14 bd
       -0.03457465 -0.097903326 -0.11168845 -0.036182486
0003e0 ab db 60 3d f9 01 af bd e0 4a 8f bd 35 af 4e 3b
       0.05489699 -0.08545298 -0.06996703 0.0031537537
0003f0 00 12 a3 bd f9 09 f3 bd ea 29 5c 3d 9e d5 11 bd
       -0.079624176 -0.118671365 0.05375091 -0.03560411

fc2.bias f4 [256]
000000 88 0d c8 bd 6a f8 a1 be 1a 1d c6 bd d4 e9 48 bd
       -0.09768206 -0.31634837 -0.096735194 -0.04905112
000010 8b 73 24 bd 62 fa 13 bf 23 96 be bc 4f ee b1 bd
       -0.040149253 -0.5780393 -0.02326495 -0.08688032
000020 1c d5 79 be e6 0b 62 be 59 7f c8 bd 38 ce ff 3e
       -0.24397701 -0.22074851 -0.09789915 0.4996202
000030 c9 75 a1 bd ae 85 1f 3e 33 f7 ae bd 83 ce b6 bd
       -0.07883794 0.15578339 -0.08543243 -0.08926108
000040 94 7f 2d be 3f a6 59 3e 83 61 2b bd d7 54 7c 3e
       -0.16943198 0.21254824 -0.04184104 0.24641739
000050 e7 92 1f 3d d6 86 17 3f 10 6b 14 bf 75 cd 8a 3f
       0.038958456 0.5919012 -0.57975864 1.084395
000060 c9 66 6f bf 2a c1 a2 bd 28 7a 8b 3d 4f 4e 01 bd
       -0.9351621 -0.07946999 0.06810409 -0.03156882
000070 2f 86 bd 3e 7d b6 21 3d f1 65 c3 bf 49 54 e2 be
       0.37016436 0.039480675 -1.5265485 -0.4420493
000080 7e 19 2b bf 55 a1 94 bc d1 5c d0 bd 29 30 59 bd
       -0.66835773 -0.018143335 -0.10173953 -0.053024445
000090 56 d4 3b c0 97 d0 fe 3c 27 a9 8a bd 21 10 33 bc
       -2.934835 0.031105323 -0.067705445 -0.010929138
0000a0 81 3b 4c 3f 75 b4 a6 3e 08 99 de 3e d1 5e 2b 3f
       0.79778296 0.32559553 0.4347613 0.66941553
0000b0 8a 2e 37 bd 72 2c 90 bc ca 62 92 3b 0b 5f 9d bd
       -0.044722117 -0.017599318 0.004467343 -0.07684144
0000c0 71 f0 40 be f9 17 fe 3e 3c 42 ae bd 61 f1 4c 3f
       -0.18841721 0.49627665 -0.08508727 0.80055815
0000d0 65 07 68 3f 29 08 80 3f f0 1a 8a 3f 85 00 ff 3f
       0.90636283 1.000249 1.0789471 1.9922034
0000e0 ab 9c db 3b a6 02 16 bf 56 20 49 be 15 cd ab bd
       0.006702026 -0.5859779 -0.19641241 -0.08388726
0000f0 07 53 d0 bd dc 3d 0d c0 b9 3a 38 be 63 fd 0d 3f
       -0.10172086 -2.2069006 -0.17991151 0.5546476
000100 57 99 7a bd b7 41 7c bd 86 bb cd be c3 93 a7 bd
       -0.061181393 -0.061586108 -0.40182132 -0.0818248
000110 a2 ac 8f bd e5 3c 19 bf fd 91 8a bd ff 5b 00 3f
       -0.07015349 -0.5985854 -0.06766126 0.50140375
000120 a7 b1 c6 be 95 ee 02 bf 1b b8 9a 3d 0d e3 fd 3f
       -0.38807413 -0.511453 0.075546466 1.9834915
000130 b3 61 4f bf 71 38 59 bd f8 55 f7 3e 21 96 e3 3c
       -0.8100845 -0.053032342 0.48307776 0.027781548
000140 7b bb ba 3e c2 cc 35 3e 06 e8 60 bd 02 9a 7d bf
       0.3647116 0.1775389 -0.054908775 -0.9906312
000150 63 3e 73 c0 09 e6 c2 bd 4d c5 dc bd d9 b4 be be
       -3.8006828 -0.09516532 -0.1077982 -0.3724735
000160 ac 31 03 3e f6 ee ff 3d 5c 1c 38 bf 1b f9 20 bd
       0.12811917 0.1249675 -0.7191827 -0.039300065
000170 17 49 0b be 40 60 b2 3f 9c 23 c1 bd d5 56 be bd
       -0.136021 1.3935623 -0.0943062 -0.09293906
000180 0c 2c be be dd 41 96 bd 1a 07 57 bf 9c 86 75 bf
       -0.3714298 -0.07336781 -0.8399521 -0.9590852
000190 ad 6c bb 3e db 3e d5 bf 18 8b 89 3c fc 52 e8 bd
       0.3660635 -1.6659807 0.016789958 -0.11343953
0001a0 1c 30 88 bf ca ea c4 bd 1e 40 b4 3d c9 e1 42 bd
       -1.0639682 -0.09615095 0.08801292 -0.047578607
0001b0 89 59 e2 3e 66 99 4b bc f5 8a 2e 3f 12 51 e6 be
       0.44208935 -0.01242671 0.6818078 -0.44983727
0001c0 47 88 2f be 6d 12 4c be 10 fc c4 be 7b ef 94 bd
       -0.1714183 -0.19928904 -0.38473558 -0.0727224
0001d0 ab 33 bb 3e 65 14 51 3f 63 2a 0b bd 04 ac 46 3a
       0.36562857 0.81671745 -0.03397597 0.0007578733
0001e0 a6 e6 26 3e 30 63 85 3f 1b cf e7 bf 95 a2 73 be
       0.16298923 1.0420895 -1.8110079 -0.23792489
0001f0 c2 ce 16 bd 4a f5 aa be 61 cd 14 bf 7b f3 48 bd
       -0.036818273 -0.33390266 -0.58125883 -0.049060326
000200 6f fa de bd 98 4d bc bf 87 b2 d6 3c 98 a9 09 bf
       -0.1088761 -1.471118 0.026208175 -0.53774405
000210 27 ba b4 bd 74 5c a8 3f 8e f5 d5 3e cf c3 0b bf
       -0.08824568 1.3153214 0.41788906 -0.54595655
000220 9a 08 29 3f ad ea cd 3e 04 2e d7 bd 09 b0 d2 bc
       0.6602875 0.40218106 -0.10506824 -0.025718706
000230 d9 a4 97 3f 14 7a 88 bd be 38 12 3f c9 72 ec bd
       1.1847183 -0.066639096 0.5711783 -0.11545331
000240 d8 da 99 be bb a9 8b be 01 71 ff bd 0f f2 58 be
       -0.30049777 -0.27277932 -0.12472726 -0.21186088
000250 2a 3b 35 bf 94 65 93 3f db 44 96 3d 9f 26 a8 bd
       -0.707934 1.1515374 0.07337352 -0.082104914
000260 0d b8 ca bd 97 f2 03 3e 7c 7e 0c 40 2a 48 0f 3f
       -0.09898386 0.1288551 2.19522 0.5596949
000270 41 b4 d9 bf b6 dc a3 bc 06 fe 7f be 9b 06 8f bd
       -1.7008134 -0.020002704 -0.24999246 -0.06983682
000280 aa ce 0d be 3a b7 e3 3f 12 8a 0d 3a 20 a7 b3 bd
       -0.13848367 1.7790291 0.0005399297 -0.08772111
000290 3b 46 50 3e c4 e0 bc 3f b2 62 3e 3c 09 51 09 bd
       0.20339291 1.4756093 0.0116202105 -0.033524547
0002a0 12 83 81 3d 06 21 1e bf 1e 05 c9 bd 67 56 42 c0
       0.06323828 -0.6176914 -0.09815429 -3.0365236
0002b0 31 a5 30 bf 4a 13 96 bd 0c f9 a2 bd 0b f8 53 bf
       -0.6900206 -0.07327898 -0.07957658 -0.8280036
0002c0 3c 83 2c be e2 06 81 3e c7 d4 8b 3d 7f c8 cd bd
       -0.16846937 0.25200564 0.068276934 -0.10048007
0002d0 fc 6a 04 3e 02 8d ac bd 68 41 83 be 67 e9 fa be
       0.12931436 -0.084253326 -0.25635839 -0.49006197
0002e0 ec 7c 05 bf 10 ce 13 bd 92 67 b8 bd 91 b6 c1 be
       -0.5214374 -0.03608519 -0.090041295 -0.378346
0002f0 a2 0d 28 3d 2b 7d 81 3f 0b a9 19 bf af b9 d5 bd
       0.041028626 1.0116323 -0.60023564 -0.10435807
000300 72 74 2a 3e c1 67 01 bd 0b 25 c0 3f 40 b4 6d bf
       0.16645983 -0.031593088 1.5011305 -0.92853165
000310 bb 90 c8 bd 20 9a 5a 3f fd e4 6f c0 f8 60 92 bf
       -0.0979323 0.85391426 -3.7483513 -1.1435843
000320 33 26 65 3d e9 3e 4f 3f 2b 4c 2a 3f ae 71 ce 3f
       0.055944633 0.8095537 0.66522473 1.6128442
000330 40 25 04 be 61 14 c5 3d 3d 0a a2 3e a4 3b 6c be
       -0.12904835 0.096230276 0.31648436 -0.23069626
000340 6f dc b4 bc 92 bd 20 be f1 2c 33 3c aa 2c 1f 3f
       -0.022077767 -0.15697315 0.010936008 0.62177527
000350 10 f9 70 3f 35 61 ad 3e 8a ea 67 bb cb e3 b2 bf
       0.9413004 0.33863226 -0.00353876 -1.3975767
000360 40 76 ae 3e d9 36 e9 bd 27 e5 94 be 6c df ae be
       0.34074593 -0.113874145 -0.2908108 -0.34154832
000370 8d 10 19 3f 55 a9 b2 3e 17 74 fc 3f 29 42 62 bd
       0.5979088 0.34894815 1.9722928 -0.055238876
000380 61 f1 18 bd 43 bf 73 3f b0 7a 99 be cb 01 6b 3f
       -0.037339572 0.9521372 -0.29976416 0.9179961
000390 2d f3 46 3d dc 3e 39 3f 42 8f 22 bf 38 5b 2c bd
       0.048571754 0.7236154 -0.63499844 -0.04207918
0003a0 33 73 24 be 36 3b 6d 3e 9c a8 0e bf 29 12 93 3f
       -0.1605957 0.23167118 -0.5572603 1.1489917
0003b0 b1 71 84 3d 79 bf 11 be 1f 6b 4d bd d0 41 e7 bd
       0.064669974 -0.14233197 -0.050150987 -0.112918496
0003c0 b5 ca 77 bf de 3c 68 3f ea 46 95 be a0 3e fc bc
       -0.9679368 0.90717876 -0.29155666 -0.03079158
0003d0 e6 a2 0b bf bd 82 68 3f c4 3c 23 3e a9 01 29 3f
       -0.5454544 0.9082449 0.15941149 0.6601816
0003e0 17 99 d1 bd b8 12 c1 bc c7 38 28 bd e6 18 3a bd
       -0.10234278 -0.023568496 -0.041069772 -0.0454339
0003f0 b9 c3 e7 3e 82 b9 4e bf 4c 56 e3 bd 4c c6 47 be
       0.45266512 -0.8075181 -0.11100444 -0.19509238

fc3.weight f4 [256, 256]
000000 89 20 2b 3d e9 43 6b bc 81 fe 51 bd 54 8d 85 bb
       0.041779075 -0.014359453 -0.051268104 -0.0040756855
000010 76 f7 aa bc 74 3d 26 3e 34 7e 42 bd 4f 06 4b 3d
       -0.020869952 0.1623438 -0.047483638 0.049566563
000020 04 3d a0 bf fd eb a5 bf bf 12 5b bc af 9a 1e bf
       -1.251862 -1.2962643 -0.013371169 -0.6195478
000030 f3 57 a9 3c ba 0b bf bd a3 7a dc 3c bc 89 56 3b
       0.02067182 -0.093284085 0.026913946 0.0032735905
000040 d0 2f 65 3e d0 2a a5 3e ea c4 2b bd 10 00 b6 bd
       0.2238152 0.32259226 -0.04193584 -0.08886731
000050 30 4c e1 bc a0 ba 22 bf b3 f4 0b bf 50 f9 b9 3d
       -0.02750215 -0.6356602 -0.54670256 0.09080756
000060 9f 6c 7d bf af ba 5f 3c 09 41 1a 3e 5a a4 44 3d
       -0.9899387 0.013655349 0.15063871 0.0480083
000070 cb c5 aa be b1 c2 3c 3d c1 05 3c 3d 2c 2f b9 3e
       -0.3335403 0.04608411 0.045903925 0.36168802
000080 27 0c 7d bf d8 11 c8 bc 6b be 9e 3c 7c 55 67 bc
       -0.9884667 -0.024422571 0.019377908 -0.014119502
000090 a2 dc 76 bf e0 49 8e 3d a1 55 ac 3c cb 1c 7a 3d
       -0.9643041 0.06947684 0.021036925 0.061062615
0000a0 85 d3 e0 be fb 50 c6 be d2 1d 1f bf c6 a1 d6 bd
       -0.43911377 -0.38733658 -0.6215488 -0.104800746
0000b0 9b b8 61 bd 06 81 1d be bb 4b f9 3c 4c 0f b7 3b
       -0.055107694 -0.1538125 0.030431619 0.0055865403
0000c0 28 19 8a bd bc 6f 19 bf 58 24 c3 3c 02 9d 37 bf
       -0.067430794 -0.5993612 0.023821041 -0.7172395
0000d0 40 a2 0f bf f6 51 80 be 46 ad 01 bf 38 88 05 be
       -0.5610695 -0.2506253 -0.5065502 -0.13040245
0000e0 c8 39 67 37 9b b0 2b be e5 24 48 3e 7f f8 34 3d
       1.3782126e-05 -0.16766588 0.19545324 0.044182297
0000f0 7f 36 1e bc 8e 98 28 bf 39 74 70 bf 60 37 1c bf
       -0.009656548 -0.6585778 -0.9392734 -0.61021996
000100 56 77 74 3d 0e 1d 7f bd 1e 6e ac 3d 1d ed 83 bd
       0.05968412 -0.062283568 0.08419441 -0.0644171
000110 7b 3e 96 bd 0f ed 00 3f 0f fd 99 bc 8e de 6e 3e
       -0.07336136 0.5036172 -0.018797426 0.23327085
000120 46 35 84 3e 83 c4 39 3e ca 7c ac 3e 4c 69 a9 be
       0.25821894 0.1814137 0.33688956 -0.33088148
000130 20 41 4a bd 89 31 02 bd 39 1a 41 be 1b f8 ed bb
       -0.049378514 -0.03178552 -0.1885766 -0.0072622425
000140 bd 95 d4 be 30 4e 2c bf 43 4c a5 bf 70 6a 42 be
       -0.4152049 -0.67306805 -1.2913898 -0.18985915
000150 8c 56 67 bf b7 96 1f bc bf a0 9a be 5f e5 cb bd
       -0.90366435 -0.009740523 -0.30200765 -0.099558584
000160 d7 96 ed 3d c1 73 da be 87 5e 2b be c8 7b 1c 3e
       0.11601036 -0.42666438 -0.16735278 0.15281594
000170 6b 4b 45 bf 36 5c 53 be 07 14 ff 3b da 62 30 3b
       -0.77068204 -0.20640644 0.00778437 0.002691439
000180 b4 48 8a bf 67 fb 87 bd 1b b3 f9 bc 76 f8 20 be
       -1.0803437 -0.06639748 -0.030480912 -0.1571978
000190 26 ac e7 bd 2c 03 4e 3e ad 43 c2 3c 6e eb 08 bc
       -0.113121316 0.20118397 0.023713911 -0.008356912
0001a0 2f 82 1d be 01 30 90 3d e7 55 66 3e eb cc 0c 3b
       -0.15381692 0.07040406 0.22493707 0.0021484445
0001b0 2b 96 b1 be ca 4d 11 3e 99 20 01 3e 88 d0 07 3e
       -0.34684882 0.1418983 0.12610091 0.13263142
0001c0 82 06 a8 bf bf 57 82 bd 2f ab 1a 3e 73 84 1e 3d
       -1.3126986 -0.063643925 0.15104364 0.038700532
0001d0 60 98 04 3e 13 50 c3 3e 22 3d 24 3e 16 3c 09 bf
       0.12948751 0.3814703 0.16038945 -0.5360731
0001e0 18 ac ea bd 85 fa 63 bf 40 ef b8 be ee 11 3f be
       -0.114586055 -0.8905414 -0.36120033 -0.18659183
0001f0 86 43 38 bc 1a b1 4f 3e 8f ea 3e 3e ae b6 a3 3d
       -0.011246568 0.20282403 0.18644165 0.07993828
000200 d5 70 79 3d 01 e5 33 be 71 f4 ab be e7 b3 31 3e
       0.06089862 -0.17567827 -0.33584931 0.17353784
000210 62 9f 50 3d e1 88 b2 3e 7c 90 da 3e 43 64 34 3e
       0.05093325 0.34870055 0.42688358 0.17616372
000220 c5 c4 a9 be a3 df c2 bf 28 60 82 3a 22 ab 8c bd
       -0.33157936 -1.5224499 0.000994687 -0.068685785
000230 e9 8f 8d bd 2f 5a 22 bd a9 12 82 3e 4e 3b af 3c
       -0.06912214 -0.039636787 0.25404862 0.021390583
000240 54 56 40 be e9 80 1c bf 18 18 45 3d 38 2b f9 3d
       -0.18782932 -0.611342 0.04811868 0.121664464
000250 ed 99 bc be 90 12 a8 bd 49 ac 7f bd 54 85 10 bd
       -0.36836186 -0.082066655 -0.062420163 -0.0352834
000260 3c 89 26 bd 47 d1 44 3e dc c7 8e bd dd 1a 8e be
       -0.04065822 0.19220458 -0.06971714 -0.2775487
000270 ac 01 f6 be 5a 4e 34 bd f7 8c b1 3e f8 9b b1 be
       -0.4804815 -0.044020034 0.3467786 -0.34689307
000280 77 18 d8 be 72 71 12 bf a3 c5 9d 3c 7f ef 89 3c
       -0.42206165 -0.57204354 0.01925928 0.016837833
000290 5a 85 00 3e fa b0 46 bf ae c0 f8 bd cd 52 17 bc
       0.1255087 -0.77613795 -0.12146126 -0.00923605
0002a0 a9 54 97 3e f9 c5 9b 3c c1 61 78 39 80 a9 a5 be
       0.29556778 0.0190153 0.00023687539 -0.3235588
0002b0 c0 c3 05 be 2f 13 2c 3e 80 60 ce bc 06 4b 65 bf
       -0.13062954 0.16804193 -0.0251925 -0.895676
0002c0 b8 3f ae be 47 25 4f 3e ea a5 6f be bd f3 83 bc
       -0.3403299 0.20229064 -0.23403135 -0.016107434
0002d0 d9 1e 9e 3d c1 5b 2e bd a8 cf 6b bf 29 4d 88 be
       0.077207275 -0.042567972 -0.92113733 -0.2662137
0002e0 29 82 ae 3e 13 02 69 3d 4b 30 7a bd 97 35 f8 be
       0.3408368 0.056886744 -0.061081212 -0.48478386
0002f0 33 1f fd be 32 86 1f 3d 06 9e 3f bf df 10 82 bc
       -0.49437866 0.038946338 -0.748505 -0.015877185
000300 fa 19 29 3e c7 16 92 3d 2d b8 b0 bf f7 bb 5e 3c
       0.16513816 0.07133251 -1.3806206 0.013594619
000310 87 5b 60 bd 43 c3 35 bd 14 1c 4d be 39 3e 07 bf
       -0.054774787 -0.04437567 -0.20030242 -0.5282932
000320 24 af cc bc 88 34 37 3e 50 cb 81 be c2 a3 63 bf
       -0.024985857 0.17891133 -0.25350428 -0.8892175
000330 d0 a0 0c be c9 47 07 3e 0e 57 0f bf 8c 42 bd bd
       -0.1373322 0.13210978 -0.5599221 -0.092412084
000340 30 a5 a5 bd 09 7e c5 be 1a 87 fd bb 4a 38 a9 3e
       -0.08088148 -0.3857272 -0.0077370526 0.33050758
000350 23 92 27 bd 5c 5d f8 be d1 8d 81 bd a7 9f c1 be
       -0.04091085 -0.48508728 -0.063258775 -0.37817118
000360 9c 2b 55 3d ef 84 32 bd 5a b9 04 3f fd 82 19 bf
       0.052043542 -0.043583807 0.51845324 -0.599655
000370 06 83 ea 3d 33 ca 9d bd 99 10 4e be 7c b9 a4 bc
       0.11450772 -0.07704582 -0.20123519 -0.020107977
000380 b4 b9 1c bd b5 4f b5 be 17 51 5f 3e 17 9f bf 3e
       -0.038263038 -0.35412374 0.21808277 0.37426063
000390 09 10 2f bd 4f dd a5 bf df 5a 0d bd da 01 81 bd
       -0.0427399 -1.2958163 -0.03451049 -0.06299181
0003a0 7f 9f 02 3d 0b 2c 7a be d5 45 c1 be 53 1c 86 3e
       0.03189039 -0.24430864 -0.3774859 0.26193485
0003b0 bf 9e 12 3e d8 8a ba bd cd d7 91 bc 44 84 82 3d
       0.1431837 -0.091085136 -0.017803097 0.06372884
0003c0 e3 d7 0e 3f 70 48 ab 3e 0b 33 3f be c1 4c f5 be
       0.55798167 0.33453703 -0.18671815 -0.4791012
0003d0 b5 7c 0d 3e 23 a6 6a be 3f 85 21 3f 16 ca 93 be
       0.13817103 -0.22914939 0.6309394 -0.28865117
0003e0 d0 40 34 3d 1f fd 5e bc f7 2a 30 3d 3f 75 61 bc
       0.044007123 -0.013610153 0.043009724 -0.013760864
0003f0 22 65 db 3d 49 3d 78 be 09 c0 62 bc 7f 07 15 bf
       0.10712649 -0.24242128 -0.01383973 -0.58214563

fc3.bias f4 [256]
000000 1c 61 ad 3e ab 2d 98 be 43 55 59 3f 8f 94 03 3d
       0.3386315 -0.29722342 0.84895724 0.0321241
000010 87 a6 94 bd 8a 5b 80 3e dc f3 bb 3e 93 85 4c bf
       -0.07258325 0.2506984 0.36709487 -0.7989132
000020 33 65 cc bd 6d a1 86 3e d9 01 87 3e 23 c5 3b be
       -0.0998024 0.26295033 0.26368597 -0.1833692
000030 3d 21 fa 3d cc ad d5 3d 06 51 21 bf 71 99 75 bf
       0.12213371 0.1043354 -0.63014257 -0.9593726
000040 0b b9 b4 bd 4e 34 dc 3e b6 0a f1 3e 33 7e 84 3f
       -0.08824357 0.43008655 0.47078484 1.0351013
000050 fd f2 e3 3a 4b c5 e2 3d fa 19 92 3c 0f 47 ee be
       0.0017391142 0.11072787 0.017834652 -0.46538588
000060 32 85 22 bf 21 2c a0 3c d5 53 63 be 0a a7 05 bd
       -0.6348449 0.019552292 -0.22199948 -0.032630004
000070 d5 83 6a 3f 5e 7a 68 3f c3 e5 ce be bc d4 d5 bd
       0.9160741 0.9081172 -0.4040967 -0.104409665
000080 2e f1 b4 be 5c a4 d4 bb ba 06 95 3e 4b 9d 37 3d
       -0.35340255 -0.0064893197 0.29106694 0.04482774
000090 41 d5 32 3f 59 81 48 bf dc 4d 88 be 4d 8c a0 3e
       0.6985665 -0.7832237 -0.26621902 0.3135704
0000a0 4c 7c 96 bd b1 e5 40 be 29 41 89 be e8 aa 7f be
       -0.073479265 -0.1883762 -0.26807526 -0.2496754
0000b0 1e f2 20 be e2 bc 6a 3f 47 0c d1 bd 9c 30 3d bf
       -0.1571736 0.9169446 -0.1020742 -0.739023
0000c0 2b 28 19 bf 78 98 f8 3e 72 ea c8 be 63 3b 36 bd
       -0.59826916 0.48553824 -0.39241368 -0.04449023
0000d0 1c 82 40 be a5 f3 06 3e de 73 79 be 0f b9 7d 3e
       -0.18799633 0.1317888 -0.24360606 0.24777626
0000e0 83 b6 40 3e fe f5 50 bf 37 5f cc be ce 09 16 be
       0.18819623 -0.81625354 -0.39916393 -0.14652178
0000f0 2d a1 43 be 26 31 ed be b8 30 11 bf 6d e0 5c be
       -0.19104452 -0.4632656 -0.56714964 -0.21569987
000100 bb ac 87 be 66 ba 51 be 61 ce aa be a4 0b 86 3d
       -0.2649897 -0.20481262 -0.3336058 0.06545189
000110 1e 51 b6 3e e4 76 58 be 56 1a a1 3f f3 2e 31 bf
       0.35608763 -0.21139103 1.2586162 -0.69212264
000120 64 24 96 bc c6 8d 21 bf 05 b7 b3 bb 52 5b 45 be
       -0.0183279 -0.63106954 -0.005484464 -0.19273117
000130 e0 76 01 be 8c 12 c0 3e bd 58 37 3e b5 6c a5 be
       -0.12643003 0.3751415 0.17904945 -0.323095
000140 b0 50 87 3e 73 c6 5f 3c 05 d8 f4 3e 84 36 fe 3d
       0.26428747 0.013658154 0.4782106 0.12412742
000150 c9 65 08 3f ac 25 d3 be 39 a7 b6 be be 7a 95 be
       0.5328031 -0.4123968 -0.35674456 -0.29195207
000160 74 88 6d bf 17 e8 b2 be 4c d7 ae be 19 9a d6 be
       -0.92786336 -0.34942695 -0.34148633 -0.41914442
000170 e6 fd 25 bf f3 81 dd be 4c 9b de be 71 27 4b 3f
       -0.64840543 -0.43263206 -0.43477857 0.7935706
000180 72 57 fe 3e 00 42 af be e2 86 55 be 09 81 67 be
       0.4967609 -0.34230042 -0.20852235 -0.22607817
000190 7a db 21 3e aa 69 e3 3d 12 fe 98 3f a9 0a 0e bd
       0.1580638 0.11104138 1.1952536 -0.034678135
0001a0 d5 f0 a6 be 6d 04 84 be 1c 08 ac 3e 15 3e fe be
       -0.32605615 -0.25784627 0.33599937 -0.4965674
0001b0 06 0c c6 be 19 d4 e2 be 9c 6b 85 3f 52 d3 d6 be
       -0.38681048 -0.44302443 1.0423465 -0.419581
0001c0 ed 40 45 be 22 c4 06 3f 92 d6 2b 3c 44 87 82 bf
       -0.19263048 0.52643025 0.010488169 -1.019753
0001d0 5c 8a 18 be f1 28 0e 3e 2b c1 02 be fc 3d bf bd
       -0.1489653 0.13882805 -0.12769 -0.093379945
0001e0 c4 1b cc be ce 7f 48 bd 9f af 80 3e 46 44 27 3f
       -0.39864933 -0.04895001 0.25133988 0.6533855
0001f0 c7 d1 67 be 6e e0 81 bd d5 e0 02 be c6 25 f2 bd
       -0.22638617 -0.06341635 -0.12781079 -0.11823611
000200 c5 51 4b bf 51 d2 ff be 79 87 38 3e 81 ca 90 be
       -0.79421645 -0.49965146 0.18020429 -0.28279498
000210 8c 3a af be 8b 6d 03 bf 3e 51 a1 be e9 67 8b bf
       -0.34224355 -0.51339024 -0.31507295 -1.0891086
000220 c3 1c 4f be 14 b8 8b 3e c8 45 77 bf e6 52 0d 3d
       -0.20225815 0.27288878 -0.9659085 0.034502886
000230 70 d4 d1 bd 7e c6 e7 be 02 f1 7a bf fe bf 6c be
       -0.10245597 -0.45268625 -0.98024 -0.23120114
000240 d9 7e 6d bd fd f1 0b be 21 bb 5c 3e 09 57 82 be
       -0.0579823 -0.1366653 0.21555759 -0.25457028
000250 46 79 ab be d8 8b b2 bd c0 97 1e be 74 0d 99 3d
       -0.33490962 -0.08718079 -0.15487576 0.07473269
000260 7e 0a cc be 71 43 8c be 8e e9 fd 3d 09 21 11 bf
       -0.39851755 -0.27395204 0.12398063 -0.5669103
000270 dd 1f 22 bf da cc 79 be 34 9a 71 be d4 28 a3 3d
       -0.6332987 -0.24394551 -0.2359398 0.07966772
000280 76 5c 18 bf 25 ab 6f bf d5 59 a5 bd 42 f5 49 be
       -0.59516084 -0.9362052 -0.08073775 -0.19722465
000290 ba ec c2 be 46 dc 9c bf c1 c3 b8 3e d8 47 92 bd
       -0.38071233 -1.2254722 0.36086848 -0.07142609
0002a0 88 2c 35 3e ce 6a d3 be c0 1c 70 be 9e 25 ca bd
       0.17692769 -0.41292423 -0.23448467 -0.09870456
0002b0 8e f5 99 bd 2c bf d0 bd 2e 19 30 be a2 31 1c 40
       -0.07517539 -0.10192713 -0.17197105 2.4405293
0002c0 5e 49 28 3e 1f e8 83 be ed 57 3f 3d b6 15 75 be
       0.16434237 -0.25763032 0.046714712 -0.23934063
0002d0 ec d5 6d bf a0 d5 26 bf c1 be 20 be 80 91 43 40
       -0.92904544 -0.65169716 -0.15697767 3.0557556
0002e0 96 d4 8b bf 26 5f a6 be a8 1a 4e be 8c 86 4f bf
       -1.0924251 -0.32494467 -0.20127356 -0.8106468
0002f0 0e 28 8f 3e f0 28 08 be d9 fb 80 3d 7a d2 e9 bd
       0.27960247 -0.13296866 0.06298036 -0.11417098
000300 a4 82 31 bd c3 9a 3c be 40 40 d1 be dc 94 18 3d
       -0.04333748 -0.18418412 -0.4086933 0.03725134
000310 38 85 5e bd c1 85 c1 bd 9e 04 9f 3d 3d 95 a1 bf
       -0.054326266 -0.0944934 0.077645525 -1.2623669
000320 0b a5 9e be 9d 33 e9 bd 83 21 6b be 20 74 30 be
       -0.30985293 -0.113867976 -0.22962002 -0.17231798
000330 dc 6a d9 3d 85 f6 0d be b0 20 39 bf fd ca 84 be
       0.10616085 -0.13863571 -0.723155 -0.25936118
000340 2a 76 02 40 da 16 a7 be 4a d6 ed 3d 9f 36 28 be
       2.0384622 -0.32634622 0.11613138 -0.16427086
000350 dc 66 f1 3e 0d d2 00 bf c1 8e 1d bf 92 48 0d 3f
       0.47148788 -0.5032051 -0.6154595 0.5518886
000360 91 7e 84 be 0f 77 bc 3e e9 08 12 3f 9c 43 d2 bd
       -0.25877813 0.36809584 0.57044846 -0.10266802
000370 57 7c de 3d d6 2a 46 bf 06 3d 77 be 44 83 02 bf
       0.1086356 -0.7740911 -0.24144372 -0.50981545
000380 8e de 6e 3e da 8b 96 be 45 73 92 be f9 39 4d bf
       0.23327085 -0.29403573 -0.2860357 -0.80166584
000390 9b 8e cd 3e f6 86 36 be f2 f7 e9 be 64 06 2e be
       0.40147862 -0.17824921 -0.4569698 -0.16994625
0003a0 16 f0 32 be 8d f9 e2 bd 70 3b d4 be f0 32 f3 be
       -0.17474398 -0.11082754 -0.41451597 -0.474998
0003b0 d0 42 ee be b2 a2 8e 3c f0 50 de bd e4 d8 ce bd
       -0.4653535 0.017411564 -0.10855281 -0.10099962
0003c0 6f e5 20 bf 14 fd 4d be be d9 29 be 11 08 46 3f
       -0.6285009 -0.20116073 -0.16586968 0.7735606
0003d0 fd aa 47 3e 32 22 ab 3c b4 78 c0 be bf c4 2f bf
       0.1949882 0.020890329 -0.3759209 -0.68659586
0003e0 50 c8 13 be 13 b2 d3 bf e6 b3 bc be 13 85 b0 be
       -0.14431882 -1.6538719 -0.36856002 -0.34476528
0003f0 9c 17 b8 be 36 f6 d8 be 60 66 09 3f 49 7b 1f be
       -0.35955513 -0.42375344 0.53671837 -0.15574373

action_out.weight f4 [4, 256]
000000 38 0d 53 bc 26 af df bb 96 a3 7b 3d 17 3f bc 3c
       -0.01288157 -0.0068262992 0.061435305 0.022979302
000010 d3 56 57 be b8 58 1d 3b 83 75 94 bc 7d ea 56 bd
       -0.21029215 0.002400918 -0.01812244 -0.05246972
000020 90 ea 66 3e a9 10 12 bc 53 f3 e6 bc 2d f6 3f 40
       0.22550416 -0.008915105 -0.028192198 2.9994004
000030 b8 ee 0f 3f fd e6 24 bc 5f c8 47 be b7 a1 1d be
       0.5622363 -0.0100648375 -0.1951003 -0.1539372
000040 33 b0 f7 3e 84 ea 60 3d 68 b3 26 3e 98 c8 39 3f
       0.48376617 0.05491115 0.16279376 0.72571707
000050 f2 0f 78 bd 59 8c fd 3f b3 37 83 3e 09 8a 73 bc
       -0.06056208 1.9808456 0.25628433 -0.014864453
000060 80 e4 ea bd 11 d1 8f 3d f7 50 6b 3e 19 1f 21 3f
       -0.11469364 0.07022298 0.22980104 0.62938076
000070 fb dc a3 3c 8b c4 91 bd 5e ee c8 be ce ec d9 3d
       0.020002833 -0.07117566 -0.3924436 0.1064087
000080 47 68 14 3e fe 4a c4 3d 37 5a 34 bc 60 25 22 be
       0.14492904 0.09584616 -0.011007837 -0.1583457
000090 ef f6 b8 3e 91 13 49 3e 39 09 35 3e 57 44 88 3d
       0.36125895 0.1963637 0.176793 0.0665366
0000a0 a2 45 fc 3c 42 0a 51 bd 4b a1 10 3f 8c 5e 53 bd
       0.030794922 -0.051035173 0.56496114 -0.05160384
0000b0 78 e3 97 3d b3 45 b4 3d f6 93 8a bc 52 ad 00 3f
       0.07416433 0.088023566 -0.016916256 0.50264466
0000c0 11 d5 49 bd c4 de 86 bd 38 e5 03 be 27 cb 0c 3c
       -0.04927546 -0.06585458 -0.12880409 0.008593357
0000d0 84 a0 f3 3e 16 7c 8a bc e9 bf 66 3e 86 f2 cd bd
       0.475834 -0.016904872 0.22534145 -0.10056023
0000e0 b0 92 27 3e ae 9c de 3d a1 18 43 3e a9 7d 40 3e
       0.1636455 0.10869728 0.19052364 0.18797936
0000f0 f3 1c 86 bd 18 b9 40 3d fb 23 fd 3d e9 4e 40 be
       -0.065484904 0.04705152 0.12360378 -0.18780102
000100 0a f4 3e be ba 8e bd 3d 02 19 d6 bb be 84 b1 be
       -0.18647781 0.092557386 -0.006533743 -0.34671587
000110 54 ec 1b bd f0 cf 3c 3d 75 66 57 3d 39 76 31 be
       -0.038067177 0.046096742 0.052587945 -0.17330255
000120 42 60 8e 3c 99 14 a1 3d 14 44 01 be 37 e5 83 bc
       0.017379884 0.07865257 -0.12623626 -0.01610051
000130 9d b2 99 bc c9 c0 02 bf 35 6b 57 3e 19 47 17 be
       -0.018761927 -0.51075417 0.2103699 -0.14773215
000140 0e 13 ff 3c e4 b2 52 3f 05 2e 8b bc fa 12 9c 3d
       0.031137016 0.82304215 -0.016989717 0.07620807
000150 d2 65 54 3d 14 92 9d 3e df 8a 8e 3d 5d a6 0c be
       0.051854916 0.3077551 0.06960081 -0.13735338
000160 30 b6 a6 bb f4 3c 0b bc e9 38 14 bd c3 b7 1f 3f
       -0.0050876364 -0.008498419 -0.036187086 0.62389773
000170 89 74 88 bd 04 0b 01 40 72 c4 08 3e 90 08 37 3e
       -0.06662852 2.0162973 0.13356188 0.1787436
000180 47 85 4b bc 39 4d 27 3e 05 d7 df 3d 98 f1 5b 3d
       -0.0124219125 0.16338052 0.109296836 0.0536972
000190 6c 7a 0e bd 90 f8 9b bd 11 d2 bc 3b 81 e8 2d be
       -0.03478472 -0.07615769 0.0057623466 -0.16983224
0001a0 ba cf 5d 3f 57 d9 6d 3d 94 b0 02 3e ce aa 23 bf
       0.8664509 0.0580686 0.12762672 -0.639325
0001b0 58 f8 96 bd db 8b 70 bd 2c db b2 3d 24 ff 5e be
       -0.073715866 -0.058727127 0.0873321 -0.21777016
0001c0 98 25 92 bd 7e a8 76 be 0c df 66 3d 89 47 f7 be
       -0.07136077 -0.24087712 0.056365058 -0.48296764
0001d0 c6 93 3e bd e6 05 3a bd be 3f 56 bd 2b f4 fa 3a
       -0.046527646 -0.04541578 -0.052306883 0.0019146254
0001e0 4c aa c9 3e 8c 21 5d bc d9 0a ad 3d d7 44 03 3e
       0.3938774 -0.013496768 0.08449335 0.12819229
0001f0 6f 82 91 3e 5b 50 c5 bd 96 a3 a7 3d 46 ef c6 3d
       0.28419825 -0.09634467 0.081854984 0.097136065
000200 47 ad 7d bd 96 5c 1c bc 12 24 94 3c 19 81 02 3e
       -0.06193283 -0.009543559 0.018083606 0.1274456
000210 75 81 8d bd b2 84 cd 3d 3a a0 9f 3e 70 6f 22 3f
       -0.069094576 0.10035075 0.3117693 0.6345129
000220 5d 79 dc 3d bc 5f 24 bd b2 3c 95 3c d3 fc fe 3c
       0.10765336 -0.040130362 0.018217418 0.031126415
000230 3f ed 1f 3e a0 b3 1f 3e bc 14 83 3e 82 fb 25 3e
       0.15617846 0.15595865 0.25601757 0.16209224
000240 a9 37 4c 3e 37 9c 32 bd ad 4d 06 bc 36 cc 71 ba
       0.19943108 -0.04360601 -0.00819723 -0.000922385
000250 5e d3 42 3e 92 71 45 3d 02 5c d5 3c 87 38 96 bb
       0.19025943 0.048204012 0.02604485 -0.0045843753
000260 68 0a e9 bd a0 12 f6 bd a6 8e d6 3d a7 ce c5 3d
       -0.11378938 -0.12015271 0.10476427 0.096585564
000270 19 6b 40 3d b1 91 96 3e ea 7e 8b bc cc ad 3e 3e
       0.046977136 0.2940803 -0.01702829 0.18620986
000280 02 4e cf be cc ed 4b bc 1a ff e9 3c 3f 0f 15 3b
       -0.40489203 -0.012446832 0.028564025 0.0022744683
000290 20 a6 a5 3d 30 71 34 3d 49 2d 8c 3e b0 0b 65 3e
       0.080883265 0.044053257 0.273783 0.2236774
0002a0 b4 78 3f bd 60 98 7b 3c 72 a4 d2 bd be a7 09 3f
       -0.04674597 0.015356153 -0.10285272 0.5377158
0002b0 92 55 29 3f 3a b0 dc 3d c8 4d 2a 3d 86 08 07 3e
       0.66146195 0.107758 0.041578084 0.13186845
0002c0 a1 f1 d6 3e 72 44 d9 3d d1 aa 4d 3f 40 6d 8a bd
       0.41981223 0.10608758 0.8033877 -0.06759119
0002d0 68 d4 24 3f 1a 6f 6e 3e 82 40 bb 3d bd b8 3d 3e
       0.64386606 0.2328457 0.09143163 0.18527503
0002e0 c7 ea fd be 56 8e 81 3d f6 2e 77 bc c2 61 d1 3d
       -0.49593183 0.063259766 -0.01508688 0.10223724
0002f0 18 55 e7 3e c0 f5 90 be e3 5a 23 3e 28 2e 06 be
       0.4518211 -0.28312492 0.1595264 -0.13103545
000300 81 da 65 3d 43 a9 6d 3c e4 15 8a 3e 9b d1 1b be
       0.056116585 0.014505687 0.26969826 -0.15216677
000310 73 e8 1d 3f ef f7 7c 3c 24 53 22 be 35 3a 4f be
       0.61682814 0.015439971 -0.15852028 -0.20237048
000320 d6 24 5a bd b6 be 0c 3f 84 d2 08 be 08 45 b7 3c
       -0.053257786 0.549785 -0.13361555 0.022371784
000330 b2 ca 09 3e 72 06 da bd 20 4a af 3f ee 68 1d 3d
       0.13456228 -0.106457606 1.3694496 0.038430147
000340 1f e5 f8 3d 40 db 5d bc b5 19 29 3e 4c 87 2c bd
       0.121530764 -0.013541043 0.16513713 -0.042121217
000350 7d d9 03 bc df 6c b4 3d 24 66 c2 be 86 0f 59 3d
       -0.008047459 0.08809828 -0.37968552 0.05299332
000360 fd 24 c0 3e 96 25 7d 3d bc 65 3e bd 74 16 aa bd
       0.3752822 0.061803423 -0.04648374 -0.08305064
000370 c6 33 fc 3c 34 99 b5 3e 3a 61 23 3e 01 90 6d bd
       0.030786406 0.35468447 0.15955058 -0.05799866
000380 4c e0 02 3e a5 be a2 3d 57 9e e3 bc d4 ff 82 3b
       0.12780875 0.07946519 -0.027785463 0.0039977822
000390 94 1c d8 bd 91 7e 00 3d 78 4f 45 3e 6e 27 7b 3d
       -0.10552326 0.031370703 0.19268596 0.0613169
0003a0 cc 20 4a 3d 8d 51 41 3c 7b 8d 76 bd 98 e7 88 bc
       0.049347684 0.011799228 -0.06019352 -0.016711995
0003b0 8e 24 65 bd bd e4 a0 3c 68 65 f0 bd 59 8c 16 3c
       -0.055943064 0.01964032 -0.11738092 0.009188735
0003c0 81 27 03 3d 67 d2 46 3d 5e b7 74 3d f1 75 08 3c
       0.032020096 0.0485405 0.059745185 0.008328901
0003d0 5a 2d 8c bd 47 4c 84 bd d8 d7 d5 bc f4 5a 62 bd
       -0.068445876 -0.06459861 -0.026103899 -0.05526252
0003e0 98 c7 41 3e e6 87 3e 3e d1 87 35 3f 2d b0 b0 bd
       0.18923795 0.18606529 0.70910364 -0.08627353
0003f0 ac 2b 67 3f 8a fd 24 bc 6f b8 72 3d 77 bd 11 3e
       0.90301013 -0.010070214 0.05925792 0.14232431

action_out.bias f4 [4]
000000 c2 2e 66 3d 18 5a a8 3c 89 75 80 3c 10 60 a7 3c
       0.056196935 0.020550773 0.015681045 0.020431548
