saved_models/FetchPush-v1/model125.pt (torch, 563151 bytes, 8 tensors)

fc1.weight f4 [256, 28]
0	0x3e5e8ee2	0.21734193
1	0xbeaba5dd	-0.3352498
2	0x3ea37c93	0.3193098
3	0xbd3399e9	-0.043847952
4	0x3fae8fe0	1.3637657
5	0x3ec06412	0.37576348
6	0x3ea260ad	0.31714383
7	0x3ff044e2	1.8771021
8	0xbdfa1360	-0.12210727
9	0xbe9149d9	-0.28376654
10	0x3f8e2e4c	1.1107879
11	0xbd82154f	-0.063517205
12	0x3de0ce4c	0.10976848
13	0xbd3d774c	-0.04625635
14	0xbe3fff72	-0.18749788
15	0x3e0e81ea	0.13916746
16	0xbdfbcaed	-0.122945644
17	0x3e27be1c	0.16381115
18	0x3d9332f8	0.07187456
19	0xbe0da3b6	-0.13831982
20	0xbe3d5bc7	-0.18492042
21	0x3d2e845e	0.042606704
22	0xbd67a268	-0.056551367
23	0x3e9b268e	0.30302852
24	0x3dd15344	0.1022096
25	0xbdc7cb53	-0.09755578
26	0xbf5af904	-0.8553622
27	0xbeea56df	-0.45769402
28	0xbf34052c	-0.7032039
29	0x3ea82cf3	0.32846794
30	0xbec71946	-0.3888647
31	0x3eb98b72	0.362392
32	0xbe218d3e	-0.15776536
33	0x3edf1204	0.43568432
34	0x3ffb4494	1.9630303
35	0xbf99fc01	-1.203003
36	0x3f2af846	0.66785085
37	0x3fb5cdeb	1.4203466
38	0xc01c3bd0	-2.4411507
39	0x3e029c7f	0.12755011
40	0xbbf35e05	-0.0074269795
41	0xbd90b6cd	-0.070661165
42	0xbd6b5ef8	-0.057463616
43	0x3cacdbc7	0.021100892
44	0xbc6b1810	-0.014348999
45	0xbd1c52a1	-0.03816474
46	0x3dbf792f	0.09349286
47	0x3c62a1e1	0.01383254
48	0xbdbb0ea6	-0.09133653
49	0x3e0988ce	0.13431093
50	0x3be07ba8	0.0068506785
51	0xbe22f473	-0.15913562
52	0xbe952cc5	-0.2913572
53	0x3e88b89e	0.26703352
54	0xbe1c6132	-0.15271452
55	0xbf46516a	-0.7746798
56	0x3e9c746b	0.3055757
57	0xbee19fd6	-0.44067258
58	0x3ebb2ff4	0.36560023
59	0x3f5639bc	0.83681846
60	0xbe311dc3	-0.1729651
61	0xbef3f3c1	-0.47646907
62	0x3f20a71a	0.62754977
63	0x3dc53a55	0.096302666
64	0xbc85d3fc	-0.016336434
65	0x3f643548	0.891438
66	0xc023269f	-2.5492322
67	0x3e130ecf	0.14361118
68	0xbd21ac73	-0.0394711
69	0xbd342eba	-0.043989874
70	0x3e3df5ad	0.18550749
71	0x3eda4250	0.42628717
72	0xbdfe358e	-0.124125585
73	0xbc2ab9ef	-0.010420307
74	0x3d73155e	0.05934655
75	0x3c89949f	0.0167945
76	0x3e5e1a72	0.21689776
77	0x3e905b9e	0.28194898
78	0xbd3ba45f	-0.045811053
79	0xbe172247	-0.1475917
80	0x3e33473a	0.1750764
81	0xbd865a6a	-0.06560214
82	0xbb345f70	-0.0027522705
83	0x3e1dda5a	0.15415326
84	0xbe058f2b	-0.13042895
85	0xbd3e808b	-0.046509307
86	0xbedaa11c	-0.42701042
87	0x3ea339e4	0.31880105
88	0x3e1d5c94	0.15367347
89	0xbfce0788	-1.6096048
90	0x3f970435	1.1798159
91	0x3f1feb88	0.6246877
92	0xbe8b7f16	-0.27245396
93	0xbeaaba64	-0.3334533
94	0x3ea6dc8d	0.32590142
95	0x3e4e8988	0.20169652
96	0xbe115b24	-0.14194924
97	0xbd14ecca	-0.036358632
98	0x3dc1cbad	0.09462676
99	0x3e297241	0.1654749
100	0x3e277f03	0.16357045
101	0x3e5e9926	0.21738109
102	0xbe9ef8f2	-0.31049305
103	0xbdd49ab3	-0.10381069
104	0x3c064f5e	0.008197634
105	0x3e1ce39f	0.15321206
106	0x3e547f04	0.20751578
107	0xbe627c82	-0.22117808
108	0x3c66e6f9	0.014093154
109	0xbf27af90	-0.6550226
110	0x3de48e33	0.11159935
111	0x3feec6f3	1.8654464
112	0x3d280948	0.041024476
113	0xbe100586	-0.14064607
114	0x3d6c9417	0.057758417
115	0x3e2f9783	0.17147641
116	0x3ea7427b	0.32667908
117	0xbe920950	-0.2852273
118	0x3f34f186	0.70681036
119	0x3dc8c92e	0.09803997
120	0xbd0a4f5a	-0.03376708
121	0x3e55b9e4	0.20871693
122	0x3f6a8183	0.9160387
123	0xbe2f947d	-0.17146488
124	0x3d41071d	0.047125924
125	0xbd074033	-0.03302021
126	0xbeecae1c	-0.46226585
127	0x3d899ef0	0.06719768
128	0x3f0342cd	0.51273805
129	0xbe89be11	-0.26902822
130	0xbe1e02c7	-0.15430747
131	0xbe86fdfa	-0.26365644
132	0xbe927f02	-0.28612524
133	0x3ded5fb1	0.11590517
134	0x3e5edd6b	0.21764152
135	0xbed1a3ec	-0.40945375
136	0x3df4b512	0.11948599
137	0xbe201a29	-0.1563498
138	0xbd0b1df0	-0.033964097
139	0xbe4aa4b5	-0.19789393
140	0x3f63358b	0.88753575
141	0x3ee244e3	0.4419318
142	0xbeab86a5	-0.33501163
143	0xbef63f27	-0.48095056
144	0x3ea2913e	0.31751436
145	0xbe5ba3b0	-0.2144916
146	0xbfce8b02	-1.6136172
147	0xbe676f8e	-0.22601148
148	0x3ea2784a	0.31732398
149	0x3f80ccdd	1.0062519
150	0xc006f1e4	-2.1085138
151	0x3de886fb	0.113538705
152	0xbc360071	-0.011108504
153	0xbd31da6a	-0.043421187
154	0xbdf5e1f7	-0.1200599
155	0xbd4703c3	-0.04858757
156	0xbe9fbe0d	-0.31199685
157	0x3cc4840e	0.02398875
158	0x3c8742dd	0.016511375
159	0xbd5d34dc	-0.05400549
160	0xbd70979f	-0.058738347
161	0xb94f1dfe	-0.00019752231
162	0xbe9f4a02	-0.3111115
163	0x3cabb6fb	0.020961275
164	0xbdbc5444	-0.0919576
165	0xbee6256d	-0.4495043
166	0xbf0a8ee6	-0.54124296
167	0xbebff144	-0.3748876
168	0xbbe79870	-0.0070677325
169	0xbe854d0c	-0.26035345
170	0xbe5716b5	-0.21004756
171	0xbe2d16f5	-0.16903289
172	0xbec8be11	-0.3920751
173	0xbfd10c14	-1.6331811
174	0xbd8b12de	-0.06790708
175	0x3ea99e41	0.3312855
176	0x3df97615	0.121807255
177	0xbee216c4	-0.44157994
178	0x3f8c915b	1.0981859
179	0xbe36cb0c	-0.17850894
180	0xbe5d05fc	-0.21584314
181	0xbe9ecdf4	-0.31016505
182	0xbd770f31	-0.060317222
183	0xbded4be6	-0.11586742
184	0x3cd5e614	0.026110686
185	0x3e9917ec	0.29901063
186	0x3d29ec8b	0.04148535
187	0x3d3a3bf9	0.04546735
188	0xbce70b6e	-0.028203692
189	0x3d6cc7af	0.05780762
190	0xbdc05330	-0.09390867
191	0xbeed4c92	-0.4634748
192	0xbeb97012	-0.36218315
193	0x3e86e252	0.26344544
194	0x3ec469f7	0.38362095
195	0xbea76d3b	-0.32700524
196	0xbeda191c	-0.42597282
197	0xbd99c730	-0.07508695
198	0x3dc6317f	0.096774094
199	0xbe81da02	-0.2536164
200	0xbe57e3f1	-0.21083046
201	0xbeaa6d0e	-0.33286327
202	0x3e9099b3	0.28242263
203	0x3c646981	0.01394117
204	0x3d6e89d6	0.05823692
205	0xbe9372d5	-0.28798547
206	0x3ed02b2e	0.40657943
207	0x3da64ffe	0.08120726
208	0x3c80110f	0.015633134
209	0x3d6696bf	0.056296106
210	0xbe06d8f4	-0.13168699
211	0xbe219d80	-0.15782738
212	0xbd1ffed3	-0.03906138
213	0x3dd81a35	0.105518736
214	0xbbf51d16	-0.007480274
215	0x3d5cab9a	0.05387459
216	0xbe3293d0	-0.17439198
217	0xbde2a8f1	-0.11067379
218	0xbd0cfba1	-0.03441966
219	0x3cf51d96	0.029921334
220	0xbe44be6a	-0.19213262
221	0xbf393582	-0.7234727
222	0xbddc2b47	-0.10750442
223	0xbe554f9f	-0.20831154
224	0xbf1e827b	-0.6191785
225	0x3e84ee06	0.25962847
226	0xbe8968d5	-0.26837793
227	0x3f18c58e	0.59676445
228	0x3e18fa00	0.14939117
229	0xbf22ce3c	-0.6359594
230	0x3fb41034	1.4067445
231	0xbe87071e	-0.26372617
232	0xbea8a918	-0.32941508
233	0xbd2181ac	-0.039430305
234	0x3f217c2a	0.63080084
235	0xbdea1f9d	-0.11431811
236	0xbd8c0b4e	-0.06838094
237	0x3d5e34d8	0.054249614
238	0xbda4982e	-0.080368385
239	0x3e8cfa80	0.27534866
240	0x3dd611df	0.104526274
241	0xbb4ac2bd	-0.0030938827
242	0x3c6d1003	0.0144691495
243	0x3d06dceb	0.032925528
244	0xbe307959	-0.1723379
245	0x3e7f853b	0.24953167
246	0xbc835549	-0.016031878
247	0x3e814137	0.25245067
248	0x3dae0fbb	0.08499094
249	0xbeb79014	-0.3585211
250	0xbec157a8	-0.3776219
251	0x3ea229db	0.31672558
252	0x3dfbf7db	0.12303134
253	0x3ea94705	0.33061996
254	0x3e4d6033	0.20056228
255	0x3f09e1b8	0.53860044

fc1.bias f4 [256]
0	0xbfd437e2	-1.6579554
1	0xbf85b9d8	-1.044734
2	0xbfa26a0d	-1.2688614
3	0xbfc34571	-1.5255567
4	0xc01d6c56	-2.4597373
5	0xbfe4db9a	-1.7879517
6	0xbfb2ebf4	-1.3978257
7	0xbfa9442e	-1.3223932
8	0xbfef60ac	-1.8701377
9	0xc038accd	-2.885547
10	0xbfbce64e	-1.4757783
11	0xbfecc160	-1.8496513
12	0xbff8aff1	-1.9428693
13	0x3eb99fa8	0.3625462
14	0xbf9a3b23	-1.2049297
15	0xbecde318	-0.4021232
16	0xbf4e22e6	-0.80522
17	0xbfcd29ff	-1.6028441
18	0xbf82ce73	-1.0219253
19	0xc00a776d	-2.1635392
20	0xbf0ef6b3	-0.55845183
21	0xbf01d763	-0.5071928
22	0xbf134aa7	-0.57535785
23	0xbfbec171	-1.4902784
24	0xbfc6eb9c	-1.5540652
25	0xbfa2202a	-1.2666066
26	0xc037498c	-2.863864
27	0xc002d40b	-2.044192
28	0xbfb3ab8f	-1.403673
29	0xbf92be31	-1.1464292
30	0xbe63ae2a	-0.22234407
31	0xbfc89a24	-1.567204
32	0xc0101081	-2.2510073
33	0xbf97a458	-1.1847029
34	0xc0122ff7	-2.2841775
35	0xbf434d07	-0.7628941
36	0xc0162771	-2.3461573
37	0xbfbc2c38	-1.4700994
38	0xbdfb1c5a	-0.12261267
39	0xbffba97d	-1.9661099
40	0xbfc3fabf	-1.5310897
41	0xbfcdb806	-1.6071784
42	0xbfcdbb46	-1.6072776
43	0xbfa0e20c	-1.2568984
44	0xbdc3c34d	-0.09558735
45	0xc0012b30	-2.018261
46	0xbfbfc612	-1.4982321
47	0xc01401ed	-2.3126175
48	0xbfd052e8	-1.6275301
49	0xbff674bc	-1.9254375
50	0xc00ce220	-2.2013016
51	0xbfd78258	-1.6836653
52	0xbf9f76ae	-1.2458093
53	0xbfb81be9	-1.4383518
54	0xc01107e1	-2.266106
55	0x3f553bc6	0.8329433
56	0xbfe974d7	-1.8238782
57	0xbf504d28	-0.8136773
58	0xc0049edf	-2.0721967
59	0xc024aa38	-2.5728893
60	0xbeafd3d5	-0.34341303
61	0xbff88bf0	-1.9417706
62	0xbfcbb58d	-1.591478
63	0xbfb355be	-1.4010541
64	0xbfd1ea34	-1.6399598
65	0xbeaa81b5	-0.33302084
66	0x3f2beeb9	0.67161137
67	0xbfbb448c	-1.4630294
68	0xbf7cca08	-0.98745775
69	0xbfc6684b	-1.5500578
70	0xbf956fab	-1.1674703
71	0xbfeb3e03	-1.83783
72	0xbfce631d	-1.6123997
73	0xc00bcdb0	-2.1844292
74	0xbfdc1230	-1.719305
75	0xbedbd571	-0.4293628
76	0xc03c7082	-2.944367
77	0xbfd4f350	-1.6636753
78	0xc0094ef9	-2.145445
79	0x3e51e50b	0.20497529
80	0xc00b95b5	-2.1810124
81	0xbfbe832e	-1.4883783
82	0xc012b136	-2.292066
83	0xc03169f1	-2.7720912
84	0xbff83b14	-1.9393029
85	0xbfae0198	-1.3594236
86	0xbfbba78e	-1.4660509
87	0x3f1f1f41	0.62157065
88	0xbfe44a3a	-1.7835152
89	0xc00c0795	-2.1879628
90	0xbff56b75	-1.9173418
91	0xc00f1ab8	-2.2360058
92	0xc016e9b0	-2.3580132
93	0xc026e4b6	-2.6077094
94	0xbece7e22	-0.40330607
95	0xc0256f1e	-2.584907
96	0xc004ae2d	-2.0731308
97	0xc01b947f	-2.4309385
98	0xc00986da	-2.1488557
99	0xbffaf374	-1.9605546
100	0xbffaf962	-1.9607356
101	0xbfe63909	-1.7986156
102	0xbed6346e	-0.41836876
103	0xc0017642	-2.022843
104	0xbec8ef1f	-0.39244935
105	0xc00a2790	-2.1586647
106	0xc0075347	-2.1144578
107	0xbff342ad	-1.9004723
108	0xc0031326	-2.0480437
109	0xbfea3ddb	-1.8300127
110	0xbfe4d8ed	-1.78787
111	0xbf7a4d4f	-0.97774214
112	0xbf058a0c	-0.5216377
113	0xbfc0e7df	-1.5070761
114	0xbfb2ec7e	-1.3978422
115	0xbff06d0a	-1.8783276
116	0xc03d1222	-2.9542317
117	0x3e9389cd	0.2881607
118	0xbffa6b53	-1.9564003
119	0xbfe2e593	-1.772631
120	0xbfa678f5	-1.3005663
121	0xc01e0685	-2.469148
122	0xbfb90908	-1.4455881
123	0xbf4cad9a	-0.79952395
124	0xbfd72d4b	-1.6810697
125	0xbf3dc42c	-0.7412746
126	0xbfa6cb06	-1.3030708
127	0xbff33fcd	-1.9003845
128	0xbfa0a7c1	-1.2551194
129	0xbfba222f	-1.4541682
130	0xbf34eea6	-0.7067665
131	0xbfc0dcf5	-1.5067431
132	0xbfba206d	-1.4541146
133	0xbff15070	-1.8852673
134	0xbfb8751c	-1.4410739
135	0xc000331e	-2.00312
136	0xbf6c4aba	-0.92301524
137	0xbfca6801	-1.581299
138	0xbf6995f1	-0.9124442
139	0xbfec4d33	-1.8461059
140	0xbf3253ee	-0.69659317
141	0xbfe78765	-1.8088194
142	0xbfe6dd81	-1.8036348
143	0xbf83ba43	-1.0291218
144	0xc01be50c	-2.435855
145	0x3e809a94	0.25117934
146	0xbf8402d9	-1.0313369
147	0xbecbdd0a	-0.39817077
148	0xbfdf0fa6	-1.742665
149	0xbfdaf985	-1.7107397
150	0xbee33403	-0.4437562
151	0xc02123e5	-2.5178158
152	0xbff5075f	-1.9142874
153	0xbfe9273c	-1.8215098
154	0xc003c745	-2.0590374
155	0xbfa6a975	-1.3020464
156	0x3ea21622	0.3165751
157	0xbfacd06b	-1.3501104
158	0xbfd47dba	-1.6600869
159	0xbfc644f9	-1.5489799
160	0xbfa1690b	-1.2610182
161	0xbfd165ef	-1.6359233
162	0xc01aba60	-2.4176254
163	0xc002c73e	-2.0434108
164	0xbfb56f3e	-1.4174573
165	0xc013b3f8	-2.3078594
166	0xbf3ebb02	-0.745041
167	0xc00089b0	-2.0084038
168	0xc019ed86	-2.4051223
169	0xc002db53	-2.0446365
170	0xbff9b4f2	-1.9508345
171	0x3ee6af46	0.45055598
172	0x3f09b2f2	0.53788674
173	0xbfef66f4	-1.8703294
174	0xbfd8e43e	-1.6944654
175	0xc00ecb6b	-2.2311656
176	0x3f92d75e	1.1471975
177	0xc01f39c5	-2.487901
178	0xbf98626c	-1.1905036
179	0xbff01e7b	-1.8759302
180	0xbfb9fc26	-1.4530075
181	0xbffd1f9f	-1.9775275
182	0xbfed825f	-1.8555411
183	0xbf78cbab	-0.9718577
184	0xbfb6f895	-1.4294611
185	0xbfd19151	-1.6372472
186	0xbed65e58	-0.41868854
187	0xbf0b59c6	-0.5443386
188	0xbf0147b9	-0.50500065
189	0xbf0d15fe	-0.5511168
190	0xbf4c67f4	-0.7984612
191	0xbfd912e9	-1.6958896
192	0xbf317cc6	-0.69331014
193	0xbfad608c	-1.3545089
194	0xbff41425	-1.9068648
195	0xbfc51e2b	-1.5399832
196	0xbf995593	-1.197924
197	0xc010783b	-2.2573383
198	0xbfc55c2a	-1.5418751
199	0xc0075bf4	-2.1149874
200	0xc02d8cd0	-2.7117195
201	0x3eb0237f	0.3440208
202	0xbffc6bd1	-1.9720403
203	0xbee98005	-0.45605484
204	0xbffdd528	-1.9830675
205	0xc0250c8c	-2.5788908
206	0xc01d3ae6	-2.4567199
207	0xc01de454	-2.467061
208	0xbfb50da2	-1.4144785
209	0xc00a9808	-2.1655293
210	0xbee1f295	-0.44130388
211	0x3f0eb686	0.5574726
212	0xbf9a5046	-1.2055748
213	0xbf9376d4	-1.1520638
214	0xbfc0a9aa	-1.5051777
215	0xc0107a64	-2.2574701
216	0xbfe79bc5	-1.8094412
217	0xbf160799	-0.58605343
218	0xbfa8469f	-1.3146552
219	0xc01dfe12	-2.4686322
220	0xbfcb1c96	-1.5868099
221	0xbf44e7d3	-0.76916236
222	0xbf3e84b2	-0.74421227
223	0x3f8b0dff	1.0863646
224	0xbf5b6337	-0.85698265
225	0x3f0d0810	0.5509043
226	0xc03db9fd	-2.9644768
227	0xbfbe6944	-1.4875875
228	0xbfcb1431	-1.5865537
229	0x3f3fca40	0.74917984
230	0x3ba15563	0.004923509
231	0xbfdbe07e	-1.7177885
232	0x3fe581db	1.7930254
233	0xbfee2f07	-1.8608102
234	0xbf9df44c	-1.2340178
235	0xbfd0b606	-1.6305549
236	0xbfd653ef	-1.6744365
237	0xbda17293	-0.078831814
238	0xbfec4bb6	-1.8460605
239	0xbfea405c	-1.8300891
240	0xbfc0b249	-1.5054408
241	0xbfe5b13c	-1.7944713
242	0xbf027c8c	-0.50971293
243	0xbfd5932f	-1.6685542
244	0xbf2d65bc	-0.6773336
245	0xbf90dbcd	-1.1317078
246	0x3fb304c3	1.3985828
247	0xc045ef85	-3.092744
248	0xbff2b7e8	-1.8962374
249	0x3f5b9e3a	0.8578831
250	0xbfae5c76	-1.3621967
251	0xbfbaae4e	-1.4584444
252	0xbfe76e9b	-1.8080629
253	0xc020bc47	-2.5114915
254	0xbfac16f8	-1.344451
255	0xc01cd0c3	-2.4502418

fc2.weight f4 [256, 256]
0	0xbf14eec4	-0.5817683
1	0x3de1928a	0.11014278
2	0x3e96e292	0.29469734
3	0xbf8c9dc5	-1.0985647
4	0x3ebc0d87	0.3672907
5	0x3e9ce5cb	0.30644068
6	0xbf442eef	-0.76634115
7	0x3ed8cb4c	0.42342603
8	0xbe2c2ee7	-0.16814767
9	0x3f299434	0.66241765
10	0xbf98a721	-1.1926004
11	0xbe0ddf64	-0.13854748
12	0xbf30f171	-0.6911841
13	0x3e44f052	0.192323
14	0x3e699e94	0.22814399
15	0xbfc396eb	-1.5280432
16	0xbe3c3da7	-0.18382894
17	0xbf7e9cc4	-0.99457955
18	0xbe9f3149	-0.3109229
19	0x3ed12f39	0.4085634
20	0x3d7cb2d8	0.061693996
21	0xbf32260e	-0.69589317
22	0xbf19c7a3	-0.60070246
23	0xbf447b9f	-0.7675113
24	0xbf0f60d7	-0.5600714
25	0xbf151bc4	-0.5824549
26	0xbf981646	-1.1881797
27	0x3ede6e13	0.43443355
28	0xbeb99666	-0.36247557
29	0xbf313569	-0.6922212
30	0xc05dbfa5	-3.464822
31	0x3e58bdc3	0.21166138
32	0xbdf51b7b	-0.11968132
33	0xbe4a4e1e	-0.19756362
34	0x3d4d8c6f	0.050182756
35	0xbdeef1c3	-0.11667206
36	0x3c757a50	0.014982775
37	0xbf2b8e08	-0.670136
38	0x3eebbb23	0.4604121
39	0xbf18cda5	-0.5968879
40	0xbdbf8efa	-0.093534425
41	0x3f06771a	0.52525485
42	0x3c57f4ef	0.013180955
43	0xbeab4c39	-0.3345659
44	0xbeba2376	-0.3635518
45	0x3e1f8a50	0.15580106
46	0x3e924b16	0.2857291
47	0xbe114558	-0.14186609
48	0xbb4ec316	-0.0031549386
49	0x3f6b806b	0.91992825
50	0x3ef3e13d	0.4763278
51	0xbe413dbe	-0.18871209
52	0xbe8206a7	-0.253957
53	0xbf13c736	-0.57725847
54	0x3ed16458	0.4089687
55	0xbebdd22d	-0.37074414
56	0xbf65977e	-0.89684284
57	0x3f328b96	0.6974424
58	0x3dd2955e	0.10282396
59	0xbf116e02	-0.56808484
60	0xbf075ef1	-0.52879244
61	0x3eaff0a1	0.34363273
62	0xbce24dbc	-0.027624957
63	0xbe3c506f	-0.18390058
64	0xbfc04292	-1.5020316
65	0xbe145691	-0.14486147
66	0x3ebeccc4	0.372656
67	0xbe882a10	-0.2659459
68	0xbe361b87	-0.17783938
69	0x3e019d40	0.12657642
70	0x3dade229	0.08490402
71	0xbe7bac83	-0.24577527
72	0xbf095c96	-0.536569
73	0xbf05b2ea	-0.52226126
74	0x3e01214c	0.12610358
75	0xbf2f7795	-0.6854184
76	0x3ed45a79	0.41475275
77	0xbeea046f	-0.45706508
78	0x3e6f205b	0.23352186
79	0x3ea9d50c	0.33170354
80	0xbf46e469	-0.77692276
81	0x3e587c16	0.21141085
82	0xbe439ceb	-0.19102828
83	0xbe14fb2c	-0.1454894
84	0xbf02f49b	-0.5115449
85	0xbef6e9b0	-0.48225164
86	0xbe9bef0d	-0.3045582
87	0xbed45437	-0.414705
88	0x3d81a131	0.06329573
89	0x3e7c181b	0.2461857
90	0x3f179196	0.5920652
91	0xbef30ed6	-0.47472256
92	0xbf6adc80	-0.91742706
93	0xbe008607	-0.12551127
94	0xbfb5e4c4	-1.4210439
95	0x3bccccaa	0.006249984
96	0x3e12751c	0.14302486
97	0x3ec8b80e	0.39202923
98	0xbe71e72d	-0.23623343
99	0x3d0942c0	0.033510923
100	0xbea9faf9	-0.3319929
101	0xbe01d28d	-0.12677975
102	0xbff58027	-1.9179734
103	0xbc6f673f	-0.014612018
104	0xbfafd77f	-1.3737639
105	0x3ee1a6d4	0.44072592
106	0x3eac4eab	0.3365377
107	0x3f5fb80e	0.8739022
108	0xbf4e7647	-0.80649227
109	0xbf5b2e4f	-0.85617536
110	0xbe04913b	-0.12946026
111	0x3de9d79a	0.11418076
112	0xbf52ff0b	-0.82420415
113	0x3e3b9275	0.18317588
114	0x3e98e16f	0.29859492
115	0xbe10e4ec	-0.14149827
116	0xbe48afdc	-0.19598335
117	0x3eee606c	0.4655794
118	0xbdfaa806	-0.12239079
119	0xbe935553	-0.28776035
120	0xbcdbb455	-0.026819387
121	0xbea5e4f4	-0.3240124
122	0x3e4c66ed	0.19961138
123	0xbef2b541	-0.4740391
124	0xbf340066	-0.7031311
125	0x3e7dae2d	0.24773474
126	0x3e711d65	0.2354637
127	0x3eb0405c	0.34424102
128	0xbeb97f87	-0.36230108
129	0x3e002bb8	0.12516677
130	0xbe8421bc	-0.25806987
131	0xbe1af069	-0.15130772
132	0xbe79f6f3	-0.2441061
133	0x3bbecbe4	0.0058226455
134	0x3dcb0827	0.09913664
135	0xbd5a9afc	-0.05337046
136	0x3e3ed3cd	0.18635483
137	0xbf1e87e2	-0.6192609
138	0xbf2b0600	-0.6680603
139	0xbf4841e4	-0.7822554
140	0x3de02462	0.109444395
141	0xbd3261f5	-0.04355045
142	0xbe1b897f	-0.1518917
143	0xbed40638	-0.41410995
144	0xbc800c8e	-0.015630987
145	0x3e5bf7b7	0.21481214
146	0x3e9c5cb6	0.30539483
147	0x3d860bee	0.06545244
148	0x3eca32c5	0.3949186
149	0x3f2e9cee	0.68208206
150	0x3e2d04b4	0.16896325
151	0x3f3a1330	0.7268553
152	0xbf9ea097	-1.2392758
153	0x3e247d89	0.16063513
154	0xbef7effb	-0.48425278
155	0x3e1814e5	0.1485172
156	0x3dbc33c8	0.09189564
157	0xbd35533d	-0.044268835
158	0xbf718f47	-0.9435925
159	0xbf2dd713	-0.679063
160	0x3e60609f	0.21911858
161	0x3c00c8b7	0.007860354
162	0x3ea610d2	0.32434708
163	0x3e2d0cc3	0.168994
164	0xbeac49bd	-0.33650008
165	0x3ee93194	0.45545638
166	0x3f1be5c3	0.60897464
167	0xbf1090d6	-0.56471
168	0xbebd2729	-0.3694394
169	0x3dc3bfee	0.09558092
170	0xbf1896a5	-0.59604865
171	0xbcd64536	-0.02615605
172	0x3ec371d2	0.38172776
173	0xbe2031a5	-0.15643938
174	0xbede9a75	-0.43477216
175	0xbe2322ca	-0.1593124
176	0xbe932cac	-0.2874502
177	0x3eac2482	0.33621603
178	0x3e44cd39	0.19218911
179	0xbe598cd0	-0.21245122
180	0x3d9c6c76	0.07637875
181	0x3f06f48b	0.5271689
182	0xbed96d14	-0.42466033
183	0xbe38ab91	-0.18034197
184	0x3ef9374e	0.48675007
185	0xbee8832b	-0.45412573
186	0xbf63ebb6	-0.8903154
187	0xbfb6ab03	-1.4270939
188	0x3daa5ecc	0.08318862
189	0xbf0b4f2f	-0.544177
190	0x3e44de62	0.19225457
191	0xbf14c6f9	-0.5811611
192	0x3ed0e3a8	0.40798688
193	0x3f0d271a	0.5513779
194	0x3f457b1a	0.77140963
195	0xbe829394	-0.25503218
196	0xbf99baf8	-1.2010183
197	0x3e322097	0.17395245
198	0xbf6dbff9	-0.9287105
199	0xbe8177a6	-0.25286597
200	0xbfbe2dd2	-1.4857733
201	0x3df3b8da	0.11900492
202	0xbf7dccee	-0.9914082
203	0xbf7ab0aa	-0.9792582
204	0xbf9abd54	-1.2089028
205	0xbe87c5e6	-0.26518172
206	0xbe49ed3c	-0.19719404
207	0x3f0f7d36	0.5605043
208	0x3d7d252b	0.061803024
209	0xbf1b009b	-0.605478
210	0xc058a5c8	-3.3851185
211	0xbed7fcc2	-0.42185026
212	0x3e24c0af	0.16089128
213	0x3e2e943f	0.17048739
214	0x3ed40024	0.41406357
215	0xbd9939ea	-0.07481749
216	0x3f1c2734	0.6099732
217	0xbec769a3	-0.38947782
218	0x3ec4af47	0.38414976
219	0x3f59a98e	0.85024345
220	0x3dc35827	0.09538298
221	0xbda05165	-0.07828025
222	0xbf9cf67e	-1.2262723
223	0x3e3f0f73	0.18658237
224	0xbe1f59d6	-0.15561613
225	0xbf133449	-0.57501656
226	0xbe775852	-0.24154785
227	0x3f5abc60	0.8544369
228	0xbeeeb6c2	-0.46623808
229	0x3f341c29	0.7035547
230	0xbdbb028b	-0.091313444
231	0x3e9606d5	0.29302087
232	0xbcb39b42	-0.021924619
233	0xbc73246a	-0.014840225
234	0x3f273b74	0.65325093
235	0x3f29f263	0.6638548
236	0xbec68d66	-0.38779753
237	0xbf2a5cb9	-0.66547734
238	0xbd874206	-0.0660439
239	0x3ee69d10	0.45041704
240	0x3e52b1c7	0.20575629
241	0xbee425d9	-0.44560125
242	0xbfc1b184	-1.5132298
243	0xbe99736a	-0.29970866
244	0xbeb700a5	-0.3574268
245	0xbe794def	-0.24346136
246	0xbedfd22f	-0.43715045
247	0xbebe36cd	-0.37151185
248	0x3bcdcd84	0.006280603
249	0x3ece1f37	0.4025819
250	0x3e7f743f	0.24946688
251	0xbf38dee4	-0.72215104
252	0x3d835df9	0.06414408
253	0x3f85b58a	1.0446026
254	0x3ecae641	0.39628795
255	0xbf2c2b29	-0.6725336

fc2.bias f4 [256]
0	0xbdc03c7e	-0.09386538
1	0xbce3eaa4	-0.027821846
2	0xbce47fe5	-0.027893016
3	0xbe84eb10	-0.25960588
4	0x3ef6bb25	0.48189655
5	0xbd7ba652	-0.061437912
6	0xbfb67247	-1.4253625
7	0x3ff505ad	1.9142357
8	0xbea9fc81	-0.33200458
9	0x3e18333e	0.14863297
10	0xbd8572e3	-0.065160535
11	0xbe2053a0	-0.156569
12	0xbd6e2ccb	-0.058148187
13	0x3f0d27ac	0.5513866
14	0xbde66352	-0.112494126
15	0x3ff363a2	1.901478
16	0x3e78e06b	0.24304359
17	0xbe37a325	-0.17933328
18	0x3f07dbbb	0.5306966
19	0xbdc9526d	-0.098301746
20	0xbdc6cdfe	-0.09707259
21	0x3f4be925	0.79652625
22	0xbd77c953	-0.060494732
23	0xbd342ad6	-0.043986164
24	0xbbaf2598	-0.0053450577
25	0xbdbed371	-0.09317673
26	0x3f04f532	0.5193664
27	0xbf5a25fb	-0.85214204
28	0xbe140100	-0.14453506
29	0x3c7f5585	0.015584354
30	0xbdbf93c4	-0.09354356
31	0xbfae0e06	-1.359803
32	0xbcb5a460	-0.022173107
33	0x3e543b74	0.20725805
34	0xbd3ea5bc	-0.046544775
35	0xbd272ef1	-0.04081625
36	0xbd6db3d5	-0.05803283
37	0xbda20481	-0.07911015
38	0xbdc8d80c	-0.09806833
39	0x3d9fa89b	0.07795831
40	0xbd89b5e4	-0.06724146
41	0xbcc55fc7	-0.024093522
42	0xbe4e5128	-0.20148146
43	0x3f02eb3f	0.5114021
44	0x3e0ba083	0.13635449
45	0xbdc701a3	-0.09717109
46	0x3d140fc2	0.03614784
47	0xc0010dec	-2.0164747
48	0xbe0e7aa3	-0.1391397
49	0x3e6abdb9	0.22923936
50	0xbe68f8f7	-0.22751223
51	0xbc8d2bdb	-0.017232826
52	0xbf009529	-0.502276
53	0xbaa7a80d	-0.0012791172
54	0xbc6c7291	-0.014431612
55	0xbdddcfba	-0.10830636
56	0xbdbb452f	-0.09144055
57	0xbd97aae5	-0.074056424
58	0xbddf27ae	-0.1089624
59	0xbf9faef1	-1.2475263
60	0xbefc50d8	-0.4928043
61	0x3f6e737f	0.93144983
62	0xbfdcc45b	-1.7247423
63	0xbefe4719	-0.49663618
64	0x3f2bfdcf	0.67184156
65	0x3d6b8c40	0.0575068
66	0xbf4b1cb2	-0.7934066
67	0x3f7f6887	0.9976887
68	0xbdabcfa5	-0.083892144
69	0xbb0a8e01	-0.002114177
70	0xbfae096d	-1.3596627
71	0xbcf1cd30	-0.029516786
72	0xbe0e1738	-0.13876045
73	0xbccc5774	-0.024944045
74	0xbf29bb1b	-0.66301125
75	0xbd910e82	-0.07082845
76	0x3f2fe155	0.68703204
77	0xbe4f9e4d	-0.2027523
78	0xbef0cdb7	-0.47031948
79	0xbf98bffd	-1.193359
80	0xbd7265cb	-0.05917911
81	0xbed50fdb	-0.4161366
82	0x3d476504	0.04868032
83	0xbdaba3d7	-0.08380859
84	0x3ee43f4e	0.44579548
85	0xbdf07b4b	-0.11742266
86	0xbe1f6e35	-0.15569384
87	0x3f83ad71	1.0287305
88	0xbe0d103e	-0.13775727
89	0xbedb5bbe	-0.4284343
90	0xbf5e1208	-0.86746264
91	0xbf98c9f4	-1.1936631
92	0x3efa6781	0.48907092
93	0xbd100a34	-0.03516598
94	0x398b44b1	0.00026563325
95	0xbf0e5a25	-0.556063
96	0xbc4a4ce2	-0.012347432
97	0x3f18641b	0.5952775
98	0x3f70f1d7	0.9411902
99	0xbeceb9d8	-0.40376163
100	0xbfc739a3	-1.5564464
101	0x3cd4c5de	0.025973257
102	0xbd1403c5	-0.036136407
103	0xbd95022f	-0.07275807
104	0x3f90f94d	1.132608
105	0xbf804e12	-1.0023825
106	0x3f9eee22	1.2416422
107	0xbe628dfb	-0.22124474
108	0xbfa0f144	-1.2573628
109	0xbe364234	-0.17798692
110	0x3ee62d6c	0.4495653
111	0xbdc5e8c7	-0.096635394
112	0xbd22b987	-0.039727714
113	0x3ff3636e	1.9014719
114	0x3e6e2556	0.2325643
115	0xbdca1bbc	-0.09868571
116	0x3f0f6e56	0.56027734
117	0xbf0a242b	-0.5396144
118	0xbda3f234	-0.08005181
119	0x3ba38616	0.0049903495
120	0xbcddcd7d	-0.027075524
121	0x3f94080c	1.1564956
122	0xbd9dcfa5	-0.07705621
123	0xbc8ae0f5	-0.016952971
124	0x3b9558c0	0.004557699
125	0xbe7d98f0	-0.24765372
126	0x3c9897ad	0.018627012
127	0x3d438690	0.04773575
128	0xbda5d784	-0.08097747
129	0xbda91a79	-0.082570024
130	0x3f08890d	0.5333412
131	0xbdd7e808	-0.10542303
132	0xbe058b6a	-0.13041463
133	0x3dcf4b8f	0.101218335
134	0xbd83e0e6	-0.0643938
135	0x3ce9feab	0.028563818
136	0xbe13146c	-0.14363259
137	0x3f2eb8a9	0.6825052
138	0x3dbc44e5	0.09192828
139	0xbb02e636	-0.0019973642
140	0x3d258c6a	0.040417112
141	0x3fd72599	1.6808349
142	0xbcde1f9b	-0.02711468
143	0xbf2212ad	-0.63309747
144	0x3e41d1c0	0.1892767
145	0x3c902734	0.017596819
146	0x3dbd35b6	0.0923876
147	0xbcae43ff	-0.021272657
148	0xbd73edf0	-0.059553087
149	0xbd7d6f77	-0.06187388
150	0xbdbaa521	-0.09113527
151	0xbd65f629	-0.05614296
152	0xbded19bf	-0.11577176
153	0xc028f461	-2.6399157
154	0xbec79c27	-0.38986322
155	0xbee561a8	-0.44801068
156	0xbf21c427	-0.6318993
157	0xbd34c103	-0.044129383
158	0x3fc5268a	1.5402386
159	0xbd1f6d3d	-0.038922537
160	0xbdc21cb0	-0.09478128
161	0xbd7c364f	-0.06157523
162	0xc00a29ca	-2.1588006
163	0x3f4b2129	0.79347473
164	0xbc201d34	-0.009772588
165	0x3eae8d0f	0.34091994
166	0xbe885348	-0.2662604
167	0x3e189a75	0.1490267
168	0x3f342cce	0.70380867
169	0x3d94f1d7	0.0727269
170	0x3f48c8f9	0.7843166
171	0x3ef3314b	0.47498545
172	0xbfd57dfe	-1.6679075
173	0xbe038fae	-0.12847778
174	0x3ec1a166	0.3781845
175	0x3f222681	0.6334
176	0xbc8ef069	-0.01744862
177	0xbdb68d1d	-0.08913634
178	0x3c69beb5	0.0142666595
179	0x3eeb3c2b	0.45944342
180	0xbd69466e	-0.056951933
181	0x3fa8c9f7	1.3186635
182	0xbdab799a	-0.08372803
183	0xbd39e5d4	-0.045385197
184	0xbc949d21	-0.018141331
185	0xbd98d774	-0.074629694
186	0x3d4c4c99	0.049877737
187	0xbef5894d	-0.47956315
188	0xbd804adc	-0.06264278
189	0xbd687ce7	-0.05675974
190	0x3cf53ca4	0.029936142
191	0x3e3101dc	0.17285866
192	0xbf8b5342	-1.0884783
193	0x3f02ddc5	0.51119643
194	0xbcde3b99	-0.027128028
195	0xbdadfcc4	-0.08495477
196	0xbe2c44eb	-0.16823165
197	0x3b7d7c1b	0.003867871
198	0xbdb5ce38	-0.08877224
199	0xbd63d297	-0.055620756
200	0x3fa10218	1.2578764
201	0xbdab04ff	-0.08350562
202	0xbdbca76e	-0.09211622
203	0x3e7e4da2	0.24834302
204	0xbde12fba	-0.10995431
205	0xbf3f1534	-0.7464173
206	0xbf62a914	-0.8853924
207	0xbe130dc0	-0.14360714
208	0xbd69cd8b	-0.057080787
209	0x3f8f92fa	1.1216729
210	0x3f646add	0.8922556
211	0xbf918e48	-1.1371546
212	0xc0064c60	-2.0984116
213	0xbded9909	-0.11601455
214	0x3e53b396	0.20673975
215	0xbf681f17	-0.9067244
216	0xbfacfbc6	-1.3514335
217	0xbd7d5a66	-0.06185379
218	0xbc791671	-0.015203104
219	0xbcfe7a6f	-0.03106424
220	0x3e244bac	0.16044492
221	0xbc05a496	-0.008156916
222	0xbdc3862f	-0.09547078
223	0x3c970b50	0.018438011
224	0xbdc24dd7	-0.09487503
225	0x3e74bdde	0.23900554
226	0x3ecdabbb	0.40170082
227	0xbd2a6740	-0.041602373
228	0xbdae4141	-0.0850854
229	0xbcf678c2	-0.030086879
230	0x3e379267	0.17926942
231	0xbeb26e5b	-0.3484982
232	0x3b504056	0.0031776628
233	0x3d2ee784	0.04270126
234	0xbf832047	-1.0244225
235	0xbb808955	-0.0039226213
236	0xbeee02a0	-0.46486378
237	0xbfd7f743	-1.6872333
238	0xbcffdf43	-0.03123439
239	0x3bbcc9db	0.0057613677
240	0x3fb57ff5	1.4179674
241	0xbe361dd9	-0.17784823
242	0xbd16e0d7	-0.036835518
243	0xbc420094	-0.011840958
244	0x3dbe88b2	0.09303416
245	0xbf3b9b60	-0.7328396
246	0xbf28afae	-0.65893066
247	0xbdae8c67	-0.08522873
248	0xbdd28aa3	-0.10280349
249	0xbdbe929e	-0.09305309
250	0xbf3ab6f6	-0.72935426
251	0xbf0f7df9	-0.56051594
252	0x3f06537a	0.52471125
253	0xbebe6a86	-0.37190646
254	0x3eda87cc	0.4268173
255	0x3d1a84f2	0.037724443

fc3.weight f4 [256, 256]
0	0xbbb6006c	-0.0055542495
1	0xbd8bd31c	-0.06827375
2	0xbd2eab82	-0.04264403
3	0xbe8d43d8	-0.27590823
4	0x3c4eb956	0.01261743
5	0x3ccb2f3e	0.0248028
6	0xbe167a33	-0.14695053
7	0xbed7f256	-0.42177075
8	0xbde520b4	-0.11187878
9	0xbe45871e	-0.19289824
10	0xbcdcbfa5	-0.026946852
11	0x3da86ea9	0.08224232
12	0x3c166e60	0.009181589
13	0xbc0509c8	-0.008120008
14	0x3cd2b1c7	0.025719536
15	0xbe126969	-0.14298023
16	0xbef9bca6	-0.4877674
17	0xbd975014	-0.073883206
18	0xbeab7c4c	-0.33493268
19	0x3d551e69	0.052030955
20	0x3d46a064	0.048492804
21	0xbe525257	-0.20539223
22	0xbc359209	-0.011082181
23	0x3b09f731	0.0021051879
24	0x3d5551e7	0.05208006
25	0xbd4569c9	-0.048196588
26	0xbdb69dac	-0.08916792
27	0xbf035d53	-0.51314276
28	0xbbd294a6	-0.0064264117
29	0xbd0866a5	-0.033301014
30	0xbe1b29d2	-0.15152672
31	0xbd841356	-0.064490005
32	0xbd199c7c	-0.03750275
33	0xbe94c281	-0.29054645
34	0xbd12b009	-0.03581241
35	0xbd2b1832	-0.04177112
36	0x3d918838	0.0710606
37	0xbce22b20	-0.027608454
38	0x3d714c8e	0.0589109
39	0x3e447a51	0.19187285
40	0xbd695f3f	-0.0569756
41	0xbd1e77e9	-0.038688574
42	0x3ced6125	0.028976986
43	0xbd553edc	-0.0520619
44	0xbe223063	-0.1583877
45	0x3d479281	0.0487237
46	0x3da283aa	0.07935269
47	0xbe94b0de	-0.2904119
48	0x3ca60d5e	0.020270046
49	0x3d5f6678	0.05454108
50	0xbe4ebb23	-0.20188574
51	0xbe2c4952	-0.16824844
52	0x3d4d5e00	0.050138474
53	0x3e08742e	0.13325569
54	0xbda68f99	-0.08132858
55	0xbd567b2b	-0.052363556
56	0xbcd8b84d	-0.026455069
57	0xbd902999	-0.07039184
58	0x3d7f32bf	0.062304255
59	0xbe68730d	-0.22700138
60	0xbe4c6576	-0.1996058
61	0xbe09f5ae	-0.13472626
62	0xbd32b78f	-0.043632086
63	0xbe70874e	-0.23489115
64	0x3ccece91	0.025244983
65	0x3de3fae1	0.11131836
66	0xbdb24caf	-0.087060325
67	0xbe6b58b1	-0.22983052
68	0x3bc83061	0.006109283
69	0x3dc4be1c	0.09606573
70	0xbeb9a6dd	-0.3626012
71	0xbbbfa890	-0.0058489516
72	0x3d8b65ac	0.06806502
73	0xbbc4e498	-0.006008696
74	0x3e22abef	0.158859
75	0x3b3d2f55	0.0028867323
76	0xbc4041a9	-0.011734405
77	0xbda16588	-0.07880694
78	0xbd20835d	-0.039187778
79	0xbe7efd86	-0.24901399
80	0xbd34b929	-0.044121895
81	0xbd45b77e	-0.048270695
82	0xbdf0a619	-0.117504306
83	0x3d0d949a	0.034565546
84	0xbe95e552	-0.2927652
85	0xbddb46e8	-0.10706884
86	0x3dbd5ec1	0.092465885
87	0xbad1a686	-0.0015995062
88	0x3d003d6f	0.031308588
89	0xbe0d419c	-0.13794559
90	0xbdf58254	-0.11987749
91	0xbe76ead0	-0.24113011
92	0xbe2f679e	-0.1712937
93	0x3d734bec	0.059398577
94	0xbd1727b7	-0.03690311
95	0xbcaf6246	-0.021409165
96	0xbc9d5bd1	-0.01920882
97	0xbe61ef28	-0.22063887
98	0xbdf96c36	-0.12178843
99	0xbe214155	-0.15747578
100	0x3d0fd0fb	0.03511141
101	0xbe7f461b	-0.24929087
102	0xbc202c36	-0.009776166
103	0x3c429506	0.01187635
104	0xbe968d1c	-0.29404533
105	0x3ba84422	0.005135075
106	0xbe501d12	-0.2032359
107	0xbe253db6	-0.16136822
108	0xbcaba841	-0.020954253
109	0xbea0f2e6	-0.31435317
110	0xbe211799	-0.15731658
111	0x3c65d1d7	0.0140270805
112	0xbd0a7901	-0.033806805
113	0xbec396ed	-0.38201085
114	0xbdd58326	-0.10425405
115	0xbdc24e90	-0.09487641
116	0xbc8d59a6	-0.017254662
117	0xbea8569d	-0.3287858
118	0xbc326b28	-0.010889806
119	0xbbb095b5	-0.00538894
120	0x3e7a7e57	0.24462257
121	0xbe04ccac	-0.12968701
122	0xbca7a48f	-0.02046421
123	0xbd283c3a	-0.04107306
124	0xbe33f155	-0.1757253
125	0xbe47ed42	-0.195241
126	0xbd03767e	-0.032095425
127	0xbdc098a5	-0.09404115
128	0xbce31334	-0.027719118
129	0xba90b500	-0.001104027
130	0xbcc42ac2	-0.02394617
131	0x3e301223	0.17194419
132	0xbd466cf9	-0.04844377
133	0x3d74838c	0.059695765
134	0xbcd9ed99	-0.026602553
135	0x3d23d06b	0.039993685
136	0xbdb5a720	-0.08869767
137	0x3e13fddd	0.1445231
138	0xbe9b05d6	-0.3027789
139	0xba03e24b	-0.00050309737
140	0x3d089649	0.033346448
141	0xbd931f75	-0.07183734
142	0xbca2dbf4	-0.019880272
143	0xbda7ad6f	-0.08187377
144	0xbf04cb48	-0.5187268
145	0xbe5bada5	-0.21452959
146	0x3e03a215	0.12854798
147	0x3dfdbb15	0.12389199
148	0xbd29c32e	-0.041445903
149	0xbc0bd445	-0.008534496
150	0x3ddb36df	0.10703825
151	0xbc4ac4ef	-0.012376054
152	0xbc2d9c60	-0.010596365
153	0x3b45b1b2	0.003016573
154	0x3d410874	0.047127202
155	0xbe4cdf82	-0.20007136
156	0x3afdf64f	0.0019375774
157	0x3d369067	0.044571307
158	0xbe3f6748	-0.18691742
159	0x3c8731a0	0.016503155
160	0xbd2e9967	-0.042626765
161	0xbc056457	-0.008141599
162	0xbdde6f8b	-0.10861119
163	0xbeff4468	-0.49856877
164	0xbd116bf6	-0.03550335
165	0xbe4b71e8	-0.1986767
166	0xbe65f695	-0.22457345
167	0xbe661aea	-0.22471204
168	0xbd0dc20c	-0.034608886
169	0x3da8598d	0.082202055
170	0xbe544c3b	-0.20732205
171	0xbed8d84d	-0.42352524
172	0xbe6c58dc	-0.23080772
173	0x3c8c632a	0.017137129
174	0xbd5a2f34	-0.053267673
175	0xbea29719	-0.31755903
176	0x3e275f18	0.16344869
177	0x3cd76888	0.026294962
178	0xbd3039af	-0.04302376
179	0x3dd7655c	0.1051738
180	0xbcc34a6d	-0.0238392
181	0xbe84d114	-0.25940764
182	0xbe26b3bf	-0.16279505
183	0x3d5336a1	0.05156577
184	0xbdd638be	-0.104600415
185	0xbde5468d	-0.11195097
186	0x3d68cab2	0.05683393
187	0xbcacc2b6	-0.02108894
188	0xbbe89751	-0.0070981164
189	0x3b846e69	0.004041482
190	0xbda5aa8c	-0.0808917
191	0xbe8ff91e	-0.2811975
192	0xbde2ad57	-0.11068218
193	0xbc4996bd	-0.012304005
194	0x3ca81691	0.020518573
195	0xbe6afcfc	-0.22948068
196	0x3e50816d	0.20361872
197	0x3d023ee8	0.031798273
198	0xbba8a968	-0.005147148
199	0xbd63a21c	-0.05557452
200	0xbdbf3614	-0.093364865
201	0x3d24d760	0.04024446
202	0xbd413674	-0.04717107
203	0xbe51ba5d	-0.20481248
204	0x3cea274c	0.028583191
205	0xbe18c600	-0.14919281
206	0xbd111155	-0.03541692
207	0x3e270829	0.16311707
208	0xbd00ca2f	-0.031442817
209	0x3cf8c44d	0.030367041
210	0xbee94e28	-0.4556744
211	0xbee609fe	-0.44929498
212	0xbd49a4cf	-0.04922944
213	0xbd89cddc	-0.06728718
214	0xbbfc807a	-0.0077057453
215	0xbe4f4834	-0.20242387
216	0xbed3a9f4	-0.413406
217	0x3da30175	0.07959262
218	0xbdb3a178	-0.08771032
219	0xbd12aa71	-0.035807077
220	0x3bd4da5e	0.006495758
221	0xbcca8710	-0.024722606
222	0x3aab1448	0.0013052309
223	0xbce612b6	-0.028085094
224	0xbd1b0ef7	-0.03785607
225	0xbd28a114	-0.04116924
226	0x3ec2e6a8	0.38066602
227	0x3d5d22a7	0.053988125
228	0xbd201a71	-0.039087716
229	0x3d2e48e4	0.042549983
230	0xbd94d2bb	-0.07266756
231	0xbcdc426e	-0.026887145
232	0x3d8ca41a	0.068672374
233	0xbe688b7a	-0.22709456
234	0xbe35a84d	-0.17739983
235	0xbc294436	-0.010331204
236	0xbdf64446	-0.12024741
237	0xbe6cbaa1	-0.23118068
238	0xbb41a126	-0.0029545515
239	0xbe370225	-0.17871912
240	0xbd5a8788	-0.05335191
241	0xbecc7e00	-0.3993988
242	0xbdca5473	-0.09879389
243	0x3d7d2093	0.061798643
244	0x3a8b895a	0.0010645792
245	0xbedd3fff	-0.43212888
246	0xbc4fc575	-0.012681355
247	0xbde7db7a	-0.11321159
248	0xbc3505a8	-0.011048712
249	0xbe0f4e5b	-0.13994734
250	0xbbc5f94b	-0.006041681
251	0xbddd1ef5	-0.1079692
252	0xbe88c2e9	-0.26711205
253	0xbe1be9f6	-0.15225968
254	0x3d107991	0.035272185
255	0xbe571aac	-0.21006268

fc3.bias f4 [256]
0	0xbe1bd7c1	-0.15219022
1	0xbdef483a	-0.11683698
2	0xbe517ca5	-0.20457704
3	0xbe159ec1	-0.14611341
4	0xbf001401	-0.50030524
5	0xbcbd00c3	-0.023071652
6	0xbe00e4c5	-0.12587269
7	0xbcffe1cf	-0.031235604
8	0x3cc80f39	0.024421321
9	0xbefd3374	-0.49453318
10	0xbe571606	-0.21004495
11	0xbe62b7c5	-0.22140415
12	0xbe186f79	-0.14886273
13	0xbca44054	-0.020050205
14	0xbe10fde7	-0.14159356
15	0x3ebd0301	0.36916354
16	0xbdf665ec	-0.12031159
17	0xbf00e94b	-0.50355977
18	0x3d46486f	0.04840892
19	0xbee3b152	-0.44471222
20	0x3e22d68a	0.15902153
21	0xbdd90978	-0.10597509
22	0x3b43cfbe	0.0029878463
23	0xbe55a45b	-0.20863478
24	0xbe4116aa	-0.18856302
25	0xbe95ee98	-0.29283595
26	0x3f840eac	1.0316978
27	0xbece6020	-0.40307713
28	0x3f5794a5	0.8421119
29	0xbe2fb31b	-0.17158167
30	0x3f6835b7	0.9070696
31	0xbe1c30db	-0.15253012
32	0x3ea01f34	0.31273806
33	0xbe3cf27a	-0.18451872
34	0xbe93c40d	-0.28860512
35	0xbe0042fa	-0.1252555
36	0xbe80a4f0	-0.25125837
37	0xbe6c9692	-0.23104313
38	0x3c26b329	0.010174551
39	0x3f80554e	1.0026033
40	0xbd98d259	-0.07461996
41	0xbf4c425b	-0.7978875
42	0xbf0f3b0b	-0.5594947
43	0xbee88aa9	-0.4541829
44	0xbe2c55b0	-0.16829562
45	0xbe50ea24	-0.20401818
46	0xbf78c7c9	-0.9717985
47	0xbe465361	-0.19367744
48	0xbecb0885	-0.39654937
49	0xbda1a217	-0.07892244
50	0x3ee30afc	0.44344318
51	0xbf8d13c7	-1.102166
52	0xbe4b9a68	-0.1988312
53	0x3ef43705	0.47698227
54	0x3f84562e	1.03388
55	0xbe96895f	-0.2940168
56	0xbf8de92e	-1.1086786
57	0xbedc0898	-0.42975307
58	0xbe43156c	-0.1905114
59	0xbf317386	-0.693169
60	0xbe83b887	-0.2572672
61	0xbf8e242b	-1.1104788
62	0xbe4e196e	-0.20126888
63	0xbdf67947	-0.120348506
64	0xbe8f0c4b	-0.27939066
65	0xbdd04797	-0.10169905
66	0xbe61e1c1	-0.22058775
67	0xbf98909d	-1.1919132
68	0xbd5aae74	-0.053389028
69	0xbede5c2c	-0.43429697
70	0xbf4f8c22	-0.810732
71	0xbf635d20	-0.8881397
72	0xbe35e1bd	-0.17761894
73	0xbc90438c	-0.017610334
74	0xbef704cc	-0.48245847
75	0x3f5037d7	0.81335205
76	0xbcda90da	-0.026680399
77	0xbe0e3afe	-0.13889691
78	0x3f055e65	0.5209716
79	0xbe024597	-0.12721859
80	0xbf860922	-1.0471537
81	0xbea6ffcf	-0.3261704
82	0xbe76af01	-0.24090196
83	0xbdec2513	-0.11530509
84	0x3ea8b036	0.32946938
85	0xbe227e6b	-0.15868537
86	0xbe5d8cbf	-0.21635722
87	0xbf5c0f9f	-0.85961336
88	0xbe29b106	-0.16571435
89	0xbe42d15e	-0.1902518
90	0x3f391c85	0.7230914
91	0xbeececd9	-0.4627445
92	0xbf223360	-0.6335964
93	0xbe236d1a	-0.15959588
94	0xbe9741d8	-0.29542422
95	0xbeaaf752	-0.33391815
96	0xbe3fceff	-0.18731306
97	0xbf027051	-0.5095263
98	0xbea90e2f	-0.33018634
99	0xbe671bc9	-0.22569193
100	0xbe800b39	-0.25008562
101	0xbe803e56	-0.2504756
102	0xbe4951e2	-0.19660142
103	0x3f08e8b2	0.53480065
104	0xbf1b860f	-0.6075143
105	0x3e0de792	0.13857868
106	0xbd7f28a7	-0.06229463
107	0xbf09805f	-0.53711504
108	0xbe870939	-0.26374224
109	0xbed0304a	-0.40661842
110	0xbe757df5	-0.2397383
111	0xbe7b76c6	-0.24557027
112	0xbe70d064	-0.23516995
113	0xbd98e411	-0.07465375
114	0x3f78c5a6	0.9717659
115	0xbf0f7ee2	-0.5605298
116	0xbe8e7a8f	-0.2782788
117	0xbe232fa7	-0.15936147
118	0xbf4974b0	-0.78693676
119	0x3eb89cc1	0.36057094
120	0xbe529bf1	-0.205673
121	0xbd486986	-0.04892876
122	0xbccfc763	-0.02536363
123	0xbe5834b1	-0.2111385
124	0xbda61e62	-0.08111264
125	0x3e105ad2	0.14097145
126	0xbf4adc95	-0.7924283
127	0xbe355e16	-0.17711672
128	0xbf61a68b	-0.8814475
129	0xbd9b3617	-0.07578676
130	0xbf77c48d	-0.9678429
131	0xbf8576ed	-1.0426918
132	0xbe08683f	-0.13321017
133	0x3edef9f9	0.4355009
134	0x3ea98f8d	0.33117333
135	0xbda61748	-0.08109909
136	0x3f6cdade	0.92521465
137	0xbf351cab	-0.7074687
138	0xbe8b04f0	-0.27152205
139	0xbe5e1d83	-0.21690945
140	0xbea5dbc8	-0.32394242
141	0xbe40181b	-0.18759196
142	0xbe0003c6	-0.1250144
143	0xbdd44131	-0.10363997
144	0xbe133f9f	-0.14379738
145	0xbf3ac31b	-0.7295396
146	0xbeacbfd1	-0.33740094
147	0xbe6c432d	-0.230725
148	0xbe36a2b4	-0.17835504
149	0xbe9163c8	-0.2839644
150	0xbec42250	-0.38307428
151	0xbe0c37a4	-0.136931
152	0xbdd8372f	-0.105574004
153	0xbf057b70	-0.52141476
154	0xbf007ffc	-0.5019529
155	0xbe971abb	-0.2951258
156	0x3d50f5bc	0.0510156
157	0xbf55e44c	-0.8355148
158	0xbcedca67	-0.029027177
159	0x3d41acec	0.04728405
160	0xbed05613	-0.4069067
161	0xbf7c435d	-0.9854029
162	0x3abe74c5	0.001453065
163	0xbf47ddcf	-0.7807283
164	0xbe932b78	-0.28744102
165	0xbe7e8cc6	-0.24858388
166	0xbe1c4c3f	-0.1526346
167	0xbf2a940e	-0.66632164
168	0xbcf317a5	-0.02967436
169	0xbe19d5ec	-0.15023011
170	0xbeda7d2b	-0.4267362
171	0xbf35ad96	-0.70967996
172	0xbeb1c32a	-0.3471921
173	0xbc845c85	-0.016157398
174	0xbedacef0	-0.42736006
175	0x3fb65700	1.42453
176	0xbdda0fc7	-0.106475405
177	0xbf694b8a	-0.9113089
178	0xbe215b2f	-0.1575744
179	0x3d51aaee	0.051188402
180	0xbf10e9ea	-0.56606925
181	0xc011ad04	-2.276185
182	0x3ea315ee	0.3185267
183	0xbd7ddcc6	-0.061978124
184	0xbe434fbb	-0.19073384
185	0xbe5ca746	-0.21548185
186	0x3e88eb8d	0.2674221
187	0xbe117d59	-0.14207973
188	0x3f8915e2	1.0709803
189	0xbdc16b27	-0.09444266
190	0xbe6fb2c6	-0.2340804
191	0xbe7faa32	-0.24967268
192	0xbf620b70	-0.882987
193	0xbe20cd74	-0.15703374
194	0x3e0cebc5	0.13761814
195	0xbf058f92	-0.52172196
196	0xbe940438	-0.2890947
197	0xbe218807	-0.15774547
198	0xbf4e730a	-0.80644286
199	0xbe2137ed	-0.1574399
200	0xbea16469	-0.3152192
201	0x3d932113	0.07184043
202	0x3f3f31ba	0.7468525
203	0xbe0f7522	-0.14009526
204	0x3fc2c986	1.521775
205	0xbf345710	-0.70445347
206	0xbe239565	-0.15974958
207	0xbed53e8e	-0.41649288
208	0xbf8fcaa7	-1.123372
209	0xbd5c7e6e	-0.05383151
210	0xbe42cbf0	-0.19023108
211	0xbd08ff5d	-0.03344666
212	0xbe67c2e6	-0.22632942
213	0xbdded5b1	-0.10880602
214	0x3ededa33	0.43525848
215	0xbec7753b	-0.38956627
216	0xbda32318	-0.07965678
217	0xbf572eb2	-0.84055626
218	0xbf0cb8c6	-0.5496944
219	0xbf83fc83	-1.0311435
220	0xbf607bd8	-0.8768897
221	0x3e1558d7	0.14584671
222	0xbeeebb8e	-0.46627468
223	0xbe7875f9	-0.24263753
224	0x3d980ea9	0.07424671
225	0xbf3b6226	-0.7319664
226	0xbd56678b	-0.05234484
227	0x3facff84	1.3515477
228	0xbe3932b7	-0.18085752
229	0x3e39f613	0.18160276
230	0xbf92ccc4	-1.146874
231	0xbd599b7c	-0.053126797
232	0x3e9b70bf	0.30359456
233	0xbe4c5c22	-0.19957021
234	0xbedd6c3e	-0.43246645
235	0x3d959e5d	0.07305596
236	0xbd84cf4b	-0.064848505
237	0xbe59a178	-0.21253002
238	0x3fb9b9c9	1.4509822
239	0xbdaf0996	-0.0854675
240	0xbe13c4b9	-0.14430512
241	0xbf4f43a0	-0.8096256
242	0xbec568ff	-0.38556668
243	0xbe3ee5a1	-0.18642284
244	0xbe4ff96b	-0.20309989
245	0xbd8d22fe	-0.0689144
246	0x3f02f801	0.51159674
247	0xbf0c1d0d	-0.5473183
248	0x3d74281a	0.059608556
249	0xbf42347e	-0.75861347
250	0x3e60e555	0.21962483
251	0xbf066103	-0.5249178
252	0xbe2cfed1	-0.1689408
253	0xbda45bbc	-0.080253094
254	0xbe2d53ac	-0.1692645
255	0xbe236098	-0.15954816

action_out.weight f4 [4, 256]
0	0x3e3153f9	0.1731719
1	0x3ddd0e2d	0.107937194
2	0x3e769faf	0.24084352
3	0xbc950fa0	-0.018195927
4	0xbb8ee22f	-0.0043604593
5	0xbd521fe4	-0.051299945
6	0xbe1611c8	-0.1465522
7	0x3d837cbe	0.06420277
8	0xbe9ee219	-0.31031874
9	0xbc07360f	-0.008252635
10	0xbdb0c01b	-0.08630391
11	0xbd8da85e	-0.06916879
12	0x3ea05595	0.31315294
13	0xbee68e74	-0.45030558
14	0x3cde329f	0.027123747
15	0x3e06955b	0.13142912
16	0xbc4f2872	-0.01264392
17	0x3d38153a	0.04494212
18	0xbeca5256	-0.39515942
19	0xbf191965	-0.59804374
20	0x3c869fd6	0.016433638
21	0xbbf96407	-0.007610801
22	0x3bbeb933	0.0058204173
23	0xbd042f15	-0.032271463
24	0xbe3ccd7b	-0.1843776
25	0xbc9f0d3e	-0.019415494
26	0xbd2ad810	-0.04170996
27	0x3d5cbbcb	0.05389003
28	0x3bda3678	0.006659325
29	0xbdf90831	-0.121597655
30	0x3d7223d1	0.05911619
31	0xbe5a9d77	-0.2134913
32	0x3e63ab1b	0.2223324
33	0xbbffa350	-0.007801451
34	0x3edbe930	0.42951345
35	0xbbae2cbf	-0.0053153927
36	0xbe6854a6	-0.22688541
37	0xbd06dfda	-0.032928325
38	0xbd9562fc	-0.072942704
39	0x3d336828	0.043800503
40	0x3d5142c7	0.051089074
41	0xbcc3f7f8	-0.023921952
42	0x3dae0950	0.0849787
43	0xbf57d31b	-0.84306496
44	0x3c2e6ec1	0.010646523
45	0x3d02edec	0.03196518
46	0xbc672d75	-0.014109959
47	0xbd43cb39	-0.04780123
48	0x3e2ac08d	0.16675015
49	0xbe0ef4f3	-0.13960628
50	0xbd64dc91	-0.05587441
51	0xbe05e316	-0.13074908
52	0x3e52eef9	0.20598973
53	0xbe2529cc	-0.16129225
54	0xbcdef072	-0.027214263
55	0x3dec3317	0.11533182
56	0xbd874fb9	-0.06607003
57	0xbdf0f559	-0.11765546
58	0x3d3a7272	0.0455193
59	0xbf0c9cf8	-0.54927015
60	0xbdf9fdf9	-0.122066446
61	0x3fae24d6	1.3604991
62	0xbd94a527	-0.07258063
63	0x3e525e97	0.20543896
64	0xbb8d1870	-0.0043058917
65	0xbad7c2f3	-0.0016461298
66	0x3ca7a3d4	0.020463862
67	0x3e345ed6	0.17614302
68	0xbf07d4cf	-0.53059095
69	0xbe4393c4	-0.19099337
70	0xbcfd5aba	-0.03092705
71	0xbe29e1b4	-0.16590005
72	0xbec3f91c	-0.38275993
73	0x3dbed2a7	0.093175225
74	0x3c1ba28e	0.009499205
75	0x3d2ca8d4	0.042153195
76	0x3e8f24b4	0.2795769
77	0x3d8ac789	0.067763396
78	0xbd5036ce	-0.050833516
79	0x3d02c31b	0.03192435
80	0x3cb1c221	0.021699013
81	0xbea8defa	-0.32982618
82	0xbcee4227	-0.029084278
83	0xbb8fc3ac	-0.0043873396
84	0x3d620089	0.05517629
85	0x3ec10b67	0.37704012
86	0xbd50f00b	-0.051010173
87	0x3c62e566	0.013848638
88	0xbc5fc5c3	-0.01365799
89	0xbcd71ccd	-0.02625885
90	0x3d8baecf	0.068204515
91	0xbd1499dc	-0.036279544
92	0x3e9172a2	0.2840777
93	0xbcb3ec65	-0.021963308
94	0x3e097f62	0.13427499
95	0xbd6b6bcd	-0.057475854
96	0x3dd22b0c	0.10262117
97	0x3d028cf3	0.0318727
98	0xbd45d77b	-0.0483012
99	0xbe2c17e1	-0.16805984
100	0xbec176ef	-0.37786052
101	0xbd4c5a3a	-0.049890734
102	0xbd905005	-0.070465125
103	0x3d5c1d64	0.053738967
104	0xbdbee24a	-0.09320505
105	0xbbbc70ae	-0.005750737
106	0x3cb6820f	0.022278814
107	0xbd899835	-0.06718484
108	0xbd34acaf	-0.044109996
109	0x3f08d614	0.5345166
110	0xbdad88b1	-0.084733374
111	0x3e435ecf	0.19079135
112	0x39ac98fd	0.00032920382
113	0xba70f3c8	-0.00091915997
114	0xbd05686e	-0.032570295
115	0xbe0a9cd6	-0.1353639
116	0xbd89a752	-0.06721367
117	0xbd88fb22	-0.06688525
118	0x3d4ab086	0.049484752
119	0xbd2d8872	-0.042366453
120	0x3ca512df	0.0201506
121	0x3d41dfcb	0.047332566
122	0xbd3c9270	-0.04603809
123	0xbd30c9e0	-0.043161273
124	0x3ea79f12	0.3273855
125	0xbd516e38	-0.051130503
126	0xbbd9d375	-0.006647522
127	0x3bd1d8d1	0.0064040204
128	0x3d0b3afb	0.033991795
129	0xbe2be40e	-0.16786215
130	0xbc94fe97	-0.018187804
131	0x3da56c4d	0.08077297
132	0xbea7561c	-0.32682884
133	0xbde4cbd6	-0.11171691
134	0x3d5ad393	0.05342443
135	0x3d8ee338	0.06976932
136	0x3d66bc44	0.056331888
137	0xbc18090d	-0.009279502
138	0x3d210bb5	0.039317805
139	0xbd82ac58	-0.06380528
140	0xbc0b582b	-0.008504908
141	0xbe984419	-0.29739454
142	0xbf2d1e3f	-0.67624277
143	0x3e67e00c	0.22644061
144	0xbd2e9b80	-0.042628765
145	0xbbdf7c1d	-0.0068202154
146	0x3f374b9a	0.71599734
147	0xbda8e8f1	-0.08247555
148	0xbc99d758	-0.018779442
149	0xb816ea37	-3.5980916e-05
150	0x3cf7304e	0.0301744
151	0xbd6fe9c3	-0.058572542
152	0x3e0f3057	0.13983284
153	0x3f3d2104	0.738785
154	0xbbb2772d	-0.0054463358
155	0xbe91ed23	-0.28501233
156	0x3cca862b	0.02472218
157	0xbd50105b	-0.050796848
158	0x3c43b991	0.011946098
159	0xbd86c0f3	-0.06579771
160	0x3ee54381	0.44778064
161	0xbe2dbded	-0.16966982
162	0x3da07ff5	0.07836906
163	0xbdabccd0	-0.08388674
164	0xbdefafd0	-0.117034554
165	0x3dbbf0d0	0.09176791
166	0xbd5ba4bf	-0.05362391
167	0x3d87eba5	0.066367425
168	0x3e358b3d	0.17728896
169	0xbd6227ac	-0.055213615
170	0xbc38223d	-0.011238632
171	0xbd5d1ff1	-0.05398554
172	0x3d321a42	0.043482073
173	0xbbd0117f	-0.006349742
174	0xbe323ef3	-0.17406826
175	0xbd1441b7	-0.036195483
176	0xbd464b67	-0.048411753
177	0x3ea84188	0.32862496
178	0x3d739ffc	0.059478745
179	0x3dcd42ec	0.1002253
180	0xbc1aa4fc	-0.009438749
181	0x3bdd31c0	0.0067503154
182	0xbd3929c9	-0.045205865
183	0xbe221d92	-0.15831593
184	0xbe6ee660	-0.23330069
185	0x3dfbfa8b	0.12303647
186	0x3b7b0646	0.00383033
187	0xbdda3964	-0.10655478
188	0xbd7f598e	-0.062341265
189	0x3f014bc0	0.5050621
190	0xbe2f776e	-0.17135403
191	0x3c8153aa	0.015786964
192	0xbcafa248	-0.021439686
193	0x3d6f2cf7	0.05839249
194	0x3de6c615	0.1126825
195	0xbe026546	-0.12733945
196	0x3d7a7962	0.061150916
197	0x3d0497f2	0.03237147
198	0xbbdaf958	-0.006682556
199	0xbf2e8010	-0.6816416
200	0xbd6e92fb	-0.05824564
201	0x3d04fe10	0.032468855
202	0xbcfb3913	-0.030666864
203	0xbd6c4f22	-0.057692654
204	0xbdecfc01	-0.115715034
205	0x3d41b8e1	0.047295455
206	0xbdefcb1b	-0.11708661
207	0xbd498f39	-0.049208853
208	0xbb45778f	-0.0030131077
209	0xbc264b1d	-0.010149744
210	0x3d05dc02	0.03268052
211	0x3c5baec5	0.0134083675
212	0xbf18ee14	-0.5973828
213	0x3da97cbd	0.08275745
214	0xbd6d0ce2	-0.057873614
215	0xbc91edb6	-0.017813545
216	0x3c3c9114	0.011509199
217	0xbd9672e0	-0.073461294
218	0x3d6b1cc3	0.057400476
219	0x3c6223f7	0.01380252
220	0xbfc86046	-1.565438
221	0x3da64c86	0.081200644
222	0xbe314146	-0.17310056
223	0xbbb4dd11	-0.005519517
224	0x3ba47d02	0.005019785
225	0x3dd4a735	0.10383455
226	0xbda3e4f3	-0.08002653
227	0xbacd447c	-0.0015660669
228	0xbcf2bfdb	-0.0296325
229	0x3db6b8ac	0.08921942
230	0x3d2cdc82	0.04220248
231	0x3d015028	0.031570584
232	0x3d8ddeda	0.06927271
233	0xbd34e7e2	-0.044166453
234	0x3df58980	0.11989117
235	0xbd6aa81b	-0.057289224
236	0x3ba19502	0.004931093
237	0xbb848fd1	-0.0040454646
238	0x3d20077f	0.03906965
239	0x3d84e5ba	0.06489129
240	0x3d99f2fb	0.07517048
241	0x3f931d8a	1.149339
242	0x3d3bc134	0.04583855
243	0xbb67f5a5	-0.0035394218
244	0xbd78f190	-0.060777247
245	0xbdf13811	-0.11778272
246	0xbdb59965	-0.08867148
247	0xbe1db4e0	-0.1540103
248	0xbd810a85	-0.063008346
249	0x3d42428f	0.047426756
250	0xbb8b6874	-0.004254395
251	0xbe890c3c	-0.26767147
252	0xbc95124d	-0.018197203
253	0xbf59d2ee	-0.8508748
254	0x3de9693e	0.113970265
255	0x3de369a9	0.111041375

action_out.bias f4 [4]
0	0x3b420821	0.0029606896
1	0xbaae756f	-0.0013310144
2	0x3b207188	0.0024481732
3	0x3b27c7d5	0.0025601287
