saved_models/FetchPush-v1/model.pt (torch_old, 562116 bytes, 8 tensors)

fc1.weight f4 [256, 28]
0	0xbe7f3b8d	-0.2492506
1	0x3eb90a63	0.36140737
2	0xbf0c5f9b	-0.5483338
3	0x3dde8dff	0.10866927
4	0xbf29355e	-0.66097057
5	0x3be02c0d	0.0068411888
6	0x3e1a2009	0.15051283
7	0xbfceb740	-1.6149673
8	0x3e9c04af	0.30472323
9	0x3fa5bedb	1.294887
10	0xbfc76fec	-1.5581031
11	0xbb5e581d	-0.0033927031
12	0xbd28db34	-0.041224673
13	0xbc10e32a	-0.008843223
14	0x3cc04377	0.02346967
15	0xbe75c7fb	-0.24002068
16	0x3db38e41	0.08767367
17	0xbcea81cc	-0.028626345
18	0xbca52c6e	-0.020162787
19	0x3cce81c1	0.025208356
20	0x3d0987a6	0.03357663
21	0xbe7814cb	-0.24226682
22	0x3d7f4f89	0.06233171
23	0xbe20b5f0	-0.15694404
24	0xbcecc294	-0.028901376
25	0x3e15d85c	0.14633316
26	0x3e8eb8e2	0.2787543
27	0x3f28e16c	0.65968966
28	0x3cdd298c	0.02699735
29	0xbe8f6b33	-0.28011474
30	0x3e1aef03	0.15130238
31	0xbdf6a97e	-0.12044047
32	0x3cbc6c5e	0.023000892
33	0x3e51842b	0.20460574
34	0x3e07f6f7	0.13277803
35	0x3dc34269	0.09534151
36	0xbd50ced4	-0.050978497
37	0x3dc3d446	0.09561972
38	0xbdf1b011	-0.1180116
39	0x3e1ada67	0.15122376
40	0xbeb526f7	-0.3538129
41	0x3e1dfdf4	0.15428907
42	0x3f02cf9f	0.51098055
43	0x3dd82e31	0.10555685
44	0x3e8708ed	0.26373997
45	0x3c5baa1c	0.013407256
46	0xbdab28a4	-0.08357361
47	0xbda2c0ee	-0.07946955
48	0x3eed7cc5	0.46384254
49	0x3e153784	0.14571959
50	0x3da75850	0.08171141
51	0xbe0521b6	-0.13001141
52	0x3dfd8d33	0.12380447
53	0xbe72cb3c	-0.2371034
54	0x3e909d7b	0.28245148
55	0x3e65aa6b	0.2242829
56	0x3d451ca2	0.04812301
57	0xbee29708	-0.44255853
58	0x3eaf3efc	0.3422774
59	0xbf17e363	-0.5933134
60	0xbe50c867	-0.20388947
61	0x3e62f91d	0.22165342
62	0xbf71b4af	-0.94416326
63	0x3eb734a1	0.3578234
64	0xbeb75e5e	-0.35814184
65	0xbf300c22	-0.68768513
66	0x3f98a487	1.192521
67	0x3dbddef4	0.092710406
68	0x3d939f64	0.07208136
69	0xbe0f7f62	-0.14013436
70	0x3dd0ecff	0.102014534
71	0xbdd9d5bb	-0.10636469
72	0xbd886b87	-0.06661134
73	0xbe222726	-0.15835246
74	0x3d6a4ff8	0.05720517
75	0xbdba4989	-0.09096057
76	0x3da2d394	0.079505116
77	0xbda7cdb7	-0.08193534
78	0xbdb5ee00	-0.088832855
79	0xbe1ae7d8	-0.15127504
80	0xbc97ffa8	-0.018554524
81	0x3eda67c5	0.42657295
82	0x3e8d4632	0.27592617
83	0x3e780746	0.24221525
84	0xbde30bf5	-0.11086265
85	0xbde3e0d5	-0.11126868
86	0x3d249d31	0.040188972
87	0x3d70f50c	0.058827445
88	0xbe4112be	-0.18854806
89	0x3d4910d7	0.049088325
90	0xbe05e5a1	-0.13075878
91	0xbc98a7c8	-0.018634692
92	0xbd181d26	-0.037137173
93	0x3f31fabc	0.69523215
94	0xbf7816c8	-0.9690976
95	0x3d7184d9	0.058964584
96	0xbdf67a27	-0.120350175
97	0x3e6acfe6	0.2293087
98	0x3c4d735a	0.012539709
99	0xbe88d3e7	-0.2672417
100	0x3e8bb7c8	0.2728865
101	0xbe826a77	-0.2547185
102	0xbd03a99c	-0.032144174
103	0xbd907cf4	-0.07055083
104	0x3e5a7fec	0.21337861
105	0xbde1f492	-0.11032976
106	0x3e5ff347	0.21870147
107	0x3e3ffb79	0.18748273
108	0xbdc6118a	-0.09671314
109	0xbe0e32dd	-0.1388659
110	0xbd86f02b	-0.06588777
111	0x3cb964c8	0.022631064
112	0xbd08cae1	-0.033396605
113	0xbe6f6a73	-0.23380451
114	0xbd807d67	-0.062739186
115	0x3e038bba	0.1284627
116	0xbf188016	-0.59570444
117	0xbf0015a4	-0.5003302
118	0x3ec046e8	0.37554097
119	0xbe49c7b5	-0.19705088
120	0xbd4526c0	-0.048132658
121	0x3d74babe	0.059748404
122	0x3ed0fbde	0.4081716
123	0xbdbc41bb	-0.091922246
124	0x3e3714c4	0.17879015
125	0x3e253a49	0.16135515
126	0x3e183c32	0.14866713
127	0xbdcaa5ea	-0.09894927
128	0x3ce76747	0.028247489
129	0xbe1ce090	-0.15320039
130	0xbe2bfffd	-0.1679687
131	0xbcefee92	-0.029288564
132	0x3e82bb52	0.2553354
133	0x3cb278d6	0.021786135
134	0xbd06973c	-0.032859072
135	0x39b35c89	0.00034210485
136	0xbd859396	-0.065222904
137	0x3df07012	0.11740126
138	0x3ed3c526	0.4136135
139	0xbfabfeab	-1.3437093
140	0xbdb74717	-0.08949106
141	0x3c84c196	0.01620559
142	0x3d48b272	0.048998304
143	0x3db9f303	0.09079554
144	0xbed6d40b	-0.4195865
145	0xbf95997b	-1.1687464
146	0xbdac1903	-0.08403208
147	0xbf172be7	-0.59051365
148	0xbe80237c	-0.25027072
149	0xbf7bd459	-0.9837089
150	0x40027a3f	2.0387113
151	0xbe4f61d5	-0.20252164
152	0x3cb3a936	0.021931272
153	0x3da887f8	0.08229059
154	0xbe037b8d	-0.128401
155	0x3deb8dda	0.115016654
156	0xbe114fe0	-0.14190626
157	0x3ddbed6b	0.10738643
158	0xbda04a1e	-0.07826637
159	0x3d528df5	0.051404912
160	0xbde70aa3	-0.11281326
161	0xbc370d25	-0.0111725675
162	0xbe28f443	-0.16499428
163	0xbe258b40	-0.16166401
164	0x3dfa45ec	0.12220368
165	0x3ef0be4a	0.4702018
166	0x3e908614	0.28227293
167	0x3e645be4	0.22300678
168	0x3c87eccd	0.016592408
169	0x3e382c90	0.17985749
170	0xbe0a8a66	-0.13529357
171	0xbece7217	-0.4032142
172	0x3e224f70	0.15850616
173	0xbebc7e00	-0.3681488
174	0xbeac8165	-0.3369247
175	0xbdfb128e	-0.122593984
176	0xbd96d200	-0.07364273
177	0xbccecf85	-0.025245437
178	0x3f02855f	0.5098476
179	0xbcbd0f3d	-0.023078555
180	0xbdf1cc3d	-0.118065335
181	0x3e2e906b	0.17047279
182	0xbdf29e14	-0.11846557
183	0xbe1c2c52	-0.15251282
184	0xbe6da055	-0.23205693
185	0xbe14bced	-0.14525194
186	0x3ded5da1	0.11590124
187	0xbd7e41d1	-0.062074486
188	0xbd3f1905	-0.04665472
189	0xbdf627ec	-0.12019333
190	0xbe5c3961	-0.21506263
191	0xbe784401	-0.24244691
192	0x3e57ece8	0.21086466
193	0x3ec798d2	0.3898378
194	0xbe775260	-0.24152517
195	0xbf4df13c	-0.8044622
196	0x3edf82f8	0.4365461
197	0xbea4beff	-0.32176968
198	0xbc727dfa	-0.014800543
199	0x3f48b7a4	0.78405213
200	0xbeb5f016	-0.35534734
201	0x3e0d582e	0.13803169
202	0x3eeba9d7	0.46028015
203	0xbe860b3e	-0.26180452
204	0x3ce2112a	0.027596075
205	0x3ea476c4	0.3212186
206	0xbdb06c37	-0.0861439
207	0x3c8d4095	0.01724271
208	0xbd3a6443	-0.045505773
209	0x3b498ae3	0.003075295
210	0x3e87ea74	0.2654606
211	0xbe0a0aae	-0.13480636
212	0x3d370048	0.044678003
213	0xbbfefd09	-0.007781629
214	0xbd96dd13	-0.07366385
215	0x3c956df7	0.018240912
216	0x3e90e45c	0.28299224
217	0xbe07684b	-0.13223378
218	0x3c898e59	0.01679151
219	0x3d92b5fd	0.07163618
220	0x3d4be9c5	0.049783487
221	0xbfa54b24	-1.2913556
222	0x3f2e2871	0.6803046
223	0xbd87fca7	-0.066399865
224	0x3ee9fc55	0.45700327
225	0xbe989be7	-0.29806444
226	0xbe020d39	-0.12700357
227	0xbf0931eb	-0.53591794
228	0xbeb310e0	-0.34973812
229	0xbd65140e	-0.05592733
230	0xbf5fa61d	-0.87362844
231	0xbeac3803	-0.33636484
232	0xbddfbb29	-0.1092437
233	0xbeddf067	-0.43347475
234	0x3f34e72e	0.7066525
235	0xbc58999a	-0.013220215
236	0x3e032707	0.12807857
237	0x3db95f28	0.09051353
238	0xbda40388	-0.08008486
239	0x3d851722	0.06498553
240	0xbd785268	-0.060625464
241	0x3de6760f	0.11252987
242	0xbe446ff5	-0.19183333
243	0xbd86d554	-0.06583658
244	0xbcd2e534	-0.025744058
245	0x3d305fe1	0.043060187
246	0xbcd63105	-0.026146421
247	0xbe1b4ed0	-0.15166783
248	0xbe5387ec	-0.20657319
249	0x3ecb01cd	0.3964981
250	0x3eb4807a	0.3525427
251	0xbed7d27f	-0.42152783
252	0xbe24706f	-0.16058515
253	0xbeacc391	-0.33742955
254	0xbeadda3d	-0.33955565
255	0x3e40fbae	0.18846008

fc1.bias f4 [256]
0	0x3dcce28b	0.10004147
1	0xbf675efc	-0.9037931
2	0xbf295209	-0.661408
3	0xbf67b719	-0.9051376
4	0xbf88ae1e	-1.0678136
5	0xbf63799c	-0.88857436
6	0xbfb37659	-1.4020492
7	0xbe6079f3	-0.2192152
8	0xbf7a504a	-0.9777876
9	0xbea51501	-0.32242587
10	0xbf3923ea	-0.72320426
11	0xbf766714	-0.96251035
12	0xbf05be81	-0.5224381
13	0xbf827bf4	-1.0194077
14	0xbf52bf26	-0.8232292
15	0xbe911d49	-0.28342655
16	0xbf6bf1d9	-0.92165905
17	0xbefd6b0e	-0.4949574
18	0xbf7d17e0	-0.98864555
19	0xbf479909	-0.7796789
20	0xbf693e2a	-0.9111048
21	0xbeff3628	-0.49846005
22	0xbf67b4d3	-0.9051029
23	0xbe4e27cb	-0.20132367
24	0xbf8e50ca	-1.1118405
25	0x3d198053	0.037475895
26	0xbf95545c	-1.166637
27	0xbe052496	-0.13002238
28	0xbf36ce1c	-0.7140825
29	0xbf8b46cd	-1.0880982
30	0xbf2b4d0b	-0.66914433
31	0xbeb23b1a	-0.34810716
32	0xbf86bcdf	-1.0526389
33	0xbf83b37f	-1.0289153
34	0xbeee023a	-0.46486074
35	0xbf85117b	-1.039596
36	0xbda53a1a	-0.080677226
37	0xbfa48ff0	-1.2856426
38	0xbf79e549	-0.97615486
39	0xbf1de091	-0.61670786
40	0xbf755613	-0.95834464
41	0x3ed39336	0.4132325
42	0xbf6aecd3	-0.91767615
43	0xbf80fe3c	-1.0077586
44	0x3d891379	0.06693167
45	0xbf6ce3fb	-0.9253537
46	0xbc835648	-0.016032353
47	0xbf007d6d	-0.50191385
48	0xbf64c6e3	-0.8936598
49	0xbd9364bd	-0.07196949
50	0xbf7d07fa	-0.98840296
51	0x3e85f34c	0.26162183
52	0xbeaac12d	-0.33350506
53	0xbf8a54e4	-1.0807157
54	0x3eab38f4	0.3344189
55	0xbeb64873	-0.3560215
56	0xbf2f6dc9	-0.68526894
57	0xbf9ffc05	-1.2498785
58	0xbf55dd17	-0.8354048
59	0xbf5f4d74	-0.8722756
60	0xbe390b80	-0.18070793
61	0xbdd247ed	-0.10267625
62	0xbf580dd7	-0.8439612
63	0xbf31c88f	-0.69446653
64	0xbf5114ca	-0.81672347
65	0xbf639b35	-0.889087
66	0xbf7b532c	-0.98173785
67	0x3e50c1ff	0.20386504
68	0x3e7eff7f	0.24902152
69	0xbf26b700	-0.65122986
70	0x3eaa90cc	0.33313596
71	0xbf7681b8	-0.96291685
72	0xbf4f2042	-0.80908597
73	0xbf721a78	-0.9457164
74	0xbe8b7e87	-0.2724497
75	0xbe729f44	-0.23693568
76	0xbf87294b	-1.0559477
77	0xbe49b72b	-0.1969878
78	0xbf5fc0bf	-0.8740348
79	0xbf86355a	-1.0485032
80	0xbf3c834c	-0.73637843
81	0xbf66f406	-0.902161
82	0xbee9625b	-0.45582852
83	0xbee971dc	-0.4559468
84	0xbf83426d	-1.0254647
85	0xbf3d1f15	-0.7387555
86	0xbf4dc918	-0.8038497
87	0xbf81b7f0	-1.0134258
88	0xbef529de	-0.47883505
89	0xbf4965ec	-0.78671145
90	0x3f01ac74	0.5065377
91	0xbf41d151	-0.75710016
92	0xbf9cea9d	-1.2259098
93	0xbf5945f5	-0.8487237
94	0xbf4d8664	-0.8028319
95	0xbf081aa6	-0.5316566
96	0xbe9e99b7	-0.3097665
97	0xbf79cd8a	-0.9757925
98	0xbf828c9c	-1.019916
99	0xbf7955b0	-0.97396374
100	0xbca37ec1	-0.019957902
101	0x3f09fad1	0.5389834
102	0xbef43681	-0.47697833
103	0xbf05a708	-0.52207994
104	0x3f624b59	0.8839622
105	0xbf4bdec6	-0.796368
106	0xbf27d5c5	-0.6556056
107	0xbf434e5d	-0.7629145
108	0xbf531d26	-0.8246635
109	0xbf45cd14	-0.7726605
110	0xbf9a2572	-1.2042677
111	0xbefc763f	-0.49308965
112	0xbf896f24	-1.0737042
113	0xbf12b792	-0.57311356
114	0xbf1ef950	-0.6209917
115	0x3c79b27d	0.015240309
116	0xbf5f112a	-0.87135565
117	0xbf4eb298	-0.8074126
118	0xbf60084d	-0.87512666
119	0xbe874c4d	-0.264254
120	0xbf635878	-0.8880687
121	0xbf3ccebe	-0.73752964
122	0xbf8992a7	-1.074788
123	0xbfa9235c	-1.3213916
124	0xbe764127	-0.24048291
125	0xbf8f14ca	-1.1178219
126	0xbed55d81	-0.416729
127	0xbf7f1c03	-0.9965212
128	0xbf8225a4	-1.0167737
129	0xbf461ac1	-0.77384573
130	0xbe68c721	-0.22732212
131	0xbf210ced	-0.6291035
132	0xbeec8b19	-0.46199873
133	0x3e84bc75	0.2592503
134	0xbf3d7c24	-0.7401755
135	0xbf69713e	-0.9118842
136	0xbde7e0b2	-0.11322154
137	0xbf4a91a6	-0.7912849
138	0x3f3cf573	0.73812026
139	0xbf074900	-0.52845764
140	0xbf636a11	-0.8883372
141	0xbf54e631	-0.83163744
142	0x3fa59e8e	1.2939012
143	0xbf80e36d	-1.0069405
144	0xbf0948ac	-0.53626513
145	0xbe07b794	-0.13253623
146	0xbedcf576	-0.43156022
147	0xbf7e1b68	-0.9926057
148	0x3d76f453	0.0602916
149	0x3f4a33d6	0.78985345
150	0xbf3bb747	-0.73326534
151	0xbec961b3	-0.3933235
152	0xbf86e339	-1.0538093
153	0xbf8501b0	-1.039114
154	0x3ef96d0d	0.48716012
155	0xbf10e5bd	-0.5660055
156	0xbf6069ca	-0.8766142
157	0xbe051c29	-0.12999023
158	0xbf2d4b61	-0.67693144
159	0xbf831aa3	-1.0242504
160	0xbe62fab4	-0.22165948
161	0xbeb9b3e3	-0.36270055
162	0xbee89671	-0.45427278
163	0xbf34879b	-0.7051942
164	0xbe6ec32a	-0.23316637
165	0xbf28165b	-0.6565911
166	0xbf83f446	-1.0308921
167	0x3f1da59c	0.61580825
168	0xbeec3b01	-0.46138766
169	0xbf4be11f	-0.7964038
170	0xbe5ec339	-0.21754159
171	0xbf519b36	-0.8187746
172	0xbebbf26c	-0.3670839
173	0xbf6c7698	-0.9236846
174	0xbddeefe5	-0.108856
175	0xbf48576d	-0.782584
176	0xbee8419e	-0.45362562
177	0xbe61f513	-0.22066145
178	0xbec58b06	-0.3858263
179	0x3f0128b1	0.50452715
180	0xbf732a00	-0.9498596
181	0xbec6975f	-0.38787362
182	0xbde83a8a	-0.113392904
183	0xbf3e390b	-0.7430579
184	0xbf27a588	-0.65486956
185	0xbefd4558	-0.49466968
186	0xbf6e0faa	-0.9299265
187	0xbf5088d1	-0.81458765
188	0xbf892169	-1.0713321
189	0xbf2a2282	-0.66458905
190	0xbf5d0a83	-0.86344165
191	0xbf780cca	-0.96894515
192	0xbead03ad	-0.33791867
193	0x3edbc8f6	0.4292676
194	0x3d3626ce	0.0444706
195	0xbf8003e3	-1.0001186
196	0xbe70deec	-0.23522538
197	0xbf3aaa10	-0.72915745
198	0xbf4ddb48	-0.8041272
199	0xbf9e2959	-1.2356368
200	0xbf4acf75	-0.79222804
201	0xbfa90fa7	-1.3207902
202	0xbdf92ec8	-0.12167126
203	0xbf1744eb	-0.59089535
204	0xbe42adfc	-0.19011682
205	0xbd829c44	-0.063774616
206	0xbf86d545	-1.0533835
207	0xbf61dd6a	-0.88228476
208	0xbf0c7290	-0.5486231
209	0xbe6b79c9	-0.22995676
210	0xbf707c64	-0.93939805
211	0xbfa6375a	-1.2985642
212	0xbf03daf7	-0.5150599
213	0xbf6af214	-0.9177563
214	0x3e87e3da	0.26541024
215	0xbf21a3fe	-0.6314086
216	0xbf385508	-0.7200475
217	0xbf3a6395	-0.728082
218	0xbf245b56	-0.6420187
219	0xbf324d2c	-0.69649005
220	0xbef42a9e	-0.47688764
221	0xbf66ae44	-0.9010966
222	0x3e36fc3a	0.17869654
223	0xbf591405	-0.8479617
224	0xbf7e6602	-0.993744
225	0xbeed3457	-0.46328995
226	0xbeff0e75	-0.49815717
227	0xbe36ffcb	-0.17871015
228	0xbf0a8489	-0.5410848
229	0xbf3cb665	-0.7371581
230	0xbf4ec656	-0.80771387
231	0xbee9cdf1	-0.45664933
232	0xbf827b55	-1.0193888
233	0xbeb4dc78	-0.35324454
234	0xbf388ec8	-0.72092867
235	0xbf23b1b6	-0.6394304
236	0xbf052b2e	-0.5201901
237	0xbf09422a	-0.53616583
238	0xbf4b3deb	-0.79391354
239	0xbf762647	-0.96152157
240	0xbed51cfe	-0.41623682
241	0xbf020be1	-0.50799376
242	0xbe8eaa5f	-0.27864358
243	0xbf52b5b0	-0.82308483
244	0xbf976caf	-1.1830043
245	0xbf362e36	-0.7116426
246	0xbe63327e	-0.2218723
247	0xbf8fe386	-1.124131
248	0xbf39f925	-0.7264579
249	0xbedadc60	-0.42746258
250	0xbf571812	-0.84021103
251	0xbf57d6d8	-0.843122
252	0xbf3dd9c0	-0.74160385
253	0xbf03bbe0	-0.5145855
254	0xbf19641d	-0.59918386
255	0x3e89d985	0.26923767

fc2.weight f4 [256, 256]
0	0xbe3856cb	-0.18001859
1	0x39d07042	0.0003975649
2	0x3e8e1238	0.27748275
3	0xbe821788	-0.25408578
4	0xbeaa57fd	-0.33270255
5	0x3ddc8c00	0.107688904
6	0xbd7a4417	-0.06110009
7	0xbf990394	-1.1954217
8	0x3e666134	0.22498018
9	0x3ef46e45	0.4774038
10	0x3e1bb747	0.15206634
11	0x3e5b2f2c	0.21404713
12	0x3eb487e1	0.35259917
13	0x3da20a14	0.079120785
14	0x3eac0e6a	0.33604747
15	0xbf454e0c	-0.77072215
16	0x3e8ad0d8	0.2711246
17	0xbf71ba49	-0.94424874
18	0xbeddc555	-0.43314615
19	0x3e29d753	0.16586046
20	0xbee5a9fc	-0.4485625
21	0xbdd2be9e	-0.102902636
22	0xbe92f83d	-0.28705016
23	0xbe164d7d	-0.14677997
24	0x3ebf96b6	0.3741967
25	0x3d8a78de	0.06761335
26	0xbe37d7f7	-0.17953478
27	0x3e0f8d61	0.14018776
28	0x3dc2fee3	0.09521272
29	0xbf188d33	-0.5959045
30	0xbbf40d54	-0.007447878
31	0xbe9221cb	-0.28541407
32	0xbe961943	-0.29316148
33	0xbec261f7	-0.37965366
34	0xbdfdc8c2	-0.12391807
35	0x3f0090a3	0.502207
36	0x3e6fa44a	0.23402515
37	0x3d553888	0.052055866
38	0x3eb6aaff	0.35677335
39	0x3e0cd9c5	0.13754947
40	0x3f01fd6f	0.50777334
41	0x3db04ab6	0.08608
42	0x3e8631c5	0.26209846
43	0xbdbb3a0a	-0.091419294
44	0xbee014f0	-0.43765974
45	0xbf2c6b54	-0.6735127
46	0xbebb69ec	-0.3660425
47	0xbc9aee5a	-0.018912483
48	0xbe1f9273	-0.1558321
49	0xbd9a2935	-0.07527391
50	0xbd5dae40	-0.054121256
51	0xbddac495	-0.10682026
52	0x3e91d336	0.28481454
53	0xbdda4583	-0.106577896
54	0x3db67d0a	0.08910568
55	0xbdcbcc78	-0.09951109
56	0xbd70187f	-0.05861711
57	0xbf0bd4f7	-0.54621834
58	0xbe92419c	-0.2856568
59	0x3e94d0f0	0.29065657
60	0xbece26c3	-0.40263948
61	0x3dfb338c	0.12265691
62	0x3ef64405	0.4809877
63	0xbe09ba11	-0.13449885
64	0x3f14cdfe	0.5812682
65	0xbdb17116	-0.086641476
66	0x3e84df2d	0.2595152
67	0xbdbee8d1	-0.0932175
68	0x3e2cf2a5	0.16889437
69	0x3e5031ee	0.20331547
70	0xbd85259c	-0.06501314
71	0x3e8b04f8	0.27152228
72	0xbf059a66	-0.5218872
73	0xbedb3acb	-0.42818293
74	0xbef2c564	-0.47416222
75	0x3d8c59b3	0.06853046
76	0xbe58702f	-0.21136545
77	0x3d01f9b9	0.031732295
78	0xbf088222	-0.53323567
79	0x3df51d12	0.11968435
80	0xbede6bc9	-0.4344161
81	0x3ebb4ede	0.36583608
82	0xbec5df39	-0.38646868
83	0x3e7eaf99	0.24871673
84	0xbed4ccd8	-0.41562533
85	0xbe63dcdc	-0.2225222
86	0x3d8b9356	0.068152115
87	0xbdb133d6	-0.08652465
88	0x3e256286	0.16150865
89	0xbd0140c9	-0.031555925
90	0xbda62e65	-0.08114318
91	0xbf09833b	-0.53715867
92	0x3d35f9b4	0.04442759
93	0x3e4d78fe	0.20065686
94	0xbebe85d8	-0.3721149
95	0x3c252592	0.010079758
96	0xbeb2bfe6	-0.34912032
97	0xbce31a30	-0.027722448
98	0x3ea73dec	0.3266443
99	0x3c869082	0.016426329
100	0xbc95a755	-0.018268267
101	0xbc03f213	-0.00805332
102	0x3e8c1813	0.27362117
103	0xbe2a849d	-0.1665215
104	0xbdd45463	-0.10367658
105	0xbe94fcd5	-0.29099146
106	0x3ec9763a	0.39348012
107	0x3e047b81	0.12937738
108	0x3e32cccf	0.17460941
109	0xbf04238f	-0.5161676
110	0xbf10c7a3	-0.5655462
111	0xbeab2f3e	-0.3343448
112	0x3df7b45d	0.120949484
113	0xbf120910	-0.5704508
114	0xbdf24501	-0.11829568
115	0xbd26d025	-0.040725846
116	0xbc560554	-0.013062794
117	0x3d9c8364	0.07642248
118	0xbe80871f	-0.2510309
119	0xbe834816	-0.25640935
120	0x3f01e258	0.50736
121	0x3d376bf9	0.044780705
122	0x3e3970d0	0.18109441
123	0x3d3db73c	0.046317324
124	0x3d35d84a	0.044395722
125	0x3e112f8e	0.14178297
126	0xbe8c3a4e	-0.27388233
127	0xbf324b2a	-0.6964594
128	0x3e327d97	0.17430721
129	0xbde97d7c	-0.11400887
130	0xbf0e10b4	-0.55494237
131	0xbf035174	-0.5129616
132	0xbebdc53f	-0.3706455
133	0xbe1c50f8	-0.15265262
134	0x3c195732	0.009359168
135	0xbd936a0a	-0.0719796
136	0x3c3b0864	0.011415575
137	0xbd0c34e0	-0.034230113
138	0xbe714076	-0.23559746
139	0xbcccc096	-0.024994176
140	0xbedaa6d8	-0.42705417
141	0xbeb4d8ef	-0.35321757
142	0xbab82411	-0.0014048835
143	0x3e2011a2	0.15631726
144	0xbd2251a7	-0.03962865
145	0xbf3238d9	-0.6961799
146	0x3d8926bb	0.066968404
147	0x3f1c9fe6	0.61181486
148	0x3e12c72b	0.14333789
149	0xbd25f9fd	-0.04052161
150	0x3e2dd816	0.16976961
151	0xbf178382	-0.5918504
152	0xbf0d8ae4	-0.55290055
153	0xbe42ce78	-0.19024074
154	0x3d7a9974	0.0611815
155	0xbda9da3c	-0.08293578
156	0x3ccce2a3	0.025010413
157	0xbea71a29	-0.32637146
158	0xbeff3cc7	-0.49851057
159	0xbf773ec3	-0.9658014
160	0x3e6153c1	0.22004606
161	0xbedd190e	-0.43183178
162	0xbf39f46c	-0.72638583
163	0x3e137166	0.14398727
164	0xbce91141	-0.02845061
165	0xbe0c475a	-0.13699093
166	0xbf01e08d	-0.5073326
167	0x3e1d3c27	0.15354978
168	0x3e8a959a	0.27067262
169	0xbd0b5bc8	-0.034023076
170	0xbc73e9e5	-0.014887308
171	0xbe42041e	-0.18946883
172	0xbe5ea3cd	-0.21742173
173	0xbeb38f73	-0.3507038
174	0x3d5f3b84	0.054500118
175	0xbe259b05	-0.16172417
176	0xbf2e2ea6	-0.6803993
177	0x3dad6075	0.08465663
178	0xbe3cc547	-0.1843463
179	0x3d6c6366	0.05771198
180	0xbec0c3f3	-0.37649497
181	0xbf15390a	-0.5829016
182	0xbe129c70	-0.14317489
183	0xbeaf2d47	-0.3421423
184	0xbf0d980f	-0.5531015
185	0x3e63c3ee	0.2224271
186	0x3da0cca7	0.07851534
187	0xbec2a373	-0.38015327
188	0x3ec61c63	0.38693532
189	0xbce7e3ad	-0.028306806
190	0xbe54e74c	-0.20791358
191	0xbf0c7a40	-0.5487404
192	0x3e4082d3	0.18799905
193	0xbd8334ee	-0.0640658
194	0xbe1e4b96	-0.15458521
195	0x3c9c160c	0.019053482
196	0xbe88e71e	-0.26738828
197	0xbbbcfdad	-0.005767545
198	0xbe87ef08	-0.26549554
199	0x3f166cd3	0.587598
200	0x3d8fc590	0.07020104
201	0xbe5fea0a	-0.21866623
202	0xbd999223	-0.074985765
203	0x3dcd2274	0.10016337
204	0xbf111151	-0.5666705
205	0x3d7c75b8	0.061635703
206	0xbf21b7e3	-0.63171214
207	0x3df7a37a	0.120917276
208	0xbed611b9	-0.41810396
209	0xbef766d6	-0.48320645
210	0xbc95e83b	-0.018299213
211	0xbec25328	-0.37954068
212	0xbef9e7e3	-0.48809728
213	0x3c81af31	0.015830608
214	0xbee449ac	-0.44587457
215	0x3d8f139b	0.06986161
216	0xbcc953d1	-0.0245761
217	0xbf0a1dac	-0.53951526
218	0xbeab38d7	-0.33441803
219	0xbe6deecc	-0.23235625
220	0x3ea851a0	0.32874775
221	0xbf62e277	-0.8862681
222	0x3d9aa43e	0.07550858
223	0xbebf3cdc	-0.3735112
224	0xbd599663	-0.053121936
225	0xbed6b50d	-0.41935006
226	0x3be8f63c	0.0071094315
227	0x3dccfb4b	0.10008868
228	0xbf52f7c5	-0.82409316
229	0x3f1fe477	0.62457985
230	0xbdffa21f	-0.12482094
231	0xbe946ffa	-0.2899168
232	0xbe93bc86	-0.2885477
233	0x3db53d07	0.08849531
234	0x3e6ba60c	0.2301256
235	0xbd688ffe	-0.056777947
236	0xbd6dee81	-0.058088783
237	0x3e382cfb	0.17985909
238	0xbec152e5	-0.37758556
239	0xbd87554c	-0.06608066
240	0x3ef50c81	0.47861102
241	0xbee5c98c	-0.4488033
242	0xbe33e479	-0.17567624
243	0xbe02b9d6	-0.12766203
244	0x3eff164e	0.49821705
245	0x3d30a8ad	0.04312961
246	0x3bda1f58	0.0066565685
247	0xbe2b4b31	-0.16727902
248	0x3ee68dd5	0.45030084
249	0xbe9d87f9	-0.307678
250	0xbe86943a	-0.26284963
251	0xbf3e6cf9	-0.7438503
252	0xbeb0080c	-0.3438114
253	0x3e3c7d7d	0.18407245
254	0xbeafd18f	-0.34339568
255	0x3e7e2bb4	0.24821359

fc2.bias f4 [256]
0	0x3e5791cb	0.2105171
1	0x3f06c6d6	0.5264715
2	0x3bf995ae	0.00761672
3	0x3b4886b3	0.0030597865
4	0x3db8d52a	0.09025033
5	0x3e9210da	0.28528482
6	0x3ce8bb28	0.028409556
7	0x3ed376c4	0.41301548
8	0x3ea97203	0.33094797
9	0x3eb01473	0.34390602
10	0x3ce6a224	0.028153487
11	0xbd94a5f5	-0.07258216
12	0x3dd9e74c	0.106398195
13	0xbd17de6e	-0.03707736
14	0xbd6407ad	-0.055671383
15	0xbd96937d	-0.0735235
16	0xbeb34032	-0.35009915
17	0x3e0404ae	0.1289241
18	0x3df61062	0.120148435
19	0x3dcb2c5b	0.099205695
20	0xbd9951c4	-0.07486299
21	0xbecdde77	-0.4020879
22	0xbd8a198d	-0.06743155
23	0x3cb50393	0.02209643
24	0x3df5c801	0.12001038
25	0xbca3aa2e	-0.019978609
26	0xbdb48e8a	-0.0881625
27	0xbd9fc68b	-0.07801541
28	0xbd6a7a04	-0.05724527
29	0x3ed34ef7	0.41271183
30	0xbdcf1ffa	-0.10113521
31	0xbd11f44f	-0.03563338
32	0x3d40ab4a	0.047038354
33	0x3e0637fc	0.13107294
34	0x3e50248f	0.20326446
35	0xbd3c4221	-0.045961503
36	0xbdc0d542	-0.09415676
37	0xbd633e22	-0.055479176
38	0x3f0e5b70	0.5560827
39	0x3e4ffac0	0.20310497
40	0x3e9d3728	0.30706143
41	0x3ed5485a	0.41656762
42	0x3efa8d8b	0.48936114
43	0x3dd22920	0.1026175
44	0x3efae051	0.48999265
45	0xbdeb8adc	-0.11501095
46	0x3d4c430a	0.04986862
47	0x3f24e563	0.64412516
48	0xbde0e7d0	-0.10981715
49	0x3ec9a95b	0.3938702
50	0xbd445b16	-0.04793843
51	0xbe0c52fe	-0.13703534
52	0x3d09ef2a	0.03367535
53	0x3e44847d	0.19191165
54	0x3d82edb0	0.063929915
55	0x3e842a85	0.2581369
56	0x3d3fff82	0.04687453
57	0xbfbc2816	-1.4699733
58	0xbcb316bc	-0.021861427
59	0x3d2e27a3	0.04251827
60	0xbe10a7f9	-0.14126576
61	0xbc8900fd	-0.016724104
62	0x3c9b1695	0.018931666
63	0x3d236e5a	0.03990016
64	0xbdaa04d8	-0.08301705
65	0xbc3479c3	-0.011015358
66	0xbd9afd87	-0.07567888
67	0x3f15e48f	0.5855188
68	0x3ee3d332	0.44497067
69	0xbe915c79	-0.28390864
70	0xbe45659a	-0.19277039
71	0x3c88468b	0.0166352
72	0x3f1bf795	0.60924655
73	0x3c0089cc	0.007845353
74	0x3ef1a235	0.47194067
75	0x3e7d5a62	0.2474151
76	0x3ea0c5a7	0.31400797
77	0x3e87e90c	0.26544988
78	0xbd593252	-0.053026505
79	0x3e91e162	0.28492266
80	0x3b9c8812	0.004776963
81	0xbdb3880e	-0.08766185
82	0xbd89e6d5	-0.06733481
83	0x3ee5e3a9	0.44900253
84	0xbcc50e0d	-0.024054551
85	0xbd423019	-0.04740915
86	0xbd785807	-0.060630824
87	0xbea9775f	-0.33098885
88	0x3be9b849	0.007132564
89	0xbc0c028d	-0.00854553
90	0xbde6dd14	-0.11272636
91	0xbc811da5	-0.015761206
92	0xbdc55ca5	-0.09636811
93	0xbdf02668	-0.117260754
94	0xbde60dcd	-0.11233101
95	0x3c33655c	0.010949459
96	0x3ebd0207	0.3691561
97	0xbd4040d9	-0.046936844
98	0xbd9865e2	-0.074413076
99	0x3e5bf2a0	0.21479273
100	0x3e87c8fa	0.2652052
101	0x3e308cc4	0.17241198
102	0xbf30e88c	-0.6910484
103	0x3eaf0b1e	0.3418817
104	0x3e849a83	0.25899133
105	0xbf85cab9	-1.0452491
106	0x3da3662f	0.07978474
107	0xbef45ada	-0.47725564
108	0xbfb9104c	-1.4458098
109	0x3caf32bb	0.021386495
110	0x3eb0b1fd	0.34510794
111	0x3de7b65a	0.11314078
112	0xbdb4044f	-0.08789884
113	0xba840f26	-0.0010075315
114	0xbdc4ed4e	-0.09615575
115	0x3d28fe85	0.041258354
116	0xbd917641	-0.07102633
117	0x3da71ba6	0.081595704
118	0xbbce0db9	-0.006288257
119	0xbf1d1eb8	-0.61375
120	0x3c900c94	0.017584123
121	0x3eff4e15	0.4986426
122	0xbdb564d1	-0.0885712
123	0xbb317c42	-0.002708212
124	0xbd7831de	-0.060594432
125	0xbee03881	-0.4379311
126	0xbd517107	-0.051133182
127	0xbdb3902f	-0.08767735
128	0x3d1dfc09	0.038570438
129	0x3e63549c	0.22200245
130	0x3f21a2fa	0.6313931
131	0xbdeaa400	-0.11457062
132	0x3d8c40f3	0.068483256
133	0xbee922e9	-0.45534447
134	0x3bad5f11	0.005290874
135	0xbd5973db	-0.053089004
136	0xbd430c19	-0.04761896
137	0x3d4bdcf2	0.049771257
138	0x3efecd2e	0.49765915
139	0x3cabcb9a	0.020971108
140	0x3cc5684b	0.024097582
141	0x3b1e295a	0.0024133534
142	0xbe0cd692	-0.13753727
143	0xbeacaf54	-0.33727515
144	0xbcc2c1af	-0.023773996
145	0x3d4cbb11	0.049983088
146	0x3df02ca6	0.11727266
147	0x3f258664	0.6465819
148	0xb9f82a1b	-0.00047333617
149	0xbdbd7961	-0.09251667
150	0xbe0adf33	-0.13561706
151	0xbe1a6615	-0.15078004
152	0xbde6fb0e	-0.11278354
153	0xbdadfc89	-0.08495433
154	0xbd3deabd	-0.046366442
155	0x3e9af3d7	0.3026416
156	0xbfeba0a5	-1.84084
157	0x3dfb87d7	0.12281769
158	0x3ec96d95	0.39341417
159	0xbfc305b0	-1.5236111
160	0xbdb3dde6	-0.08782558
161	0xbecb0764	-0.39654076
162	0xbd883594	-0.06650844
163	0x3cd5059b	0.02600365
164	0xbdce0b28	-0.10060722
165	0xbd3a0807	-0.04541781
166	0xbed742e7	-0.4204323
167	0xbef74e66	-0.48302
168	0x3e311067	0.17291413
169	0xbd359516	-0.044331633
170	0x3ef43b7f	0.47701642
171	0xbdca688f	-0.09883224
172	0xbd0597ef	-0.0326156
173	0x3f1c73af	0.6111402
174	0xbba3aded	-0.004995099
175	0xbdc2fd20	-0.09520936
176	0x3dec4206	0.115360305
177	0xbb944853	-0.0045252233
178	0x3e3ab824	0.18234307
179	0xbd9571ca	-0.07297094
180	0xb9c49807	-0.00037497302
181	0x3e2a2e08	0.16619122
182	0x3eeab264	0.45839226
183	0x3df1b498	0.11802024
184	0x3ee78276	0.4521672
185	0xbfb4e461	-1.4132196
186	0xbcc68755	-0.024234453
187	0xbf631956	-0.88710535
188	0xbd321055	-0.043472607
189	0x3f12843a	0.5723301
190	0x3f26c0e6	0.6513809
191	0x3cbc6082	0.022995237
192	0xbcfd92ab	-0.030953726
193	0x3ceff438	0.029291257
194	0xbdb1b416	-0.08676927
195	0xbda83ccd	-0.08214722
196	0xbdc2c145	-0.095095195
197	0xbe909714	-0.28240263
198	0xbd9c7f95	-0.07641522
199	0x3eaa7fb6	0.3330056
200	0xbe237661	-0.15963127
201	0x3ef6f77b	0.48235688
202	0xbf5bb408	-0.8582158
203	0xbca29a45	-0.019848952
204	0x3e98979f	0.29803178
205	0x3e24fce3	0.16112094
206	0xbdd27e8e	-0.10278045
207	0x3f1ae7f6	0.60510194
208	0x3eaac6ff	0.33354947
209	0xbdcdcbab	-0.10048612
210	0xbc934feb	-0.017982444
211	0xbd4bb9b2	-0.04973764
212	0x3c1abbc8	0.009444185
213	0x3d663afd	0.0562086
214	0xbd684ee9	-0.05671588
215	0x3d460dd1	0.04835302
216	0xbfde4621	-1.7365152
217	0x3d7d4edb	0.06184278
218	0x3d100e1a	0.0351697
219	0x3eb7b2cc	0.358786
220	0x3ddab43d	0.10678909
221	0x3dac1fa9	0.08404476
222	0x3f04f530	0.51936626
223	0xbef495ad	-0.47770444
224	0x3d12bce0	0.035824656
225	0xbe2d71fd	-0.16938014
226	0x3eb1f435	0.34756628
227	0x3d07a239	0.033113692
228	0x3e72e90b	0.23721711
229	0x3d261fdb	0.040557723
230	0xbce6744a	-0.028131623
231	0x3e382e8a	0.17986503
232	0xbdbbdeba	-0.09173341
233	0x3d9cca16	0.07655732
234	0xbd9d62b1	-0.076848395
235	0x3d7416e9	0.05959216
236	0x3e9ace9a	0.3023575
237	0xbdcc1ae1	-0.09966064
238	0xbe29459e	-0.16530463
239	0x3d66133a	0.05617068
240	0xbefbb424	-0.49160874
241	0x3eb8554f	0.36002585
242	0x3ea417d9	0.32049444
243	0xbedb1d87	-0.42795965
244	0x3de33b39	0.1109528
245	0xbdec6254	-0.11542192
246	0x3d9364a4	0.0719693
247	0x3e07f813	0.13278227
248	0xbe6465c0	-0.2230444
249	0x3e347b64	0.17625195
250	0xbe175207	-0.14777385
251	0xbd680900	-0.056649208
252	0xbd3d5c02	-0.046230324
253	0x3e848a05	0.2588655
254	0x3d05e10a	0.032685317
255	0x3eac643c	0.33670223

fc3.weight f4 [256, 256]
0	0x3ef3d756	0.47625226
1	0xbc4bec81	-0.012446524
2	0xbd3e8971	-0.046517793
3	0xbb952f64	-0.0045527685
4	0xbe352531	-0.17689969
5	0xbe4ec71b	-0.2019314
6	0x3cb7ab53	0.022420561
7	0x3a586722	0.0008255114
8	0x3e7f5370	0.24934173
9	0xbe81efca	-0.25378257
10	0xbd15f2d0	-0.036608517
11	0x3d591bef	0.053005155
12	0xbd8ce1b7	-0.06878989
13	0x3c0f2b8f	0.0087384125
14	0xbd85f9df	-0.065418
15	0xbc38aebc	-0.011272129
16	0xbe524460	-0.20533895
17	0x3e6867f0	0.22695899
18	0x3cd3dcd9	0.025862144
19	0x3ea1fe0d	0.31639138
20	0x3ceb9ba3	0.028760737
21	0xbe7f96a6	-0.24959812
22	0xbc8fc6eb	-0.017550906
23	0xbd16ad1d	-0.036786187
24	0xbd15d0a8	-0.036575943
25	0x3b07f7ad	0.0020746992
26	0xbcfa6b2a	-0.030568678
27	0x3c9caab7	0.019124372
28	0xbe231e3e	-0.15929505
29	0x3ca4e889	0.020130413
30	0x3d3023c6	0.043002866
31	0x3b38ee22	0.002821811
32	0x3e3c38fb	0.18381111
33	0xbe0909f9	-0.1338271
34	0x3e717e78	0.235834
35	0x3d452f4f	0.04814082
36	0x3ca6736d	0.020318711
37	0x3df4d6c9	0.119550295
38	0x3e538d06	0.20659265
39	0xbdb56ac8	-0.088582575
40	0x3ea38162	0.3193465
41	0xbd8c5eac	-0.06853995
42	0xbdb0e2fb	-0.08637043
43	0x3de9c0bc	0.11413714
44	0xbefbe9b2	-0.49201733
45	0xbd95b497	-0.073098354
46	0xbb206884	-0.0024476359
47	0x3dbfb600	0.093608856
48	0xbd685cdc	-0.056729183
49	0x3d72419a	0.059144594
50	0xbcc28a37	-0.023747547
51	0x3ac0ce7c	0.0014709975
52	0xbdc1432b	-0.094366394
53	0xbdbf23f8	-0.09333032
54	0x3e6ad720	0.22933626
55	0x3cd03978	0.025418028
56	0x3d70f62c	0.058828518
57	0xbf23d959	-0.6400352
58	0xbdc81a47	-0.09770637
59	0xbeb59d66	-0.35471648
60	0x3d3735c9	0.044729028
61	0x3ddb4d05	0.1070805
62	0x3d0734c1	0.033009294
63	0xbed7bdbd	-0.42136946
64	0xbd5de7e9	-0.054176245
65	0x3dc427c8	0.095779
66	0x3d41b975	0.047296006
67	0xbfaab2e7	-1.3335847
68	0xbcc6ea72	-0.024281714
69	0x3dd4db6c	0.10393414
70	0xbe65bb46	-0.2243472
71	0x3c9d99da	0.019238401
72	0xbf59c95d	-0.8507288
73	0xbc9a40d3	-0.018829739
74	0xbf68980f	-0.90857023
75	0xbe82808f	-0.25488707
76	0x3e192f5b	0.14959471
77	0x3e1dd8f0	0.15414786
78	0x3c826cfd	0.01592111
79	0x3df6b07d	0.12045381
80	0xbbe7728c	-0.0070632156
81	0xbbd88872	-0.0066080624
82	0x3d4a2148	0.049348146
83	0x3e404199	0.18775024
84	0xba9b6d28	-0.0011858093
85	0xbeac46c8	-0.33647752
86	0x3e183252	0.14862946
87	0xbe11cbef	-0.1423795
88	0xbd679c74	-0.05654569
89	0x3c9bd30a	0.01902153
90	0xbcf1bb42	-0.029508237
91	0x3ce36c90	0.027761728
92	0x3e0ac201	0.13550569
93	0xbd8203fe	-0.06348418
94	0xbd259556	-0.04042562
95	0xbd7beaea	-0.06150333
96	0xbd86ef1e	-0.06588577
97	0xbe29f8af	-0.16598772
98	0xba96cd9c	-0.0011505368
99	0x3dbd36fb	0.09239002
100	0xbd4b474b	-0.049628537
101	0x3e623208	0.22089398
102	0xbd49f016	-0.04930123
103	0xbb3b7652	-0.002860446
104	0x3f05219e	0.5200442
105	0xbdf11f3e	-0.11773537
106	0x3ebb95e9	0.3663781
107	0xbf2ceb14	-0.675462
108	0xbde37a14	-0.11107269
109	0xbda72328	-0.081610024
110	0xbdabf3ff	-0.08396148
111	0xbe4b7b7a	-0.19871321
112	0xbc675c88	-0.014121182
113	0x3d3b2d15	0.04569729
114	0xbcf303d9	-0.02966492
115	0xbd05c174	-0.032655194
116	0xbd89ddb4	-0.0673174
117	0xbe680bf5	-0.22660811
118	0xbd5b2fcb	-0.053512376
119	0xbefd1c75	-0.49435773
120	0x3d5a0626	0.05322852
121	0xbfb1028e	-1.3828905
122	0x3e416ebb	0.18889897
123	0x3d31b5c0	0.04338622
124	0x3e6196c7	0.22030173
125	0xbe288529	-0.16457047
126	0xbd073a2d	-0.033014465
127	0xba359c64	-0.0006927906
128	0xbee76449	-0.451937
129	0xbf098372	-0.53716195
130	0xbcad6694	-0.021167077
131	0x3d65d7ae	0.05611389
132	0xbe23076c	-0.159208
133	0xbe2ea7b8	-0.17056167
134	0x3caed18b	0.021340152
135	0xbcb1ca6e	-0.021702971
136	0xbc17dfeb	-0.009269695
137	0x3ce3be58	0.027800724
138	0xbcd513f6	-0.026010495
139	0xbd69609c	-0.0569769
140	0xbd702225	-0.058626313
141	0x3d9ae85d	0.07563851
142	0xbeabc943	-0.33551988
143	0xbe314748	-0.17312348
144	0xbeadc9ce	-0.33943027
145	0xbeee1915	-0.4650351
146	0xbdc0c9c9	-0.094134875
147	0xbd24d404	-0.040241256
148	0xbd0b743c	-0.034046397
149	0x3a8df734	0.0010831119
150	0xbda674f9	-0.081277795
151	0xbd173e65	-0.03692474
152	0x3bc828d7	0.006108384
153	0x3c6cf7e6	0.0144634005
154	0x3d3321a6	0.04373326
155	0xbe4eaa84	-0.20182234
156	0xbe42080f	-0.18948387
157	0xbe188b9c	-0.14897007
158	0xbdc82902	-0.097734466
159	0xbd78938a	-0.06068758
160	0x3d1bb2e8	0.038012415
161	0xbe6bf950	-0.23044324
162	0x3d136181	0.03598166
163	0x3c16cff4	0.009204853
164	0xbd1dfa7a	-0.03856895
165	0xbec280fd	-0.37989035
166	0x3d40ab1c	0.047038183
167	0x3e695bfc	0.22788996
168	0xbe825216	-0.25453252
169	0x3c8054d8	0.015665457
170	0xbd0690f3	-0.032853078
171	0xbb16b48f	-0.0022995805
172	0x3d859adf	0.0652368
173	0xbed18107	-0.40918753
174	0xbd0bd644	-0.034139886
175	0x3d1feec3	0.03904606
176	0xbec6de69	-0.3884156
177	0xbd4a9c93	-0.049465727
178	0xbebec87d	-0.37262335
179	0xbd804d73	-0.06264772
180	0x3d8c00e6	0.06836109
181	0x3ea88cff	0.3292007
182	0x3dc2af96	0.095061466
183	0xbe81d20d	-0.2535557
184	0xbd9e0efc	-0.07717702
185	0xbf2f3321	-0.6843739
186	0xbb245305	-0.0025073898
187	0xbd38f76f	-0.045157846
188	0x3c7bbda2	0.015365036
189	0x3df2d44e	0.118569
190	0x3e9695ea	0.2941125
191	0x3d45713a	0.048203684
192	0x3d3489de	0.044076793
193	0x3c941ff6	0.018081646
194	0xbd74bc2f	-0.05974978
195	0xbd326f21	-0.043563012
196	0x3c4ca42e	0.012490315
197	0xbe4d53f6	-0.2005156
198	0xbe124e58	-0.14287698
199	0x3e3d0313	0.18458204
200	0x3b9714b7	0.0046106237
201	0xbe2b0410	-0.16700768
202	0xbe2ed6f8	-0.17074192
203	0x3c81cf7f	0.015846012
204	0x3e716b5d	0.23576112
205	0xbea1f0a1	-0.31628898
206	0xbc8fe98d	-0.01756742
207	0x3ddd1340	0.10794687
208	0xbf520127	-0.8203301
209	0xbbf06ed8	-0.0073374324
210	0x3d151391	0.036395613
211	0x3d51b73e	0.051200144
212	0x3d80bc18	0.06285876
213	0xbe592c44	-0.21208292
214	0xbcef0117	-0.029175324
215	0x3ce782e1	0.02826065
216	0xbeef4952	-0.46735626
217	0xbd15bd96	-0.036557756
218	0x3db88757	0.09010189
219	0x3e193e01	0.14965059
220	0xbe03f2ad	-0.12885542
221	0xbd89c350	-0.06726706
222	0x3edae9ca	0.42756492
223	0xbeb4dee5	-0.35326305
224	0xbc90ee0b	-0.017691633
225	0xbd9453b7	-0.0724253
226	0x3d4ec322	0.050479062
227	0x3b7329b9	0.0037103726
228	0x3e00efa5	0.12591417
229	0x3c210153	0.009826976
230	0xbec2e75d	-0.3806714
231	0x3e94ddb4	0.29075396
232	0x3d9659fe	0.073413834
233	0x3dded657	0.10880726
234	0x3c3d3796	0.011548897
235	0xbdee1946	-0.11625914
236	0x3d83df19	0.06439037
237	0x3eebe1ae	0.46070617
238	0x3e823918	0.25434184
239	0x3e98603e	0.29760927
240	0xbe075cb0	-0.13218951
241	0xbe9182dc	-0.2842015
242	0xbf00aab0	-0.5026045
243	0xbe952899	-0.29132536
244	0xbbb114ae	-0.0054040765
245	0x3d138056	0.036011063
246	0xbec813cd	-0.39077607
247	0xbd687190	-0.056748927
248	0x3e06bad9	0.13157214
249	0xbd9e2d53	-0.07723489
250	0xbd25cbbe	-0.040477507
251	0x3c211416	0.009831449
252	0x3d2bdc0f	0.04195791
253	0xbd248226	-0.04016318
254	0xbedc2f94	-0.4300505
255	0xbd4b78e1	-0.049675826

fc3.bias f4 [256]
0	0x3e8fd027	0.28088495
1	0xbe072dd9	-0.13201083
2	0xbd4bf327	-0.049792435
3	0xbbf15730	-0.00736513
4	0xbe4f620e	-0.20252249
5	0x3e08b0e3	0.13348727
6	0xbc76e250	-0.015068606
7	0xbe1ae86e	-0.15127727
8	0x3d4780ad	0.0487067
9	0x3db5d4ba	0.08878465
10	0xbea035e5	-0.31291118
11	0xbe1f0ba7	-0.15531789
12	0xbdb74a29	-0.08949692
13	0xbe838c31	-0.25692895
14	0xbe918b96	-0.28426808
15	0x3f76d26f	0.96414846
16	0xbc491c66	-0.012274837
17	0x3e0a4f6e	0.13506863
18	0xbdff0f6f	-0.124541156
19	0x3e86d8b0	0.26337194
20	0xbe674b18	-0.2258724
21	0xbdafc96c	-0.0858334
22	0x3d1d136d	0.038348604
23	0xbb88a825	-0.004170435
24	0xbe8687b2	-0.26275402
25	0xbd6a216d	-0.057160784
26	0xbe1cbe0b	-0.1530687
27	0x3d3dc545	0.04633071
28	0xbdc07157	-0.09396618
29	0x3ecd4955	0.4009501
30	0x3d3281fe	0.043581
31	0xbdd4ca09	-0.10390098
32	0xbe35d8b8	-0.17758453
33	0xbc4732c4	-0.0121581
34	0x3be3d7f9	0.006953236
35	0xbd9f098d	-0.077654935
36	0xbd7be831	-0.06150073
37	0xbe3e0056	-0.18554816
38	0xbf01e5b2	-0.5074111
39	0xbe013586	-0.12618074
40	0x3ebe720c	0.37196386
41	0x3e2086f5	0.15676482
42	0xbe901949	-0.2814429
43	0xbe062cf1	-0.13103081
44	0xbe1e7244	-0.15473276
45	0xbec58a31	-0.38581994
46	0xbd943045	-0.07235769
47	0xbe2cf585	-0.16890533
48	0xbb91d0ee	-0.004449955
49	0xbe051d56	-0.12999472
50	0xbe3c4291	-0.18384768
51	0xbe473dab	-0.19457118
52	0x3e45dbf4	0.19322187
53	0xbe5ada52	-0.21372345
54	0xbe06900c	-0.13140887
55	0xbd19ba84	-0.03753139
56	0xbde46593	-0.11152186
57	0xbdeb75db	-0.114970885
58	0xbe12b73d	-0.14327712
59	0xbe15e751	-0.14639021
60	0x3da8baa2	0.082387224
61	0xbe84432f	-0.25832507
62	0x3e149564	0.14510113
63	0xbdf31e19	-0.11870975
64	0x3cb4743c	0.022028081
65	0x3f0d249c	0.55133986
66	0x3e951617	0.29118416
67	0xbd8af9c4	-0.0678592
68	0xbea8b8d6	-0.3295352
69	0xbe0d52a9	-0.13801064
70	0x3e57b4d4	0.21065074
71	0x3d91e49e	0.071236834
72	0x3f0208f3	0.50794905
73	0xbe20c959	-0.15701808
74	0xbe2a28fe	-0.166172
75	0xbe3f9971	-0.18710877
76	0x3ee4fec6	0.44725627
77	0x3d865fe3	0.06561258
78	0xbe45408b	-0.19262902
79	0xbdac423a	-0.08411069
80	0xbd7ae5bc	-0.061254248
81	0x3e10cefd	0.1414146
82	0xbdaa92ac	-0.08328757
83	0xbd953e86	-0.07287316
84	0xbcec4696	-0.028842252
85	0xbdfbd1be	-0.122958645
86	0xbe2255fa	-0.1585311
87	0x3f303cf1	0.6884299
88	0x3d88569a	0.06657143
89	0xbdf302f3	-0.11865797
90	0xbf10ba18	-0.56533957
91	0xbe355c90	-0.17711091
92	0x3e620a66	0.22074279
93	0xbe474f0c	-0.19463748
94	0x3d958bcd	0.073020555
95	0x3d716399	0.058932874
96	0x3f33c629	0.70224243
97	0x3e08c562	0.13356546
98	0xbded65fe	-0.11591719
99	0x3ebb1c3c	0.3654498
100	0x3ea3f55b	0.3202313
101	0x3e318ee2	0.17339662
102	0xbd7e4019	-0.062072847
103	0x3ea2e1a0	0.31812763
104	0xbe2818e4	-0.16415745
105	0x3e069568	0.13142931
106	0xbdd9ac27	-0.106285386
107	0xbec4686a	-0.38360912
108	0xbe576417	-0.21034275
109	0xbe36778a	-0.17819038
110	0xbda9f977	-0.08299535
111	0xbe6469f8	-0.22306049
112	0xbe3ac5ab	-0.18239467
113	0x3dc8063b	0.09766813
114	0xbdf2b684	-0.11851218
115	0xbd7d1f38	-0.06179735
116	0x3e0e41e0	0.13892317
117	0x3de8d528	0.11368781
118	0xbdd4362e	-0.103618965
119	0xbccdfc5a	-0.025144745
120	0x3da88cee	0.08230005
121	0xbe13a800	-0.14419556
122	0xbdf1ecf3	-0.118127726
123	0x3e0d95ae	0.1382663
124	0x3df16111	0.11786092
125	0xbe59459a	-0.21217957
126	0xbdd220ac	-0.10260138
127	0xbce34001	-0.02774048
128	0xbd50d2b4	-0.050982192
129	0x3d7c610b	0.061615985
130	0xbe6dbc4b	-0.2321636
131	0x3d480b95	0.04883917
132	0xbe1140f2	-0.14184931
133	0x3f02fa05	0.5116275
134	0x3eb9aac0	0.36263084
135	0xbde4bfc0	-0.11169386
136	0x3f00187e	0.5003737
137	0xbe71d7ab	-0.23617427
138	0xbe77a341	-0.2418337
139	0x3e16dbed	0.14732333
140	0xbe1b2cf9	-0.15153874
141	0x3cdcd444	0.026956685
142	0x3d9c6f4c	0.07638416
143	0xbde4ed5c	-0.11178085
144	0xbe0e06b6	-0.13869748
145	0xbe59fd7d	-0.21288104
146	0xbdfea836	-0.124344274
147	0xbdc52add	-0.09627316
148	0xbd7d017b	-0.06176899
149	0x3ed7876a	0.420955
150	0xbe267732	-0.16256407
151	0xbce12b60	-0.027486503
152	0xbde5c0a2	-0.112183824
153	0xbdec5784	-0.1154013
154	0xbd98a885	-0.074540175
155	0x3e4bfeaf	0.19921373
156	0x3e420af8	0.18949497
157	0xbcfbc59b	-0.030733874
158	0xbd3ea232	-0.0465414
159	0x3c19b7c3	0.009382191
160	0xbd9b57dc	-0.07585117
161	0xbe901e95	-0.28148332
162	0x3a7ce4a6	0.00096471084
163	0xbe4bada3	-0.19890456
164	0xbe347cb1	-0.17625691
165	0x3e350fad	0.17681761
166	0xbe016557	-0.12636314
167	0xbdfaa2e9	-0.12238104
168	0xbe84273b	-0.2581118
169	0xbd738606	-0.059453987
170	0xbdf2cf14	-0.11855903
171	0x3e9be335	0.30446783
172	0xbe1add32	-0.15123442
173	0xbcd5dae8	-0.02610536
174	0xbdaccb26	-0.08437185
175	0xbec8fd76	-0.39255875
176	0xbd791b40	-0.060817003
177	0x3f070dda	0.5275551
178	0xbdd5c4bb	-0.10437914
179	0x3da05061	0.07827831
180	0x3d2fa6b3	0.042883586
181	0xbe000ba0	-0.12504435
182	0xbe86b5b2	-0.26310498
183	0xbd1a5234	-0.03767605
184	0xbcb2a834	-0.021808721
185	0xbe995f8c	-0.2995571
186	0x3d9a7dd4	0.07543531
187	0xbc4ad1bd	-0.012379107
188	0x3e3150f6	0.1731604
189	0xbe6260a6	-0.22107181
190	0xbe10029a	-0.14063492
191	0xbdfd1877	-0.12358182
192	0xbe1e7f75	-0.15478308
193	0xbe17e321	-0.14832737
194	0xbe488475	-0.19581778
195	0x3d09896e	0.03357833
196	0xbdf1abe5	-0.118003644
197	0x3d51598c	0.05111079
198	0x3e4993f9	0.19685353
199	0xbe7ef889	-0.24899496
200	0x3e3e6d59	0.185964
201	0xbe147f90	-0.14501786
202	0xbda7e773	-0.08198442
203	0xbe88ad6d	-0.26694813
204	0xbe1f52af	-0.15558885
205	0x3b575b04	0.0032860646
206	0xbe8cfdf2	-0.27537495
207	0x39a53e84	0.0003151783
208	0xbe91b329	-0.28457
209	0x3ee97438	0.4559648
210	0xbd836cd9	-0.064172454
211	0xbec31352	-0.38100678
212	0xbe92225c	-0.2854184
213	0xbdbf3d68	-0.09337884
214	0xbe1dcce0	-0.15410185
215	0xbe037261	-0.12836601
216	0xbe2d7697	-0.1693977
217	0xbc8fed1d	-0.01756912
218	0xbda1f87a	-0.07908721
219	0xbdba35f6	-0.090923235
220	0x3e6db8f9	0.23215093
221	0x3ce7f47a	0.028314818
222	0xbdf115eb	-0.11771759
223	0x3dc92212	0.098209515
224	0xbe1b20c0	-0.15149212
225	0xbe3b6913	-0.18301801
226	0xbe0fa5b3	-0.14028053
227	0xbef1d89c	-0.47235572
228	0x3de96537	0.11396258
229	0x3e0ef853	0.13961916
230	0xbdc1f1d4	-0.09469953
231	0xbe77d928	-0.24203932
232	0x3c83e3ca	0.01609983
233	0x3e4283e7	0.18995629
234	0x3cbc9791	0.023021491
235	0x3da2cd93	0.079493664
236	0xbe734dd4	-0.23760158
237	0xbe0f007b	-0.13965027
238	0xbd8eff38	-0.06982273
239	0x3cfc14de	0.030771669
240	0xbed66ba7	-0.41879007
241	0x3c869cd2	0.0164322
242	0xbe22e6ea	-0.15908399
243	0xbdbe4d2e	-0.092920646
244	0xbe6ccc8b	-0.23124902
245	0xbcb71da1	-0.022352995
246	0xbe419393	-0.18903951
247	0xbd7ef404	-0.06224443
248	0x3e2f2d4c	0.17107123
249	0x3d8274fb	0.063699685
250	0xbebac185	-0.3647577
251	0x3e1af13e	0.15131089
252	0xbe948f96	-0.29015797
253	0xbdaba792	-0.08381571
254	0xbdde6a20	-0.108600855
255	0xbd80c4a5	-0.06287507

action_out.weight f4 [4, 256]
0	0x3d56216f	0.05227798
1	0x3d5ddaa4	0.05416359
2	0xbebc4bd9	-0.36776617
3	0x3d8fb9f9	0.07017893
4	0xbebfd992	-0.3747068
5	0xbcecf798	-0.028926656
6	0xbdad964e	-0.08475934
7	0xbbf8f908	-0.007598046
8	0xbd74d496	-0.05977305
9	0x3cf890db	0.03034251
10	0x3ec7eb2c	0.3904661
11	0x3dd418d7	0.103563
12	0x3c6b0eda	0.014346803
13	0x3f8d0966	1.1018493
14	0xbe6ab9f3	-0.22922496
15	0xbc72b1c3	-0.0148128895
16	0x3db396ee	0.08769022
17	0x3c98f216	0.018670123
18	0x3c7cf09b	0.015438224
19	0x3cf21fe2	0.029556219
20	0x3be39ce3	0.0069461926
21	0x3e2a0dca	0.16606823
22	0x3dcbe77b	0.09956261
23	0xbd94b6e9	-0.0726145
24	0x3cd09e2f	0.025466053
25	0xbd009a2a	-0.031397022
26	0xbd1e1ddb	-0.03860269
27	0x3e236a02	0.15958408
28	0x3e93a868	0.2883942
29	0x3dc79843	0.097458385
30	0xbaba777a	-0.0014226281
31	0xbd3b39fc	-0.045709595
32	0xbc36897b	-0.011141176
33	0xbd9fdfbc	-0.07806346
34	0xbd824fd0	-0.06362879
35	0xbe021733	-0.12704162
36	0xbefcaefb	-0.4935225
37	0xbd1f673f	-0.038916823
38	0x3d25748a	0.040394343
39	0x3d9b46ce	0.07581864
40	0xbc914aa5	-0.017735789
41	0xbdbba582	-0.091624275
42	0x3d4607ab	0.048347156
43	0x3d42fa04	0.047601715
44	0xbf24d408	-0.64386034
45	0xbd6caa0f	-0.057779368
46	0x3d13c752	0.03607876
47	0x3e3cc15d	0.18433137
48	0x3e2260ab	0.15857188
49	0x3d287315	0.041125376
50	0x3f0b46a4	0.54404664
51	0x3d38fb23	0.045161378
52	0xbdfbeb2c	-0.12300715
53	0x3d7cef93	0.061751913
54	0xbe9a3365	-0.30117336
55	0x3d45807d	0.04821824
56	0x3d0ea614	0.034826353
57	0xbd63131b	-0.055438142
58	0xbcf255bb	-0.029581895
59	0xbccac5d9	-0.024752544
60	0x3dd0dece	0.101987466
61	0x3dae8e5c	0.08523247
62	0x3d07aaa2	0.033121713
63	0x3d38e02a	0.045135655
64	0xbeb185ed	-0.3467249
65	0xbca16736	-0.019702535
66	0xbd1e3acf	-0.038630303
67	0xbf181bf4	-0.59417653
68	0xbd3a4ab7	-0.04548141
69	0x3db0e61f	0.08637642
70	0xbcb1031a	-0.021607924
71	0x3f4e14a3	0.8050024
72	0x3d2357e1	0.03987873
73	0xbe056040	-0.13024998
74	0x3d4ce013	0.05001838
75	0xbd23382d	-0.039848495
76	0x3c36025b	0.01110896
77	0xbdad64e9	-0.08466513
78	0x3d11c7db	0.035590988
79	0xbc941dbd	-0.018080587
80	0xbd257afb	-0.040400486
81	0xbcf6d07e	-0.030128714
82	0xbb5ae05a	-0.0033397884
83	0xbe2d4934	-0.16922456
84	0xbbcce87f	-0.0062533016
85	0x3d1cd3c0	0.038287878
86	0xbb87cdb9	-0.004144397
87	0x3d966378	0.07343191
88	0x3df64d87	0.12026506
89	0xbc6df9a7	-0.014524854
90	0xbf76ff09	-0.964829
91	0x3e8668ec	0.26251924
92	0x3d85e687	0.0653811
93	0xbc30ae9c	-0.010783818
94	0x3d16a5cb	0.036779206
95	0xbdeaac16	-0.11458604
96	0x3d07dda8	0.033170372
97	0xbcb6b08d	-0.022300983
98	0xbe3a11d7	-0.18170868
99	0xbd102759	-0.035193775
100	0x3d7b40ca	0.061341085
101	0xbc1da4e8	-0.009621836
102	0x3e6d05ce	0.23146746
103	0x3cdb4fe0	0.026771486
104	0xbd02eaf3	-0.031962346
105	0xbc2b1a9c	-0.010443356
106	0xbe98b3fb	-0.29824814
107	0xbdfc9142	-0.12332393
108	0x3e8af6b0	0.27141333
109	0xbdbf892e	-0.09352337
110	0x3deec7e9	0.116592236
111	0xbd8228f5	-0.06355468
112	0xbdcfbb65	-0.101431645
113	0xbd4c209e	-0.049835794
114	0xbc17a2df	-0.00925514
115	0x3d56bf7f	0.05242872
116	0xbd0513a7	-0.032489445
117	0x3d271258	0.04078898
118	0xbd62f21c	-0.055406675
119	0xbf3b7b3c	-0.73234916
120	0x3d87baa0	0.06627393
121	0xbf35da51	-0.7103625
122	0xbd3b34a6	-0.045704506
123	0xbd325f24	-0.043547764
124	0xbe4eef0c	-0.20208377
125	0xbd3d72be	-0.046252005
126	0xbea14113	-0.3149496
127	0x3d92e8f3	0.07173338
128	0x3d865f11	0.06561101
129	0x3ce9a6c5	0.028521905
130	0xbd6b7534	-0.05748482
131	0x3d28a2c7	0.04117086
132	0xbddd21ac	-0.10797438
133	0x3d80cd3d	0.06289146
134	0xbd1e7610	-0.038686812
135	0xbdde6b4f	-0.10860311
136	0xbd604486	-0.05475285
137	0xbd5cfa59	-0.053949688
138	0xbed01b91	-0.40646031
139	0xbc197c48	-0.00936801
140	0xbd0f227e	-0.034945004
141	0xbdef6ad7	-0.116903
142	0x3da106bd	0.07862613
143	0x3df95694	0.121747166
144	0x3e1480be	0.14502236
145	0x3f8c77ac	1.0974021
146	0x3d636d8a	0.055524386
147	0xbe193730	-0.14962459
148	0xbdbc6238	-0.09198421
149	0xbb1b744f	-0.0023720448
150	0xbf1a944b	-0.6038253
151	0x39e79931	0.0004417389
152	0xbdc353c5	-0.09537462
153	0xbd194bf3	-0.037425946
154	0x3d959714	0.073042065
155	0xbc74af8b	-0.014934431
156	0x3d1ad927	0.03780475
157	0x3d78106e	0.060562544
158	0xbed7001b	-0.41992268
159	0xbc8c0ef6	-0.017096978
160	0x3e5523c8	0.2081443
161	0xbd6160eb	-0.05502407
162	0xbe533d3e	-0.20628831
163	0x3d95db87	0.07317262
164	0x3dc8ee96	0.09811132
165	0x3d3c779f	0.046012517
166	0xbe8fce50	-0.2808709
167	0xbd864333	-0.06555786
168	0xbe75169a	-0.23934403
169	0x3e835161	0.25648025
170	0x3c86380d	0.016384149
171	0xbd5a391f	-0.05327713
172	0xbeab8b91	-0.33504918
173	0xbcea8d07	-0.0286317
174	0x3e0eb302	0.13935474
175	0x3bbf5029	0.0058384133
176	0xbd82b6ab	-0.063824974
177	0xbdfec955	-0.12440745
178	0xbda830d4	-0.08212438
179	0x3d132d66	0.035931967
180	0xbd8cd96b	-0.06877407
181	0xbd1a9dbc	-0.037748083
182	0x3d8dc074	0.06921473
183	0x3db7f747	0.08982711
184	0x3c401b5c	0.011725273
185	0x3f0b41bd	0.54397184
186	0x3bc627ec	0.0060472395
187	0xbda1f517	-0.07908075
188	0x3995620d	0.00028492548
189	0xbeab5d3b	-0.33469567
190	0xbb48e070	-0.0030651353
191	0x3df7e16c	0.12103543
192	0xbddbd201	-0.107334144
193	0x3cb912fa	0.022592057
194	0xbd07ebfc	-0.033184037
195	0xbe54ccb0	-0.20781207
196	0xbd79efe2	-0.061019786
197	0xbd6f55ea	-0.058431543
198	0xbd007dcd	-0.031369973
199	0xbe2c205f	-0.16809224
200	0xbca1f4e2	-0.01977009
201	0x3e0dc868	0.1384598
202	0xbdbf6000	-0.093444824
203	0xbc0037b2	-0.007825779
204	0x3e9cd048	0.30627656
205	0x3d8cfa5e	0.06883691
206	0x3ddb0e43	0.106960796
207	0x3d96862f	0.07349812
208	0xbd2fc154	-0.04290898
209	0xbdc84632	-0.09779014
210	0x3e320f64	0.17388684
211	0xbcbbc840	-0.022922635
212	0xbeb65563	-0.3561202
213	0x3d4f2f34	0.050582126
214	0x3db03c2a	0.086052254
215	0x3ceedad8	0.029157087
216	0xbec1dd6e	-0.3786425
217	0xbe147e91	-0.14501406
218	0xbdf3c864	-0.11903456
219	0xbdb11f89	-0.08648593
220	0xbd9181d4	-0.07104841
221	0x3d3bd63d	0.04585861
222	0xbeca4285	-0.39503875
223	0x3b80c130	0.0039292797
224	0xbd31ad33	-0.043378066
225	0x3bc76830	0.006085418
226	0x3e2c9b7c	0.16856188
227	0xbc8fc433	-0.01754961
228	0x3d80cdb8	0.06289238
229	0x3c2ecdc2	0.010669174
230	0x3e2374d4	0.15962535
231	0xbd96c722	-0.073622
232	0x3de27a3b	0.1105847
233	0x3d2fdd5b	0.04293571
234	0xbdc79630	-0.09745443
235	0xbd9e54ba	-0.07731004
236	0x3e0a7833	0.13522415
237	0x3e19b7d0	0.15011525
238	0xbe99b33c	-0.30019557
239	0xbd0db93e	-0.03460049
240	0x3eedd572	0.46451908
241	0x3d002521	0.03128541
242	0xbe3e2b41	-0.18571188
243	0x3e635797	0.22201382
244	0xbd428b32	-0.04749603
245	0xbddae7b9	-0.10688729
246	0xbcfd778f	-0.030940799
247	0xbec39f7f	-0.38207623
248	0xbde4c83f	-0.111710064
249	0xbe75c49a	-0.24000779
250	0x3d82b33c	0.063818425
251	0xbba1708d	-0.004926747
252	0x3df39155	0.11892954
253	0x3b98c083	0.004661621
254	0x3d7dcc03	0.06196214
255	0x3dae9335	0.08524171

action_out.bias f4 [4]
0	0x3befdb8d	0.0073198737
1	0x3b82e8bf	0.0039950307
2	0x3bcc9807	0.006243709
3	0x3b17d86c	0.002316977
