saved_models/FetchPush-v1/model127.pt (torch, 563151 bytes, 8 tensors)

fc1.weight f4 [256, 28]
0	0xbcf34ba1	-0.029699149
1	0xbd102ae5	-0.035197157
2	0x3e9259ef	0.2858424
3	0x3da71521	0.08158327
4	0x3eeb22ac	0.4592489
5	0x3eef825a	0.46779138
6	0x3e8edb9f	0.27901933
7	0x3eb12660	0.3459959
8	0xbe8114d1	-0.25211194
9	0xbf03cb46	-0.51482046
10	0x3e5717c3	0.21005158
11	0x3e02698f	0.1273558
12	0xbddd9745	-0.10819868
13	0xbb91e27a	-0.004452047
14	0xbe09b480	-0.13447762
15	0xbd93ceef	-0.07217204
16	0xbe10145d	-0.14070268
17	0xbd351e58	-0.04421839
18	0xbdaf4753	-0.08558526
19	0x3e9c1fff	0.3049316
20	0xbe64aaf1	-0.22330834
21	0x3df191a5	0.117953576
22	0x3e0c6bdf	0.13713025
23	0x3e1987dc	0.14993232
24	0xbe45ab97	-0.19303738
25	0x3dacab4f	0.08431112
26	0xbe6f97b1	-0.2339771
27	0x3c244e8b	0.010028492
28	0x3e611095	0.21978982
29	0xbe17e82e	-0.14834663
30	0xbe116adb	-0.14200918
31	0x3f8f7b3b	1.1209482
32	0x3e7fd049	0.24981798
33	0xbef8b407	-0.4857485
34	0x3f80bf9e	1.0058477
35	0x3c52d963	0.012869212
36	0xbe284064	-0.16430813
37	0xbee32de7	-0.44370958
38	0x3fb9272b	1.4465078
39	0x3e07bc55	0.13255437
40	0x3d8e0896	0.069352314
41	0xbd85f4ab	-0.06540807
42	0x3eb97609	0.36222866
43	0xbe3da689	-0.1852056
44	0x3ddb9ef1	0.10723675
45	0xbc059abf	-0.00815457
46	0xbe9a5c9c	-0.3014878
47	0xbcf4a73d	-0.029864902
48	0x3e86cf18	0.26329875
49	0xbdfaec7f	-0.12252139
50	0x3e2e259f	0.17006539
51	0xbd9523cd	-0.07282219
52	0x3dfae89d	0.12251399
53	0x3d93261a	0.07185002
54	0xbe85ef81	-0.2615929
55	0xbe1b2863	-0.15152125
56	0x3e03ac7b	0.12858765
57	0xbdf62ce7	-0.12020283
58	0x3dacc533	0.0843605
59	0x3d8e1d29	0.069391556
60	0x3e0428b1	0.12906148
61	0xbfb59dc1	-1.4188768
62	0xbd709ca1	-0.058743123
63	0x3f1883d6	0.59576166
64	0xbdebee75	-0.115200914
65	0x3ea4eb26	0.32210654
66	0xbf0708b2	-0.52747643
67	0x3dfaa38b	0.122382246
68	0x3cfbc2da	0.03073256
69	0xbcd2e3b0	-0.025743335
70	0xbc98badc	-0.018643789
71	0xbe04dea4	-0.12975556
72	0x3e109c7f	0.14122199
73	0x3f0d0f85	0.55101806
74	0xbe9376fd	-0.28801718
75	0xbdca8346	-0.0988832
76	0x3d684d78	0.056714505
77	0xbd4c17e8	-0.049827486
78	0xbca2e6c7	-0.019885434
79	0xbe27019c	-0.16309208
80	0x3e227287	0.15864001
81	0xbdb945ca	-0.09046514
82	0x3da0cd4a	0.07851656
83	0xbdd2323e	-0.10263489
84	0x3ec131ae	0.37733215
85	0x3dd0dcfc	0.101983994
86	0x3ece6cf9	0.40317515
87	0x3f838740	1.027565
88	0xbe63e88f	-0.22256683
89	0x3ba278a1	0.0049582277
90	0x3f5379a1	0.82607466
91	0xbe62f877	-0.22165094
92	0x3ec21ddd	0.3791341
93	0xbe2dd1e2	-0.16974595
94	0x3dcc7cca	0.09984739
95	0x3c3015cd	0.010747385
96	0xbd14aa98	-0.036295503
97	0x3ccc20ef	0.024918048
98	0x3a6d8640	0.00090608373
99	0x3c140485	0.009034281
100	0xbdd4105c	-0.10354683
101	0xbd586809	-0.05283359
102	0x3e408743	0.18801598
103	0xbdd258c1	-0.10270835
104	0x3e69d0f7	0.2283362
105	0x3d84f724	0.06492451
106	0xbd59e8f1	-0.053200666
107	0x3e88eec0	0.26744652
108	0x3e408236	0.18799672
109	0xbdb3e1ca	-0.087833
110	0xbe3e8b27	-0.1860777
111	0xbe35ada0	-0.17742014
112	0xbc404214	-0.011734504
113	0xbe636c03	-0.22209172
114	0xbdf95edf	-0.12176298
115	0x3de432f4	0.11142531
116	0x3ee1eedb	0.44127545
117	0xc046bfc4	-3.1054544
118	0xbc281949	-0.010259935
119	0x3f16f11c	0.58961654
120	0xbf233264	-0.63748765
121	0xbe6bfa95	-0.23044808
122	0x3a15ea0e	0.0005718776
123	0xbe1a17d2	-0.15048149
124	0xbe191641	-0.14949895
125	0x3dae70c5	0.08517603
126	0x3dbe74f3	0.0929965
127	0xbdd46ddd	-0.10372517
128	0xbf1c1d7a	-0.6098248
129	0x3de72d75	0.11287967
130	0x3dcfcbeb	0.10146316
131	0xbdd8bbbe	-0.10582684
132	0x3e3ab0c8	0.18231499
133	0xbd705b09	-0.058680568
134	0xbefd9bbd	-0.4953288
135	0x3e3a80a3	0.18213134
136	0xbf19bdd4	-0.6005528
137	0xbe8cf50f	-0.27530715
138	0xbe0cf0ec	-0.1376378
139	0x3ef45924	0.4772426
140	0x3ef53428	0.47891355
141	0x3e61e5da	0.22060338
142	0x3ede5ad6	0.43428677
143	0x3f720071	0.94531924
144	0xbdc8fda7	-0.09814005
145	0xbe648edb	-0.2232012
146	0x3f12631b	0.5718247
147	0xbdc006f3	-0.093763255
148	0x3e88a734	0.26690066
149	0xbbb16a8d	-0.005414313
150	0x3efaef06	0.49010485
151	0xbe2dc53c	-0.1696977
152	0x3d587736	0.052848063
153	0x3d8afdb4	0.06786671
154	0xbd132baf	-0.03593033
155	0x3d46e410	0.04855734
156	0xbe9fead5	-0.3123385
157	0x3a9c3516	0.0011917676
158	0x3eb435bf	0.35197255
159	0x3dc45adb	0.09587642
160	0xbd327a24	-0.043573514
161	0xbd977909	-0.073961325
162	0xbe74a38d	-0.23890515
163	0x3cfdbf63	0.03097505
164	0xbe48c466	-0.1960617
165	0xbde7dbf5	-0.1132125
166	0x3e3fd196	0.18732294
167	0xbe088b1a	-0.13334313
168	0xbe51e27d	-0.20496555
169	0xbe7c07cc	-0.2461235
170	0x3c4325d3	0.011910873
171	0xbf35b997	-0.7098631
172	0xbf0c2c6d	-0.5475529
173	0x3f30096e	0.6876439
174	0xbf334f45	-0.7004283
175	0xbf157bbb	-0.5839192
176	0x3bd14819	0.0063867685
177	0xbdfd1ff6	-0.12359612
178	0x3f8bd0d2	1.0923102
179	0xbac9fd4d	-0.0015410573
180	0x3d248a23	0.0401708
181	0x3d96c8a5	0.07362489
182	0xbf54949f	-0.8303928
183	0xbee2fb83	-0.44332513
184	0x3f3bd145	0.73366195
185	0xbd71473e	-0.058905832
186	0xbd238e20	-0.039930463
187	0xbc2ebb03	-0.010664704
188	0xbf719a57	-0.9437613
189	0xbef796ea	-0.48357326
190	0x3f292760	0.66075706
191	0x3d52c9ff	0.05146217
192	0xbd50f631	-0.051016036
193	0x3f7fed51	0.9997149
194	0x3f5988bf	0.8497428
195	0xbf3a22a3	-0.727091
196	0x3c9ee4a5	0.019396136
197	0x3db3923a	0.08768125
198	0xbea23801	-0.31683353
199	0x3e8715f2	0.2638393
200	0xbe5eb926	-0.21750316
201	0xc01f6fb9	-2.491194
202	0x3f0e588f	0.5560388
203	0xbdc237d4	-0.094833046
204	0xbedbf0fe	-0.429573
205	0x3f43b4f1	0.7644797
206	0xbf2108b5	-0.6290391
207	0xbdf97ecd	-0.121823885
208	0x3de9dd82	0.114192024
209	0x3e033739	0.12814035
210	0xbcb28a42	-0.021794442
211	0x3d4677e6	0.048454188
212	0xbd56d03a	-0.052444674
213	0xbbfdbc2a	-0.007743378
214	0xbf152387	-0.58257335
215	0xbd1f0b9a	-0.038829423
216	0xbcd90b68	-0.026494697
217	0xbcbffd56	-0.02343623
218	0xbc92c8d1	-0.017918022
219	0xbccf2eed	-0.02529093
220	0x3f365701	0.7122651
221	0xbde50c85	-0.111840285
222	0xbd37d70c	-0.04488282
223	0x3e1da783	0.15395932
224	0xbf08e36c	-0.5347202
225	0x3ea9e091	0.33179143
226	0x3ef076a4	0.46965516
227	0xbefc7631	-0.49308923
228	0x3e550d9f	0.20805977
229	0x3f0223e5	0.5083602
230	0x3eaef2ad	0.34169522
231	0xbdb7ca19	-0.08974094
232	0xbde4f4db	-0.11179515
233	0xbd849342	-0.064734
234	0xbe032880	-0.12808418
235	0xbde4b039	-0.11166424
236	0xbd9c78c5	-0.076402225
237	0xbda5e5eb	-0.08100494
238	0xbe6530d2	-0.22381905
239	0x3e8104da	0.25199014
240	0xbd8263f3	-0.0636672
241	0x3d21975b	0.039450984
242	0xbcc17ab3	-0.023618078
243	0xbd3a2621	-0.04544652
244	0xbe297ec1	-0.16552259
245	0x3e0154e7	0.12630044
246	0x3b598131	0.0033188576
247	0x3e80f6a6	0.25188178
248	0x3ec7c101	0.39014438
249	0x3f449aa1	0.76798445
250	0xbf1ab2cc	-0.6042907
251	0xbf04d040	-0.51880264
252	0x3e53e3f3	0.20692424
253	0x3dff976a	0.12480052
254	0xbd6e374f	-0.058158215
255	0x3d7e0622	0.062017567

fc1.bias f4 [256]
0	0xbf2368b9	-0.6383167
1	0xc01c3707	-2.4408586
2	0xbfabe36e	-1.3428781
3	0xc030dbda	-2.7634187
4	0xbf006d96	-0.50167215
5	0xc02a4623	-2.6605308
6	0xc005f57f	-2.093109
7	0xbf3e4018	-0.7431655
8	0xc0152947	-2.3306444
9	0xbffddb21	-1.9832498
10	0xc00b4871	-2.1762965
11	0xbfdf3bb0	-1.744009
12	0xc020933e	-2.508987
13	0xbfbd297e	-1.4778287
14	0xc00466fa	-2.0687852
15	0xc04bad4e	-3.1824527
16	0xbf8c397c	-1.0955043
17	0xbef0d922	-0.4704066
18	0xbfb99391	-1.4498159
19	0xbf35a37f	-0.709526
20	0xbfc622d7	-1.5479382
21	0xbf1d14ff	-0.6136016
22	0xc00588ba	-2.0864701
23	0xc00165a0	-2.0218277
24	0xc0110c9d	-2.2663949
25	0xc004106c	-2.0635023
26	0xc01e39ac	-2.47227
27	0xbfbe1ff8	-1.4853506
28	0xbf1bd5f8	-0.60873365
29	0xbf0c81aa	-0.5488535
30	0xbf80abc0	-1.0052414
31	0xbe928abd	-0.28621474
32	0x3e36e0ee	0.17859241
33	0xc01f1178	-2.4854412
34	0xc00738c5	-2.11284
35	0xbfcb55fb	-1.5885614
36	0xc002ba39	-2.0426161
37	0xc0279d21	-2.6189654
38	0xbfbe7a0f	-1.4880999
39	0xc00e38a7	-2.2222078
40	0x3f6852b7	0.9075121
41	0xbd85f58a	-0.065409735
42	0xc000f952	-2.0152173
43	0xbf501132	-0.8127624
44	0xc0123aab	-2.2848308
45	0x3fbd049d	1.4767033
46	0xbf96bca8	-1.1776323
47	0x3fab7777	1.3395833
48	0x3f132711	0.57481486
49	0xbfcbfd22	-1.5936625
50	0x3f7f9c86	0.9984821
51	0xbfe8849a	-1.8165467
52	0x3fa1f5ff	1.2653197
53	0xc015f740	-2.343216
54	0xbfc5caa1	-1.5452462
55	0xbee88f8e	-0.45422024
56	0xbfd24e91	-1.6430227
57	0xbfaf9412	-1.3717062
58	0x3eb22cd2	0.3479982
59	0xbffa31ea	-1.9546483
60	0xc010cd86	-2.2625442
61	0xbfe300d4	-1.7734628
62	0xbfa87879	-1.3161765
63	0xbf1f00f8	-0.62110853
64	0xc008f582	-2.1399846
65	0xbfdc00b1	-1.7187711
66	0xbf6ac5b3	-0.91707915
67	0xbf83ff56	-1.0312297
68	0xbf561ecb	-0.83640736
69	0xbf6f2cc7	-0.934277
70	0xbe9fe94b	-0.31232676
71	0xbf0c1244	-0.5471537
72	0xbfd9454e	-1.6974275
73	0xbfaa2976	-1.3293903
74	0xbf1a8825	-0.6036399
75	0xc0267a90	-2.6012306
76	0xbfa85d3c	-1.3153453
77	0xbf09b5e8	-0.5379319
78	0xc007256e	-2.1116595
79	0xbfab6e25	-1.3392988
80	0xbfc4bdbe	-1.5370405
81	0xc0130e75	-2.2977574
82	0xc01272b4	-2.288251
83	0xbfb63d28	-1.4237413
84	0xc031e3e5	-2.7795346
85	0xbff2ad7d	-1.8959194
86	0xbf90a12f	-1.1299189
87	0xbf3ffa84	-0.7499163
88	0xc0178f0c	-2.368106
89	0xbfd6b0cd	-1.6772705
90	0x3fa85767	1.3151673
91	0x3f99e190	1.2021961
92	0xc0149321	-2.32148
93	0xbfa5f5ed	-1.2965676
94	0xbffcd584	-1.975266
95	0xbf6b97d0	-0.9202852
96	0xbff61136	-1.9224002
97	0xbfa6d45d	-1.3033558
98	0xbedd6ab8	-0.43245482
99	0xbea272c9	-0.317282
100	0x3e119f04	0.14220816
101	0xbf4ef5b5	-0.8084367
102	0xbfe79f5b	-1.8095506
103	0xbfb92a39	-1.446601
104	0xc0055373	-2.0832183
105	0xc017f399	-2.374243
106	0xbffa18c3	-1.9538807
107	0xbfbd5a8c	-1.4793258
108	0xbf286a83	-0.65787524
109	0xbfcbc609	-1.591981
110	0xbff893a5	-1.9420058
111	0xbff2ae44	-1.8959432
112	0xbfc64949	-1.5491115
113	0xc02b08c2	-2.6724095
114	0xbfb17cd2	-1.3866217
115	0xbf532b9e	-0.8248843
116	0xbff066cf	-1.8781375
117	0xbfcdc943	-1.6077045
118	0xbfad2d9b	-1.3529543
119	0xbfe63fb8	-1.7988195
120	0xc01cfc38	-2.4528942
121	0xbfe00aa3	-1.7503246
122	0xbffe4da5	-1.9867445
123	0xbfe4fa29	-1.7888843
124	0xbf87eb06	-1.0618598
125	0xbf59a337	-0.8501467
126	0xbff8bbfc	-1.9432368
127	0xbf430feb	-0.76196164
128	0xc006c8ba	-2.1060014
129	0x3ed78018	0.42089915
130	0xbed0f9ff	-0.40815732
131	0xc005c288	-2.0899982
132	0xbf5e45d4	-0.868253
133	0xbff0a145	-1.8799216
134	0xbf412281	-0.75443274
135	0xc014c8c3	-2.3247535
136	0xbfd88f9e	-1.6918828
137	0xbfe1ae65	-1.7631346
138	0xbff6cc13	-1.9281029
139	0xbfc5ee68	-1.5463381
140	0x3f459472	0.77179635
141	0xc0102126	-2.2520232
142	0xbf084d77	-0.532432
143	0x3f027893	0.5096523
144	0xbfe47ab6	-1.7849948
145	0xc0340480	-2.8127747
146	0xbfa9c33b	-1.3262705
147	0x3e9624cf	0.29324958
148	0xc012373d	-2.2846215
149	0xc03d6749	-2.959429
150	0xbf92497f	-1.1428679
151	0xbfc8bf98	-1.568347
152	0xc0242db4	-2.5652895
153	0xc022156a	-2.532557
154	0xbff4786c	-1.909925
155	0xc01438b6	-2.3159614
156	0xbff1d281	-1.8892366
157	0xbf985d32	-1.1903441
158	0xbf980f53	-1.1879677
159	0xbfa75732	-1.3073485
160	0xbfcff732	-1.6247313
161	0xc0187700	-2.3822632
162	0xbfd96c28	-1.6986132
163	0xc002da4d	-2.044574
164	0x3f893901	1.0720521
165	0xbf0bf666	-0.5467285
166	0xbfcadc7e	-1.5848539
167	0xbfbf31e3	-1.4937099
168	0x3f3de632	0.74179375
169	0xbe310336	-0.17286381
170	0xbf23531c	-0.6379869
171	0xbfe1ae2d	-1.7631279
172	0xbfe15943	-1.7605366
173	0xbf24e16e	-0.6440648
174	0xc0376a6e	-2.865871
175	0xbfc19279	-1.5122825
176	0xbf34c6b5	-0.706157
177	0xbecc3aa3	-0.39888486
178	0xbfc87bde	-1.5662801
179	0xbfaa5a2e	-1.3308771
180	0xc0214675	-2.5199254
181	0xc0156222	-2.3341146
182	0xbfc936f4	-1.5719895
183	0xbfc93a81	-1.5720979
184	0xbfe30d01	-1.7738343
185	0xc007fada	-2.1246858
186	0xbfe7e6fd	-1.8117367
187	0xbfd90c07	-1.6956795
188	0xbec25130	-0.37952566
189	0xbf551978	-0.8324199
190	0xbf84394b	-1.0329984
191	0xc036f801	-2.858887
192	0xbfde3d26	-1.7362411
193	0xbfeb7571	-1.8395215
194	0xbfd1df14	-1.6396203
195	0xbff3132e	-1.8990228
196	0xc01a521e	-2.411262
197	0x3f3e3444	0.742985
198	0xbfff659e	-1.9952886
199	0xbfe09295	-1.7544733
200	0xbf831af8	-1.0242605
201	0xbffeacbb	-1.9896463
202	0xbfe17c8b	-1.7616132
203	0xbfb30378	-1.3985434
204	0xbfeed79b	-1.8659548
205	0xc005fc49	-2.0935233
206	0xbfdaa955	-1.7082926
207	0xbfd6236c	-1.672956
208	0xbfb076c0	-1.378624
209	0xbf1a1f8a	-0.60204375
210	0xbf6792ca	-0.9045836
211	0xbfb79c1c	-1.4344516
212	0xbfadbcd0	-1.3573246
213	0xbffeb3ac	-1.9898582
214	0xbfb86d62	-1.4408381
215	0xbfdc73fe	-1.7222898
216	0xc01f708c	-2.4912443
217	0xbffeab17	-1.9895962
218	0xbfdc081d	-1.7189976
219	0xbf637195	-0.8884519
220	0xbf1449bf	-0.5792503
221	0xbeec05b3	-0.46098098
222	0xbff65859	-1.9245712
223	0xc03d25fb	-2.9554431
224	0xbfec8468	-1.8477907
225	0x3f2b99bc	0.67031455
226	0xbf94739d	-1.1597782
227	0xbf2be647	-0.6714825
228	0xc0118b8d	-2.2741425
229	0xbfd2ab47	-1.645852
230	0xbf929c51	-1.1453954
231	0xbe217d13	-0.15770368
232	0xbf7554c5	-0.95832473
233	0xc01b02c6	-2.4220443
234	0xc018b311	-2.3859293
235	0xbf89cf74	-1.0766435
236	0xbfa5e4a8	-1.2960405
237	0xbfddc24f	-1.7324923
238	0xc00339cb	-2.0504024
239	0xbeb7ce78	-0.3589971
240	0xbfe469e4	-1.7844815
241	0xbfd4b890	-1.6618824
242	0xbffb58f8	-1.9636526
243	0xc001711f	-2.0225294
244	0xbfee8c3e	-1.8636549
245	0xbfe84a17	-1.814761
246	0xbfac8213	-1.3477196
247	0xbfcc63aa	-1.5967915
248	0xc025659a	-2.5843263
249	0xbf7b62bd	-0.9819754
250	0xbfdf55b9	-1.7448035
251	0xbebef4c9	-0.3729613
252	0xbecbf8be	-0.39838213
253	0xbfc4c9c3	-1.5374073
254	0xbfd12705	-1.6340033
255	0xbfadf939	-1.3591682

fc2.weight f4 [256, 256]
0	0x3dfdc885	0.12391762
1	0x3d900dbd	0.0703387
2	0x3e9f940d	0.3116764
3	0x3e17aad4	0.1481126
4	0x3eb4136c	0.35171068
5	0x3f40ad48	0.75264406
6	0xbfba2aa7	-1.4544266
7	0x3e692c40	0.22770786
8	0x3d558b33	0.052134704
9	0xbe59db7d	-0.21275134
10	0xbf0c3f9e	-0.5478457
11	0xbef3b716	-0.4760062
12	0x3f1e7d98	0.6191039
13	0x3dde3439	0.108498044
14	0xbe02b4e4	-0.12764317
15	0x3e0e09bf	0.13870905
16	0x3e41424d	0.18872948
17	0xc00ad74f	-2.1693914
18	0xbecab60b	-0.39592013
19	0xc05d2a07	-3.4556901
20	0xbd237f92	-0.039916582
21	0xbdedfc84	-0.11620429
22	0xbeccdf53	-0.40014133
23	0xbdcfd29e	-0.10147594
24	0xbcefd120	-0.029274523
25	0xbd982fd4	-0.074309975
26	0x3cbcd59b	0.023051074
27	0x3dcb9b22	0.099416986
28	0xc010ca6c	-2.2623549
29	0xbc2f15f0	-0.010686383
30	0x3ded3065	0.11581496
31	0x3d3448f9	0.044014905
32	0x3d81270e	0.06306277
33	0xbe8cfa8d	-0.27534905
34	0x3f9e3530	1.2359982
35	0x3deaf21b	0.11471959
36	0xbebcf41e	-0.36904997
37	0xbe9de55b	-0.30839047
38	0xbdae648d	-0.08515272
39	0x3dc799f4	0.09746161
40	0x3eed2d9f	0.4632387
41	0x3d9c8c43	0.0764394
42	0xbed65328	-0.41860318
43	0xbd1c6273	-0.038179826
44	0x3f3f72c5	0.747845
45	0xbe52afec	-0.20574921
46	0xbf2731d6	-0.6531042
47	0x3f005220	0.5012531
48	0x3de380b7	0.11108535
49	0xbf8e605c	-1.1123157
50	0xbccc0544	-0.024904855
51	0xbf1093dd	-0.5647562
52	0x3ebace1e	0.3648538
53	0x3e673f48	0.22582734
54	0x3da528b0	0.08064401
55	0xc0731bb7	-3.7985666
56	0xbe51859c	-0.20461124
57	0x3e7cc9fa	0.24686423
58	0x3e96776c	0.29387987
59	0xbee0b095	-0.4388472
60	0x3ebed381	0.3727074
61	0xbf01a429	-0.50641114
62	0x3c174986	0.009233838
63	0xc02d0fdd	-2.7040932
64	0x3d55092a	0.052010693
65	0xbf24513e	-0.64186466
66	0xbe5e6b54	-0.2172063
67	0xbe618d91	-0.2202666
68	0xbe948a9f	-0.2901201
69	0x3f0e4ffd	0.555908
70	0x3d53e46e	0.05173152
71	0xbd55a431	-0.05215854
72	0xbec3b268	-0.3822205
73	0xbcaec867	-0.021335794
74	0xbe4858c2	-0.19565108
75	0xbec3a473	-0.38211402
76	0x3d88dfc6	0.066833064
77	0xc02a8109	-2.6641257
78	0x3dee1d12	0.116266385
79	0xbef40e80	-0.47667313
80	0x3c74effa	0.014949793
81	0x3ef34f07	0.4752123
82	0x3e10ce61	0.14141227
83	0x3f6b6c42	0.91962063
84	0x3a97a8c6	0.0011570684
85	0xbee71113	-0.45130214
86	0xbe64a723	-0.22329383
87	0x3ebe6391	0.37185338
88	0x3ea4cf8a	0.3218959
89	0xbe9c3758	-0.30510974
90	0x3eb33f4a	0.35009223
91	0x3eac61ff	0.33668515
92	0x3ed5aef7	0.4173505
93	0xc0067f2c	-2.101512
94	0xbf186246	-0.59524953
95	0x3c4d8d9f	0.012545972
96	0xbe081c7d	-0.13292117
97	0x3dbc6ae6	0.09200077
98	0xc02576ee	-2.585384
99	0xc0204d2c	-2.5047102
100	0x3ebd5668	0.36979985
101	0xbd9e833b	-0.07739874
102	0x3eb61a28	0.3556683
103	0x3e75b1e1	0.23993637
104	0x3e474be7	0.19462548
105	0xbec0ece8	-0.37680745
106	0x3d8b9f3a	0.068174794
107	0xbe8a8e24	-0.2706157
108	0xc0218801	-2.523926
109	0x3f15faff	0.58586115
110	0xbeb9581a	-0.3620003
111	0xbe62444e	-0.22096369
112	0x3e3401dc	0.17578834
113	0x3e94f3fe	0.290924
114	0xbe44e338	-0.19227302
115	0x3d0d94c8	0.034565717
116	0x3ea7217e	0.3264274
117	0xbcc43854	-0.02395264
118	0xbe1ab266	-0.15107116
119	0xbf4bd60f	-0.796235
120	0x3e45541c	0.19270366
121	0xbf24b510	-0.6433878
122	0x3e444402	0.19166568
123	0x3ddf23df	0.10895514
124	0x3d9c5777	0.0763387
125	0x3d958cf6	0.07302277
126	0x3bb5601f	0.00553514
127	0xbe28ca25	-0.16483362
128	0x3e99c249	0.3003104
129	0x3edfabbc	0.4368571
130	0xbdbe993f	-0.09306573
131	0x3e1e55af	0.15462373
132	0x3cdb2f8c	0.02675607
133	0xbdb68d10	-0.08913624
134	0xbe041165	-0.1289726
135	0xbea8c10f	-0.32959792
136	0x3ddf2b93	0.10896983
137	0xbde6679a	-0.11250229
138	0x3e27a131	0.16370083
139	0x3e2456bd	0.16048713
140	0x3e31d771	0.1736734
141	0x3ec05a7d	0.37569037
142	0xbff7e57a	-1.9366906
143	0x3e821ba4	0.25411713
144	0x3e8d3fbe	0.27587694
145	0x3e9ad5d9	0.30241278
146	0xbf310f43	-0.6916391
147	0x3e762d9c	0.24040836
148	0xbe41c135	-0.18921359
149	0x3f4eb6fd	0.8074797
150	0xbf992563	-1.1964535
151	0x3e1342e2	0.14380983
152	0x3dfd84bc	0.12378833
153	0x3eb7da92	0.35908943
154	0x3efa6550	0.4890542
155	0x3f0ef5cb	0.558438
156	0x3ee93d16	0.45554417
157	0xbdc6bb02	-0.09703638
158	0xbfa6655b	-1.2999681
159	0xbeed13c2	-0.46304137
160	0x3d9b3448	0.07578331
161	0x3f43b396	0.764459
162	0x3ed71da8	0.42014813
163	0xbf5be81d	-0.8590105
164	0x3ee08ce1	0.43857482
165	0xc04bae6d	-3.182521
166	0x3e34dce7	0.17662393
167	0xbd7498dd	-0.059716094
168	0x3e86b6c2	0.26311308
169	0x3cecc509	0.028902547
170	0xc011e64b	-2.279681
171	0x3e7f9bfc	0.24961847
172	0xbf86c35d	-1.052837
173	0xbd64a515	-0.055821497
174	0x3d482408	0.048862487
175	0xbca5ba61	-0.020230474
176	0x3cfe6d57	0.031057997
177	0xc01479ab	-2.319926
178	0xbe873536	-0.26407784
179	0xbe09ec5d	-0.13469072
180	0x3eab29e2	0.33430392
181	0x3b9d392c	0.004798075
182	0xbd0515a7	-0.032491352
183	0xbdce02c2	-0.1005912
184	0xbe9edca9	-0.31027725
185	0xbfa63061	-1.2983514
186	0xbe0d9aad	-0.13828535
187	0x3fed5e30	1.8544369
188	0xbf8b8f1a	-1.0903046
189	0xbe7aa022	-0.24475148
190	0xbe80848c	-0.25101125
191	0x3e944817	0.2896125
192	0xbeb6292e	-0.35578293
193	0xbe97f473	-0.29678687
194	0xbf06ca02	-0.5265199
195	0x3e7b146a	0.24519506
196	0xbf1751bc	-0.5910909
197	0x3ef81e65	0.4846069
198	0x3de38126	0.111086175
199	0xbd3dd911	-0.04634959
200	0x3e6848cf	0.22684024
201	0xbc9062cb	-0.017625233
202	0xbe5a9360	-0.21345282
203	0x3d4e4788	0.050361186
204	0x3f0d9073	0.55298537
205	0xbe637691	-0.22213198
206	0xbe70d307	-0.23518
207	0x3ee1722e	0.44032425
208	0xbf09b8ac	-0.5379741
209	0xbf853384	-1.0406346
210	0x3d02140f	0.03175741
211	0xbe121ff8	-0.14270008
212	0xbf0325e8	-0.51229715
213	0xbd32015c	-0.043458328
214	0xbe3ece2c	-0.18633336
215	0x3e805994	0.25068343
216	0xbe28d3c2	-0.16487029
217	0xbdfb2ff6	-0.12265007
218	0x3e7c3abd	0.24631782
219	0x3e342dd9	0.17595614
220	0x3d2a5b1a	0.041590787
221	0x3dc6d6af	0.097089164
222	0xbd9bd13b	-0.07608267
223	0x3e818be5	0.25302044
224	0xbd7dc29d	-0.061953176
225	0x3eac06ea	0.33599025
226	0xbd9c3420	-0.076271296
227	0xc047f0ed	-3.12408
228	0x3e7590b8	0.23980987
229	0x3e46be3a	0.19408503
230	0x3be50ef8	0.00699031
231	0x3e82b18e	0.25526088
232	0x3f5fe285	0.87455016
233	0x3e32d39e	0.17463538
234	0x3ec1470c	0.37749517
235	0x3e67c384	0.22633177
236	0xbedb3c95	-0.42819658
237	0x3d0ff288	0.035143405
238	0x3ea4f422	0.3221751
239	0x3ee4397c	0.44575107
240	0x3db06132	0.086122885
241	0x3d39fbde	0.045406215
242	0xbe7bea75	-0.24601157
243	0x3f7e2988	0.9928212
244	0xbdb8d795	-0.09025494
245	0x3e6734de	0.22578761
246	0x3dd31ff8	0.10308832
247	0x3a8d9b9d	0.0010803823
248	0xbf38d1f8	-0.72195387
249	0xba9931a6	-0.001168777
250	0xbeea3fc8	-0.45751786
251	0xbde61d95	-0.11236111
252	0xbff82e10	-1.9389057
253	0x3cbf3928	0.023342684
254	0x3d599cbd	0.053127993
255	0x3ed86944	0.4226781

fc2.bias f4 [256]
0	0x3fbcdc23	1.475468
1	0xbf08983b	-0.53357285
2	0xbd99792b	-0.07493814
3	0xbf539d15	-0.82661563
4	0x3f4de172	0.8042213
5	0xbe8dea29	-0.27717713
6	0xbd4f57fb	-0.050621014
7	0x3f5aa901	0.8541413
8	0x3f9a7f8a	1.2070172
9	0x3ebd80b7	0.37012264
10	0x3bbbe4eb	0.0057340763
11	0x3fd08b12	1.6292441
12	0xbca18ecb	-0.01972141
13	0xbf116c52	-0.5680591
14	0xbe46d00e	-0.19415304
15	0x3bd3ac6d	0.0064597637
16	0xbd7a5869	-0.06111947
17	0xbd152fee	-0.036422662
18	0x3af52bf2	0.0018705113
19	0xbd0012cb	-0.031267922
20	0x3d3e41ec	0.046449587
21	0xbbe05145	-0.0068456256
22	0x3cb57fa4	0.02215559
23	0xbfb7283a	-1.4309151
24	0x3f0900d5	0.53516895
25	0xbf335ce3	-0.7006361
26	0x3c01a81c	0.007913616
27	0xbf85f55d	-1.0465504
28	0x39c4dd84	0.00037549075
29	0x3f93e811	1.1555196
30	0xbc2b6ee0	-0.010463446
31	0xba95fe8b	-0.0011443658
32	0x3f194be1	0.5988141
33	0x3e38eec2	0.18059829
34	0xbda5c1fd	-0.08093641
35	0xbfeec1ca	-1.865289
36	0xbec2e928	-0.3806851
37	0x3ce8e38e	0.028428819
38	0x3f1492e1	0.5803662
39	0xbef9c889	-0.4878581
40	0xbd436d7a	-0.047711827
41	0xbdcafd0a	-0.099115446
42	0xbd3ce503	-0.04611684
43	0x3f1df4d7	0.6170172
44	0x3edbefdf	0.42956445
45	0xbc01dcc6	-0.007926172
46	0xbda7d0f4	-0.081941515
47	0x3c8ae88d	0.016956592
48	0xbd0c6fae	-0.034286194
49	0xbd9daf09	-0.07699401
50	0xbda87219	-0.082248874
51	0xbbb13c4f	-0.0054088007
52	0xbdf9efbf	-0.12203931
53	0xbcc9631b	-0.02458339
54	0x3f1b346f	0.6062688
55	0x3e39b47a	0.18135253
56	0xbdb03a1a	-0.08604832
57	0xbd71e8da	-0.059059955
58	0xbe3252b9	-0.17414369
59	0x3ecfc2f6	0.4057843
60	0xbce20c86	-0.027593862
61	0x3c516277	0.0127798235
62	0xbda3ed47	-0.080042414
63	0xbf2d0147	-0.67580074
64	0x3b3ecf51	0.002911527
65	0xbee1ee37	-0.44127056
66	0xbda085ee	-0.07838045
67	0xbdf6c250	-0.12048781
68	0x3fc26a15	1.5188624
69	0xbf551997	-0.8324217
70	0x3f686ddd	0.9079264
71	0xbb8df6bf	-0.004332393
72	0xbf2720a0	-0.65284157
73	0x3e6ada5c	0.2293486
74	0xbccfca05	-0.025364885
75	0x3cbd7679	0.023127781
76	0x3c0b57a5	0.008504783
77	0xbe86c23e	-0.2632007
78	0xbdbbe8e1	-0.091752775
79	0xbd984ac9	-0.07436139
80	0x3eb90328	0.3613522
81	0xc0025f18	-2.037054
82	0xbc13fd79	-0.009032601
83	0xbeb093e5	-0.34487835
84	0xbe4a0a3c	-0.19730467
85	0xbd41631a	-0.04721365
86	0x3bcf5958	0.0063277893
87	0xbf0781a1	-0.52932173
88	0x3da53982	0.08067609
89	0xbcff7f3a	-0.031188596
90	0xbf581d71	-0.84419924
91	0xbdc6296d	-0.0967587
92	0xbd0e0fc6	-0.03468301
93	0xbd61b521	-0.05510438
94	0xbca6dd51	-0.020369204
95	0x3d2f0613	0.042730402
96	0x3d5c4069	0.053772364
97	0x3d679919	0.05654249
98	0x3e709b34	0.23496705
99	0xbd4f2f4b	-0.05058221
100	0xbdaf02f8	-0.08545488
101	0xbc76f116	-0.015072128
102	0xbd97acb3	-0.07405987
103	0x3ecd7607	0.4012911
104	0x3bbf9fcd	0.005847907
105	0xbe06af4a	-0.13152805
106	0xbf5fc195	-0.8740476
107	0xbf8b7adb	-1.0896868
108	0x3e7aaa70	0.24479079
109	0xbd89e4ed	-0.06733117
110	0xbd022f67	-0.031783488
111	0xbd22779f	-0.03966486
112	0xbd3dd129	-0.04634205
113	0xbd894533	-0.06702652
114	0xbe530f58	-0.20611322
115	0xbe6b979f	-0.23007058
116	0x3ef68f68	0.48156285
117	0xbc61397c	-0.0137466155
118	0xbf9699e1	-1.176571
119	0x3f28c024	0.65918183
120	0xbf1a9e86	-0.6039814
121	0xbe126423	-0.14296012
122	0xbfb0b385	-1.3804785
123	0xbed10bb4	-0.4082924
124	0xbc0d9340	-0.008641064
125	0xbf9526a6	-1.165242
126	0xbf8b0f36	-1.0864017
127	0x3cba1f32	0.022719953
128	0xc01b137a	-2.4230638
129	0xbf34dd83	-0.706505
130	0x3fcc5b81	1.5965425
131	0xbc0e1a8e	-0.008673323
132	0x3e81e66a	0.25371104
133	0x3d7514dd	0.05983435
134	0x3b8a315f	0.0042173113
135	0xbef67e20	-0.481431
136	0xbd5ae5ac	-0.05344169
137	0xbc6ae67f	-0.014337181
138	0xbf071140	-0.52760696
139	0xbdafce39	-0.08584256
140	0xbf95688c	-1.167253
141	0x3d59df65	0.05319156
142	0x3e72366f	0.23653577
143	0x3f3daf0d	0.7409523
144	0x3f9d8848	1.2307215
145	0x3de62f4b	0.11239489
146	0x3f7b11ed	0.9807423
147	0xbc8574df	-0.01629108
148	0x3eb448c6	0.35211772
149	0x3f208a74	0.6271126
150	0xbec9e284	-0.3943063
151	0x3aa8a31d	0.0012865994
152	0xbe1bf039	-0.15228356
153	0xbdb7419e	-0.08948062
154	0xbdb5cf0b	-0.08877381
155	0xbfc4528a	-1.5337689
156	0x3e9f3110	0.3109212
157	0xbdd4d045	-0.10391287
158	0xbd8cda36	-0.06877558
159	0x4005b3bb	2.0890949
160	0x3e68c87d	0.2273273
161	0xbd869ded	-0.06573091
162	0x3dfe0c57	0.124046974
163	0x3c4c088b	0.012453209
164	0xbf55d718	-0.8353133
165	0xbd200994	-0.039071634
166	0xbf0a4399	-0.54009396
167	0xbdaaf758	-0.08347958
168	0xbfb8e273	-1.4444107
169	0x3e1448e9	0.14480938
170	0xbfccd6cf	-1.6003054
171	0xbeb7d87c	-0.35907352
172	0xbdc0c711	-0.09412969
173	0xbb36f4cc	-0.0027916906
174	0xbc6bd03a	-0.014392907
175	0xbdd5533b	-0.104162656
176	0x3e49b919	0.19699515
177	0x3f2c93a3	0.67412776
178	0xbdc3f412	-0.09568037
179	0xbc47feed	-0.012206775
180	0xbd961ac0	-0.07329321
181	0xbde74206	-0.1129189
182	0xbd43d536	-0.047810756
183	0xbddc0302	-0.10742761
184	0xbfafd68e	-1.3737352
185	0x3ee3a8b7	0.44464657
186	0x3e4b91be	0.19879815
187	0x3e6470c1	0.22308637
188	0xbe1ee9d2	-0.15518883
189	0x3f00f732	0.5037719
190	0xbe2c9579	-0.16853894
191	0xbeaf7bc0	-0.342741
192	0xbe1a6ff9	-0.15081777
193	0xc0046f81	-2.0693057
194	0xbd53ff59	-0.05175719
195	0xbf25f238	-0.6482272
196	0xbf0948d4	-0.5362675
197	0xbcc4b116	-0.024010222
198	0x3cb93e79	0.022612797
199	0x3ea1dd0b	0.31613955
200	0xbdcb026d	-0.09912572
201	0xbf2c37db	-0.6727273
202	0xbdb13a24	-0.086536676
203	0x3f369955	0.71327716
204	0xbdbad5ed	-0.09122834
205	0xbdc64cfb	-0.096826516
206	0xc01602d5	-2.3439229
207	0xbde79ada	-0.113088325
208	0xbf969f98	-1.1767454
209	0xbd9b6725	-0.07588033
210	0x3f9cb1ab	1.224172
211	0xbde7967a	-0.11307998
212	0xbb1bc6f9	-0.002376972
213	0xbdf511f0	-0.11966312
214	0xbdd93149	-0.106051035
215	0xbbd81e60	-0.006595418
216	0xbdf22f62	-0.11825444
217	0xbd3e1b57	-0.046412792
218	0xbda4a73d	-0.08039711
219	0xbe85091c	-0.25983512
220	0x3feda884	1.8567052
221	0x3ec830ee	0.3909983
222	0xbd9b47a8	-0.07582027
223	0x3f547f58	0.8300681
224	0xbdc7342a	-0.097267464
225	0xbf80e9a1	-1.0071298
226	0xbd833a2b	-0.06407579
227	0x3c67dc0d	0.014151585
228	0xbe8b4c92	-0.27206856
229	0xbf1bfe97	-0.6093535
230	0xbddf996e	-0.10917936
231	0xbf897dd4	-1.0741525
232	0xbd3e6d77	-0.046491113
233	0xbf581ece	-0.84422004
234	0x3faae473	1.3350967
235	0xbd671968	-0.056420714
236	0x3f6cbfa4	0.9247992
237	0x3cc9c12c	0.024628244
238	0xbf678ac0	-0.9044609
239	0xbf8658cd	-1.049585
240	0xbfb499b0	-1.4109402
241	0x3f3013b5	0.6878007
242	0x3ee46f25	0.44616047
243	0xbd808709	-0.06275756
244	0x3c97626c	0.018479548
245	0xbd6c9cda	-0.057766773
246	0x3f7edaaa	0.99552405
247	0x3f0e0c71	0.55487734
248	0x3c2e13a9	0.0106248045
249	0x3e016ced	0.12639208
250	0x3e3106f3	0.17287807
251	0xbd5f87e4	-0.054572955
252	0xbec1d461	-0.37857345
253	0xbe78532b	-0.24250476
254	0x3ed467f4	0.4148556
255	0xbaef7a77	-0.001827075

fc3.weight f4 [256, 256]
0	0x3e1d5c22	0.15367177
1	0xbe9c382d	-0.3051161
2	0xbd37e1fc	-0.04489325
3	0xbf05a963	-0.5221159
4	0x3e8afa23	0.27143964
5	0x3d1cdec2	0.038298376
6	0xbdc080e3	-0.09399583
7	0x3dea5bd9	0.114433
8	0xbee1f1fb	-0.4412993
9	0xbe635795	-0.22201379
10	0xbef352aa	-0.47524005
11	0xbe833973	-0.25629768
12	0xbe27a62e	-0.16371986
13	0x3e796c44	0.24357706
14	0x3e4090e7	0.18805276
15	0xbb2a6ed6	-0.0026006005
16	0xbe40f658	-0.18843973
17	0x3d59b85b	0.05315433
18	0x3caa3a1b	0.02077966
19	0xbd1ec8fe	-0.0387659
20	0xbe41f3ec	-0.18940705
21	0x3d453524	0.048146382
22	0x3b0223e2	0.0019857814
23	0xbf20f628	-0.62875605
24	0x3f01a8da	0.5064827
25	0xbf68a05f	-0.90869707
26	0xbcb36102	-0.021896843
27	0x3e1bde4c	0.15221518
28	0xbdc0399c	-0.09385988
29	0xbf38614f	-0.7202348
30	0xbdf05080	-0.11734104
31	0xbd18130e	-0.037127547
32	0xbd82ae26	-0.063808724
33	0xbd137051	-0.035995785
34	0xbd080ff0	-0.033218324
35	0xbd8a9b28	-0.06767875
36	0x3ddf439f	0.109015696
37	0xbe27ecff	-0.16399
38	0x3dde17cd	0.108443834
39	0xbee2e094	-0.44311965
40	0x3da51b60	0.08061862
41	0x3db325f5	0.08747474
42	0xbacc35c8	-0.0015579993
43	0x3f10a41c	0.5650041
44	0xbce9d6f0	-0.028544873
45	0xbe24bc25	-0.16087396
46	0xbabd8a1d	-0.0014460717
47	0x3cf29418	0.029611632
48	0xbf228d4a	-0.6349684
49	0x3c8fe04a	0.017563004
50	0x3c98c04c	0.018646382
51	0x3b499adc	0.003076247
52	0xbdf41beb	-0.119193874
53	0x3b946575	0.004528696
54	0xbe3ea921	-0.18619205
55	0xbea7ac2a	-0.32748538
56	0x3cd7d60e	0.026347186
57	0xbd73c30a	-0.059512176
58	0xbf240092	-0.6406337
59	0xbff3fd6e	-1.9061716
60	0x3d07a692	0.03311784
61	0xbf91c756	-1.1388958
62	0x3d467021	0.04844678
63	0xbfe87e2f	-1.8163508
64	0x3d67fe7c	0.05663918
65	0x3deaf1ab	0.11471876
66	0xbe0f26a3	-0.13979582
67	0xbc4e6a83	-0.012598637
68	0xbf305277	-0.6887583
69	0xbe8de81d	-0.2771615
70	0x3f11b17b	0.5691144
71	0xbbb37747	-0.0054768655
72	0xbdaad89b	-0.083420955
73	0xbf48060f	-0.78134245
74	0xbd116653	-0.035497975
75	0xbbf4dd84	-0.007472696
76	0x3dc60168	0.09668237
77	0xbbbede29	-0.0058248234
78	0xbd894a62	-0.067036405
79	0x3d1a1624	0.03761877
80	0x3d82e922	0.06392123
81	0xbf1883d4	-0.59576154
82	0xbc905a83	-0.017621284
83	0xbf66facd	-0.9022644
84	0xbee33a29	-0.4438031
85	0xbd6a644d	-0.05722456
86	0x3e1bf8c3	0.15231614
87	0x3e6fc11d	0.2341351
88	0xbea94ec4	-0.33067906
89	0xbc8979a0	-0.016781628
90	0xbf1e9937	-0.6195254
91	0xbf11ffbb	-0.5703084
92	0xbc935907	-0.017986787
93	0xbd7e6c03	-0.062114727
94	0x3c2562c1	0.010094346
95	0xbd1768ca	-0.03696517
96	0x3c897af6	0.016782265
97	0x3bf2d1cf	0.007410265
98	0x3ced5b5d	0.02897423
99	0x3dadbc5b	0.084831916
100	0xbcc58842	-0.024112824
101	0x3b636d5b	0.0034702632
102	0x3d2bb57a	0.041921116
103	0xbda7cf16	-0.081937954
104	0x3c71dd60	0.014762253
105	0xbeb70689	-0.35747173
106	0x3e52420c	0.20533007
107	0x3e13599a	0.14389649
108	0xbead0a90	-0.3379712
109	0x3d997725	0.07493428
110	0xbd701acd	-0.05861931
111	0xbbfff7bd	-0.007811515
112	0xbe935241	-0.28773692
113	0xbd33ead6	-0.04392513
114	0xbd33d68e	-0.043905787
115	0xbd7cd7e2	-0.06172932
116	0x3cdd33a6	0.027002167
117	0xbcb0a947	-0.021565093
118	0x3f5d99a1	0.86562544
119	0xbdd6b1c4	-0.10483125
120	0xbd44046c	-0.04785578
121	0x3c950406	0.018190395
122	0xbdde8fff	-0.10867309
123	0x3d033fef	0.032043394
124	0xbd5df335	-0.05418702
125	0xbf03092f	-0.5118589
126	0xbf3d2d47	-0.7389721
127	0x3e08395e	0.13303134
128	0xbeff1047	-0.49817106
129	0xbf047cf1	-0.51753145
130	0xbf7a8f45	-0.9787486
131	0x3d21b003	0.0394745
132	0xbfb1e16c	-1.3896918
133	0xbc4249ce	-0.011858417
134	0x3d076b02	0.033061035
135	0xbee61207	-0.4493563
136	0xbd03308c	-0.03202872
137	0x3b938649	0.004502092
138	0x3e99c428	0.30032468
139	0xbb608d0b	-0.0034263756
140	0x3dec4481	0.115365036
141	0xbcee2d9b	-0.02907448
142	0xbe492409	-0.19642653
143	0xbf8914e0	-1.0709496
144	0xbd3808e8	-0.04493037
145	0xbf8139c0	-1.0095749
146	0xbf3d9f58	-0.74071264
147	0xbd82037f	-0.06348323
148	0xbe626442	-0.22108558
149	0x3cb786aa	0.02240308
150	0x3e413a0e	0.18869802
151	0xbe15dc28	-0.14634764
152	0xbedf0b20	-0.43563175
153	0x3d341552	0.043965645
154	0x3c7565ba	0.014977867
155	0xbf434591	-0.76278025
156	0xbefe3785	-0.49651733
157	0xbd4f87b1	-0.050666515
158	0xbed733f2	-0.4203182
159	0xbf196f29	-0.5993524
160	0xbef32819	-0.4749153
161	0xbdb78ca8	-0.08962375
162	0xbf9e0044	-1.2343831
163	0xbce35684	-0.027751215
164	0x3dd4cf1d	0.10391066
165	0x3c122861	0.00892076
166	0xbca40fc8	-0.020027056
167	0x3d5fac67	0.054607775
168	0xbfa9d510	-1.3268147
169	0xbe9a8cd8	-0.3018558
170	0xbf209c8d	-0.6273888
171	0x3cdb6293	0.026780402
172	0xbe90e4bc	-0.2829951
173	0xbd8ad20f	-0.06778347
174	0xb96c2d1d	-0.0002252352
175	0xbf4e5068	-0.8059144
176	0x3eb12422	0.3459788
177	0x3d3bfb23	0.0458938
178	0x3cf3cf76	0.029762011
179	0x3de4a06d	0.11163411
180	0xbd77f1ca	-0.060533322
181	0xbc99a698	-0.018756196
182	0xbdbfb4f6	-0.093606874
183	0xbd54f72b	-0.05199353
184	0x3eef42f4	0.4673077
185	0xbf10896c	-0.5645969
186	0xbfaa9762	-1.3327448
187	0x3e12bd3f	0.14330004
188	0xbf012e76	-0.5046152
189	0xbe707137	-0.23480688
190	0xbeacf453	-0.33780155
191	0xbd9898ca	-0.07451017
192	0x3f079952	0.52968323
193	0xbf18c98e	-0.5968255
194	0xbe09bfa5	-0.13452013
195	0xbf901821	-1.1257364
196	0xbed23846	-0.41058558
197	0xbd695800	-0.05696869
198	0x3d8557e4	0.065109044
199	0x3ea783ce	0.32717746
200	0xbd448266	-0.04797592
201	0x3dd46c05	0.103721656
202	0xbc907739	-0.017634975
203	0xbec91f5d	-0.3928174
204	0xbc336703	-0.010949853
205	0x3d0a88cb	0.033821862
206	0xbe90e237	-0.28297588
207	0xbc698dec	-0.014255028
208	0xbe6bc531	-0.23024441
209	0xbf8035a4	-1.001637
210	0xbee784fd	-0.4521865
211	0xba01ee66	-0.00049564836
212	0x3d96454f	0.07337438
213	0xba03a9d3	-0.0005022559
214	0x3df69363	0.120398305
215	0xbb30dffd	-0.0026988976
216	0x3bddcc26	0.006768721
217	0xbd63968d	-0.0555635
218	0xbccb065c	-0.024783306
219	0x3e193ca9	0.14964546
220	0xc00aea85	-2.170564
221	0xbea7fcbf	-0.32810017
222	0x3d825837	0.06364482
223	0xbe2029c2	-0.1564093
224	0x3c69e04b	0.014274667
225	0xbf3a9654	-0.7288563
226	0x3d0d80fb	0.034546833
227	0xbebf9706	-0.3741991
228	0xbe38e542	-0.18056205
229	0xbeb79c0a	-0.35861236
230	0x3b98d010	0.004663475
231	0xbf1cb1d3	-0.6120884
232	0xbd183c9c	-0.037167177
233	0x3ddf458f	0.10901939
234	0xbe54dbb3	-0.20786934
235	0x3d296f3a	0.04136584
236	0xbb3b7c53	-0.0028608039
237	0x3c92e546	0.017931592
238	0xbe0290c6	-0.12750539
239	0xbf0e0d80	-0.5548935
240	0xbf5f4b98	-0.8722472
241	0xbf2b7fbe	-0.66991794
242	0x3e0d2380	0.13783073
243	0xbda08a21	-0.07838846
244	0x3c02d27d	0.007984755
245	0x3d38afde	0.045089595
246	0x3ddae97c	0.10689065
247	0x3ee93af2	0.45552784
248	0xbba47c56	-0.005019705
249	0x3e20a192	0.15686634
250	0xbf742c49	-0.95380074
251	0xbc2af52b	-0.010434429
252	0xbee12ea1	-0.43980888
253	0xbef52328	-0.47878385
254	0xbecf695b	-0.40510067
255	0x3be6e33f	0.007046133

fc3.bias f4 [256]
0	0xbede1a86	-0.4337961
1	0xbd9cb80f	-0.07652294
2	0xbf3de4f4	-0.7417748
3	0xbe0ad0b0	-0.1355617
4	0xbe3916e8	-0.18075144
5	0xbe2d2aeb	-0.16910903
6	0xbeaabc83	-0.33346948
7	0xbf43b967	-0.76454777
8	0xbf1b1116	-0.60572946
9	0xbfb06626	-1.3781173
10	0x3f3369d7	0.70083374
11	0xbf2e1ea7	-0.6801552
12	0xbf957346	-1.1675804
13	0xbf977668	-1.183301
14	0xbe8f804b	-0.28027567
15	0xbe768bf8	-0.24076831
16	0x3f810a7f	1.0081328
17	0xbe988cde	-0.29794973
18	0xbf0ef03b	-0.5583531
19	0xbf275ec4	-0.65378976
20	0x3d8e4268	0.0694626
21	0x3f5af92b	0.8553645
22	0xbe7b5e8e	-0.24547789
23	0x3f87be64	1.0604978
24	0xbdfb4bb7	-0.12270301
25	0xbf8e3468	-1.1109743
26	0x3f4cae8f	0.79953855
27	0x3d1a4606	0.037664436
28	0x3ed9e171	0.4255481
29	0xbf3b741c	-0.73224044
30	0xbe8a3e1f	-0.2700052
31	0xbdb0057f	-0.08594798
32	0xbeaf5b17	-0.34249184
33	0xbe81cf4b	-0.25353464
34	0xbf6ec7fe	-0.93273914
35	0xbebcb5dd	-0.368575
36	0xbf207b8b	-0.6268851
37	0xbe59e5ab	-0.21279018
38	0xbf896abb	-1.0735697
39	0xbe59dafa	-0.21274939
40	0xbe1dc092	-0.15405491
41	0xbe940195	-0.28907457
42	0xbe8040f2	-0.2504955
43	0xbdb702ce	-0.08936082
44	0xbeb8a18b	-0.36060748
45	0xbe3dd575	-0.18538459
46	0x3c28e147	0.010307617
47	0xbf14ce1f	-0.58127016
48	0xbec8465d	-0.39116183
49	0xbe00641e	-0.12538192
50	0xbea0f16a	-0.31434184
51	0xbf381617	-0.71908706
52	0xbebce85f	-0.36896035
53	0x3efd8134	0.49512637
54	0xbf283943	-0.65712374
55	0xbf76be85	-0.9638446
56	0xbe49b46a	-0.19697729
57	0xbf74f2e1	-0.95683104
58	0x3e61a0c0	0.22033978
59	0xc013f0b5	-2.3115666
60	0xbee259b8	-0.44209075
61	0xbf85ebea	-1.046262
62	0x3fb25dd4	1.3934884
63	0x3fb06f28	1.3783922
64	0xbf827f92	-1.0195181
65	0x3f8dd3ab	1.1080221
66	0xbead90e8	-0.33899617
67	0xbea7ec7f	-0.3279762
68	0xbd9cc59d	-0.07654879
69	0xbf30bbc0	-0.69036484
70	0xbebc7394	-0.3680693
71	0x3f83000c	1.0234389
72	0xbda30d9d	-0.07961581
73	0xbedc85e2	-0.43070894
74	0xbc38dafe	-0.011282681
75	0x3ebd25c8	0.36942887
76	0xbe641061	-0.22271873
77	0xbdb2e614	-0.0873529
78	0xbe6ff70d	-0.23434086
79	0xbe908399	-0.282254
80	0x3dfd6e3b	0.123745404
81	0xbf08312c	-0.5320003
82	0xbf77cbde	-0.9679545
83	0xbceb87ac	-0.028751217
84	0x3e0eed07	0.13957606
85	0xbefdd972	-0.4957996
86	0x3ed568d8	0.41681552
87	0xbe9b61b6	-0.30347985
88	0xbd7a35fe	-0.061086647
89	0xbf4f9c1a	-0.8109757
90	0xbee8209f	-0.45337388
91	0xbe656e1f	-0.22405289
92	0x3f265953	0.6498005
93	0x3ebb26ab	0.3655294
94	0xbe92eb38	-0.28695083
95	0xbf262c58	-0.64911413
96	0xbf877c9f	-1.0584906
97	0xbe310f48	-0.17290986
98	0xbe763374	-0.24043065
99	0x3f26628e	0.6499413
100	0xbe3adb0d	-0.18247624
101	0xbfaf3343	-1.3687519
102	0xbe13df71	-0.14440705
103	0x3f7257ba	0.9466511
104	0xbf24c6a2	-0.6436559
105	0x3f468ce1	0.77558714
106	0xbdab264d	-0.08356915
107	0xbf48f093	-0.7849209
108	0xbf012109	-0.5044103
109	0x3fa34ed9	1.2758437
110	0xbe871d04	-0.26389325
111	0xbd9f6135	-0.07782213
112	0xbf359303	-0.7092745
113	0xbf550f6f	-0.83226675
114	0xbe3f23a0	-0.18665934
115	0xbf4c18e6	-0.7972549
116	0x3e7bf47e	0.24604985
117	0xbe83d629	-0.2574933
118	0xbe517a50	-0.20456815
119	0x3cc4b109	0.024010198
120	0x3dfb84d9	0.12281198
121	0xbf0cc86e	-0.5499333
122	0xbe4abb03	-0.19797902
123	0xbf0a1d72	-0.5395118
124	0xbe79a919	-0.24380912
125	0xbecbc7f5	-0.39800993
126	0x3f7a8414	0.97857785
127	0xbe6d87d1	-0.23196341
128	0xbf66591d	-0.89979726
129	0xbe7b4fcf	-0.24542163
130	0xbd2c020c	-0.04199414
131	0xbf09e694	-0.5386746
132	0xbe8c0feb	-0.27355894
133	0xbf47beb1	-0.78025347
134	0xbf9cb5a6	-1.2242935
135	0xbdd2470d	-0.10267458
136	0xbe93811f	-0.2880945
137	0xbe37d196	-0.17951044
138	0xbfa1ca06	-1.2639778
139	0xbee78c2d	-0.45224133
140	0x3dec49dc	0.11537525
141	0x3ec627fd	0.38702384
142	0x3f7a9e5d	0.97897893
143	0x3f977d64	1.1835141
144	0xbf0efb56	-0.5585226
145	0xbe6b54cb	-0.22981565
146	0x3d7643b1	0.06012315
147	0xbe6df8a1	-0.23239376
148	0xbf5fa183	-0.8735582
149	0xbe244e6a	-0.16045538
150	0xbeea7236	-0.4579026
151	0xbc5b4c15	-0.013384839
152	0xbf77ff32	-0.9687377
153	0xbedffd21	-0.4374781
154	0xbeae3981	-0.34028247
155	0xbfd4afb1	-1.6616117
156	0xbded4e57	-0.11587208
157	0xbe097051	-0.13421752
158	0xbf5639ef	-0.8368215
159	0xbda9b370	-0.08286178
160	0xbf033534	-0.51253057
161	0xbf83ebd1	-1.030634
162	0xbebb99c1	-0.36640742
163	0x3d746bdf	0.059673186
164	0xbecca3b2	-0.3996864
165	0xbf04069e	-0.515726
166	0xbe938c74	-0.28818095
167	0xbe15931b	-0.14606898
168	0x3e53ef6f	0.20696805
169	0xbe4ede24	-0.20201927
170	0xbe36e876	-0.17862114
171	0xbebf2440	-0.37332344
172	0xbe8b599e	-0.2721681
173	0x3f8b00d8	1.0859632
174	0xbe8347c3	-0.25640687
175	0x3ec11c81	0.3771706
176	0x3bc6fb50	0.0060724393
177	0xbf5306ee	-0.8243245
178	0xbe3fe39b	-0.18739168
179	0x3f0c8ffd	0.5490721
180	0x3f08b020	0.53393745
181	0xbf518043	-0.81836337
182	0xbe16e21d	-0.14734693
183	0xbeac636c	-0.33669603
184	0xbf657369	-0.89629227
185	0xbfccd70a	-1.6003125
186	0xbe09b146	-0.1344653
187	0xbf3e8253	-0.7441761
188	0xbf3cb23e	-0.73709476
189	0xbca3f3eb	-0.02001377
190	0xbe79c71a	-0.24392357
191	0xbf0b064b	-0.5430648
192	0xbe293f8f	-0.16528152
193	0xbf90673e	-1.1281507
194	0x3e71ba18	0.23606145
195	0xbef8b262	-0.48573595
196	0x3e6a1f96	0.22863612
197	0xbec490f6	-0.38391846
198	0xbebc5a7f	-0.36787793
199	0x3e533f6d	0.20629664
200	0xbea6cf72	-0.32580143
201	0xbe26d74c	-0.16293067
202	0x3f174eb4	0.59104466
203	0xbe9dea9e	-0.3084306
204	0xbf8eda01	-1.116028
205	0x3f1d0149	0.61330086
206	0x3f279def	0.6547536
207	0xbedbdf5a	-0.4294384
208	0xbf2f9f08	-0.6860204
209	0xbc9f152c	-0.019419275
210	0x3e74647a	0.23866454
211	0xbe7b13e4	-0.24519306
212	0xbf6f5f61	-0.9350491
213	0xbfbdac08	-1.4818125
214	0xbf49d09d	-0.78833944
215	0xbf534752	-0.825307
216	0xbe810908	-0.25202203
217	0xbe6c1ab0	-0.23057055
218	0xbe9bb874	-0.30414164
219	0xbd0ce138	-0.034394473
220	0xbe8d3d7e	-0.27585977
221	0x3f1a2159	0.60207134
222	0xbf2eeb05	-0.6832736
223	0xbe2440cd	-0.16040345
224	0xbf77e424	-0.9683249
225	0xbe000ef9	-0.12505712
226	0xbe84e7d1	-0.25958112
227	0xbdaf9b80	-0.08574581
228	0xbeb4afb0	-0.3529029
229	0xbe21bf5b	-0.15795653
230	0xbec23b47	-0.3793585
231	0xbf8f0a00	-1.1174927
232	0x3f971714	1.1803918
233	0x3e9b8579	0.3037527
234	0x3f898ff2	1.0747054
235	0xbf11837c	-0.56841254
236	0xbf8cfafa	-1.1014092
237	0x3f2a7eb1	0.66599566
238	0xbf90c619	-1.1310455
239	0xbd8ccb3a	-0.068747
240	0xbe5c8a84	-0.21537215
241	0xbe75957e	-0.23982808
242	0xbe1b7cad	-0.15184279
243	0xbf9008be	-1.1252668
244	0xbd990641	-0.07471896
245	0x3f1d8d29	0.6154352
246	0xbe6979be	-0.22800347
247	0xbe7b78a7	-0.24557744
248	0xbea1b0f6	-0.31580323
249	0xbe3a78f4	-0.18210202
250	0xbf349df4	-0.7055352
251	0xbf265a30	-0.64981365
252	0xbe88e082	-0.26733786
253	0xbf7a97b8	-0.97887754
254	0x3bb985eb	0.005661716
255	0xbe70ddfd	-0.23522182

action_out.weight f4 [4, 256]
0	0xbd4a30d9	-0.04936299
1	0x3dc5f07d	0.0966501
2	0xbe52f110	-0.2059977
3	0x3c8372aa	0.016045887
4	0xbbf744eb	-0.0075460575
5	0xbd45fcea	-0.0483369
6	0x3cac43f9	0.021028506
7	0xbc74584d	-0.014913631
8	0xbd124ee2	-0.03571976
9	0x3b96c4ec	0.0046011116
10	0x3d9255ed	0.07145295
11	0x3d39de92	0.045378275
12	0xbc533a0d	-0.012892258
13	0xbb1d75d0	-0.002402652
14	0xbdd739c7	-0.10509067
15	0xbe586c83	-0.21135144
16	0xbdca24b8	-0.09870285
17	0xbca90af5	-0.020635108
18	0xbfd02d94	-1.6263909
19	0xbd979e57	-0.07403248
20	0xbd2cb98c	-0.04216914
21	0xbd346294	-0.044039324
22	0x3e4f2e98	0.20232618
23	0xbce33aab	-0.027737936
24	0x3d51651d	0.05112182
25	0xbebe175e	-0.37127203
26	0x3da9659d	0.08271334
27	0xbd45ceea	-0.04829303
28	0xbe058dd1	-0.1304238
29	0xbcb0c1f0	-0.021576852
30	0x3d5ff47c	0.054676518
31	0x3c06ed86	0.008235341
32	0x3d6fff81	0.058593277
33	0x3cf4f519	0.029902028
34	0x3dde5952	0.1085688
35	0xbdbd7aa8	-0.092519104
36	0xbe90d47f	-0.28287122
37	0x3c1a8290	0.009430543
38	0xbf27f854	-0.65613294
39	0x3dd0d3aa	0.10196622
40	0xbd5b108d	-0.05348258
41	0x3e7f5b61	0.24937202
42	0x3d1f6e7b	0.03892372
43	0xbe628ac1	-0.22123243
44	0xbbe75476	-0.007059629
45	0x3d4e57b2	0.0503766
46	0xbd093fcc	-0.033508107
47	0xbe2f4d26	-0.17119274
48	0x3eaa2c55	0.33236948
49	0x3e745873	0.23861866
50	0xbecb5340	-0.39711952
51	0x3c9aba2e	0.018887606
52	0x3c6988ba	0.01425379
53	0x3ca7d432	0.020486925
54	0x3e178173	0.14795475
55	0x3c29df90	0.010368243
56	0xbc52eb95	-0.01287355
57	0x3bedf0bb	0.0072613633
58	0xbbf01316	-0.007326494
59	0xbc7f8d13	-0.0155976
60	0x3a81f0c5	0.0009913674
61	0xbde643d5	-0.11243407
62	0x3db3b8b9	0.087754674
63	0x3d7b89b1	0.06141061
64	0x3cef7f20	0.029235423
65	0xbe3593ca	-0.17732158
66	0x3dbf2b67	0.0933445
67	0x3d343fa3	0.044006
68	0xbe68d165	-0.22736128
69	0x3e0ce906	0.13760766
70	0x3e43d246	0.19123182
71	0x3d4b034c	0.04956369
72	0xbe4e6fe9	-0.20159878
73	0xbc3eb027	-0.011638678
74	0xbe1a0aff	-0.15043257
75	0xbcf69c63	-0.030103868
76	0x3d8ecac5	0.06972269
77	0x3b2c8cf4	0.0026329132
78	0x3dc9984c	0.098435014
79	0xbc8ef618	-0.017451331
80	0x3d88eab0	0.06685388
81	0xbbd61d24	-0.0065342356
82	0x3ca6cdfd	0.020361895
83	0x3c445d81	0.011985184
84	0x3e811c16	0.2521674
85	0xbdc4cb1e	-0.09609054
86	0x3ce851be	0.02835929
87	0x3e073782	0.13204768
88	0xbc9e81a5	-0.019348929
89	0x3c399993	0.011328119
90	0xbea8fc59	-0.33005026
91	0x3e44999b	0.19199221
92	0x3c19898f	0.009371175
93	0x3d86aec4	0.06576303
94	0x3e65174f	0.22372173
95	0x3e6040cc	0.21899718
96	0x3d0f8600	0.0350399
97	0xbd5f7f71	-0.054564897
98	0xbd9bc63e	-0.07606171
99	0x3bce3f41	0.0062941615
100	0xbda4e629	-0.08051712
101	0x3f1d3c0d	0.61419755
102	0xbdb4ef26	-0.088346764
103	0xbd56503a	-0.052322604
104	0xbce9029c	-0.028443627
105	0xbd79b8e7	-0.060967352
106	0x3de1ec1a	0.11031361
107	0xbc161d5c	-0.009162273
108	0x3d8b093e	0.06788872
109	0xbd1c6460	-0.038181663
110	0xbd770278	-0.06030509
111	0xbe020478	-0.12697017
112	0x3f6332c6	0.8874935
113	0xbc85b229	-0.016320305
114	0x3d3152d6	0.04329189
115	0xbd68c4c5	-0.05682828
116	0xbd21b3f7	-0.03947827
117	0xbe4f86d0	-0.2026627
118	0xbb36f99c	-0.0027919775
119	0xbd090ea8	-0.033461243
120	0x3cce8d9d	0.02521401
121	0x3d939918	0.07206935
122	0x3df39d32	0.11895217
123	0xbd959e90	-0.07305634
124	0xbe95a5c0	-0.2922802
125	0xbe1e68f9	-0.15469731
126	0x3cbd1ffd	0.023086542
127	0x3d985313	0.0743772
128	0x3e0e0321	0.13868381
129	0x3d4634a5	0.04839005
130	0x3de911a7	0.1138032
131	0x3dc7eedb	0.09762355
132	0x3e308844	0.17239481
133	0xbba52f4f	-0.00504104
134	0xbf490004	-0.7851565
135	0x3d73d4c1	0.05952907
136	0xbd5d5c21	-0.05404294
137	0x3d38ef50	0.0451501
138	0xbd6d80e4	-0.057984248
139	0xbdbc343e	-0.09189652
140	0xbd3f5162	-0.046708472
141	0xbea7ba60	-0.3275938
142	0x3c9ca9ff	0.01912403
143	0xbd688a81	-0.056772713
144	0x3ccd2d97	0.025046153
145	0x3d4a7845	0.049431104
146	0x3c2232ab	0.0098997755
147	0x3daefee5	0.08544711
148	0xbc875b4d	-0.016523028
149	0x3d1b85dc	0.037969455
150	0xbc8da049	-0.017288344
151	0xbca53e48	-0.0201713
152	0xbd1b5e77	-0.037931886
153	0xbb413c69	-0.002948547
154	0x3daed961	0.085375555
155	0x3f3abfe8	0.72949076
156	0x3e771ab3	0.24131279
157	0x3dfe95e3	0.124309324
158	0xbd0afbe1	-0.033931617
159	0xbdbe9cce	-0.09307252
160	0x3c7ab85a	0.015302742
161	0xbe635da5	-0.22203691
162	0x3d14b989	0.036309753
163	0x3ce39c3e	0.027784463
164	0xbe51a7e7	-0.20474206
165	0xbc4a7fa0	-0.01235953
166	0xbd023d3f	-0.03179669
167	0x3d365bc2	0.0445211
168	0x3bb589ed	0.0055401237
169	0xbdcdf7f0	-0.10057056
170	0xbd7e4a6b	-0.06208269
171	0xbe75c79f	-0.2400193
172	0xbcdd87cb	-0.02704229
173	0x3d99a168	0.07501489
174	0x3d330fbe	0.043716185
175	0xbc9160b0	-0.0177463
176	0xbd5c5fd4	-0.053802326
177	0xbdfefec8	-0.124509394
178	0xbdca5504	-0.09879497
179	0xbc94cec9	-0.01816501
180	0x3d468328	0.048464924
181	0xbbb2e66d	-0.005459598
182	0x3c5333f3	0.012890804
183	0x3e2eeb11	0.17081858
184	0xb870cc1c	-5.741055e-05
185	0xbc0b0057	-0.008483968
186	0xbd0b5778	-0.034018964
187	0xbd409b77	-0.047023263
188	0xbe4e0f05	-0.20122917
189	0xbc1a3b45	-0.009413545
190	0xbe8eaf5f	-0.27868173
191	0x3d569ebe	0.052397482
192	0x3d1690d7	0.036759224
193	0xbd8eab9f	-0.06966328
194	0x3d9a214d	0.07525883
195	0xbdfe40e0	-0.12414718
196	0x3d400a93	0.046885084
197	0xbdba44ef	-0.09095179
198	0x3d5135ff	0.051076885
199	0xbd69e634	-0.057104304
200	0x3db3981c	0.08769247
201	0x3da826c1	0.08210517
202	0x3de4d8a7	0.11174136
203	0xbdc40081	-0.095704086
204	0x3968901f	0.00022178933
205	0xbd21fb53	-0.039546322
206	0x3d2a87b3	0.04163332
207	0xbd45c539	-0.04828379
208	0xbb3076e4	-0.0026926333
209	0xbdac0667	-0.08399659
210	0xba3f6cb5	-0.00073022704
211	0xbd965989	-0.07341296
212	0x3e141fdf	0.14465283
213	0xbd06f6bc	-0.032950148
214	0xbaec4f83	-0.0018029067
215	0xbe52dda5	-0.20592363
216	0xbb668acf	-0.0035177951
217	0xbcfb85c9	-0.030703442
218	0x3a2bc91b	0.00065530994
219	0x3e4d5dd7	0.20055328
220	0xbd2687a5	-0.040656704
221	0x3cc4150d	0.023935819
222	0xbe13a046	-0.14416608
223	0xbd9d4ad1	-0.07680286
224	0xbda2db15	-0.07951943
225	0xbc0d93be	-0.0086411815
226	0x3cf59098	0.029976174
227	0x3cad439e	0.021150406
228	0xbe6e3ecf	-0.23266147
229	0x3ca7e39e	0.020494279
230	0x3df7f7bd	0.12107799
231	0x40073ef3	2.113217
232	0xbdd65368	-0.10465127
233	0x3d5451b3	0.051835727
234	0xb9c71a0a	-0.00037975638
235	0xbbaa3b16	-0.005195032
236	0x3c81d20e	0.015847232
237	0xbb46f042	-0.0030355607
238	0xbd780584	-0.060552135
239	0xbc8245c3	-0.015902406
240	0x3da53bd6	0.080680534
241	0x3c0b829c	0.008515026
242	0x3dcdf3b4	0.10056248
243	0xbcc7c03e	-0.02438366
244	0x3dfe461b	0.12415715
245	0xbe4b305e	-0.1984267
246	0xbe3f2277	-0.18665491
247	0x3ecbf393	0.3983427
248	0xbdfb1355	-0.12259547
249	0xbe30f7be	-0.17282006
250	0xbd8ed9d5	-0.06975142
251	0xbd919184	-0.07107833
252	0x3ea12e53	0.31480655
253	0x3d5d5bea	0.054042734
254	0xbd4307af	-0.04761475
255	0x3e8c51fa	0.27406293

action_out.bias f4 [4]
0	0x3b12bacd	0.0022389174
1	0x3b75106d	0.0037393824
2	0xbada4d26	-0.0016655072
3	0xbba0e9b5	-0.0049106725
