saved_models/FetchPush-v1/model123.pt (torch, 563151 bytes, 8 tensors)

fc1.weight f4 [256, 28]
00000000: 6328 343e 2774 9fbe 9137 cc3e 8ce6 32be
00000010: 5a8c 00bf 6612 493e e6d1 e8be 7d60 19bf
00000020: f4e8 16bf d401 6a3f 3b48 d6bf 7e89 a6bd
00000030: 87f9 e53d f625 83bc dfef a8be a930 25bf
00000040: 8ac2 e63e 7b77 0cbe 468a 7fbc ce84 743d
00000050: dddb ffbe 610a 34bf fa5e 903e d843 b23d
00000060: 7e9c 9fbe ca83 ca3e 33a7 873e 6c39 3b3d
00000070: 3a01 753e 17fd 92be dcca a53e 13dd de3e
00000080: cffc 063f f5a9 f53e fef5 343f 7b07 813e
00000090: 0544 21be a27e 19be a88a 633f 0717 333e
000000a0: ec13 ee3d cbee 313d 2a8d 2cbc f432 613c
000000b0: 8f7c 38be 213f b23a d780 493e 8911 823d
000000c0: bc3c e8ba 074b 8abd 8837 14bd f77a e53d
000000d0: 817c 80be 418a 923e 1545 5ebe 33b7 a23e
000000e0: 84e0 ce3d 8b21 42bf ee98 46be 8eeb 37bf
000000f0: c658 a5be e0c1 e7be 1d9d 98bf b846 7e3f
00000100: 1546 2e3e d914 e43e 92ad 58bf ab3c 0ebc
00000110: 9621 6d3d 3281 c23c 66cb 66be a082 7fbd
00000120: 533f d0bd 6c41 893c 4753 ba3d 692d 803c
00000130: f19d 4cbe 024e b1bd 755f 13bd d07e ce3d
00000140: 236e c1be ef0c 2e3f da17 5e3f fb05 113f
00000150: b724 d8be 0470 70bc 6a88 cb3d 7b06 bcbd
00000160: c72c 593e 8666 093f 7d26 733c 0557 ae3e
00000170: 6804 5cbd a30d df3e 8ff8 eabe 5f3d ed3d
00000180: eb9e 31bd 55e1 db3d 8b61 7c3e 46c3 243f
00000190: e68a 4d3f 7195 0abd f30b 68bd 2813 013d
000001a0: 206e d83e 957d ef3e 0e2e 403f cca2 773e
000001b0: 5b05 d83e 962b 083f addd 8abe 3109 c6bd
000001c0: 8535 473e 517d cabd 072d fd3c 56ae a83e
000001d0: f1cd dc3d a333 173f 4f60 fe3e 890a e13e
000001e0: d966 2c3e 4e52 8ebd 37eb 8d3f da81 3fbe
000001f0: 6218 e43d 678e a63d 6dcf bd3e 4238 01be
00000200: e431 82bd 519c 783c bf60 3c3e 0fa5 9d3e
00000210: e0c8 ba3e 1f91 53be cc7e 373e 3e3d 3f3e
00000220: 7756 84be 9795 8ebe 8067 b7bd ae38 f3be
00000230: cda3 05bd bff8 653e ca70 dcbd eeb4 aabe
00000240: 9349 f6be b2c6 18c0 fb69 bfbe 5a0c 2bbf
00000250: 95b0 07be c404 30bf 9da6 a13f 5474 7dbd
00000260: 7b8d 7fbc 2a24 41bc 91d7 3dbd fe2a 26bd
00000270: b1a7 51bf 2a7c bb3b 8829 54bc 7da9 783d
00000280: 2ea0 513e 16d1 8b3d 7662 46bf 6a16 77ba
00000290: 86ba 87be 5a3e ee3e 357b 2e3e 9e5d 9bbe
000002a0: 0948 533d 3da5 e73e 3c52 3ebd fd74 1bbf
000002b0: 5edd 543c bb6c cbbe dde6 ffbe 6318 22bf
000002c0: 0973 cabc 1d13 2d3e 703a 823f fa27 f8bc
000002d0: 73f0 7c3d bebe 28bc e552 d1be f9e6 87bc
000002e0: 4c61 fcbc 5e64 c3bd 6934 97bc 278c a9bb
000002f0: ba53 4abe 96c0 3abe 36e4 4fbe e33a 003f
00000300: 89d3 583e 87fa b93e 31b9 30bf 0612 5fbf
00000310: 3937 413f 6118 a5be 0544 0e3c 3377 c83f
00000320: e65a 20bf db52 0e3e c9cc 2f3f f43e 97be
00000330: c15e 5d3b a2c8 b23e a8a9 b3be 1217 093c
00000340: 4ab0 19bc de12 193d 257c 343e e11c 69bd
00000350: 655c d5bb e532 c03c c02e 2f3d 322c 143c
00000360: ec4c 393e c1b4 3abd c137 c0bb fae1 25bc
00000370: 0f69 ccbc dfa2 0ec0 edfe 663f 92c4 31be
00000380: 4edf 9cbe 4a87 2dbf 838e 803f 0f85 30bf
00000390: d6c8 cb3e 4cb2 2bbf 52f8 9dbc e276 7a3f
000003a0: 8d31 aebf ef68 6fbf 47a1 4140 656b 0a3b
000003b0: 6071 d7bb 82af debd f4b6 a9bd 2d39 393d
000003c0: 71e6 60be 2d01 0b3b b789 33bd 241c e7bc
000003d0: b857 b3bd 20b8 11bc d002 e1bd b809 c93e
000003e0: b567 86bd a279 593f e97c 133e 1c92 223e
000003f0: f115 d43e f62f 3cbf 62bd 2cbe 29ad ec3e
0.17593531 -0.31143305 0.39886144 -0.17470759 -0.5021416 0.19635925 -0.4547264 -0.59912854
-0.5894921 0.9140904 -1.6740793 -0.08131693 0.11229234 -0.016009312 -0.32995507 -0.64527375
0.45070297 -0.13717453 -0.015596932 0.059696965 -0.4997243 -0.70328337 0.2819746 0.087043464
-0.31174082 0.39553672 0.2649475 0.04570906 0.23926249 -0.28708717 0.32381332 0.4352804
0.52729505 0.4798123 0.70687854 0.2520102 -0.15748604 -0.14989713 0.8888345 0.17489253
0.116248935 0.04344062 -0.010531703 0.013745058 -0.18016265 0.0013599136 0.19678055 0.06351001
-0.0017718296 -0.067525916 -0.03618577 0.11205094 -0.2509499 0.28621104 -0.2170604 0.31780395
0.10101417 -0.7583243 -0.19394276 -0.718438 -0.3229429 -0.45265102 -1.1922947 0.9932666
0.17018922 0.44547155 -0.8463985 -0.008681457 0.05789336 0.023743246 -0.22538528 -0.062380433
-0.10168328 0.016754828 0.09097915 0.015646653 -0.19982125 -0.08657457 -0.035979707 0.10082781
-0.3777934 0.67988485 0.86755145 0.5664975 -0.4221551 -0.014675144 0.09938128 -0.091809236
0.21208487 0.53672063 0.014840719 0.34050766 -0.05371514 0.43565091 -0.4589276 0.11583971
-0.043364447 0.10736338 0.24646585 0.64360464 0.8029007 -0.033833925 -0.05665202 0.03151241
0.4227152 0.467755 0.75070274 0.24183196 0.42191586 0.53191507 -0.2712225 -0.09669722
0.1945401 -0.098871835 0.03090526 0.32945508 0.10781468 0.59063166 0.49682853 0.4395335
0.16836108 -0.06949292 1.1087407 -0.18701878 0.11137463 0.0813263 0.37072316 -0.12619117
-0.06357172 0.0151739875 0.1839628 0.30789992 0.3648138 -0.20660828 0.17919463 0.18675706
-0.25847217 -0.27848503 -0.08955288 -0.4750418 -0.032626916 0.2245817 -0.107637 -0.33341163
-0.48103008 -2.3871274 -0.37385544 -0.6681572 -0.13250954 -0.6875727 1.2628971 -0.061878517
-0.015597696 -0.011788407 -0.04634816 -0.040568344 -0.818965 0.0057215886 -0.012949355 0.06070851
0.2047126 0.06826989 -0.7749399 -0.0009425642 -0.26509494 0.46531945 0.17039187 -0.30344862
0.05158237 0.45243254 -0.046465144 -0.60725385 0.012992231 -0.39731392 -0.49980822 -0.6331846
-0.024713056 0.16901822 1.0174084 -0.0302925 0.061752748 -0.010299383 -0.40883556 -0.016589629
-0.030808114 -0.09540628 -0.018457608 -0.005174178 -0.19758502 -0.18237528 -0.203019 0.50089854
0.21174444 0.3632395 -0.6903258 -0.87136877 0.7547489 -0.32245162 0.008683209 1.5661377
-0.626387 0.13898794 0.6867185 -0.29540217 0.0033778402 0.34918696 -0.35090375 0.008367317
-0.0093804095 0.03737151 0.17625482 -0.056912307 -0.0065112584 0.023461768 0.042769194 0.00904374
0.1809575 -0.045582537 -0.0058660214 -0.010124678 -0.02495244 -2.2286909 0.90232736 -0.17360142
-0.30639118 -0.6778456 1.0043491 -0.6895303 0.39801663 -0.67068934 -0.019283447 0.9783765
-1.3608872 -0.9351949 3.0254686 0.002112114 -0.0065747947 -0.10873319 -0.08286849 0.045220543
-0.21962906 0.0021210418 -0.043832507 -0.02821166 -0.087569654 -0.0088939965 -0.109868646 0.39265227
-0.06562749 0.8495122 0.14403118 0.15876049 0.4142299 -0.7351068 -0.16869119 0.4622586

fc1.bias f4 [256]
00000000: b2b6 18c0 a388 22c0 ca13 bfbf a66f f1bf
00000010: 6c58 13c0 7a7e 3cbf 1e6c 1bc0 b624 c9be
00000020: f568 22bf 6c02 fbbf 83c4 f5bf 503a f1bf
00000030: c018 2bbf 69fc 15c0 47b9 c9bf e5a8 21c0
00000040: 7bbd 33bf 1f1c 90bf 9867 99bf c9cf 42bf
00000050: fdd4 b7bf 14a3 a5bf 30ba 0fc0 8dcf 1dbf
00000060: 9ef9 86bf 1172 afbf 24b9 aebf 4bc5 22c0
00000070: 7a80 13c0 9e88 9cbf 170e e2bf a485 93bf
00000080: 2dd1 f8bf cebf ccbe dac0 adbf 2163 16c0
00000090: 7e0b c2bf 5663 16c0 49d1 c7bf a0dc a1bf
000000a0: 8a76 dcbf 05a8 c23e f1da 8cbf 790e 9dbf
000000b0: fae0 acbf ea1c bbbf 8915 603f 4c2d afbe
000000c0: b6f1 b2bf dbaa f3bf dcbb d03d 9c03 30c0
000000d0: 9010 22c0 8832 babf 164e bbbf 0510 edbf
000000e0: 2091 ddbf 2ce2 8e3d 4775 1ac0 6359 a8bf
000000f0: 14a2 abbe cd80 00bf 232e 5abf 5e4d acbf
00000100: c12e a8bf 0be4 efbf 45b6 c2bf de86 503f
00000110: 9edf 01bf 7c08 12bf 5351 21c0 8792 b9bf
00000120: 669d 58be d298 943f eef3 d53f a5aa cfbf
00000130: 3ce9 1cc0 2924 0bc0 47f1 6cbf 5c28 31c0
00000140: 71b8 05c0 6df4 0cc0 69af afbf 7805 6fbf
00000150: 0a3b f9bf ae72 e3bf 128e 19c0 5360 fdbf
00000160: ac40 d4be 0bd7 b4bf 477a b9be e192 6fbf
00000170: ed9f 17c0 24aa 23c0 c10f b5bf cecc c9bf
00000180: 6c37 d6bf b36b edbf 8ad8 e2bf 4e56 153f
00000190: 8d3d dbbf a678 00c0 3a3e 1abf 27ae f3bf
000001a0: aead 96bf 8ab1 dcbf 2c15 f1bf fb44 0ac0
000001b0: add0 38bf 3ecd 10bf ffa5 adbf 1330 50bf
000001c0: 4feb cabf ca45 d6bf fdd0 1fc0 fe0e f3bf
000001d0: 39eb d4be f13c 9cbf 5dfc 21c0 d8a1 9bbf
000001e0: cdc6 a4bf 9119 1bc0 bd14 12c0 699f 92bf
000001f0: a9d6 e7bf 0887 8cbf 9173 17c0 38d5 99bf
00000200: 533c 05c0 bb23 61bf 767c 9bbf 11b1 cabf
00000210: c8b2 11c0 163b 8ebf 74bb 36c0 8133 e0bf
00000220: cfac dbbf 10df f2bf 6fc5 483f 367d 25c0
00000230: 2120 16c0 aee5 bcbf d5c7 14c0 fcab f8bf
00000240: 11e4 d4bf 6d54 c6bf bcc3 13c0 5b65 8fbf
00000250: e316 d2bf d7b7 05bf 5bf6 4e3f c492 adbf
00000260: 005d 1dc0 903e 2ac0 66c8 e9bf 7a4c 00c0
00000270: 0a19 f0bf 3543 e9bf c94e 0cc0 e7f7 03bf
00000280: f703 3a3f 5195 d9bf ae9e 06c0 cc0e 01c0
00000290: b032 c8bf 77df a8bf 9010 dabf 18de f6bf
000002a0: 253e 05c0 8b01 f1bf ec31 98be 4b24 b1be
000002b0: 1fb5 04c0 bdaa 0dc0 bf6e d7be b935 9dbf
000002c0: b2ff debf f0f8 04c0 150d bfbf 3430 e2bf
000002d0: b980 edbf b7d0 b0be e0bd 02c0 ed85 b7bf
000002e0: 090c cfbf 664f 393f ae91 d4bf cd9e febf
000002f0: 88da e5bf b50f 09c0 cf51 21c0 4154 45bf
00000300: a126 b7bf cf74 8d3e 2c07 b5bf 1935 f4bf
00000310: 643f ccbf f0d3 82bf 708e c3bf f108 31c0
00000320: 26a3 c9bf 6d87 27c0 da8c 06c0 2f1b 89bf
00000330: e79e 22c0 0d82 1ec0 6b2e 17c0 eb81 91bf
00000340: 71f3 60bf 7f5c 01bf 86f4 2bc0 05e9 06be
00000350: b17d 1fc0 56d2 b7bf b9d1 90bf 0aa6 0ac0
00000360: 92f8 22c0 3201 dabf 15a6 e4bf 902f 11c0
00000370: b777 a6bf 78f7 b8bf a1e4 87bf e70d 4c3f
00000380: f429 24c0 2a7d f1bf 61c2 f6bf 1566 fcbe
00000390: 291a f1bf 99a8 0fc0 7eef ddbf 850f 19c0
000003a0: add3 bfbf ab84 8dbf 1083 ebbf 683c efbf
000003b0: feeb 17c0 c826 dbbf 118c 18c0 2ef6 0ac0
000003c0: 3890 2ac0 bc0f 23c0 85dd 91bf ccba 953d
000003d0: 46db e9be ac0a 1ec0 05e0 01c0 46e2 a7bf
000003e0: 9b0d dbbf 9d7d c6bf 52e5 dbbf e95e 2fc0
000003f0: b527 5bbf 89d9 b7bf 24bd 66bf a561 a0bf
-2.3861508 -2.5395896 -1.4927914 -1.8862197 -2.3022718 -0.7363049 -2.428474 -0.3928582
-0.634414 -1.9610114 -1.9200596 -1.884592 -0.6683464 -2.343531 -1.5759667 -2.5259335
-0.70211 -1.1258582 -1.1984739 -0.76098305 -1.4361874 -1.2940392 -2.245739 -0.6164482
-1.0544927 -1.3706685 -1.365025 -2.5432918 -2.3047166 -1.2229192 -1.766055 -1.1525159
-1.9438835 -0.39990085 -1.3574479 -2.3498003 -1.5159757 -2.349813 -1.5610744 -1.2645454
-1.7223675 0.38018814 -1.1004316 -1.2270042 -1.3506157 -1.4618199 0.8753286 -0.34214246
-1.3980014 -1.9036516 0.10192081 -2.7502203 -2.532261 -1.4546671 -1.4633205 -1.8520514
-1.7309914 0.069767326 -2.413408 -1.3152279 -0.33522093 -0.50196534 -0.8522665 -1.346111
-1.3139268 -1.8741468 -1.5211874 0.8145579 -0.5073184 -0.57044196 -2.5205886 -1.4497842
-0.21153793 1.1609137 1.6715066 -1.6223952 -2.4517355 -2.174082 -0.9255566 -2.7680883
-2.0893824 -2.2024186 -1.3725406 -0.9336772 -1.9471142 -1.7769372 -2.3992963 -1.9795021
-0.4145559 -1.4128126 -0.36226103 -0.93583494 -2.369136 -2.5572596 -1.4145433 -1.5765626
-1.6735663 -1.8548492 -1.7722332 0.58334816 -1.7128159 -2.0073638 -0.602512 -1.9037522
-1.1771753 -1.7241681 -1.8834586 -2.1604602 -0.72193414 -0.56563175 -1.3566283 -0.81323355
-1.585306 -1.6740048 -2.4971306 -1.898895 -0.4158571 -1.2206098 -2.531028 -1.2158766
-1.2873169 -2.4234354 -2.2825158 -1.1454898 -1.8112384 -1.0978708 -2.3664286 -1.2018194
-2.081807 -0.87945145 -1.2147357 -1.5835286 -2.276537 -1.1111782 -2.8551912 -1.7515718
-1.7162112 -1.8974323 0.7842626 -2.5857673 -2.345711 -1.4757593 -2.3246968 -1.9427485
-1.66321 -1.5494515 -2.3088217 -1.1202806 -1.6413234 -0.5223364 0.8084466 -1.3560414
-2.4588013 -2.6600685 -1.8264282 -2.0046678 -1.8757641 -1.8223635 -2.1923087 -0.51550144
0.726623 -1.6998693 -2.103435 -2.0165281 -1.5640469 -1.3193196 -1.7036304 -1.9286528
-2.081918 -1.8828596 -0.29725587 -0.34598002 -2.0735548 -2.213546 -0.4207668 -1.228202
-1.7421782 -2.077694 -1.4925867 -1.767096 -1.8554908 -0.34534237 -2.042839 -1.4337746
-1.6175548 0.7238678 -1.6606958 -1.9892212 -1.7957315 -2.1415837 -2.5206182 -0.77081686
-1.4308664 0.2762818 -1.4142814 -1.9078704 -1.5956845 -1.0220928 -1.5277843 -2.7661707
-1.5752914 -2.6176407 -2.102347 -1.0711421 -2.5409486 -2.4766877 -2.3622081 -1.1367773
-0.8787146 -0.5053176 -2.6867995 -0.13174827 -2.4920466 -1.4361064 -1.1314002 -2.1663842
-2.5464215 -1.7031615 -1.7863184 -2.268528 -1.3005284 -1.4450521 -1.0616647 0.79708713
-2.5650606 -1.8866322 -1.927807 -0.49296632 -1.8836108 -2.2446654 -1.7338712 -2.3915722
-1.4986473 -1.1056112 -1.8399372 -1.869031 -2.3737788 -1.712121 -2.383549 -2.1712756
-2.6650524 -2.5478354 -1.1395727 0.07311019 -0.45675105 -2.4694014 -2.029298 -1.3115928
-1.7113527 -1.5507084 -1.7179358 -2.7401679 -0.85607463 -1.4363261 -0.90132356 -1.2529799

fc2.weight f4 [256, 256]
00000000: ac1c 383f 36c6 873e 8dd4 76bf 0697 5f3e
00000010: 1a49 3fbf 5ab0 d13d 632f a9be a8ba 1c3e
00000020: 3391 16bf 251f 46bf 1a2f 153e 1de5 c9be
00000030: 2666 e7be 37b4 423f 1e8a 853e 07ce 30bf
00000040: 8081 473c 25a3 d3be 8e08 2a3d a815 34be
00000050: c4e6 21bf d813 19bf 19de 72be 0c13 7dbd
00000060: 9b5d edbe 5331 cebe 63c8 9c3e 8a37 b8be
00000070: 4a1a 043e 5fab 2c3e 2c43 ad3e aa49 8cbc
00000080: b9fd 0a3f a851 d8be 2097 95bf 3fda 98bf
00000090: e6cf babc 2d21 80be 12cf 7dbd dbac 5a3b
000000a0: c648 833e 264d 94bd d1a0 233f b768 dd3d
000000b0: 9839 f33e c02b 6a3e 4365 463e daf0 23bf
000000c0: dbac eebd 1399 83be f073 a6be 792a 573b
000000d0: d848 823e 375a 0abc 2399 373d 41ce b9bd
000000e0: e243 f0be 3b78 2abf e912 f6be 85ce 0abe
000000f0: cd43 dc3e ba03 10c0 ed92 b1bf 7a13 1abf
00000100: d5f8 f03e 650f c43e 1f7e 7dbf d735 323f
00000110: e9ca 7a3e 6317 b73e 01f6 89be 4799 00bd
00000120: 8192 2ebe e84d cb3e 9609 56be bfd8 39bf
00000130: e780 49bf 82a7 21be 6c91 3b3e b311 cb3c
00000140: 775f da3e 7d4e febe aab6 8d3e 495a b23d
00000150: 89d8 0c3e 229f af3d acbc ca3e fb3b 58be
00000160: 9149 a9be 0af6 1fbf 7d66 eb3e 3868 883e
00000170: 0970 7cbe 3097 54be d3b1 9f3e c048 713e
00000180: c75f 25bf 1edf b83e 3a54 23bd d05a 05be
00000190: 9334 0dbf bf60 5d3e d1c5 813e 84c3 efbe
000001a0: 8fb6 99be e6bc 7b3e 8446 ebbe 9f05 343e
000001b0: 208a 1bbf b884 9bbf c51e 7e3e 2682 85bf
000001c0: 9648 97be e954 19bf 9715 e8be a9c4 a13e
000001d0: 07f7 ee3d 21a3 98be f6ca f3be bf63 dfbe
000001e0: 6e76 e0be 79f3 ebbe ae5a 913e 3747 fa3e
000001f0: 06be 89be f556 87be e54b 383e 2be4 03bf
00000200: 00be af3e bca9 42bf fb85 903e b63b fa3e
00000210: f4e6 d33e 77da fb3e 3d2a cabf 1c01 34be
00000220: 17ae 883f 81a5 be3e 2c8c 883e 9d17 1e3d
00000230: b2df 19bd 17e0 8d3e c0d2 b1bd dd21 c8be
00000240: 4c61 2fbe 1617 f93c 266a eb3e 69e0 84be
00000250: 653f d0be 057d 813e 7438 8fbe 5e5c 05bf
00000260: d396 8b3e d651 28bf aa47 1f3e 732b 24bf
00000270: e6b7 d73e cc91 cabe 9c53 31bf ec00 cdbf
00000280: 7496 3e3f fff6 47be 83ba 8cbe d055 d4bd
00000290: 2948 3f3e 6356 e33e c065 0d3f 8aa7 88be
000002a0: d315 413e 1350 843e 5f5f 36bf 8d8c 8b3e
000002b0: f2da 40bf 21cc 90bf e483 14bf 0b03 903c
000002c0: 9fd0 f4be f376 4bbf 1dcd e5be b875 f23d
000002d0: 457c 163e 1888 583e a751 8d3d a324 02bf
000002e0: bb74 b73e 17f7 ee3e 0766 82be b9ce fabc
000002f0: 7a1e c73d 9827 edbe 149e 393e fa82 1e3f
00000300: 5b3b 003d b622 1a3f b5c0 893c 027a e63e
00000310: cc3b 5f3e 7308 ad3c 7314 1dbf d9a4 2abf
00000320: 77e4 00bf 9cdd 093d 062b ccbe e811 9fbc
00000330: eeba 2b3c 77c7 1bbd aad1 13bd f815 a5be
00000340: 1597 943e ac10 31be 80f9 59bd d313 9ebf
00000350: d265 87be 19ab 3c3d e3dd 8c3b 8ff3 bc3e
00000360: 5b99 873e e48c aebd c5a2 82bd 5c27 48be
00000370: 2bff 0c3f da01 c0bf ef79 3f3d daeb a63e
00000380: ed21 63be e9ef ba3e e180 313e 7f04 e3bf
00000390: c8a2 bc3d c87a 483c b3ce 483d 138c 553f
000003a0: fc9d 0b3c 228c 2d3f 4745 5fbd ff3b 763e
000003b0: 434b dfbe 479d 7abe c2d7 703e edb6 aebe
000003c0: 8289 53bf 5041 01bf 4b38 88bf 2e39 5fbe
000003d0: de4a abbe 9855 33bc c8c4 1e3f 5f21 34bf
000003e0: 903f 0cbe 1d05 8c3e 0a74 133f 7a99 e0bd
000003f0: e92f 8c3d db23 41be db1f 213e c8ff 453f
0.7191875 0.2651841 -0.96418077 0.21834955 -0.7472092 0.102387145 -0.33043966 0.15305579
-0.58815306 -0.7739127 0.14568749 -0.39432612 -0.4519512 0.76056236 0.26081938 -0.6906437
0.012176871 -0.41335407 0.041512065 -0.17586386 -0.63242745 -0.59795904 -0.23717536 -0.061785743
-0.46360478 -0.40272006 0.30621633 -0.35979873 0.12900653 0.16862248 0.3384031 -0.01712497
0.542934 -0.422498 -1.1686745 -1.1941603 -0.022804212 -0.2502531 -0.061965056 0.003336719
0.2564146 -0.072412774 0.6391726 0.108109884 0.47504878 0.22868252 0.19374566 -0.64039385
-0.11654063 -0.25702724 -0.32510328 0.0032831712 0.254462 -0.00844436 0.044823777 -0.09072543
-0.4692679 -0.6658971 -0.48061302 -0.13555343 0.43020478 -2.2502275 -1.3872963 -0.6018597
0.47064844 0.38292995 -0.9902057 0.69613403 0.24491467 0.3576003 -0.269455 -0.031396177
-0.17048074 0.39707875 -0.20902094 -0.72596353 -0.78712314 -0.15786555 0.18317193 0.024788713
0.4265096 -0.49669257 0.27678424 0.08708627 0.13754477 0.08575274 0.3959707 -0.2111663
-0.3306394 -0.624848 0.4597663 0.26642013 -0.24652113 -0.20760798 0.31190357 0.23562908
-0.6459927 0.36107725 -0.039875247 -0.13022923 -0.55158347 0.21618937 0.25346234 -0.46828854
-0.30022094 0.24583778 -0.45952237 0.1758027 -0.6075764 -1.2149878 0.24816425 -1.0430343
-0.29547566 -0.5989519 -0.45328972 0.31595352 0.116682105 -0.29811957 -0.47615784 -0.43630788
-0.43840355 -0.46084192 0.28389496 0.48882458 -0.2690279 -0.2643353 0.17997701 -0.5152003
0.34324646 -0.76040244 0.2822722 0.4887368 0.4138714 0.49190113 -1.579414 -0.17578548
1.0678128 0.37235644 0.26669443 0.038596738 -0.037566848 0.2771003 -0.086827755 -0.39088336
-0.1712696 0.030406516 0.45979422 -0.2595246 -0.40673366 0.25290695 -0.27972758 -0.52094066
0.27263507 -0.6574987 0.15554681 -0.641288 0.4213249 -0.3956436 -0.692682 -1.6015906
0.74448323 -0.19527815 -0.27486047 -0.1036793 0.1867987 0.44401845 0.55233383 -0.26690322
0.18855982 0.25842342 -0.71239275 0.2725567 -0.75334084 -1.1312295 -0.5801375 0.017579576
-0.47815415 -0.7947838 -0.44883052 0.11838859 0.14695843 0.21145666 0.069003396 -0.50837153
0.35831246 0.4667289 -0.25468466 -0.030616151 0.0972261 -0.4631927 0.18126708 0.61918604
0.031306606 0.60209215 0.016815523 0.4501496 0.21800154 0.021122193 -0.6135933 -0.6665779
-0.5034861 0.03365861 -0.39876574 -0.019417718 0.010481579 -0.03803202 -0.036088623 -0.32243323
0.29021516 -0.17291516 -0.053216457 -1.23498 -0.2644487 0.04606161 0.004298912 0.3690457
0.26484188 -0.085229665 -0.06378702 -0.19546264 0.55076855 -1.5000565 0.046747144 0.32601815
-0.2218091 0.36511162 0.1733432 -1.7735747 0.092107356 0.012236305 0.04902525 0.8341686
0.008521553 0.6779195 -0.054509427 0.24046324 -0.43612108 -0.24474059 0.23519805 -0.34123936
-0.82631695 -0.50490284 -1.0642179 -0.21799156 -0.33455557 -0.0109457 0.62019014 -0.7036342
-0.13696122 0.2734765 0.57598937 -0.10966773 0.06845076 -0.18861334 0.15734808 0.77343416

fc2.bias f4 [256]
00000000: 39ec da3f 769d 713c 13cf 8d3e 1e4d e63e
00000010: 8fd8 35bd 8a7a 613f 1263 113d e09c 09bd
00000020: 57d2 0a3e 2320 633e 7ae5 4c3e e249 76bd
00000030: d133 233e 24c8 01c0 b77b 1040 4bc3 1bbf
00000040: e28a ca3d dfc5 423f 93b4 dbbe 382e 8cbd
00000050: 7369 aabd 3432 afbe 1bfd 66bd dfb8 4bbe
00000060: 3909 743c 0f91 133f 1038 f6bd 2dd6 983e
00000070: 5959 3abd ef2b a23f 4b32 dabd 50ca 2fbe
00000080: a3c9 09c0 4eaf 093f fb47 a3bc ed4e 76be
00000090: 74fa ac3d e85c cd3f fd63 3a3c 02f3 613e
000000a0: a3cf 303f a7ef 5d3f cfbe 2dbe 6605 2d3f
000000b0: 2ded 49be 5566 563e 938f bbbd 1cf2 93bc
000000c0: 1bfb 01be 7a66 e7ba 385d a5be 913e 0dbf
000000d0: 7875 d4bd 46e2 a4bc 43c4 16bf 3502 483e
000000e0: 8a16 babd bbf7 b1bf 460b 14be c312 0b3f
000000f0: c6b8 eabd c8d1 e43d 2e59 3dbc a7d8 43bf
00000100: a64b 0fc0 de2f 133c 08a6 98bd c373 9f3f
00000110: df62 013d 1357 2fbe f221 c33c 998d afbc
00000120: 7f20 083f 6844 2e3e 6d38 a2bf b1df 333e
00000130: e0af 403f 4d71 523f 393c 68bd 20b8 34bf
00000140: dbdb 103f 3f43 c4bd 3b8c f5bd 74b7 73bd
00000150: 53fa 34c0 8540 85bc eb52 04c0 b8c4 3e3f
00000160: 2073 82be ae5d 4bbe 84bc 15be 6abe 1ebd
00000170: dc23 25be 9c30 dabd d3ab a6bd 5457 7fbc
00000180: 3db7 8cbe 8d56 cebc 89bd 97bd f3ad 1b3d
00000190: 2840 1e3f 8dfc 47be a642 503c 4bda ee3c
000001a0: b594 9b3c e9eb 3bc0 d59e eebd 65ae 23bf
000001b0: 396b 7dbf cc79 c63e 71c3 983e 1385 0240
000001c0: 36a2 ccbd 4680 033f 3647 26be 641e 413f
000001d0: 0679 1d3f cdac af3e fc75 023f 3239 26bd
000001e0: c7fc c3be 2a70 13bf 224e 8ebd a6ba 2ebc
000001f0: d944 20bf 76ba 5f3c cd95 79bd 157a 883f
00000200: 314e ccbf 7c58 13be 02b9 f7bd d721 2b3e
00000210: 28d9 753d 3b32 5f3e 4780 bc3f dbfd 5ebc
00000220: 9004 95bf bc79 aabd c54b c03f bfa5 e23e
00000230: b125 a13e b6cb 2abd ce3a 16be c54f 1f3e
00000240: 9579 acbd 894e 8cbc b3ac 993e 7b12 cd3f
00000250: df4f 3abd 4e05 c9bd 3fc9 9c3f 53f3 bfbd
00000260: e333 cfbd 2d6b 2f3c 9158 7bbd afd4 88bd
00000270: 8299 5a3e 6755 e43a d4e6 5cbc 7bea 1f40
00000280: 21ca 103e e42d b13f 4b58 0fbe aa0a e6bc
00000290: 595f 033e 5414 d9bc f530 bebd 3e9d fdbd
000002a0: 85a6 cd3c 5033 70be dba3 a6be bad4 bbbd
000002b0: 994b a8be cea4 24be caf7 9d3f f219 bebf
000002c0: 66c3 9b3e 1fc9 32bd 56fa 6c3f 4641 eebd
000002d0: 876e e8bb c997 31bd 2da1 fe3d 770a 063e
000002e0: ce7c 4c3d 1b68 b7be 3f4f 47bc 1ffb 62bf
000002f0: e6d0 23bd dc59 95bd c037 ea3f 788c 2a3f
00000300: 3347 03bd 2705 34bd 46f8 c9bd 1805 993f
00000310: af13 2c3f cd7a 97bf 6696 88bd 9884 493f
00000320: 1e41 43be 1b23 a5bc c717 fabe 010f ef3e
00000330: 9ec8 513f c33b e7be d666 e3bd a47f e1bc
00000340: ec3e 9fbe c636 e6bd b2f2 fdbe f3b1 053e
00000350: 295d 70bd 84ab 123f 202a ac3d 10f7 2ebf
00000360: 30e8 0bbe 81d6 c7be 288f c63e 6f13 943e
00000370: 032e 9bbd b4ac c83f c99b 40bd 6fdf d5bd
00000380: 9187 3ebe 984a a63f c473 60bd 60c2 d0bd
00000390: 9e05 553e 4d10 cfbb 565c 98bf 9de7 a33f
000003a0: 783a bdbd 8f51 02be 3d21 3abd 01cc 133f
000003b0: f3ad 1dbd b8e3 ebbd 4f59 9bbf 35a1 6d3f
000003c0: b86a 943e 98c1 59be 3cc8 bdbe f3c8 933f
000003d0: 918f 9ebd 5cac 8abd fbab 3fbc a344 db3e
000003e0: 4eff 15c0 1187 51bd b55b 4e3d 3af0 eb3e
000003f0: dc26 6ebd 198c f93f 8624 6c3f 4086 63bd
1.710334 0.014747014 0.27697048 0.4498071 -0.04439598 0.88077605 0.03549487 -0.033596873
0.13556801 0.22180228 0.20009413 -0.060129054 0.15937735 -2.0278406 2.257551 -0.6084487
0.09889771 0.7608318 -0.42911205 -0.06844753 -0.08320894 -0.3421799 -0.056393724 -0.19894741
0.014894777 0.57643217 -0.12022412 0.29850903 -0.045495365 1.2669657 -0.10654124 -0.1716702
-2.152932 0.5378312 -0.019931784 -0.24053545 0.08446208 1.6043978 0.011376378 0.22065356
0.6906683 0.86693805 -0.16967319 0.6758636 -0.19719382 0.20937474 -0.09158244 -0.018059783
-0.12693445 -0.0017654442 -0.32297683 -0.55173594 -0.10373968 -0.020127427 -0.5889322 0.19532092
-0.0908633 -1.3903726 -0.14457425 0.54325503 -0.11461024 0.11172825 -0.011556907 -0.7650246
-2.2389922 0.00898358 -0.07453543 1.2457203 0.03158843 -0.1712306 0.023819897 -0.021429824
0.53174585 0.17018282 -1.267347 0.175658 0.75268364 0.82204133 -0.056698058 -0.7059345
0.5658547 -0.09583139 -0.119896375 -0.059501126 -2.8277786 -0.016266117 -2.067561 0.7451892
-0.25478458 -0.19859955 -0.14622694 -0.03875581 -0.1612696 -0.10653803 -0.081382416 -0.0155847855
-0.2748355 -0.025187755 -0.07409198 0.038007688 0.61816645 -0.19529934 0.012711203 0.029156825
0.018991807 -2.9362738 -0.116513886 -0.6393798 -0.98991734 0.387648 0.2983661 2.0393722
-0.09991877 0.51367605 -0.16238102 0.75437 0.6151279 0.34311524 0.5096128 -0.04058189
-0.3827879 -0.57593024 -0.069484964 -0.010664618 -0.62605053 0.013655296 -0.060933877 1.0662256
-1.5961362 -0.14389223 -0.12095834 0.16712128 0.06002155 0.21796505 1.4726647 -0.013610329
-1.1642017 -0.08324 1.5023123 0.4426708 0.3147407 -0.04169818 -0.1467087 0.15557773
-0.084216274 -0.017127292 0.30014572 1.6021265 -0.045486327 -0.09815465 1.2248915 -0.09372582
-0.101173185 0.010706705 -0.06136376 -0.06681191 0.21347621 0.0017420471 -0.013482768 2.4986866
0.14139606 1.384213 -0.13998525 -0.028081257 0.12829341 -0.026498951 -0.092866816 -0.12383507
0.025103817 -0.23457074 -0.32546887 -0.09171434 -0.32870176 -0.16078493 1.2341244 -1.4851668
0.30422515 -0.043648835 0.9256948 -0.11633544 -0.007093254 -0.043357644 0.124330856 0.1308993
0.04992371 -0.35821614 -0.01216489 -0.8866443 -0.039994143 -0.0729253 1.8298264 0.6662059
-0.032050323 -0.043950226 -0.098618075 1.195468 0.67217535 -1.1834351 -0.06669311 0.78717947
-0.19067809 -0.020158341 -0.48846266 0.46691135 0.8194674 -0.45162782 -0.11103599 -0.027526684
-0.31102693 -0.11240916 -0.49599224 0.13056163 -0.058682594 0.5729296 0.08406472 -0.6834574
-0.13662791 -0.3903084 0.38781095 0.28921077 -0.075771354 1.5677705 -0.04702357 -0.10443007
-0.18606402 1.2991514 -0.054797903 -0.10193324 0.20802924 -0.006319082 -1.1903179 1.2805058
-0.09239668 -0.12726425 -0.045441855 0.5773316 -0.03849597 -0.11518043 -1.213663 0.9282411
0.2898767 -0.21265256 -0.3706683 1.15457 -0.07742227 -0.06771156 -0.011698718 0.42825803
-2.3437076 -0.0511542 0.050380427 0.46081716 -0.058142528 1.949588 0.9224323 -0.055547953

fc3.weight f4 [256, 256]
00000000: 495f 91be 05fa 80be 9bd9 8dbd a09b 95be
00000010: c4fb d93c b423 acbe a69d 2c3d ecb3 16bc
00000020: be98 21bf 673b afbe 3910 9cbe 343a ba3b
00000030: 6310 aebe 7f60 f0be 4cb7 dd3d 3421 8ebf
00000040: d3d4 d3be 9aea fbbc 694f 963d 70b7 dfbb
00000050: a78a ee3c 779c 23ba 2da9 8cbc a0f4 edbe
00000060: 7583 b0bb 1447 40bc ad10 0cbd 3e07 08bf
00000070: d783 dc3c 015f fcbe a88f 1d3d bc42 663c
00000080: 63bf 17bd 6468 2c3e 2876 35bd 6670 0a3d
00000090: da49 a839 4954 e4be c4b2 22bf d633 e9be
000000a0: a215 e2bc d511 04bf 32ee 203e d33d 8c3d
000000b0: f40f aebf 9673 5ebf 4a33 cebb 8bd1 5e3d
000000c0: 442b 543e af21 d03d 21d2 5abe a4b6 45be
000000d0: e612 c1be 753e 163b f8b8 083b e384 093d
000000e0: 8932 373d db49 02bf 8c9b 043e 7df7 3bbd
000000f0: 15ab cbbd 44cc 96bd cce8 003d d5da 08bf
00000100: 0034 87be e1a4 6cbe ed1d 203d eca5 9b3e
00000110: fb83 83bc dfae 2d3e c0a1 40bc 2bed 733c
00000120: 2340 5fbf a851 9dbe f31d 5dbf 35be b9be
00000130: e4c3 97be f6c5 f0bc c27f ba3c 54e3 a4be
00000140: 0540 eabc 0e00 45bd f2e6 b2be 3439 73bd
00000150: ad02 19bf 1460 85bc 7f58 1abf 28af 0ebe
00000160: b23f bc3d 0d75 b3bc e1ee 9f3b e3d1 dd3c
00000170: af26 d1be dfd0 72bd 5995 25bd 30fe 7bbd
00000180: 1cca 993d 77d6 afbc 5bc2 fc3a e37e cdbd
00000190: f811 e1bd 2886 13be c3c1 2abe a28f a5bd
000001a0: c9e0 39bd 389a 05bf 85fe 883c 94e3 83be
000001b0: 5b53 ccbc 4176 eebe a436 e5bc 103b 74be
000001c0: a254 b6bd f3d4 8abd 84f3 5d3c 5903 d3be
000001d0: 3ea5 da3e 0d8b eebd ed1d bfbd 07d3 49be
000001e0: 8bc5 19bd 857a e6be 587d 883d 2261 6d3d
000001f0: d603 abbe 1dd3 edbe 4aa2 08bd cb94 13bf
00000200: 6df4 16bf cad3 aa3d a18e e7be 93c8 78bd
00000210: bd63 f43e a251 203d 6ed4 00bf b05d 94bd
00000220: 1ae5 98bc 421f 3bbd 6573 13be a43d b23e
00000230: b0a0 20be 9514 ddbc 40f3 a1be 2d8d 40be
00000240: 6c6f bf39 c5a9 38bd 2a23 53bf cd78 83bf
00000250: a580 03bd 12d7 623d 9d4d acbc e2f3 11bc
00000260: d304 923c 7d60 2fbd 2423 333d 4211 f7bc
00000270: be83 5fbe 52aa 23bd 83ce 343d 7cb4 79bf
00000280: 3873 ddbc 01f8 cabe 2449 86bd 9a7a a43d
00000290: 9b0c d63c 9fdd 143d 6d66 6cbf 918f 01bf
000002a0: b2c5 05be 00a7 6f3e 27ea 98be 9666 ddbb
000002b0: 7186 17bd dd39 2dbe e903 16be 7e26 1bbd
000002c0: e6c6 933d 2153 4abd 937c da3d 1165 93bd
000002d0: 631c 8c3d abee 85ba 607a f3bc e01a 6e3e
000002e0: 85d8 843d 727a 0d3e 09ce d53a da59 b3be
000002f0: 1dc3 803c 07d7 1d3d ec12 2bbf b0ce 083e
00000300: f629 333d c38c eb3c 0eca d1bd bdd9 7cbe
00000310: 6f73 9fbe e538 a5be e245 b73c eedd 4abf
00000320: 6c92 3ebe f5b5 59bd 0053 87be 7449 423e
00000330: d284 b4bc 1a9f 8ebe 1bf1 0e3b 4a24 11bd
00000340: 0efa cc3d 2336 c03c 4a73 09bf a7c2 0dbe
00000350: 2939 84bb 19b2 b73e 93c4 2abd f2fe 65bd
00000360: 313c 9cbe b0e0 89bd 0448 ddbd a0b2 65bc
00000370: 42ad a2bd 1ae5 9f3c 42a7 6bbd b252 13bf
00000380: 88cc c2be 23ca 60be 7a66 f8bd 47d1 393d
00000390: fc12 8a3d a22f 84bb ba8e e5bd edc7 08bf
000003a0: 7c9d d73c 008a 443e 3578 db3c 5420 4ebe
000003b0: 66e6 a7ba d3bd ba3c 4b36 a9be 296e 4bbf
000003c0: fcde 07be 8738 3bbe f2a6 8fbe 1b68 853d
000003d0: 6cbe 87bd c964 d43c 4f9b 27be 48dc c2be
000003e0: a2c8 20be 3c4b 0ebe f51e e3bc 81a4 1a3d
000003f0: 33ec fe3c 4c8f 1fbf d53a debd ef49 54bd
-0.2839301 -0.2519075 -0.069262706 -0.29220295 0.026609309 -0.3362099 0.042142533 -0.00919817
-0.6312369 -0.34225008 -0.30481127 0.005683208 -0.33996877 -0.4694862 0.10825977 -1.1103883
-0.4137331 -0.030751515 0.07339365 -0.0068272874 0.029118849 -0.00062412716 -0.017170513 -0.46475697
-0.0053867646 -0.011735696 -0.03419559 -0.5313605 0.026918335 -0.49291232 0.03846708 0.014053997
-0.037047755 0.16836697 -0.044302136 0.033798598 0.0003209848 -0.44595554 -0.63554025 -0.4554736
-0.027598206 -0.5158971 0.15715864 0.068477295 -1.3598619 -0.8689512 -0.006292735 0.054399054
0.2071963 0.10162675 -0.2136922 -0.19307953 -0.3770973 0.002292541 0.0020862203 0.033573996
0.04472593 -0.50893945 0.12949961 -0.04589032 -0.09944741 -0.07363179 0.031472012 -0.5345891
-0.2640686 -0.23109771 0.03909104 0.30400026 -0.016054144 0.1696124 -0.011757314 0.014888088
-0.8720724 -0.3072636 -0.86373824 -0.3627793 -0.2964164 -0.02939127 0.022765998 -0.32204688
-0.02859498 -0.048095755 -0.34941822 -0.059380725 -0.5976971 -0.016281165 -0.60291284 -0.13934004
0.091918364 -0.0219064 0.0048807715 0.02707762 -0.40849826 -0.059281226 -0.040425632 -0.06152171
0.075092524 -0.02146457 0.0019283997 -0.10033967 -0.109897554 -0.14406645 -0.16675477 -0.080840364
-0.045380387 -0.52188444 0.016722927 -0.25759566 -0.02494209 -0.46574596 -0.027980156 -0.23850656
-0.08902861 -0.06778898 0.013546828 -0.41213492 0.42704195 -0.116476156 -0.0933188 -0.19709407
-0.037541907 -0.4501535 0.066645324 0.05795396 -0.33401364 -0.4645013 -0.033357896 -0.57648915
-0.58966714 0.08341177 -0.45226005 -0.060738157 0.47732344 0.03914035 -0.5032414 -0.07244432
-0.018663932 -0.045684107 -0.14399488 0.34812653 -0.15686297 -0.026987353 -0.31630898 -0.18803854
0.00036513375 -0.04508378 -0.8247553 -1.027124 -0.032105107 0.05538089 -0.021033103 -0.008908244
0.017824566 -0.042816628 0.043734685 -0.030159596 -0.218276 -0.039957352 0.044142257 -0.9754102
-0.02703248 -0.39642337 -0.06556919 0.08031197 0.026129058 0.036344167 -0.9234379 -0.5060969
-0.13063696 0.23403549 -0.29866144 -0.006756614 -0.036993448 -0.16916604 -0.14649929 -0.037878506
0.07215671 -0.049395684 0.10668292 -0.07197011 0.06841352 -0.0010218223 -0.029721439 0.2325244
0.0648661 0.1381624 0.0016312014 -0.3502949 0.015718037 0.038535144 -0.6682575 0.13360095
0.04374119 0.028753644 -0.10243617 -0.24692436 -0.31142756 -0.3226997 0.02237219 -0.7924489
-0.18610543 -0.053152043 -0.2643051 0.18973333 -0.02203599 -0.2785576 0.002181119 -0.035435
0.10008632 0.023463314 -0.5369154 -0.13843785 -0.0040351343 0.35878065 -0.041691374 -0.056151338
-0.30514672 -0.06732309 -0.108047515 -0.014019638 -0.079432026 0.019518424 -0.057532556 -0.5754806
-0.3804667 -0.21952109 -0.12128921 0.045365598 0.06741902 -0.0040339986 -0.112088636 -0.5343006
0.026320212 0.19193268 0.026790718 -0.2012952 -0.0012809753 0.022795593 -0.33049235 -0.79464966
-0.13268656 -0.18283282 -0.28057057 0.06513997 -0.06628117 0.025926964 -0.1636784 -0.38058686
-0.15701535 -0.13895887 -0.027724722 0.03775454 0.031118488 -0.6232803 -0.10851065 -0.05182832

fc3.bias f4 [256]
00000000: 4e80 06be 98c2 e63e d536 793d 152b 3cbf
00000010: 73ff 483f ed8b 35be d580 7abc bbe8 ddbe
00000020: c24c c33d fb10 0fbe 45be 2dbf 6b6d bc3e
00000030: dd92 8cbe 41dc 95bc 62dc 2dbf a489 ff3e
00000040: eb4e 90be feb9 4fbe 6683 e23e 5429 8bbe
00000050: 38e9 90be 9b2c 4bbe 32a8 1f3f c7f4 7fbe
00000060: ce62 15bd 42fd da3e 0345 87be 076a 20bf
00000070: cf94 533e 0c9a 42bd 303a 11bd 7026 0ebe
00000080: 458b b6be bdd1 b4be 6aca 97be a990 ebbe
00000090: efc6 1fbe b164 a73d 4b9a 69be b475 efbd
000000a0: 2129 98bd c661 ac3d e2e0 4d3f 4f70 37be
000000b0: d313 97be c644 a73e 0190 8bbb a3fb ac3f
000000c0: e975 8bbe cfb7 e23e b201 67bf 1460 353e
000000d0: dabe 2dbe 0057 a33e 631d 94bd 6332 4cbe
000000e0: 6034 a83d f2fd 153f 0672 58bd e448 35be
000000f0: 9d81 3cbe 0013 62b9 0ecf 51be 6b58 f2be
00000100: 54ad 973f 96b4 3dbe 06b9 f53d de00 cc3e
00000110: 2520 1bbf 2328 c8be dc64 83bd 65b1 e9be
00000120: e5f0 5cbe b886 243b 34ee 11be e15b 4e3f
00000130: 324c 5bbe f3d4 f9be 37ee ad3c e7ea d9be
00000140: 0fad e5be a5ce d6bc 23bb 9a3e ca20 0ebf
00000150: 38f4 1c3e f75c 8dbd 968c 12bf c37c 40be
00000160: 1c00 29bd afbe 92be f9ec 63bb b539 30be
00000170: b207 7dbe 8727 5fbe 5889 893d 0d42 b8be
00000180: c524 3abe afb9 12be 13c6 d0be 671d 5ebe
00000190: 5e55 30be bcc0 33be da52 0dbe c90e 41be
000001a0: c993 e4bd 2b89 b8bd 78f0 8fbe 7c66 1fbe
000001b0: a99e 71be 21c9 f9be 76e1 563e 03ce 4dbe
000001c0: 36f6 873c 1cd1 39be 0446 743f 0067 3abe
000001d0: 3d31 b0bf 055f 063f 87bf d6bd b107 54bc
000001e0: 17ce 1f3e a920 38bf be8e 06be 206c c13f
000001f0: 306d 2dbe 3317 c6be 8480 79be 4aac 49bf
00000200: d633 1dbf 53bd fc3d b0b4 b1bd 6b48 e8bd
00000210: 82eb 54be 620d 913f 10fa 943f db26 e9bd
00000220: 9273 9cbe 537d 02bd 4508 05bf 6d30 eabe
00000230: 612f 8bbe 20e4 6fbe 8918 31be 5691 2cbe
00000240: f82e 68bf 499b 30bf 5a1d b8be 4762 95be
00000250: df41 82be 7702 c33d 1ac5 d93e 1bd3 6d3d
00000260: ea71 46be 186e 9bbe ac16 9a3e 2711 babe
00000270: 2fc6 4c3e 81b6 9ebd 2631 5abd b3b9 8abe
00000280: a75b 703d b062 3bbf cc19 e7be 3314 8dbe
00000290: 826e 393e 522b 223f 3328 403f c5f0 473f
000002a0: c49d 96be efa1 d6bf c1dd 06bf a68e 2abf
000002b0: b988 49be 9a97 acbe 6b45 463f df0e c3bd
000002c0: d863 2d3e a57f 39be b857 89bd f849 3cbe
000002d0: 5376 16be d9b8 d7bd 7866 c4bd 9e48 04be
000002e0: c40f 0bbf 1290 08bf b783 d5be b47d 71be
000002f0: a8d4 00bd 6943 243f ea4d cebe 45e8 dabb
00000300: 12d4 00be f0aa 8ebe 5ea9 9fbe 4922 0ebe
00000310: 3394 b13f dea0 033e 798b 82ba 647c c63e
00000320: 59e7 1e3d b726 8cbe f6dc 22bf 213b 123e
00000330: d840 fbbd 5777 81be 8e51 00be 6de3 6f3f
00000340: 1ce7 00bf 46f1 5e3d 6d43 78bd 035a 72be
00000350: 7d35 883f 0e73 28be b025 20be 0433 3abe
00000360: fbae 49be 44be b5be b7de 8dbe 1de9 a0be
00000370: 2743 5fbe ade5 46be 60b2 73be c937 843d
00000380: 8e86 0bbf f99f 863f 7f91 b03d d44b 52be
00000390: 8b46 61be ab00 873d 34a6 56be 702c d4be
000003a0: 77e6 0abf 070b 893d 14f7 6c3d a19f 2ebf
000003b0: 3c38 0abd f1de 64be 59ec 00be 6988 24be
000003c0: 3347 03bf 138a 22be dfed b43e 055e bd3e
000003d0: 1a9a 7cbe 4d79 4dbe 1c02 b1be 02de 65be
000003e0: 73cf 4dbe 45ba e93c f60f 90be ede5 ca3e
000003f0: e164 ebbe 1476 953f 6841 2dbe aa96 63be
-0.13134882 0.45070338 0.060843308 -0.7350324 0.78514785 -0.17729159 -0.015289505 -0.43341622
0.09536125 -0.13971321 -0.67868453 0.3680223 -0.27455798 -0.018293502 -0.679144 0.499097
-0.2818521 -0.20285794 0.44240874 -0.27179968 -0.28302932 -0.19841234 0.6236602 -0.24995719
-0.03647118 0.42771345 -0.2641984 -0.62661785 0.20662235 -0.04751019 -0.035455883 -0.1388185
-0.3565313 -0.35316268 -0.29646617 -0.46008804 -0.15603231 0.08173502 -0.22812764 -0.11692372
-0.0742972 0.08417086 0.8042127 -0.17913936 -0.29507312 0.32669657 -0.00425911 1.3514293
-0.27238396 0.4428086 -0.9023696 0.17712432 -0.16967335 0.31902313 -0.072321676 -0.19941096
0.08213115 0.58590615 -0.052843116 -0.17703587 -0.18408819 -0.00021560118 -0.20489141 -0.47333083
1.184977 -0.1852592 0.11998181 0.39844412 -0.60595924 -0.39093122 -0.06415722 -0.45643154
-0.21576269 0.0025104713 -0.14251024 0.80608946 -0.21415785 -0.4879528 0.021231754 -0.4256203
-0.44858596 -0.026221583 0.302209 -0.5551878 0.15327537 -0.06902497 -0.5724577 -0.18797593
-0.04125987 -0.28661105 -0.0034778698 -0.17209513 -0.24709967 -0.21792422 0.06715649 -0.35987893
-0.18178089 -0.14328645 -0.4077612 -0.21690904 -0.17220065 -0.17553991 -0.13801137 -0.18853296
-0.11161 -0.09010538 -0.2811315 -0.15566438 -0.2359568 -0.48786262 0.20984444 -0.20098118
0.016596895 -0.18146175 0.95419335 -0.18203354 -1.3765026 0.5248874 -0.1048575 -0.012941287
0.15605961 -0.71924835 -0.1314039 1.5111122 -0.16936183 -0.38689575 -0.24365431 -0.7877852
-0.6140722 0.12340798 -0.086770415 -0.11341938 -0.20792964 1.1332209 1.1638813 -0.11384364
-0.30556923 -0.0318578 -0.51965743 -0.4574007 -0.27184585 -0.23426867 -0.17294516 -0.16852316
-0.9069667 -0.68986946 -0.35959893 -0.29176542 -0.2544088 0.095219545 0.4253319 0.058062654
-0.19379392 -0.30357432 0.30095422 -0.3634121 0.19997476 -0.077496536 -0.053269528 -0.27094802
0.058681156 -0.7319746 -0.4513687 -0.27554473 0.18108562 0.6334735 0.7506134 0.7810176
-0.2941724 -1.6768168 -0.5268212 -0.66623914 -0.19681062 -0.33709413 0.77449673 -0.09524321
0.16932619 -0.18115099 -0.06706184 -0.18387592 -0.14693575 -0.10533304 -0.09589857 -0.12918326
-0.5432093 -0.53344834 -0.41702053 -0.23583108 -0.031452805 0.6416536 -0.4029382 -0.0066805207
-0.12580898 -0.2786479 -0.31183904 -0.13880266 1.3873352 0.12854335 -0.0009959779 0.38766778
0.03879485 -0.27373287 -0.6361841 0.14280368 -0.12268227 -0.25286362 -0.1253111 0.937064
-0.50352645 0.054429315 -0.060611177 -0.23667149 1.0641323 -0.1645014 -0.15639377 -0.18183523
-0.19695656 -0.35496724 -0.2770898 -0.3142785 -0.2180296 -0.19423552 -0.23798513 0.06455953
-0.5450219 1.051757 0.08621501 -0.20536739 -0.21999566 0.06591924 -0.20961839 -0.41440153
-0.5425791 0.066915564 0.05785282 -0.68212324 -0.033745036 -0.2235067 -0.1259016 -0.16067661
-0.51280516 -0.15872984 0.3533773 0.36985794 -0.2466816 -0.20065804 -0.34571922 -0.2244797
-0.20098667 0.028531203 -0.28137177 0.39628544 -0.45975402 1.167666 -0.16919482 -0.22225443

action_out.weight f4 [4, 256]
00000000: 3077 a13e b56f 05bd 283e 7e3c cef7 283e
00000010: 0306 2d3d f869 033d ffb8 df3b 7ab1 e7be
00000020: 75c2 6b3d 0e31 10bc 42da f23c 6e75 c1bd
00000030: 7cd6 033e e3e5 5f3e 1cf5 d6bd 5cab 8f3c
00000040: fbdd e63c 0d3b fe3d d810 f6bc 34a8 c13d
00000050: f6f8 033d 2e16 653d ebf4 77bb 9dea 68bc
00000060: 89ad 923c ab80 64bd 0081 2b3e 918a 04be
00000070: ea28 d53d cf7f 8fbc f691 5d3e c2df 82bc
00000080: 42e0 a83b cb7f 413d 1214 17bf 6f26 483c
00000090: f2a5 ac3e 91d4 193e e090 493e 8cf2 2fbd
000000a0: 7129 263d 0d3f 7abd ace2 4c3c 8a3f cdbc
000000b0: 88e0 acbc 3e58 313d bd8d 45bc 40ab b43d
000000c0: d46f 583d ff79 b8bc 5c12 88bc 919a fd3c
000000d0: 0ddd 183e 9be7 903d e89b 1cbc 2cb4 403e
000000e0: 4efa 68bc 6481 073d 01de bf3e 5349 9f3e
000000f0: 41a4 8c3e cc7c 30be 54f0 3abc a8af d23e
00000100: 964a 26bd 6f02 c33e 1d64 053d 25f0 bebe
00000110: 7810 9a3c 6b52 11bd 2d82 8b3e 0d73 c83c
00000120: fd42 2f3e db9b 07be d076 bd3c c7c4 7c3d
00000130: 0eba 67be 9662 2ebd 1401 2abd dc81 15bf
00000140: c170 4ebd 5526 093e cdf9 bc3d 1051 14bd
00000150: 7907 36be 2f4b 91bd c6e7 733e 2ed5 a33c
00000160: 21a1 a7bd 47a6 35bd 49ff a6be 77ce 0d3e
00000170: e6c2 e0bd 1547 d8bc 9352 3f3f e24f 2dbf
00000180: 7c76 4dbd 121b c5be 13bf d6bd e786 193d
00000190: 3bcf 5d3c c257 cdbe eb73 e73d 0847 063e
000001a0: 5a4d c53b b586 b03d 3280 cd3e d45d 85bd
000001b0: cf50 913c a832 7c3d f395 323d 3dc1 c53f
000001c0: 284d 353c 9d01 103b 9362 e93c e782 18bb
000001d0: 6227 17bb cdba 983b 3d13 853e a058 493e
000001e0: f3cf e33d 3a31 fbbb 2bf5 74bd 550c 843c
000001f0: 1b30 af3d f30a 8cbe 4c06 b3bc e98c acbb
00000200: 5a24 af3e a3ec 7cbc 3e28 a5bd 5810 d13d
00000210: f4d3 98bb ae08 85bd 2961 bb3c 541e 5d3c
00000220: 101c 1bbf b406 37bd 6366 a7bc ac52 ae3e
00000230: f880 9bbe 44e9 f63c f20d 1abe 7947 38be
00000240: e216 a33b a65d 963e 88c6 443f 60e8 da3c
00000250: 22a3 2b3f d644 02bd 5da4 553d 99c1 a03c
00000260: 5d76 923e 1d67 293e 875c e8bc 3f69 e3bd
00000270: e456 74bd fd25 b4bd 2da7 89bd 21c2 60bc
00000280: bb75 c8bc 8d46 383d d442 f93e a49b eb3c
00000290: a87c c6bd eff4 d4bc 36d5 bdbd 7a1d 14be
000002a0: ce5f eb3d 0a7f 90bb da11 49be b157 17bf
000002b0: 1e5f eebd 2cbe ac3d 5148 e83c e1d7 b1bc
000002c0: bace a6bd 6b51 e43a f612 4dbe 6abf c6bd
000002d0: 4436 7d3d 7524 bb3b b25c a9bd e61d 68be
000002e0: fee7 093f b2e6 433e 0a61 99bd efd7 583d
000002f0: 6aa9 503c d0fe cabc 6b2d 653c 9c7c d03d
00000300: 75e9 fabb ae24 333e 8740 babf bbce 6ebd
00000310: 9a67 96bd 7f47 66bc 6d9f ce3d 18d3 a53d
00000320: 9773 7bbd 1f65 183f a4ca 92bf 831e 10bc
00000330: 6add ba3d 29c6 8d3e 0e5a 42bc 45f5 dd3d
00000340: 2108 d03c cbcd af3d f779 043e 6749 333e
00000350: dbbb 3bbd bbe2 bdbd 0906 9aba f799 7abc
00000360: 0bf3 b6bb 7ddb d6bc 5c55 51bd 9084 b93d
00000370: 3f67 e53c af5f aabc e6b6 00bf adcb 263f
00000380: ea6f 99be db9b 8e3a 4a87 3fbc 7ce5 53bd
00000390: 8be5 ee3d d3c0 99bd 4291 a1be 26f2 f7be
000003a0: 7bf9 b7bb 45c2 443c 9b17 593d 056a 3f3c
000003b0: 553c 23bd 0db7 ddbd c758 aebd a5de 19bb
000003c0: fd2b 0e3f 4bd7 29be 2671 23bd 2556 2abd
000003d0: 0449 0c3f 83b3 8a38 ac04 1abe d5d0 003c
000003e0: e035 c43b 654e df3d 60b0 8cbd c5fa 953d
000003f0: aaf1 7dbf 6b2e 67bc 5e08 ee3d 90b1 c6be
0.31536245 -0.032577235 0.015517749 0.1650078 0.04224206 0.03208348 0.006827473 -0.4525259
0.057558496 -0.008800758 0.029645089 -0.09446226 0.12874788 0.21865039 -0.1049597 0.017537765
0.02818202 0.12413607 -0.030037329 0.0945591 0.03221985 0.055929355 -0.0037835191 -0.014216092
0.017905014 -0.05578677 0.16748428 -0.12943484 0.10408194 -0.017516999 0.21637711 -0.015975837
0.0051536867 0.047241013 -0.59015 0.0122161945 0.33720356 0.15022494 0.19684172 -0.04295592
0.040566865 -0.061095286 0.012505215 -0.025054712 -0.021103159 0.043297045 -0.012057719 0.08821726
0.052841023 -0.02251911 -0.016610317 0.030957492 0.14928074 0.07075425 -0.009558655 0.1881873
-0.014219834 0.03308238 0.37474063 0.3111063 0.27469066 -0.17235106 -0.011409838 0.4114964
-0.040598474 0.38087794 0.03256618 -0.3729259 0.018806681 -0.03547899 0.27247754 0.024468923
0.17115398 -0.13243048 0.023127943 0.0617111 -0.22629568 -0.042574488 -0.041504934 -0.58401275
-0.0504005 0.13393529 0.09227333 -0.03621012 -0.17776288 -0.07094418 0.23818883 0.019999113
-0.0818503 -0.044348028 -0.32616642 0.13848291 -0.10974674 -0.026401082 0.74735373 -0.67700016
-0.050161824 -0.38497216 -0.10485663 0.03748217 0.013538177 -0.40106016 0.113014065 0.13113034
0.006021184 0.08619443 0.40136868 -0.06512037 0.017738728 0.061571747 0.043600034 1.5449597
0.011065759 0.0021973618 0.028489387 -0.0023271383 -0.0023064245 0.0046609403 0.2599124 0.19662714
0.111236475 -0.0076657804 -0.059804123 0.016119162 0.08554097 -0.27352104 -0.021853589 -0.0052658212
0.34207422 -0.015437278 -0.08064316 0.102081954 -0.0046639387 -0.06495796 0.022873478 0.013496
-0.60589695 -0.044684127 -0.020434564 0.3404745 -0.30371833 0.030140527 -0.15044382 -0.17996015
0.004977093 0.29368323 0.76865435 0.026722133 0.67045796 -0.03180393 0.052158702 0.019623565
0.2860593 0.16543241 -0.028364433 -0.111040585 -0.059653178 -0.08796308 -0.067213394 -0.013718159
-0.0244702 0.044989157 0.48683798 0.028760739 -0.09691745 -0.0259957 -0.092691824 -0.1446437
0.11492883 -0.0044096755 -0.19635716 -0.5911818 -0.11639236 0.0843471 0.028354796 -0.021709384
-0.08144899 0.0017419284 -0.20026764 -0.09704478 0.06181933 0.005711133 -0.08269633 -0.22667655
0.53869617 0.19130972 -0.07489212 0.052940305 0.012735704 -0.024779707 0.013987879 0.10180017
-0.007657225 0.17494461 -1.4550942 -0.058302622 -0.07343979 -0.014055132 0.10089002 0.080969036
-0.061389532 0.595293 -1.1468091 -0.008796337 0.09124263 0.27690247 -0.011862291 0.10837797
0.025394501 0.08584174 0.12937151 0.1750847 -0.04583345 -0.09271761 -0.0011751066 -0.015295497
-0.005583172 -0.026227707 -0.051106796 0.090584874 0.028003333 -0.020797579 -0.5027908 0.65154535
-0.29968196 0.0010880189 -0.01168997 -0.051732525 0.116648756 -0.075074814 -0.31556135 -0.48426932
-0.005614457 0.012009208 0.053001028 0.011682992 -0.03985246 -0.1082593 -0.08513027 -0.0023478654
0.5553587 -0.16586034 -0.03990283 -0.04158606 0.54798913 6.6137894e-05 -0.15040845 0.007862289
0.0059878677 0.109036244 -0.06869578 0.07323221 -0.99196875 -0.014110188 0.1162269 -0.38807344

action_out.bias f4 [4]
00000000: fd68 a2ba bb08 e4bb 3b79 ee3b 8593 9fba
-0.0012390908 -0.0069590486 0.0072776354 -0.0012174702
