saved_models/FetchPush-v1/model121.pt (torch, 563151 bytes, 8 tensors)

fc1.weight f4 [256, 28]
000000 2b 85 19 3e 82 88 52 be 63 01 e5 bd a2 b0 60 3f
       0.14992206 -0.20559886 -0.11181905 0.8776952
000010 fe 1d 25 be 41 b6 12 bf 4f 43 ba 3f a8 40 f2 3d
       -0.16124722 -0.5730935 1.4551791 0.118287385
000020 fc a0 41 3e 9d 62 8e 3e f6 2f 3a bf f9 2e b4 bc
       0.18909067 0.2780961 -0.7272943 -0.021995055
000030 57 c8 f0 3d 78 e2 da bd 35 6a 68 3e 08 e0 82 3d
       0.11756962 -0.10687727 0.22696765 0.06390387
000040 96 fa 5f 3e 17 dc 31 bd c9 61 92 3c f4 37 0e bc
       0.21872935 -0.043422785 0.017868893 -0.008680332
000050 3c 27 bb 3d 02 bb 08 3e 07 63 6d 3e 05 74 18 be
       0.09138343 0.13352588 0.23182307 -0.14888008
000060 65 a4 0e 3e 15 29 53 bf 18 0e c8 3e 1d 68 54 bf
       0.13929899 -0.8248456 0.39073253 -0.82971364
000070 a9 ce 47 3f ca 31 c0 bd 49 1a 1a bc b8 72 9a 3f
       0.78049713 -0.093844965 -0.009405681 1.2066259
000080 24 bb e2 bd 69 51 b1 be 5f 2a 9d 3f c9 19 92 3d
       -0.110708505 -0.34632424 1.2278556 0.071338244
000090 a6 ee 3f 3e eb 1d 91 3e c4 d3 ac be d1 f7 bf bc
       0.18743381 0.28343138 -0.33755314 -0.023433598
0000a0 4a 06 dd 3d bd da c2 bc d5 2a 87 3e 21 5a a6 3c
       0.10792215 -0.023785943 0.26399866 0.020306649
0000b0 b6 76 85 3e 62 04 99 bd 79 e1 f0 3a cd e4 13 ba
       0.26067132 -0.07471539 0.0018377743 -0.0005641699
0000c0 b8 00 af 3e c1 15 41 3d 0c c0 2a 3e b9 65 a4 3c
       0.34180236 0.047139887 0.16674823 0.020068036
0000d0 be 11 9c 3d 58 5b 77 be 81 50 96 3c 63 d5 03 bf
       0.076205716 -0.24155939 0.018348934 -0.5149748
0000e0 81 63 69 3d 1e cf c1 bd 36 9c e8 3d f5 03 a6 bf
       0.05697966 -0.094633326 0.1135792 -1.2969958
0000f0 98 23 10 3f 38 6e 21 3f f8 b7 23 c0 4d 35 1c 3f
       0.5630431 0.63058805 -2.5581036 0.6101883
000100 bb 12 55 3e d7 14 ba 3c 2e b5 73 3e 65 93 b4 3d
       0.20807926 0.022715015 0.23799583 0.08817176
000110 6b 4d 18 bc 5a aa 8a 3c 69 1a e6 be 21 32 2d 3e
       -0.009295802 0.016926933 -0.44942024 0.16913654
000120 36 57 81 be 16 9b fa bb ab b1 dc bb 77 ab 37 bd
       -0.2526185 -0.007647882 -0.006735047 -0.044841256
000130 e4 a3 c6 be 44 7d e4 3d 57 94 85 be 02 0c 1b 3e
       -0.38796914 0.11156705 -0.26089737 0.151413
000140 4e 35 c8 bd fb 1c 8f 3f f2 ef d2 be 5e 3c 0f bf
       -0.09775792 1.1180719 -0.4119869 -0.5595149
000150 6e 63 8e 3f 8f a3 32 be 4a 6d 1d 3e ff 8a 60 bf
       1.1124094 -0.17445205 0.15373722 -0.8771209
000160 39 19 95 3d ee cd b9 3b fb 72 24 c0 3d f8 9a bd
       0.072802015 0.0056703007 -2.5695179 -0.07566879
000170 f9 ca 4e bd 04 43 dd 3e 73 8e c1 be fd 8d c0 3c
       -0.05048654 0.4321519 -0.37803993 0.023505205
000180 87 ec c2 bd d7 98 c4 3a 36 6d 20 be d3 80 c7 3c
       -0.0951777 0.0014999163 -0.1566666 0.02435342
000190 a5 3d 13 be 01 7d eb 3c c3 69 52 3c b8 f5 f1 3b
       -0.14378984 0.02874613 0.012842598 0.0073840283
0001a0 0f 6a b7 bd 4c d4 2d bd e6 2b eb bd f3 16 6f bb
       -0.08955776 -0.04243879 -0.11482982 -0.0036482185
0001b0 5b fa 9a bd 17 ef 5c be fd 1b aa bd c3 6c 0f bd
       -0.07567283 -0.2157558 -0.083061196 -0.035015833
0001c0 4b 54 74 be f6 c2 53 be a6 60 96 3d 43 ac 61 3e
       -0.2386028 -0.2067984 0.07342653 0.22038369
0001d0 fa 82 c4 3e 0f 08 94 be 44 5d 8f 3e cb a4 ee 3e
       0.38381177 -0.28912398 0.28000844 0.46610102
0001e0 4c 44 88 be 41 d6 93 bd 6b c9 bf 3f ad f1 56 3d
       -0.26614606 -0.072186 1.4983343 0.052476574
0001f0 47 91 e0 3c ec 05 c0 3d 2f 2d 87 3d 69 36 90 3e
       0.027413024 0.093761295 0.06600415 0.28166512
000200 f6 a8 41 3e b1 e4 b9 3d 55 5b 66 bd 37 48 8a 3d
       0.1891211 0.090768225 -0.056239445 0.06752055
000210 89 38 43 3e 91 c6 4f 3e 44 5d 50 3e 75 f1 8b be
       0.19064535 0.20290591 0.20348078 -0.27332655
000220 f5 58 3b be 39 d6 92 bd 00 51 77 be 21 a1 46 40
       -0.18295653 -0.07169766 -0.24151993 3.1035845
000230 d9 3d c4 3e af 76 e7 bd 56 4b 3d bd 94 29 b1 bf
       0.38328436 -0.11301934 -0.046214424 -1.3840814
000240 3d 8c 99 bd 78 53 3d be b7 95 f0 bf 3c 78 12 be
       -0.074974515 -0.18488872 -1.8795689 -0.14303678
000250 74 34 34 be b0 d7 57 be ff 69 ea 3e 2d 8b 9d 3d
       -0.17598134 -0.21078372 0.45783994 0.07692561
000260 4c e1 ee bd 09 97 a0 3d 2e ef f5 be 3b 73 a7 be
       -0.11664066 0.07841308 -0.48034042 -0.327051
000270 ee 97 07 3f 54 38 86 bd eb b1 59 3d 5c a8 6e bb
       0.529662 -0.065537125 0.05314819 -0.0036416268
000280 fd 68 02 bf 0e 0b 31 be 8b 4b f2 3e 66 b5 cb 3c
       -0.5094145 -0.17289373 0.4732326 0.024866771
000290 b3 d9 dc bd 4d f8 66 3f 37 46 20 3e 58 3f b1 3f
       -0.1078371 0.90222627 0.15651785 1.3847456
0002a0 3b 88 e4 3e 4a c1 1f bf 96 e7 51 3b e7 41 5b 3f
       0.44635186 -0.6240431 0.0032028905 0.85647434
0002b0 2f ef 76 bf 09 56 40 bf 3a 65 89 3e 73 83 0c bf
       -0.96458715 -0.7513128 0.26835042 -0.54888076
0002c0 ce d7 96 3c f0 d9 ca be f9 1d ee 3e 1d 2e 1a bd
       0.01841345 -0.39619398 0.46507242 -0.037641633
0002d0 96 93 de bc 8e 01 8c 3c 62 79 9d bd e8 b7 e4 3d
       -0.027169984 0.017090585 -0.076891676 0.1116789
0002e0 a8 f3 83 be b7 4d b9 bd a1 7d db bc 08 97 27 3d
       -0.25771832 -0.09048026 -0.026793303 0.04091552
0002f0 02 6e 98 bd 57 db 99 3d 4c 5c 5a be fd 87 69 3d
       -0.07442857 0.07512539 -0.21324271 0.057014454
000300 e2 4f 70 3b 7a cd 9d bf bf 0d b8 3f be 8d a6 be
       0.0036668708 -1.2328331 1.4379195 -0.32530016
000310 1a 81 2b 3f 84 ed 27 bd b5 e7 6a 3e 2f 4c 82 3f
       0.6699387 -0.040997997 0.22939952 1.0179499
000320 8c e9 ee bd a0 08 08 be d2 df 27 3f 29 ba 71 3d
       -0.11665639 -0.1328454 0.655759 0.059015427
000330 eb 2e 03 3f 81 15 86 bc a6 4c 61 be 1b 12 be 3d
       0.51243466 -0.016367676 -0.22001895 0.09280797
000340 f2 bc c6 bc 83 d9 70 3d 58 48 73 3e 07 d3 75 3d
       -0.024260018 0.058801185 0.23758066 0.060015704
000350 6b e4 21 3e bf 9e 6e 3a f9 5b 03 be 48 8e 55 3d
       0.15809791 0.00091026345 -0.12828054 0.052137643
000360 1c 41 8b 3e 33 50 92 3d ca 15 28 3e fe 83 3e 3d
       0.27198112 0.07144203 0.16414562 0.046512596
000370 11 a0 a0 bd 22 c7 1e 3e 95 5b 19 3d 52 f0 93 3e
       -0.0784303 0.1550565 0.037440855 0.28894287
000380 3b 58 c4 bd b0 f8 d5 bd d9 59 d5 bd 6c 7d 72 be
       -0.09587141 -0.10447824 -0.10417528 -0.23680657
000390 4b 43 48 3e fb d2 e3 bf ad 44 fb be 16 01 19 3f
       0.1955692 -1.7798761 -0.49075833 0.5976728
0003a0 8e b5 dd be 4a 20 61 bf b9 5b f4 3f 43 4a 14 3e
       -0.43302578 -0.87939894 1.9090492 0.14481454
0003b0 28 4c 78 bd 1b ee 23 bd c6 3d 47 be e0 2e 80 bd
       -0.060619503 -0.040021997 -0.19457158 -0.06258941
0003c0 a7 e6 6d be 76 54 be 3e 00 be 38 3e d7 83 f4 3d
       -0.23232518 0.37173814 0.18041229 0.11939209
0003d0 9b 12 a2 bd 91 d4 6c be bd ae 4b be 85 80 b0 3e
       -0.07913705 -0.23127963 -0.19890876 0.34473053
0003e0 db 1c 04 3f cd 23 4c 3e 8a 29 ea 3d 2e d3 a9 3d
       0.5160653 0.19935532 0.11433704 0.082922325
0003f0 52 ae 38 3d 25 1e 90 bd ff c7 82 be dd e0 0a bf
       0.04508812 -0.070369996 -0.2554321 -0.54249364

fc1.bias f4 [256]
000000 c8 f9 85 be 0a b3 26 c0 e6 06 33 bf 99 e3 d6 bf
       -0.2616713 -2.6046777 -0.699324 -1.6788207
000010 6e 4b e2 bf 7f 11 fe bf e1 0c e4 be 1b f6 ce bf
       -1.7679269 -1.9849089 -0.44541076 -1.6168855
000020 5a a0 90 bf 78 d2 05 c0 9a 6b 63 be da 5d 93 bf
       -1.1298935 -2.090971 -0.22209015 -1.1513016
000030 c7 a7 7a 3e af 92 f0 bf a6 da 3c c0 9b 8d 03 c0
       0.24478064 -1.8794764 -2.9508452 -2.055518
000040 61 8b 1c 3e fe ff 0f c0 51 a9 4e bf 78 57 f0 bf
       0.15287544 -2.2499995 -0.80727106 -1.8776693
000050 b4 11 97 3f ad 4f c8 bf 06 3d f6 bf 5c 92 7c bd
       1.1802278 -1.5649315 -1.9237373 -0.061663017
000060 52 af fd bf b9 8b f0 bf f0 86 70 bf 57 16 1d 3f
       -1.9819129 -1.879264 -0.939559 0.6136221
000070 10 c0 0f bf 8c 3f dc bf e5 15 ff bf 90 cd 88 bf
       -0.5615244 -1.7206893 -1.9928557 -1.0687733
000080 5f af 35 c0 7f a6 32 3f 19 42 c1 bf 0e 7c b5 bf
       -2.8388288 0.697853 -1.5098296 -1.4178483
000090 24 90 12 c0 e4 07 f1 bf ac 27 e1 bf 05 05 22 c0
       -2.2900476 -1.8830533 -1.7590232 -2.5315564
0000a0 3c 66 f1 bf 52 04 1f bf c2 1a c2 bf 54 52 9e bf
       -1.8859324 -0.6211597 -1.5164416 -1.2368875
0000b0 99 ca c8 bf 78 83 b0 bf cc 10 15 c0 7e 64 f8 3d
       -1.5686828 -1.3790121 -2.3291502 0.12128542
0000c0 7c cb c9 bf ec bd 30 3f b3 38 e3 bf 13 20 0a 3f
       -1.5765224 0.690398 -1.7751678 0.5395519
0000d0 0c 2e 7f bf 43 31 99 3f 87 ba 02 c0 d3 f6 21 c0
       -0.99679637 1.1968158 -2.0426347 -2.53069
0000e0 75 da 89 bf ff 20 69 bf 42 df 09 c0 b2 ce 02 c0
       -1.0769793 -0.91065973 -2.1542516 -2.0438657
0000f0 a2 9e 05 3f 0b 3c f9 bf 99 39 a5 bf 92 25 89 3e
       0.5219518 -1.9471449 -1.2908202 0.26786476
000100 e3 0a e0 bf 69 8a 16 bf 01 95 f1 bf 28 dc dd bf
       -1.7503322 -0.5880495 -1.8873597 -1.7332811
000110 21 ae 22 c0 fc 05 0f c0 ac 87 d0 bf e9 ee e3 bf
       -2.541878 -2.2347403 -1.6291404 -1.7807285
000120 6b 03 e2 bf 8d 89 cd bf 06 5e da bf d7 c9 5d bf
       -1.7657293 -1.6057602 -1.7059944 -0.8663611
000130 00 e9 c6 bf 8e b2 a2 bf f1 5c 37 3f d5 38 d5 bf
       -1.5539856 -1.271074 0.7162619 -1.6657969
000140 7a 3c 14 c0 bb a2 f8 bf be f3 e6 bf f8 5b 7f bf
       -2.3161912 -1.9424661 -1.8043134 -0.9974971
000150 c2 e0 23 bf c3 63 ee bf f8 66 fc bf b0 50 cf bf
       -0.6401483 -1.8624195 -1.9718924 -1.6196499
000160 14 12 e1 bf b4 6d 9b bf 35 87 df bf 6a 0a d2 bf
       -1.7583642 -1.2142854 -1.7463137 -1.6409428
000170 96 b0 12 c0 7c ec f7 bf 4a 51 11 c0 95 c6 1c c0
       -2.292028 -1.9369044 -2.2705865 -2.4496205
000180 c8 27 26 bf d4 7e c6 bf a0 10 e1 be 5d bb fe bf
       -0.6490445 -1.5507455 -0.43957996 -1.9900929
000190 49 24 cf bf 4d a2 76 bf e0 5e 2c c0 2b e1 fb bf
       -1.6182948 -0.963414 -2.6932907 -1.9678091
0001a0 39 56 8c bf e8 7c cc be 44 f5 0d c0 e6 1c da bf
       -1.0963813 -0.39939046 -2.2180948 -1.7040069
0001b0 23 f7 bf bf 59 0e fb bf 87 e1 c7 3c 01 67 05 c0
       -1.4997295 -1.9613754 0.024399532 -2.0844119
0001c0 37 0c ed bf e6 01 dc bf 22 36 be bf 65 99 b1 bf
       -1.8519353 -1.7188079 -1.486027 -1.3874937
0001d0 c8 fa f3 bf fc 80 d6 be 16 10 92 bf 7a 74 15 c0
       -1.9060907 -0.41895282 -1.1411159 -2.3352342
0001e0 43 ac 21 bf 9d 41 03 c0 e4 7f 90 bf dd 50 0b c0
       -0.63153476 -2.0508797 -1.1289029 -2.1768105
0001f0 42 5d 11 c0 47 1c 06 c0 31 6d 02 be d4 e6 96 bf
       -2.271317 -2.095476 -0.12736966 -1.1789193
000200 c4 4b 07 40 8b e4 f2 bf c7 e7 b3 bf b4 91 0b c0
       2.1139994 -1.8975996 -1.4055108 -2.180768
000210 2b 81 bf bf 4d 98 c0 be d9 c0 23 c0 49 9a 0f c0
       -1.4961294 -0.37616196 -2.5586455 -2.2437918
000220 04 46 bd bf fb d8 0a c0 93 a9 bc be b3 7f 63 bc
       -1.4786992 -2.1694934 -0.36848125 -0.013885426
000230 88 e2 6a bf 4f cb a9 bf c2 61 e0 bf f7 3b 2b c0
       -0.9175191 -1.326517 -1.7529833 -2.675535
000240 5f 00 14 bf 97 a6 d7 bf 84 04 96 bf 9a 0d 0f c0
       -0.57813066 -1.6847714 -1.1720128 -2.2352052
000250 4d 25 3d c0 1d 12 e9 bf f2 4a d5 be 14 55 e8 bf
       -2.9554017 -1.8208653 -0.4165874 -1.8150964
000260 b1 d3 04 c0 86 03 f4 bf da b3 b8 bf 34 d8 07 c0
       -2.0754206 -1.9063575 -1.4429886 -2.122571
000270 4a c1 04 c0 6c 29 da bf 37 c9 0c c0 8d f8 cb bf
       -2.0742974 -1.7043891 -2.1997812 -1.5935227
000280 86 8f bf bf c6 fb d5 bf 77 ef 0e c0 0d f1 a2 bf
       -1.4965675 -1.671746 -2.2333658 -1.2729813
000290 99 36 13 c0 20 42 cf bf 0c 9b dc be dc 43 bb bf
       -2.3002074 -1.6192055 -0.4308704 -1.4630084
0002a0 71 e4 0d c0 b6 30 0b bf 70 6b 10 c0 29 05 03 c0
       -2.217068 -0.543712 -2.2565575 -2.04719
0002b0 1a d8 e7 bf d7 3d 03 be 5b 2f d3 bf 95 7a 3a bf
       -1.8112824 -0.12816559 -1.6498827 -0.72843295
0002c0 6d 65 13 c0 67 a3 10 c0 8e 96 07 c0 a3 ef 15 c0
       -2.3030655 -2.2599733 -2.1185641 -2.3427513
0002d0 ac a8 d1 bf c5 61 ec bf 40 02 33 bf fd 76 84 bf
       -1.63796 -1.8467337 -0.6992531 -1.0348812
0002e0 05 19 b9 bf 79 85 e3 bf b6 c9 46 c0 7d 7c d9 bf
       -1.446076 -1.7775108 -3.1060615 -1.6991116
0002f0 95 4d 32 bf 24 ac c0 be ea 44 19 c0 26 bf b4 bf
       -0.6964963 -0.37631333 -2.3948312 -1.4120834
000300 b1 d4 c8 bf 6f 9a 27 c0 14 15 a3 bf 32 10 13 c0
       -1.5689908 -2.6188009 -1.2740808 -2.2978635
000310 91 8b 5b bf a6 a5 28 c0 5e b9 a6 be 92 f8 05 c0
       -0.85759836 -2.6351104 -0.325633 -2.0932965
000320 0f 00 ba bf ed 68 fe bf 3e 37 16 c0 41 ad 27 be
       -1.4531268 -1.9875771 -2.3471217 -0.16374685
000330 46 63 cd be 5d 3b c4 bf 84 f6 13 c0 39 39 e5 bf
       -0.40114802 -1.5330616 -2.3119211 -1.7908088
000340 4e ef d7 bf 51 2c 1f c0 13 8d 6a be 57 9a 59 3f
       -1.6869905 -2.4870799 -0.22905378 0.8500113
000350 63 dc 9f bf c6 2e a7 bf ef 8b 48 c0 be b2 16 3f
       -1.2489132 -1.3061149 -3.1335409 0.5886649
000360 cf 40 f6 bf e3 55 b9 bf ec c1 eb bf 6c c4 9b be
       -1.9238528 -1.4479336 -1.8418555 -0.30423295
000370 e5 55 01 c0 ab 12 dd bf 0d 08 06 c0 1f a0 da bf
       -2.0208676 -1.7271322 -2.0942414 -1.7080115
000380 29 ad 03 c0 c8 18 37 be 48 54 14 c0 8f f9 fe bf
       -2.0574439 -0.17880547 -2.3176441 -1.9919909
000390 8b a1 07 c0 b0 df 96 be 5f 42 53 3e da 4e e8 bf
       -2.1192348 -0.29467535 0.20630787 -1.8149064
0003a0 9f 46 16 c0 0a 48 0f c0 2a 02 82 bf 3f 97 89 be
       -2.3480604 -2.238772 -1.015691 -0.26873204
0003b0 a7 d1 aa bf af 6c 8a be 59 6f 96 bf 13 42 cc be
       -1.3345231 -0.27036044 -1.1752731 -0.3989416
0003c0 3a dc 0b c0 f3 51 19 c0 c0 a7 99 bf 2d f2 c4 bf
       -2.1853166 -2.3956268 -1.2004318 -1.5386406
0003d0 3d 93 86 bf 50 fd 1f c0 01 e9 a2 3f 64 c2 bb bf
       -1.0513684 -2.499836 1.2727357 -1.4668698
0003e0 82 8a 85 bf 4c fa 1e c0 d4 35 4f c0 81 18 e3 bf
       -1.0432894 -2.484027 -3.2376604 -1.7741853
0003f0 1f d6 01 c0 d1 eb 0b c0 26 6a d6 bf 1a b7 05 c0
       -2.028694 -2.186268 -1.6751144 -2.0893006

fc2.weight f4 [256, 256]
000000 f0 32 aa bc b1 dc b8 bc 62 10 82 bd 17 f7 68 bd
       -0.020776242 -0.022566171 -0.06350781 -0.05687627
000010 aa 7b b3 bd bb 97 9c bd 6b 29 0e bd fb 61 02 bc
       -0.087638214 -0.07646128 -0.034707468 -0.007957931
000020 23 5c 83 bd 86 c4 c9 3a 92 aa 3f bd 3b d8 32 bd
       -0.06414058 0.0015393652 -0.046793528 -0.043663245
000030 03 d9 be bd 26 d6 c5 3b ba 75 7f bd 1f 0c 6c bd
       -0.093187355 0.0060374914 -0.062368132 -0.057628747
000040 47 06 a2 3c 69 9f 8c 3b 7f ef 55 bd 30 b4 5a 3d
       0.019778384 0.004291464 -0.052230354 0.053394496
000050 eb 61 a0 bc f2 68 ae 3c e3 c2 bd 39 af f7 1d 3d
       -0.01957794 0.021290276 0.0003619409 0.038566288
000060 e9 e0 0c bd 28 c1 bf bd 3f 5b 97 3c 6d 9a 4c bc
       -0.03439418 -0.093630135 0.018476127 -0.01248799
000070 43 89 81 bd 0c 57 fb 3c bd 6e 82 3d 97 9e 22 bc
       -0.06325009 0.030681156 0.06368778 -0.009925506
000080 c0 3e 09 bd 39 b1 bf bc 88 52 0b bd 0b 25 aa bd
       -0.03350711 -0.023399936 -0.034014255 -0.08307847
000090 9a ea fa 3c 4d 10 05 3b 2d 99 25 bd 9a 44 8b 3c
       0.030629445 0.0020303905 -0.040429283 0.017000485
0000a0 ce 6f 81 bd aa 96 5a 3d 0c ed 3b bd e6 24 9b bc
       -0.06320153 0.05336634 -0.045880362 -0.018938493
0000b0 42 ee 80 bc 68 85 5a bd c8 6a 3d bc b6 6d 40 bd
       -0.01573861 -0.053349882 -0.011561103 -0.04697963
0000c0 b3 5e 39 3d a9 5e b4 bc 5d 30 ab bd 05 23 56 bc
       0.045256328 -0.022017794 -0.08358834 -0.013069873
0000d0 36 eb 9f bc 07 bd ed 3b 0c bd 8f bd 65 03 72 bd
       -0.019521337 0.0072552 -0.0701848 -0.05908527
0000e0 49 8a 3a 3b 5a b0 6c 3d 35 4e c9 bd aa 55 77 39
       0.0028463772 0.05778537 -0.0982937 0.00023587668
0000f0 5f f3 6d bd 63 63 b2 bd 20 c4 b0 3d 9e 52 78 bd
       -0.058093425 -0.08710363 0.08631158 -0.060625665
000100 e4 15 3f 3b 87 d6 16 bd d6 35 e6 bc a4 05 2f bd
       0.0029157335 -0.036825683 -0.028101843 -0.04272999
000110 65 16 80 3c 3e 84 4a bd ad ee 84 bc 08 7f f7 3c
       0.015635679 -0.049442522 -0.01622709 0.03021194
000120 53 db ab bd d6 65 be 3b 40 11 b9 bc 03 1c 21 3d
       -0.08391442 0.0058104796 -0.022591233 0.039333355
000130 40 96 64 bd 9c 0b 62 3d ed de a0 bb d1 4f 9b bc
       -0.055807352 0.055186853 -0.0049093873 -0.018958958
000140 77 6e 0b 3d c4 01 14 bd 49 32 a9 3c 6b 0d 76 bb
       0.034040894 -0.036134496 0.02065386 -0.0037544619
000150 00 20 5d bc 82 6c 10 3d 12 53 3d bd a7 26 92 bc
       -0.013496399 0.03525973 -0.0462218 -0.017840696
000160 39 f3 97 bd 01 bf 19 3d 20 20 94 3c 09 ac cf bb
       -0.07419438 0.03753567 0.018081725 -0.006337647
000170 a4 55 80 bd 8f bd 33 3d 12 b1 d9 3b a8 cd 58 bc
       -0.06266335 0.04388195 0.006643423 -0.013232626
000180 25 81 9a bd cc 97 64 bd 60 cd b7 bd 56 5d 69 bd
       -0.075441636 -0.055808827 -0.08974719 -0.056973778
000190 d8 26 5c bd ca 70 60 bd 17 05 e8 bc 69 89 0d bd
       -0.05374798 -0.054795064 -0.02832274 -0.034554873
0001a0 98 ea 58 bd 02 eb 7e bd 5f 2c a9 bc d6 e1 25 bd
       -0.0529581 -0.06223584 -0.02065104 -0.040498577
0001b0 f6 d1 89 bd fe 98 a6 bd f7 1e 1d 3c 51 7f b4 bd
       -0.067295 -0.0813465 0.009589902 -0.08813346
0001c0 5b 51 08 3d ac 98 83 bd 2c fd 0e bd 13 45 8b 3c
       0.03328071 -0.06425604 -0.034909412 0.01700071
0001d0 9b cb e6 bb ff 2c db bc 4b 0c 15 bd 82 0f 1e bd
       -0.0070433146 -0.026754854 -0.036388677 -0.03858901
0001e0 38 a3 d2 bc 02 40 2e bd 01 f9 bf 3c 97 c2 8d 38
       -0.025712594 -0.04254151 0.023434164 6.759649e-05
0001f0 20 1a a7 bd fa 30 8e 3b e0 97 a5 bd 4c d1 0e 3d
       -0.0815928 0.0043393346 -0.080856085 0.03486757
000200 66 1b 57 bd 17 a6 87 3c cb fd e2 ba 69 e1 30 3d
       -0.052516364 0.01655869 -0.0017318068 0.043183718
000210 a7 33 67 3d 6a 1b d0 bd f9 f8 ca bc a5 90 d6 3c
       0.056445744 -0.10161479 -0.024776923 0.026192019
000220 27 70 e7 3b 22 57 57 bd b3 56 17 bd 41 a8 d3 bd
       0.00706293 -0.05257333 -0.036947917 -0.10334826
000230 fd ff 46 bd fd 95 c4 bd 47 c9 98 bd c2 44 ac bd
       -0.048583973 -0.095989205 -0.074602656 -0.08411552
000240 50 c6 fd 3c 09 37 33 bd 19 95 60 bc 34 8c c6 bc
       0.030978352 -0.043753657 -0.013707423 -0.024236776
000250 8f 84 6d 3c 29 e3 8c bd fb 69 c5 bd d7 df 60 3d
       0.014496936 -0.06879265 -0.09639355 0.05490097
000260 8a b3 ae bd 09 f6 94 bd 8f 5a 9c bd 7e f6 5b bd
       -0.08530338 -0.0727349 -0.0763446 -0.05370187
000270 94 5b ef 3b 4d 1a 4c bd 21 39 85 bd 78 34 2b bd
       0.007304618 -0.04982977 -0.06505037 -0.041798085
000280 a9 d0 b3 bd 74 57 6b bd 3e c9 22 bd c2 47 ad bd
       -0.08780033 -0.05745645 -0.0397427 -0.08460952
000290 ee 80 bc bd 2e 43 28 bc b6 bd 7f bb 0c 7a 43 bd
       -0.09204279 -0.010269923 -0.0039022989 -0.047723815
0002a0 f8 f6 75 3c 0a 0a 6a bd 21 87 a5 bc bc 47 83 bd
       0.015012495 -0.05713848 -0.020206036 -0.064101666
0002b0 63 4e 83 bd 3f 76 e2 bc 2c ef 98 bd 03 0a ce bb
       -0.064114355 -0.027644275 -0.074674934 -0.0062878146
0002c0 70 12 eb 3b 9e 4c 89 bc fd b8 a4 bd 0f 8e b0 bd
       0.007173829 -0.016760167 -0.08043096 -0.086208455
0002d0 36 e0 15 bd 9d b3 a3 3c 06 43 1b bd 5e 7e 82 bc
       -0.036590777 0.019983107 -0.037905715 -0.015929397
0002e0 96 91 8c bd 63 ed 3a bd e5 9f 7e 3c 6c 70 74 bd
       -0.06863706 -0.045636546 0.0155410515 -0.059677526
0002f0 60 91 14 bd cc 69 23 bd 08 46 5c 3d 66 14 80 bd
       -0.036271453 -0.039895818 0.053777725 -0.06253891
000300 9b 21 fe bc 1a 2e e1 3c 4f 83 c1 bd d0 11 94 bd
       -0.031021884 0.027487803 -0.09448873 -0.0722996
000310 fb 87 aa 3c 12 b8 b6 bc 87 ac da bd 3f 29 85 bc
       0.020816794 -0.022304568 -0.10677438 -0.01625502
000320 35 ac 39 bd ab 13 9c bd a3 03 d0 bc 33 11 e8 3c
       -0.045330245 -0.07620939 -0.02539236 0.028328514
000330 32 09 14 bd d3 86 30 3d b4 80 29 3a 49 f5 13 bc
       -0.03614158 0.04309733 0.00064660166 -0.0090306485
000340 7c 4a 3c bd 28 3b 4c bd 3c 88 93 bd 43 bb 1d 3c
       -0.04596947 -0.049861103 -0.07203719 0.009627166
000350 d0 88 40 bd 1e b1 ab 3c 87 3c cd 3c d6 44 05 bd
       -0.047005475 0.02095848 0.025053276 -0.03253635
000360 4c 99 d4 bd 74 b6 16 bd 27 b6 e2 3c 76 6b f0 bd
       -0.103808016 -0.036795095 0.027674748 -0.117392465
000370 bf 21 53 bc 2d 6f be bd da c1 c8 bc f1 10 aa bd
       -0.012886464 -0.09298549 -0.024506498 -0.083040126
000380 31 0b 24 bd ae 65 a6 3d 21 15 73 bd 1d 31 f2 bc
       -0.040049735 0.081248626 -0.059346322 -0.029564435
000390 4f a5 08 3c be c1 be bd c1 98 d8 3a 35 48 d8 bc
       0.008340194 -0.09314297 0.0016525016 -0.026401618
0003a0 be 6d 8e 3c 14 7b 39 3c 19 28 b6 bd 33 a5 ff bd
       0.017386314 0.011320848 -0.08894367 -0.12482681
0003b0 b5 cf f6 bc 32 74 14 3d d8 c9 de 3c 89 11 68 ba
       -0.03012834 0.036243625 0.027195856 -0.00088527106
0003c0 e1 ed 8b bd 80 06 26 bb 44 3d 8f bc 05 0d 90 bd
       -0.06832481 -0.0025333464 -0.017485268 -0.07033733
0003d0 8b 1c 0c bd 8f 30 7a bc 9b 63 be bd 82 e7 f3 bb
       -0.03420691 -0.015270366 -0.09296342 -0.0074433694
0003e0 28 29 1e bb 7b ac 8c bd 05 91 28 bd e7 29 9b 3c
       -0.0024133418 -0.068688355 -0.041153926 0.018940879
0003f0 a8 2a c0 bd 73 4d 04 be c0 0b 81 3c 13 2d 62 ba
       -0.09383136 -0.1292017 0.015752673 -0.00086279324

fc2.bias f4 [256]
000000 19 d7 d8 bd 42 8d 6d be 2c d5 49 bf e8 8b ce 3c
       -0.105879016 -0.23198417 -0.788409 0.025213197
000010 4b e6 c5 be 12 ec 15 bd 0f 7f 54 bb 0f 23 a5 bd
       -0.38652262 -0.036602087 -0.0032424366 -0.080633275
000020 86 7b 21 be e1 b4 49 3f e2 fe d8 bd 24 10 08 40
       -0.15769777 0.78791624 -0.1059549 2.1259851
000030 57 9a a8 3e 82 ab 96 3f 5f 0e b1 be f1 74 10 3f
       0.32930252 1.177109 -0.34581277 0.5642844
000040 86 7d 19 c0 c3 cc da 3d d7 62 58 3e 6d 77 8b 3e
       -2.3982863 0.106835864 0.21131454 0.27239552
000050 fa 53 ba be f8 42 2b 3f a1 5d 90 be 09 cf da 3f
       -0.36392194 0.6689906 -0.28196433 1.7094432
000060 18 64 0c 3d 0e 29 2c bd 83 4e 29 bd 6d 6b 6e bf
       0.034275144 -0.04203134 -0.04133464 -0.9313267
000070 46 8d d3 bc 3c 0c a3 3c 00 a2 21 3f 20 59 bf be
       -0.0258242 0.019903295 0.6313782 -0.37372684
000080 98 59 63 bf 41 25 84 3f 2b 4f 96 bf 9e cd 7d bd
       -0.88808584 1.0323869 -1.174291 -0.06196367
000090 1f 1e b8 bd 4d 72 fd b9 06 77 0e 3f 64 d9 5c bc
       -0.0899012 -0.0004834108 0.55650365 -0.013479564
0000a0 37 03 89 3d fc 75 70 3d 8b 0a 96 3e 8d 30 1b be
       0.06690066 0.05870627 0.2930492 -0.1515524
0000b0 73 17 3d bc 9d 84 8b 3e aa 64 35 3b 85 be 03 bf
       -0.011541235 0.27249613 0.0027678409 -0.51462585
0000c0 f3 74 e7 bd c4 12 a2 bd 04 b7 dd 3e 04 3c 81 bd
       -0.11301603 -0.079137355 0.43303692 -0.06310275
0000d0 df 0b b8 bb 2b 4f 05 bf 8a 78 27 3e 88 2d 0e bf
       -0.0056166495 -0.52073926 0.16354576 -0.55538225
0000e0 69 f0 15 be a1 82 1f bf d7 70 ab bd e9 67 d9 bd
       -0.1464249 -0.623087 -0.08371132 -0.106155224
0000f0 41 6f b2 3f 9a a7 b0 bd 26 2a 2a 3f ed 0e 31 3f
       1.3940202 -0.086257175 0.66470563 0.691634
000100 14 af a0 bc c6 05 c1 3f b1 ee d7 bc 03 9b 84 bd
       -0.019614734 1.5079887 -0.026358934 -0.06474879
000110 38 b6 c9 3e 89 56 a6 bf 23 8d 1a 3e cf 56 0a 3e
       0.39396834 -1.2995158 0.15092902 0.13509677
000120 f6 0e 2b bd 77 c7 2f bc 54 fe 36 be 34 f2 fc 3d
       -0.041762315 -0.0107287085 -0.17870456 0.12350884
000130 e5 e7 70 3e 96 0b 02 3e 5e d6 be be 4c 29 a6 3c
       0.2352596 0.12699732 -0.37272924 0.020283364
000140 c9 04 ef bc b1 50 a7 3f cf 61 86 be 1e c1 bb 3c
       -0.029177086 1.30715 -0.26246497 0.022919234
000150 9d 48 93 bf 6e 31 11 3f f5 fd df be 6a d9 5c bd
       -1.1506535 0.5671605 -0.4374844 -0.05391828
000160 f2 99 a5 bf 9d f3 dd bd 05 66 5a 3f cd 80 91 bd
       -1.2937605 -0.10837481 0.8531192 -0.07104645
000170 b7 8a 0e 40 ee 34 c7 bc 25 8a eb 3e 42 de 0b be
       2.2272165 -0.024317231 0.46003833 -0.13659003
000180 4a d0 d9 3e 2f 43 01 3d 23 3f f9 be 50 68 76 bc
       0.42541724 0.031558212 -0.48680982 -0.0150395185
000190 ff 73 fc bd 4b 0a 18 bd 7e ae a8 be 52 b5 98 3e
       -0.12326812 -0.03711919 -0.32945627 0.29825836
0001a0 fe 9a 0a c0 7a 81 ae be 08 7c 2a c0 12 ce 09 3e
       -2.16571 -0.34083158 -2.6638203 0.13457516
0001b0 20 f2 1a bf f8 33 a7 3f fd e9 05 bd e4 58 93 bd
       -0.60525703 1.3062735 -0.03269385 -0.07194689
0001c0 1a 25 90 bf f4 19 11 3f 84 6e 65 3f 43 20 78 3f
       -1.1261322 0.56680226 0.8962176 0.9692423
0001d0 2d 88 47 3d e0 f9 e9 bd fe e4 2a be 37 2f d1 bd
       0.04871385 -0.11424613 -0.16688916 -0.10214084
0001e0 42 b0 1e be f6 8c 32 3e 4b 4d c4 bb 98 ab 3b bd
       -0.15496925 0.17436585 -0.0059906594 -0.04581794
0001f0 ff 31 23 bf 40 b8 32 bd 80 8e 2a be e3 83 33 bc
       -0.63748163 -0.043632746 -0.16655922 -0.010956737
000200 89 57 6f 3e f2 1b f1 3e dd 88 23 3f 63 85 f8 3b
       0.23373236 0.47091633 0.6388071 0.0075842603
000210 3a ad 9f bd 36 b5 dd be 31 52 3a 3c 7d f1 e4 3e
       -0.07796712 -0.43302315 0.011372135 0.4471549
000220 e7 d4 61 bf 6c e8 9e 3d c8 02 a7 bd 2b e4 53 3f
       -0.8821549 0.07759175 -0.08154827 0.8277003
000230 bf f4 1d bf 41 22 1f bd cc aa 8f bf b6 42 b8 bd
       -0.6170158 -0.038851026 -1.1223998 -0.08997099
000240 dc 84 45 bb cf b3 87 be 9c 97 be bd 55 ae 6c bc
       -0.0030139005 -0.2650437 -0.09306261 -0.014445861
000250 cf c3 33 3f 9b 37 d7 bf dc 33 e0 bd d4 66 33 bf
       0.70220655 -1.6813844 -0.109473914 -0.7007878
000260 48 b8 b0 bd 7e 38 05 3e e0 1c 26 40 d1 78 e2 be
       -0.08628899 0.13009831 2.5955124 -0.442328
000270 1e 64 0e 3b bd 46 96 3e be 70 51 3f e3 5e 57 3e
       0.0021727155 0.29350844 0.81812656 0.2103229
000280 62 eb 06 bd 7a 68 2d bd 6a 08 78 3f 4f 1d 45 bf
       -0.032939322 -0.042335965 0.9688784 -0.76997846
000290 bb 83 b7 3e a9 de d2 be b7 9d 1b be 94 08 d6 bc
       0.3584269 -0.411855 -0.15196882 -0.026127137
0002a0 a7 d4 80 bb 8c 01 21 bf ec a7 e2 bd 0e ee e9 3e
       -0.0039316 -0.62892985 -0.11067185 0.45689434
0002b0 07 10 57 3f 05 54 c7 3e 8c 7d a5 3c 35 9d a0 3e
       0.8400883 0.3893129 0.020201467 0.3136994
0002c0 74 03 df bd 6e a1 a6 bd 96 c7 f5 bc 97 2b d4 bd
       -0.108893305 -0.08136259 -0.030002397 -0.103598766
0002d0 fa a4 f0 be eb 18 58 bd da d2 4e bf fd 91 18 bd
       -0.47000867 -0.05275814 -0.80790484 -0.0372486
0002e0 57 fd 7c 3e a1 3f 8c 3f f6 82 58 bf 35 2c b4 3e
       0.24706016 1.0956918 -0.8457483 0.35189977
0002f0 3a 03 2b bd 73 e4 22 bc 39 2a 6e 3f 4a e4 92 3e
       -0.041751124 -0.009942162 0.93033177 0.28689796
000300 c1 cb b1 bd 09 77 03 3f 59 d4 c4 bd 76 3f 95 3f
       -0.08681441 0.5135351 -0.096108146 1.1659992
000310 c2 e0 e0 bd 5c bd 09 bf ba 29 81 bf 31 82 63 bd
       -0.10980369 -0.53804564 -1.0090859 -0.055544082
000320 81 08 33 bd 8f 94 0e 3f 54 ad f0 bf d3 fe 88 bd
       -0.04370928 0.5569543 -1.8802896 -0.06689229
000330 0c 07 a1 bd 6c 11 74 bd 99 e8 29 bd 81 d8 93 bd
       -0.07862672 -0.059586927 -0.041481588 -0.07219029
000340 78 7a da bc 0e 08 b3 bf a4 26 12 3c 11 15 07 bf
       -0.026669726 -1.3986833 0.008920345 -0.5276652
000350 f3 63 d8 3f d8 eb cb 3e 97 82 ed 3b c8 8f 95 3f
       1.6905502 0.39828372 0.0072482335 1.1684504
000360 57 ca f7 b9 13 fc 39 3e fe ee 36 bf 58 8a 90 bd
       -0.00047262266 0.18162565 -0.71458423 -0.07057637
000370 82 8f f1 bb e5 87 c8 3e 5d a0 8c bf d3 da b3 3f
       -0.007371844 0.3916618 -1.0986439 1.4051155
000380 62 33 86 be e2 e1 3f bf 37 09 88 3b 80 30 9b bc
       -0.26211077 -0.74954045 0.004151489 -0.018944025
000390 59 0d ac 3d e0 09 06 be 59 d8 83 3e d7 62 8d be
       0.08400983 -0.13089705 0.25750998 -0.2761447
0003a0 53 f6 b9 3e 54 f4 bc bd b2 0f 89 3c ef ad dd bf
       0.36320743 -0.092262894 0.016731117 -1.7318705
0003b0 94 e2 21 bf 80 8b ae bd 0a 6c d0 3c ad cc 09 bf
       -0.63236356 -0.08522701 0.025442142 -0.53827935
0003c0 1f 6e 27 bf 62 44 39 3e bd 80 3d bf b2 ff 9d bd
       -0.65402406 0.18092492 -0.74024564 -0.07714786
0003d0 91 76 b7 b9 3c d8 10 3f 0d 4b 9d 3c b5 15 3a bf
       -0.0003499282 0.5657995 0.019200826 -0.7268937
0003e0 3f 43 aa 3e 5f 5c 53 bc 67 4f 66 3f 99 d1 54 bd
       0.3325443 -0.012900441 0.8996491 -0.0519577
0003f0 5c ab f4 3f 08 c3 aa bd 65 0e 8b bd bb 01 cb bc
       1.9114795 -0.083379805 -0.06789855 -0.024781099

fc3.weight f4 [256, 256]
000000 5a 66 33 3d ad 12 ba bd 63 3b 9c be 42 00 87 3e
       0.043798782 -0.090855934 -0.30514058 0.26367384
000010 19 f2 10 be 90 2d 2a bd 07 66 9e 3a 1f b8 93 bd
       -0.14154853 -0.041547358 0.001208485 -0.07212853
000020 53 18 c0 bd 41 51 2f bd f2 3d ad bc e0 0a 03 be
       -0.093796395 -0.0428021 -0.021147702 -0.12797117
000030 4b bb 33 3d dd 9e ec be 46 08 92 bd 52 1c ad bd
       0.04387979 -0.46214953 -0.07130484 -0.08452667
000040 42 fe 86 bd e3 4d af be 75 57 68 be 59 c0 b4 be
       -0.065914646 -0.3423911 -0.22689612 -0.35303
000050 e2 f8 11 bf 6c cb 91 3d e1 a9 0e be f0 b0 34 be
       -0.5702039 0.07118878 -0.13931991 -0.17645621
000060 56 55 6f bd d7 c9 9b 3c be 12 10 3d e4 3c 05 bb
       -0.058430992 0.019017143 0.035174124 -0.0020330483
000070 e1 d0 15 3e e4 d8 15 3d be e2 45 bd b2 90 da be
       0.14630462 0.036583796 -0.04831194 -0.4268852
000080 6e 09 86 bd b4 af f0 bd 14 1a 97 be d7 01 6d bd
       -0.06544767 -0.11752263 -0.29512084 -0.057863083
000090 20 b8 f4 bb bc c3 b2 bd 74 55 7c be 22 a4 96 be
       -0.0074682385 -0.087287396 -0.24641973 -0.29422098
0000a0 89 c9 f7 3d 65 23 79 be 94 30 a8 bd 77 85 d2 bd
       0.12098987 -0.24329908 -0.082123905 -0.10279363
0000b0 8a 47 34 bd 1b c2 48 bd 6c 6a d1 3c c3 66 2d bf
       -0.044013537 -0.04901324 0.025563441 -0.67734927
0000c0 bc a5 bc 3c 2f a8 cc 3c a0 2c 26 be da da 8c 3c
       0.023028247 0.02498254 -0.1622796 0.0171942
0000d0 0a f4 3f bd d2 dd 89 be 62 15 32 be 5e 58 d8 ba
       -0.046863593 -0.26927048 -0.1739097 -0.0016505828
0000e0 ca 4a 3f be 5d 9c c3 be 09 bf cd bd 0e 19 88 3e
       -0.18680874 -0.38205233 -0.10046203 0.26581615
0000f0 91 52 d3 3c 54 79 89 3d 85 9a 32 be 8e 92 80 be
       0.025796207 0.06712595 -0.17441757 -0.25111812
000100 63 c9 93 3c 63 71 11 bf 04 42 47 be c3 1f 5f bd
       0.018040365 -0.5681364 -0.19458777 -0.05447365
000110 90 52 02 be 2a f2 9b be bf f4 dd bd 5b 8b 01 be
       -0.12726808 -0.30458194 -0.10837697 -0.12650816
000120 e9 6f 3a 3d 1c de 21 3b 32 61 1b 3d f2 06 5a be
       0.045516882 0.0024699038 0.03793449 -0.21291712
000130 09 4d 3d 3e 8f 74 1c be d1 49 e2 bd c5 ee ea bc
       0.18486418 -0.15278839 -0.110492356 -0.028678307
000140 ff ca 48 3c 8c 3e 3c be 13 51 bd bc 59 29 58 be
       0.012255429 -0.18383235 -0.023109948 -0.21109523
000150 69 b4 96 be 5b 44 e7 be 33 e0 52 be 73 95 c1 bd
       -0.29434517 -0.4516934 -0.20593338 -0.09452333
000160 2e 12 64 be 13 1a b9 be a7 e3 bb bd bc a8 78 3d
       -0.2227256 -0.36152706 -0.091742806 0.060707793
000170 12 ad cc be 03 7b 59 bd 3a 31 2a bf ac 53 d3 bd
       -0.39975792 -0.05309583 -0.66481364 -0.103186935
000180 28 49 ae bd 71 1c 41 3d 9a 81 0c 3d 85 1c 75 bc
       -0.08510047 0.047146264 0.034303285 -0.014960413
000190 0e 58 44 bd 79 f0 9b be 1e 98 30 3e 97 27 0d bf
       -0.047935538 -0.30456904 0.17245528 -0.55138534
0001a0 99 20 a3 be cb 6a 63 be 59 4b 72 be 69 85 4b be
       -0.31860808 -0.22208707 -0.23661555 -0.1987511
0001b0 1f 21 9b 3c 2a de 05 be 2c b0 af be 04 f5 7f 3d
       0.018936692 -0.1307303 -0.34314096 0.062489524
0001c0 b5 3e b2 be c7 a2 49 be c6 d0 10 bd 5c ab 0f 3e
       -0.34813467 -0.19691001 -0.035355352 0.14030212
0001d0 46 6e 0f bc 81 11 09 bd 57 09 16 3e d8 2a ff 3d
       -0.008754319 -0.03346396 0.14652 0.12459344
0001e0 7f 6f 0d be 2e 40 11 bd 50 3b f4 bc 7e 33 b3 bd
       -0.13812064 -0.035461597 -0.029813439 -0.08750056
0001f0 09 7a 06 bd 18 3d 18 be 2b a2 47 3a 72 bf 6a bb
       -0.032831226 -0.14867055 0.00076154125 -0.0035819677
000200 7d 83 80 bd 8e 0a 84 be 2e 8c 53 bf 30 a0 5a bd
       -0.062750794 -0.25789303 -0.8263577 -0.053375423
000210 13 c3 ec 3c 04 b8 c2 be e3 b0 b8 3b 10 40 56 3e
       0.028901612 -0.38031018 0.005636321 0.20922875
000220 79 15 7b be 10 92 9f bc 95 a7 da bb 2e d3 89 be
       -0.2451991 -0.019478828 -0.0066728094 -0.2691893
000230 21 0e b7 bb 5c 79 58 be ee c8 11 be cc 07 ea 3c
       -0.005586401 -0.21140045 -0.14236805 0.028568171
000240 26 eb d0 3c 54 cf c1 bc 3a 22 65 3d b7 78 f4 bb
       0.025502753 -0.023658432 0.055940844 -0.0074606794
000250 79 4d 17 be 4a 96 90 3e 88 53 da 3c cd 7e 5d be
       -0.14775647 0.2823966 0.026651159 -0.21630402
000260 53 9c 30 bd 2a 45 2d be 08 e2 39 3d 4b cd 06 be
       -0.043117832 -0.16920915 0.045381576 -0.1316425
000270 91 d2 f4 bd 6a 60 98 bd dd e3 ba be a5 01 98 3b
       -0.11954225 -0.074402645 -0.3650197 0.004638868
000280 45 db c9 3c 5c 1a 94 3b 4d 07 a9 3d a2 53 b6 be
       0.024640689 0.004519744 0.08253346 -0.35610682
000290 35 e8 36 bd 3d 85 a2 bd ad ce 59 bd 34 4e 9f bd
       -0.044655044 -0.079355694 -0.053175617 -0.07778588
0002a0 03 b2 ab 3b 7d 9f d2 bc 60 ed c5 3c f0 de e9 be
       0.0052397265 -0.025710816 0.02416104 -0.456779
0002b0 11 aa 1c bf f8 75 19 bd 94 73 36 be 17 a0 cf bd
       -0.61197 -0.03746602 -0.17817527 -0.101379566
0002c0 8e 43 09 3b a9 57 48 3d 1b fc 5c 3d ed 10 4d be
       0.0020944807 0.048911724 0.053951364 -0.20025988
0002d0 84 9b 04 bf 17 0a 49 bd 5a f4 15 bd b4 67 9b 3b
       -0.517998 -0.049081888 -0.036609985 0.004742587
0002e0 54 dc ca 3d f6 96 9f 3e 9a 86 73 be c4 ae 85 be
       0.099053055 0.31169862 -0.23781815 -0.26109898
0002f0 64 10 4c 3d 80 1f 07 3e 0b c6 cd 3d 77 af 59 3d
       0.04982032 0.1319561 0.10047539 0.053145852
000300 8b 8a 97 3c 37 43 73 3b c9 bd 2a bd 14 8a 3f be
       0.01849868 0.003711892 -0.0416849 -0.18705016
000310 df f7 05 be 3d 26 8e be 89 67 cf be d0 7e 37 bd
       -0.13082837 -0.27763548 -0.4050868 -0.044798672
000320 a9 3b 6b bd 5b 73 2b bf 48 ec 10 bf 79 9d 40 bd
       -0.057429943 -0.66972893 -0.56610537 -0.047025178
000330 85 b1 06 3c 9f 90 98 bc 2d 3b 39 bd 82 4f 54 bd
       0.008221035 -0.018623648 -0.04522245 -0.051833637
000340 3d f8 d1 3c 44 8b 8c bd 5f 9a 3e 3d 58 01 01 3e
       0.025631065 -0.068625 0.04653394 0.12598169
000350 05 3d 03 be 35 45 6c be 5a ed b1 3c 28 ce 1d be
       -0.12816246 -0.23073275 0.021719623 -0.15410674
000360 75 b5 d2 3b 1a 7c bf 3e 27 f2 99 be 61 81 c8 bc
       0.006430323 0.3739937 -0.3006756 -0.024475755
000370 29 29 56 3d 46 de 89 bc eb 49 e8 3c a0 65 97 bd
       0.052285347 -0.016829621 0.02835556 -0.0739243
000380 f7 55 f2 be ee ce 05 be c7 c8 2f 3e 6f ca 6c 3d
       -0.4733121 -0.13067219 0.17166434 0.057810243
000390 65 53 05 3e 57 56 93 3c 55 f3 90 bd d4 9d 6f bd
       0.13020094 0.017985506 -0.07077662 -0.058500126
0003a0 7b e7 fb bd b2 fa 55 3d 85 f9 e4 3c ff eb 7e 3b
       -0.12300011 0.052241035 0.027951011 0.003889799
0003b0 9f 71 5f be 10 e7 51 3d 84 ea c0 3d cb bf 9b be
       -0.21820687 0.05124575 0.0941973 -0.30419764
0003c0 e4 62 90 be b8 0b 05 be 74 69 f3 bd f2 8e ab bb
       -0.28200448 -0.12992752 -0.11885348 -0.0052355463
0003d0 09 19 8b bc 9e 8c 5b 3a 36 91 6f bd 6d a7 55 bd
       -0.016979711 0.00083751406 -0.058488093 -0.052161623
0003e0 1a 28 02 3c 20 95 20 bb 2b 65 9a bd b8 a1 0b 3d
       0.007944131 -0.0024502948 -0.075388275 0.034089774
0003f0 07 fa d2 bd db 70 5d 3c cf 6a 01 bd c6 1a 3e 3d
       -0.10301595 0.013515676 -0.031596 0.046412252

fc3.bias f4 [256]
000000 ea 35 6c be a3 c0 4b bf 24 e8 84 bf 57 44 1b bf
       -0.23067442 -0.79590815 -1.0383344 -0.60651153
000010 cc b0 bf 3f fd ee 03 bf e2 b2 cc 3d c1 87 6c 3d
       1.4975829 -0.5153654 0.09995057 0.057746653
000020 bf f5 46 be a0 25 d9 be ac e5 25 bf 23 23 aa be
       -0.19429682 -0.42411518 -0.64803576 -0.33229932
000030 c6 e9 52 3e a2 1c 5d be 4a 81 59 be 12 b5 26 bf
       0.2059699 -0.21592954 -0.21240726 -0.6512004
000040 ae 85 38 be df 01 13 be cf e1 0d bf c2 5b 92 be
       -0.18019745 -0.14356183 -0.5542268 -0.2858563
000050 b9 02 0e 3f e6 01 8a be b1 bc 1f bf 54 ee 0f bf
       0.55472904 -0.26954573 -0.62397295 -0.56223035
000060 71 55 a3 be f2 37 ad bd 1a de dc bd 6f ac a2 bc
       -0.31901124 -0.08457936 -0.1078455 -0.019857613
000070 18 ae 32 be 5f 39 bf 3c 9e ec 35 bf 61 3f 8c be
       -0.17449224 0.023342786 -0.71064174 -0.27392104
000080 99 cd 46 be 99 e8 b0 be 1c fa bd 3e 4e ce 1c be
       -0.19414367 -0.34552458 0.3710488 -0.15313074
000090 d1 b7 90 bf 33 1a 15 bd 73 ac 85 bd 8a 5b 57 be
       -1.1306096 -0.03640194 -0.06527033 -0.21031013
0000a0 41 3d 65 3f 0e 9a 72 be f5 7f 7b 3f 8b a5 11 3e
       0.8954659 -0.2369158 0.9824212 0.14223306
0000b0 a8 90 9b bd 14 e7 87 bf ad 78 fc 3f fa 6f 17 be
       -0.0759595 -1.0617394 1.9724327 -0.1478881
0000c0 59 0f 69 be 14 a9 b9 be cb 7b 65 be ef 6a 44 be
       -0.22759761 -0.3626181 -0.22410505 -0.19181417
0000d0 c9 6a 20 bf 90 3a 53 be 7a 3e 0d be 88 c2 67 be
       -0.6266294 -0.20627809 -0.13793364 -0.22632802
0000e0 52 ca 55 be 5c ac 9f be a5 12 48 bf cc 5f 17 bf
       -0.2087796 -0.31186187 -0.7815345 -0.5913055
0000f0 4d 20 3d bf 4a 99 26 be 06 71 bd bf f1 a1 86 be
       -0.7387741 -0.16269413 -1.4800117 -0.26295426
000100 5f 08 56 bf 05 52 1a bf af 33 86 be a0 ed a5 3f
       -0.83606523 -0.602814 -0.26211306 1.2963142
000110 d0 fe 81 be bc 1d 38 bf 88 4f a7 be fb ad 4b be
       -0.2538972 -0.7192037 -0.32677865 -0.19890587
000120 2d 66 35 3e b5 98 8b 3f dd ba c3 3e 47 1a 11 be
       0.17714758 1.0905977 0.38228503 -0.1417018
000130 bd de 7e 3f 49 7b 4f be 5b bd 87 bf cb 06 8e be
       0.9955862 -0.20261873 -1.0604662 -0.27739558
000140 f5 dc ec bd 64 a1 45 bf 51 94 64 be ac 8b 48 bf
       -0.11565582 -0.7719939 -0.22322203 -0.7833812
000150 d2 84 87 bf 60 16 fc be 17 b0 69 be 9a c8 e4 be
       -1.0587409 -0.4923582 -0.22821079 -0.44684297
000160 77 d8 40 be 4a 26 28 bf e1 79 1d bd 5a 2d 80 be
       -0.18832575 -0.65683424 -0.03844631 -0.250346
000170 98 07 4a bf 45 ae 61 be 71 35 a2 be fb 43 37 be
       -0.7891784 -0.22039135 -0.31681398 -0.17897026
000180 f9 11 7e be ad eb 3d be 41 be 00 be 86 ff 74 be
       -0.24811544 -0.18546934 -0.12572576 -0.239256
000190 46 3a 71 bf 0c 09 9a bd fb fa 8d 3f f6 40 dd be
       -0.94229543 -0.07521257 1.1092218 -0.43213624
0001a0 96 2f 74 be 06 12 b4 bf 43 62 e1 bd fb 95 30 bf
       -0.23846278 -1.4068 -0.1100507 -0.6897885
0001b0 c3 33 36 be 14 21 c8 be e1 c1 85 bf 87 0e 09 be
       -0.17793183 -0.39087737 -1.0449792 -0.13384448
0001c0 4a 19 fc be 89 9f ad be 51 72 a7 3f b3 82 bc bd
       -0.49238044 -0.33910778 1.3081762 -0.092046164
0001d0 39 0a 5a be ff 81 a0 be a2 88 da 3c 6b 9f 6e bf
       -0.21292962 -0.3134918 0.02667648 -0.93212
0001e0 9d 40 1d bf 17 01 f0 be b2 77 ce be 82 1a 13 bf
       -0.6142672 -0.4687583 -0.40325695 -0.5746232
0001f0 a6 33 a3 bf 4e f0 76 bf 82 26 2a be 8a f3 18 bf
       -1.2750137 -0.96460426 -0.16616252 -0.5974661
000200 41 79 f3 bc fd 8e 27 bf 46 6d 51 3d 2d e2 2d 3f
       -0.029720904 -0.6545256 0.051129602 0.6792324
000210 35 81 27 bf 65 fa 38 3f 66 71 8f 3f ad 18 f1 be
       -0.6543153 0.7225707 1.1206481 -0.4708914
000220 63 e3 5a be db d6 ba bf 81 90 24 be 0d ef 22 be
       -0.21375804 -1.4596819 -0.16070749 -0.15911503
000230 df b1 2d 3f 31 60 0c bf 08 16 1b be e4 85 b7 3f
       0.67849535 -0.54834276 -0.15145123 1.4337735
000240 22 3f 09 3e f5 9c 13 be 6e d2 89 be 03 cb 4a 3e
       0.1340299 -0.14415343 -0.26918358 0.19804005
000250 6e 0e 1f bf 23 04 e9 3e fe 1e ad be c0 69 45 bf
       -0.6213139 0.4551097 -0.33812708 -0.77114487
000260 4a 69 3c bd 13 77 14 be 54 95 c1 be cf f4 91 be
       -0.04599885 -0.14498548 -0.3780924 -0.28507087
000270 c9 51 d7 bf f2 c4 57 bf e0 fa 8a 3f 86 c1 d4 be
       -1.6821834 -0.8428489 1.0857811 -0.41553897
000280 68 d8 a2 be cb d2 06 bf b7 95 12 bf 29 fa 01 bf
       -0.3180573 -0.52665395 -0.57259697 -0.5077234
000290 b8 1e 28 3f e1 e8 e2 bd 26 50 b8 3e 0d 89 72 bf
       0.65671873 -0.110795744 0.35998648 -0.9474037
0002a0 2a 33 96 3f 6d 2c 6f be 6a f4 e1 3e f1 f7 45 3f
       1.1734364 -0.23356791 0.44131786 0.77331454
0002b0 f5 2c d9 3f f6 86 66 bf 25 fe 04 bf c9 16 1a be
       1.6966845 -0.90049684 -0.51950294 -0.15047754
0002c0 48 52 56 be 40 0d 23 bf 8b 54 77 be 00 67 65 be
       -0.20929825 -0.6369209 -0.24153344 -0.22402573
0002d0 5f a5 9e 3f b7 c3 11 bf ff 79 26 be 65 7a c0 be
       1.2394217 -0.5693926 -0.16257475 -0.3759338
0002e0 ea cb 9d 3f b0 9a c6 3e 5a 64 49 bf b7 4a a3 3e
       1.2327855 0.38789892 -0.7866875 0.3189294
0002f0 2b 12 b7 bd 9f 17 1b bf e3 ed 96 3f 1c fd 2b bf
       -0.08939012 -0.6058292 1.1791347 -0.6718309
000300 52 da 63 bf 06 ae 67 be f9 15 a2 be c7 55 d7 be
       -0.89005005 -0.22624978 -0.3165739 -0.4205763
000310 49 94 97 3f 01 56 72 3e af 2d 75 3e 84 20 c2 be
       1.1842128 0.2366562 0.23943208 -0.37915432
000320 55 a7 4d bf 70 4c 1b bf c6 a5 73 be 79 90 19 3f
       -0.80333453 -0.6066351 -0.23793706 0.5998607
000330 38 c0 0e bf ba 2f 81 bf bc e9 30 be 66 f2 50 be
       -0.5576205 -1.009269 -0.17276663 -0.20404968
000340 b7 56 f8 be ed 78 9c 3f 6e 28 15 bf 9c 93 87 3f
       -0.48503658 1.2224404 -0.58264816 1.0591922
000350 c9 cb ea 3e 21 64 b1 bf 0a a8 fe 3d a2 98 8f be
       0.458586 -1.3858682 0.12434395 -0.28046137
000360 e6 51 6e be 34 27 44 be e3 0e 78 be 73 8e 0d bf
       -0.2327343 -0.1915558 -0.24224429 -0.55295485
000370 80 92 0f be a9 3e a8 bd c5 aa 88 be 19 23 22 bf
       -0.14020729 -0.082150765 -0.26692787 -0.63334805
000380 51 bf 17 be db 23 c0 be 82 61 24 bf 2b 23 96 bf
       -0.14819075 -0.37527356 -0.64211285 -1.1729482
000390 2d a7 d2 3f 76 5c e1 be ef 84 6c 3f 8b 14 33 be
       1.6457268 -0.44015855 0.9239034 -0.17488305
0003a0 40 23 0f bf 22 7d 4f bf f8 a5 ec bd e8 22 50 bf
       -0.5591316 -0.8105031 -0.115550935 -0.8130326
0003b0 5b b3 a3 bf ed eb 2f be d5 cb 74 bf c7 10 d0 bd
       -1.278911 -0.17179842 -0.95623523 -0.1015945
0003c0 70 03 71 be bd a4 70 be ca 46 94 bf c6 8d 78 bf
       -0.23536468 -0.23500343 -1.1584103 -0.9709133
0003d0 17 d0 7a be 8d cc 7e be ff 85 06 bf fb c0 c2 be
       -0.24493442 -0.24882717 -0.5254821 -0.38037857
0003e0 22 b5 36 be 90 5d c0 3f f1 71 34 3f 6d 2c ca be
       -0.17842534 1.5028553 0.7048636 -0.3948702
0003f0 e0 f7 5d be f3 3b 44 be 03 23 5d bf 74 9f 66 be
       -0.21676588 -0.19163494 -0.8638155 -0.22521764

action_out.weight f4 [4, 256]
000000 ea 89 b1 bd a6 37 ea bd df c2 13 bd 39 0c 8d be
       -0.08668883 -0.11436395 -0.036074515 -0.27548388
000010 1a 1f 03 bb 91 ba c9 3d 29 19 f4 bc d4 f0 45 3c
       -0.0020007552 0.09850038 -0.029797154 0.012081344
000020 f4 b6 3c 3d 1d a6 a5 3d ad 11 47 bd 86 82 00 3e
       0.046072915 0.08088324 -0.04860084 0.1254979
000030 39 07 9d 3d 9e 2f 74 3d d8 24 0e 3e cd d8 00 be
       0.07667393 0.059615724 0.13881242 -0.12582703
000040 ca dd 73 bc 07 68 8a bd 3c a3 4d be 95 98 de bb
       -0.014884422 -0.06758123 -0.200818 -0.0067930915
000050 ac b2 87 bd 82 15 44 3e 57 f2 d5 3c 4a 16 a9 bd
       -0.06625876 0.1914883 0.026116533 -0.082562044
000060 32 7e 36 3d 07 48 69 be 30 b1 86 3d 62 cd 2b 3e
       0.044553943 -0.22781383 0.065767646 0.16777566
000070 04 45 d1 3d b6 3a f6 3d ac 7a 38 be 0c 37 c7 3d
       0.10218242 0.12022917 -0.18015546 0.09727296
000080 ab e0 94 3c a0 6d 44 bd 3d 14 b1 3a 57 98 4a 3d
       0.018173536 -0.04795611 0.001351006 0.04946169
000090 b4 b9 64 3e 86 5f b5 3e c6 e5 9c be de 65 88 3c
       0.22336465 0.3542444 -0.30644053 0.016650137
0000a0 ab 21 3b 3d 86 70 c8 b8 8f 85 5d bd 21 43 18 3e
       0.045686405 -9.557702e-05 -0.05408245 0.14869358
0000b0 4a 6e 97 3c cf 63 0d 3c 11 f5 c4 3b 8e 37 b5 bd
       0.018485207 0.008629753 0.0060106595 -0.08848487
0000c0 e6 96 a4 bc 18 2d 9d 3d 47 4b 10 be 6b b6 a4 ba
       -0.020091485 0.076746166 -0.14091216 -0.0012566572
0000d0 05 e2 15 3e 35 a2 f4 3e 0d c2 a5 3b 52 d9 cd bd
       0.14637001 0.47780004 0.005058533 -0.10051216
0000e0 cd c7 a2 3d 06 a1 c8 be 04 3a c8 be 6a 1f c2 3d
       0.07948265 -0.3918535 -0.39106762 0.09478648
0000f0 0f 65 e9 bc 8c a5 20 bb cd 89 c3 bc 9b 26 47 bd
       -0.028490571 -0.0024512736 -0.02386942 -0.0486208
000100 1c f8 21 bd c0 65 ae 3e 2b c2 fb 3e f5 4f aa bc
       -0.039543256 0.34062004 0.49171576 -0.02079008
000110 fb 55 eb 3c a8 86 b2 bc 14 e4 a4 3c 7c 1e a3 bd
       0.028727522 -0.021792725 0.020128287 -0.07964799
000120 a5 85 0d 3d 9e 80 70 bd b4 63 69 bc da 7d 4d 3e
       0.03455128 -0.05871641 -0.0142449625 0.2006754
000130 f5 28 18 bd 64 12 f2 3c 0b f5 31 39 e9 6a ba bb
       -0.037148435 0.029549785 0.00016971321 -0.005689014
000140 10 35 e9 bc c6 fe fc 3d a5 06 56 3e b3 af 97 3f
       -0.028467685 0.12353282 0.20900972 1.1850494
000150 e2 e3 c2 3d 00 99 77 3d 07 50 29 be 1b d8 59 3d
       0.095161214 0.060448647 -0.16534434 0.05318461
000160 f6 30 11 3e 41 25 b5 3c 09 51 96 3c 59 04 22 bb
       0.14178833 0.02211249 0.018349187 -0.002472183
000170 8f 16 6a bd 5b 62 46 3d 89 4a 77 be 35 91 0f bd
       -0.05715042 0.048433643 -0.24149527 -0.03505059
000180 49 3c 57 be 9b bc 55 3d 4c 5b 35 bd 8a 25 cb be
       -0.2101909 0.05218182 -0.04427652 -0.39677078
000190 39 b3 32 bd 42 e9 36 be 8d 4b 96 bb ec a5 5e 3d
       -0.04362795 -0.17862418 -0.004586643 0.054357454
0001a0 95 1f cc 3d 22 eb 51 3c 01 32 2f bc 6e cc 1f bd
       0.09966961 0.012812408 -0.010693074 -0.03901332
0001b0 49 84 03 3f ec 8b 66 3e cd 86 d0 bd 1e af e4 3c
       0.51373726 0.22514313 -0.10181961 0.027915534
0001c0 41 0f 27 bd 74 cf 51 bd 8d c2 af 3d 04 ed 3a 3c
       -0.04078603 -0.051223233 0.085820295 0.011409048
0001d0 f7 6b 2a bd b1 a7 43 bd 0c 2b 4e 3c 58 4c 1c be
       -0.04160687 -0.047767345 0.012583505 -0.15263498
0001e0 d6 b7 92 3d 31 42 10 3d 17 0b 49 bd 15 40 94 3d
       0.0716397 0.035219375 -0.04908284 0.07238785
0001f0 4f 79 08 bd 0e 21 ec bb 62 0d 9f 3d de 7d db bc
       -0.033318814 -0.007206089 0.077662244 -0.026793417
000200 b7 26 ef bd 31 25 ad bb f5 c9 8f 3b 1e e6 75 3d
       -0.11677306 -0.0052839746 0.004388089 0.06003391
000210 2f 0d 89 be 7b b4 48 bd c5 e3 e6 bc 20 ab 80 bf
       -0.2676787 -0.049000245 -0.02818478 -1.0052223
000220 8a 6f 7b bd fe 18 0a bf 0c e9 23 bd f7 20 22 bc
       -0.06138567 -0.53944385 -0.040017173 -0.009895555
000230 6a 38 24 3b 27 14 fc bc fd 09 2b bc 3a 3d 3d 3c
       0.002505804 -0.030771328 -0.010439393 0.011550242
000240 b4 c2 34 bd 57 22 7b 3e e6 16 00 3c ac 3d a0 3d
       -0.044130996 0.24524818 0.007817959 0.07824263
000250 54 25 01 3f 39 58 8f 3c c1 ea 1a be b8 b6 63 3b
       0.50447583 0.017498123 -0.15128614 0.003474636
000260 26 56 d2 3e c1 2a 8e 3d ff 3c ae 3d 65 8e 88 3e
       0.4108135 0.069417484 0.08507728 0.26671138
000270 1a 1b 79 3b a0 22 f9 3d 46 74 ae 3d 16 f1 4b 3d
       0.0038010539 0.12164807 0.08518271 0.049790464
000280 d2 e7 8a bd de bd b9 3d 76 f7 b0 3d cb 15 5b 3c
       -0.067824975 0.090694174 0.086409494 0.013371895
000290 d8 8c df bd a9 bd 5e 3c c4 b1 c1 3d 1f 5e 64 bc
       -0.10915536 0.013595023 0.09457734 -0.013938456
0002a0 bb 70 b0 3c 64 92 29 3d 92 01 d0 3d c0 5c ac bc
       0.02153813 0.041399375 0.101565495 -0.02104032
0002b0 ab 22 91 3c 02 e2 95 3d 83 7d b7 bc e8 18 ad bd
       0.017716726 0.07318498 -0.022398716 -0.08452016
0002c0 bb b6 51 be 60 6d 83 3c 71 de 34 3d ab 43 3b 3d
       -0.20479862 0.016043365 0.04415745 0.04571883
0002d0 e7 08 5a bd e4 b0 49 3d 47 39 83 bc c9 1d 8e 3d
       -0.053231146 0.04924096 -0.016018523 0.06939275
0002e0 37 44 7b 3d 65 82 94 bd 92 5f 00 3e 33 7a 2f 3c
       0.06134435 -0.07251433 0.12536457 0.010710287
0002f0 1b 09 ea be da d3 33 3e f1 79 8d 3d 41 38 cc bc
       -0.45710072 0.17561284 0.06908024 -0.024929168
000300 20 a0 bf 3b a2 29 00 bf 4b 20 eb bd 0b b2 d7 3d
       0.005847946 -0.50063527 -0.11480769 0.10532006
000310 87 ec 89 bd 3d 99 bb ba 9d 61 c1 3d 7e a3 07 3e
       -0.06734567 -0.0014312636 0.094424464 0.13245961
000320 fc b8 09 3d ad 7b 5b 3c a6 c4 37 3e b8 19 a2 ba
       0.03362368 0.013396186 0.17946109 -0.0012367284
000330 4d 4d 64 3d 3f d2 12 bc 15 82 82 3c c0 13 66 3c
       0.055737782 -0.008961259 0.015931169 0.014042795
000340 16 71 9d 3c 99 67 0c bd 04 9f 6f bd 5f ba 0e bb
       0.019218963 -0.034278486 -0.05850126 -0.0021778566
000350 1f b2 f6 3c ff 97 95 3c 90 43 0a be 84 23 a5 3f
       0.030114232 0.018260954 -0.13502336 1.2901464
000360 22 67 d1 bd d7 91 d2 bc 71 cc bd 3d 06 06 b2 bd
       -0.10224749 -0.025704307 0.0926751 -0.08692555
000370 b0 2f 28 3d da e1 92 bd 48 b9 c1 bd 4e 02 52 3c
       0.041061103 -0.07171984 -0.09459168 0.012817932
000380 96 4c dd bc b4 73 bd 3c e8 8d 14 bd 3f 3a 34 bf
       -0.027014058 0.02312646 -0.036268145 -0.70401376
000390 28 1e d4 bd 8c a7 90 3c 3c 43 e7 3c 82 e8 5b 3b
       -0.10357314 0.017658018 0.028230302 0.0033555334
0003a0 ae 4d 72 bd ae 27 0e bd 78 41 5f 3e 0e 36 0d 3f
       -0.059156112 -0.03470581 0.21802318 0.55160606
0003b0 87 ec d8 bb 09 94 cc 3d 14 7f aa bd 44 8e 84 bd
       -0.006619993 0.09989173 -0.083250195 -0.064724475
0003c0 bd f5 53 3d 53 50 a3 bd 5c 40 5c be ec 78 a0 3d
       0.051748026 -0.07974305 -0.21508926 0.07835564
0003d0 5c c2 de bd 69 59 dc 3d ea 94 da bc 5c af 96 be
       -0.10876915 0.10759241 -0.026682336 -0.29430664
0003e0 9c 0f ad 3d 57 ee db 3d 40 e5 15 3d b5 e1 b9 3e
       0.08450243 0.10738819 0.036595583 0.36305013
0003f0 4a ca 0c bc 88 54 56 3c 16 a7 25 bb 34 30 79 be
       -0.008593151 0.013081677 -0.0025276593 -0.24334794

action_out.bias f4 [4]
000000 c7 7b 03 3c fd 5d 19 3c f2 7b 33 bb b1 4f e4 3a
       0.008025116 0.009360787 -0.002738711 0.001741877
