saved_models/FetchPush-v1/model133.pt (torch, 563151 bytes, 8 tensors)

fc1.weight f4 [256, 28]
0	0x3e1af2e0	0.15131712
1	0x3e7c86e3	0.2466083
2	0xbcb3dc22	-0.021955553
3	0x3e038c6b	0.12846534
4	0xbe2bd5e4	-0.16780812
5	0x3fa9129e	1.3208807
6	0x3dcfc832	0.10145606
7	0x3d2b16b6	0.041769706
8	0x3deec08a	0.11657818
9	0x3e4db022	0.2008672
10	0x3f507c13	0.8143932
11	0xbdcc3189	-0.099703856
12	0xbdb6056c	-0.08887753
13	0xbc99cb65	-0.018773744
14	0xbf2f29a2	-0.684229
15	0xbf4ab10d	-0.7917641
16	0x3f410b71	0.75408083
17	0x3c858856	0.016300362
18	0xbbe7c541	-0.007073075
19	0xbd3c7144	-0.046006456
20	0xbf0bf081	-0.54663855
21	0xbf43f02e	-0.7653836
22	0x3f164df4	0.587127
23	0x3e429625	0.19002588
24	0x3ea61e15	0.32444826
25	0xbec94562	-0.39310747
26	0xbd8af29f	-0.067845576
27	0xbeace201	-0.33766177
28	0x3df7c815	0.120987095
29	0x3e8e3a45	0.2777883
30	0xbd7fd13e	-0.06245541
31	0x3e31203f	0.17297457
32	0xbf6057ef	-0.87634176
33	0x3ea3efdd	0.3201894
34	0xbebcbdda	-0.36863595
35	0xbf91b389	-1.1382915
36	0x3e018c78	0.12651241
37	0xbe43b196	-0.19110712
38	0x3e59a642	0.21254829
39	0x3c8a55dd	0.016886646
40	0xbd57744a	-0.052601136
41	0xbcf3bdb1	-0.029753538
42	0x3f36da67	0.71427006
43	0xbebedf07	-0.3727953
44	0x3f1d980a	0.6156012
45	0xbe4f3342	-0.20234397
46	0x3d94b904	0.072618514
47	0x3ce5a7b0	0.028034061
48	0x3f3895d9	0.7210365
49	0xbe90f82e	-0.28314346
50	0x3eee79ed	0.46577397
51	0x3d821ced	0.063531734
52	0xbda03c9e	-0.07824062
53	0xbe972b44	-0.29525197
54	0x3f1e3358	0.61797094
55	0xbeb277a1	-0.34856895
56	0x3cb5f9f1	0.022213908
57	0x3e65e7aa	0.22451654
58	0x3e287075	0.16449149
59	0x3d8d409a	0.068970874
60	0x3e518cb4	0.2046383
61	0xbee0c721	-0.43901923
62	0x3deaed84	0.11471084
63	0xbe960243	-0.292986
64	0x3e0369a2	0.12833264
65	0x3ec9dcb3	0.39426193
66	0x3df2e05f	0.11859202
67	0xbbb611bc	-0.0055563133
68	0xbaa957ea	-0.0012919877
69	0xbdde3d3c	-0.10851523
70	0x3e9cd6b7	0.30632564
71	0x3dde20ae	0.10846077
72	0x3f186463	0.5952818
73	0xbd8ff65c	-0.07029411
74	0x3ec518ab	0.38495383
75	0xbda7a4e6	-0.08185749
76	0x3ee19d4a	0.44065315
77	0x3e452b28	0.19254744
78	0x3ea5ccbb	0.3238276
79	0xbc2a7147	-0.010402984
80	0xbeffa789	-0.49932507
81	0xbe9f59f0	-0.31123304
82	0xbebd83c0	-0.3701458
83	0x3ede2590	0.43388033
84	0xbe951867	-0.2912018
85	0x3dc27b3e	0.09496163
86	0xbd976809	-0.0739289
87	0xbe311b32	-0.1729553
88	0xbe8ce59e	-0.27518934
89	0x3eb69123	0.35657606
90	0x3e817cfb	0.25290665
91	0xbf01c47d	-0.5069044
92	0x3e01f20e	0.12689993
93	0x3f1699b1	0.58828264
94	0xbf9206e0	-1.1408348
95	0x3d8d8370	0.06909835
96	0xbd9f14a8	-0.07767612
97	0x3d73647f	0.059422012
98	0x3ce68131	0.028137775
99	0xbe0c291f	-0.13687561
100	0xbdf98481	-0.12183476
101	0x3c794170	0.015213355
102	0xbcc6ca20	-0.024266303
103	0x3cb0f29b	0.021600058
104	0x3dc38770	0.09547317
105	0xbd5a3c39	-0.05328009
106	0xbe6fd655	-0.23421605
107	0xbf6ed82e	-0.93298614
108	0x3d3c40f1	0.04596037
109	0xbf3956b7	-0.7239794
110	0x3d9bb4b9	0.076028295
111	0xbe53c011	-0.20678736
112	0x3e9b844e	0.30374378
113	0xbed8d1ec	-0.42347658
114	0xbd0216b0	-0.031759918
115	0xbcf37e36	-0.029723268
116	0xbef47376	-0.4774434
117	0xbe8c5820	-0.27410984
118	0xbf2caec7	-0.6745419
119	0xbf034abe	-0.5128592
120	0xbe375884	-0.1790486
121	0xbea3dc26	-0.32003897
122	0x3ef95112	0.48694664
123	0x3d81a864	0.06330946
124	0xbde73435	-0.112892546
125	0x3dcd32ed	0.10019479
126	0x3d704473	0.05865903
127	0xbd57833c	-0.05261539
128	0xbd7f21ca	-0.062288083
129	0xbe36cde0	-0.17851973
130	0x3d4be8aa	0.049782433
131	0xbdb93790	-0.09043801
132	0xbcaa821a	-0.02081399
133	0xbdaa7430	-0.08322942
134	0xbca7ef36	-0.020499807
135	0xbc8a5f6b	-0.016891202
136	0x3e335b14	0.17515212
137	0x3f676033	0.90381163
138	0x3f5f2995	0.87172824
139	0xbf4d6643	-0.80234164
140	0x3d8316c0	0.064008236
141	0x3e345e06	0.17613992
142	0x3ea05c3e	0.31320375
143	0xbf04aa0a	-0.5182196
144	0x3dd2382f	0.102646224
145	0x3da60589	0.081065245
146	0xbf444cdc	-0.7667978
147	0x3eb446de	0.35210317
148	0xbe45cd9f	-0.1931672
149	0x3f2c66ed	0.6734455
150	0xbe14cb97	-0.14530788
151	0x3dc8a937	0.097979
152	0x3c0281c6	0.007965511
153	0x3d07ba3a	0.033136584
154	0x3e422036	0.189576
155	0x3e3305ab	0.17482631
156	0x3dc46590	0.09589684
157	0xbd96ae58	-0.07357472
158	0x3de811e1	0.11331535
159	0xbda82e64	-0.08211973
160	0x3e8ea1d9	0.27857855
161	0x3d999715	0.0749952
162	0x3e099be5	0.13438375
163	0xbef5e320	-0.48024845
164	0xbcdbc396	-0.026826661
165	0x3edfcbd2	0.4371019
166	0xbef0bbc3	-0.4701825
167	0xbefc4e09	-0.49278286
168	0xbd946f38	-0.07247776
169	0x3e7c29bc	0.24625295
170	0x3e55689b	0.20840685
171	0x3e27d743	0.1639071
172	0x3f2eee99	0.6833282
173	0xbd081781	-0.03322554
174	0x3f0680d5	0.5254033
175	0x3ebb55c2	0.36588866
176	0xbe6df436	-0.2323769
177	0xbee87122	-0.45398813
178	0x3fa00d73	1.2504104
179	0xbdbd9fac	-0.092589706
180	0xbe22ccf0	-0.1589849
181	0xbe4c1b86	-0.19932374
182	0x3ddeaa03	0.10872271
183	0x3e14b359	0.1452154
184	0xbe441b3b	-0.19151013
185	0x3e571476	0.21003899
186	0x3dcb2307	0.0991879
187	0x3e898c34	0.2686478
188	0x3cc4eb9f	0.024038134
189	0x3e72da2f	0.23716043
190	0xbd9f929e	-0.07791637
191	0x3ec69fed	0.3879389
192	0xbd570425	-0.052494187
193	0xbd3d6ca2	-0.04624618
194	0xbf3b9e6e	-0.7328862
195	0xbea35dbb	-0.31907448
196	0xbe2e2c8d	-0.17009182
197	0xbed7e64d	-0.42167893
198	0x3e40ddcf	0.18834613
199	0xbd7b47de	-0.061347835
200	0x3f436c42	0.76337063
201	0x3f1e41e0	0.6181927
202	0x3e975533	0.2955719
203	0x3f84e6f2	1.0382979
204	0x3d233f3c	0.039855227
205	0xbcabdcbe	-0.020979282
206	0xbe0ee518	-0.1395458
207	0xbcb3abe7	-0.021932555
208	0xbc38c57d	-0.011277554
209	0xbd9b4992	-0.07582392
210	0x3e1cf780	0.15328789
211	0xbdd557d1	-0.1041714
212	0xbd8476a7	-0.06467944
213	0x3dcfa512	0.101389065
214	0x3dd1adc9	0.10238225
215	0x3d84acf6	0.06478302
216	0xbc33447f	-0.010941624
217	0xbda7a8d7	-0.081865005
218	0xbce61ad4	-0.028088965
219	0xbe974682	-0.2954598
220	0xbf0d8b0c	-0.55290294
221	0x3e8f1f0a	0.27953368
222	0xbe9cd0fa	-0.30628186
223	0xbe7aed1c	-0.24504513
224	0xbf329041	-0.69751364
225	0xbeedce11	-0.4644628
226	0xbe3dd4ca	-0.18538204
227	0xbdcae1d4	-0.099063545
228	0x3e8e4f41	0.2779484
229	0xbe92f86b	-0.28705153
230	0x3f1d7b48	0.6151624
231	0x3f2a930e	0.6663064
232	0x3d99c98b	0.075091444
233	0x3f517ea8	0.8183389
234	0xbfa19f54	-1.2626748
235	0xbdd16dd5	-0.10226027
236	0xbd087c25	-0.03332152
237	0xbd06ab31	-0.032878105
238	0x3e3b997a	0.18320265
239	0x3cdd92ae	0.027047481
240	0xbeb2fe07	-0.34959432
241	0x3d651d7c	0.05593632
242	0x3da97412	0.08274092
243	0xbd2f0665	-0.042730708
244	0x3d8fa900	0.07014656
245	0x3d7e9572	0.06215424
246	0xbe6d3a24	-0.2316671
247	0x3dc7f788	0.0976401
248	0x3d4bffde	0.04980456
249	0x3f343871	0.7039862
250	0x3e85a3d0	0.26101542
251	0xbeaca696	-0.33720845
252	0x3e90186e	0.28143638
253	0x3cf66544	0.030077584
254	0x3d2da31e	0.04239189
255	0x3f29be18	0.66305685

fc1.bias f4 [256]
0	0xc01a02f7	-2.406431
1	0xbfe28efc	-1.7699885
2	0xbfc81772	-1.5632155
3	0xbf7e21c8	-0.99270296
4	0xbfef1ee8	-1.8681307
5	0xbffdf6a3	-1.9840893
6	0xbfe3006f	-1.7734507
7	0xc00e8ab1	-2.227215
8	0xbf9faed0	-1.2475224
9	0xbf98edf3	-1.1947616
10	0xbf8d4e2f	-1.1039485
11	0xc0093b89	-2.1442587
12	0xbee0dd7c	-0.4391898
13	0xc013db26	-2.3102508
14	0xbfeb0397	-1.836047
15	0xbfdc1109	-1.7192699
16	0xbfd8078d	-1.6877304
17	0xbf6b11cd	-0.91824037
18	0x3f7c035a	0.98442614
19	0xc01d06a3	-2.45353
20	0xbfe1e89c	-1.7649112
21	0xc00fb9ba	-2.2457108
22	0xbf9caa2c	-1.2239432
23	0xbee4df6f	-0.44701716
24	0xbe86dc8b	-0.26340136
25	0xc00c4b68	-2.1921024
26	0x3f8a91f2	1.0825789
27	0xc00fbac1	-2.2457736
28	0xbd998d99	-0.07497711
29	0xbfda7e85	-1.7069861
30	0xc026c9a9	-2.6060584
31	0xbf4d8ad9	-0.8028999
32	0xbfc6e7bb	-1.5539469
33	0xbfa5fe7f	-1.2968291
34	0xc011a29a	-2.2755494
35	0x3f7b85fc	0.9825132
36	0xc0169474	-2.3528109
37	0xbfbd7551	-1.4801427
38	0xc031fe09	-2.78113
39	0xbffe1452	-1.9849951
40	0xbfcdf50c	-1.6090407
41	0xbf9dda40	-1.233223
42	0xbfe90d27	-1.8207139
43	0xc03fd620	-2.9974442
44	0xbfe5caa2	-1.7952464
45	0xbfd14c5a	-1.6351426
46	0xc04a4020	-3.1601639
47	0x3f1abc62	0.604437
48	0xbfbb20d4	-1.4619393
49	0xbfd9a8d3	-1.7004646
50	0xc012daa2	-2.2945943
51	0xbf03d805	-0.51501495
52	0xbfc9951a	-1.5748627
53	0xc04055cd	-3.0052369
54	0xc02ef99f	-2.7339857
55	0xbff9ff67	-1.9531068
56	0xbfe4e7a9	-1.7883197
57	0x3f101631	0.5628386
58	0xc02ab45f	-2.667259
59	0xbef4b263	-0.47792348
60	0xbfabb77a	-1.3415368
61	0xbfc4e5d9	-1.5382644
62	0xc0136829	-2.3032324
63	0xc00a5d16	-2.1619315
64	0xbebfdfbf	-0.37475392
65	0xbf9c6cef	-1.2220744
66	0xbfa82e49	-1.3139125
67	0xbfc6aad0	-1.5520878
68	0xc019208a	-2.392611
69	0xbf963dc8	-1.1737604
70	0xbe0f2351	-0.13978316
71	0xc029d08d	-2.653354
72	0xbf9521d5	-1.165095
73	0xbfaace9e	-1.3344305
74	0xbfdf4775	-1.7443682
75	0xc02e0e16	-2.7196097
76	0xbfe8dc62	-1.8192255
77	0x3f4d8eba	0.8029591
78	0xbffe8a44	-1.9885945
79	0xbfd30053	-1.6484474
80	0xc0132560	-2.2991562
81	0xc02980e3	-2.6484916
82	0xbfdb906a	-1.7153447
83	0xc008ac89	-2.1355307
84	0xbf8b33de	-1.0875204
85	0xbfd99f5c	-1.7001758
86	0xbe8d05dc	-0.27543533
87	0xbec8a7cf	-0.39190528
88	0xc02aa9c7	-2.6666124
89	0xc00bd3da	-2.1848054
90	0xc040d28f	-3.0128515
91	0xbfd0746a	-1.6285527
92	0xbfca5103	-1.5805973
93	0xbfe74322	-1.8067362
94	0xc02151c3	-2.5206153
95	0xbfb5c535	-1.4200808
96	0xbfe39d72	-1.7782423
97	0xbfd637ff	-1.6735839
98	0xbff73ac1	-1.9314805
99	0xc0177ec9	-2.3671134
100	0xbfe0e96f	-1.7571238
101	0x3f838ca7	1.0277299
102	0xbfb18bbc	-1.3870769
103	0xbfc2e903	-1.522736
104	0xc0102283	-2.2521064
105	0xbecf0568	-0.40433812
106	0xbff2024a	-1.8906949
107	0xbf59fa0b	-0.8514716
108	0xbfa2e598	-1.2726316
109	0x3dbe66dc	0.092969626
110	0xbff6f756	-1.9294231
111	0xc0317a73	-2.7730987
112	0xbfef35d4	-1.8688302
113	0xbfe3917a	-1.7778771
114	0xc01e07a2	-2.4692159
115	0xbf9b7099	-1.2143737
116	0xbfd860ae	-1.6904504
117	0xbf9908b6	-1.1955783
118	0xbfc51564	-1.5397153
119	0xbfd1f4f3	-1.6402878
120	0xc001040d	-2.0158722
121	0xbfde15cd	-1.7350403
122	0xbfe57f78	-1.7929525
123	0xbf8bf816	-1.0935085
124	0xbfc2ecd5	-1.5228525
125	0xc011859b	-2.2737796
126	0xc045c071	-3.0898707
127	0xbf8f37d5	-1.1188914
128	0xc039d658	-2.9037075
129	0xc00a1d70	-2.1580467
130	0xbffa4349	-1.9551784
131	0xc033d008	-2.8095722
132	0xbfc0bb28	-1.5057116
133	0xbf6b6921	-0.9195729
134	0xc0153cd1	-2.331837
135	0xc00eb152	-2.2295728
136	0xbfb0aff9	-1.3803703
137	0xbfc87c9b	-1.5663027
138	0xbed270ce	-0.41101688
139	0x3f23732b	0.6384761
140	0xc00fca77	-2.2467325
141	0xbfbf2d8c	-1.4935775
142	0xbffa931a	-1.9576142
143	0xc00b45e8	-2.1761417
144	0xc024bbc8	-2.5739613
145	0xc00f0ff2	-2.2353482
146	0xbfa312df	-1.2740134
147	0xbdbbce2f	-0.09170186
148	0xbfc25242	-1.5181353
149	0xbfbe6a9e	-1.4876287
150	0xbfbde2ee	-1.4834878
151	0xc0412231	-3.0177119
152	0xbfb48e8b	-1.4106001
153	0xbfb92aef	-1.4466227
154	0xbe0972d6	-0.13422713
155	0x3dca04c1	0.09864188
156	0xbf9751b7	-1.1821812
157	0xbfca194a	-1.5788968
158	0xbf658f02	-0.8967134
159	0xbfadebda	-1.3587601
160	0xc040c69f	-3.0121229
161	0xc039ab7c	-2.9010916
162	0x3f83df9f	1.0302619
163	0xbfc8d641	-1.5690385
164	0xbfc5f630	-1.5465755
165	0xbfaef314	-1.3667932
166	0xbfb10d16	-1.3832119
167	0xbfa2efe1	-1.2729455
168	0xbf8c74f3	-1.097319
169	0xbfd327d0	-1.6496525
170	0xbf9f2111	-1.2431966
171	0xbfba47ba	-1.4553139
172	0xc00cea11	-2.2017863
173	0xbf4371f2	-0.7634574
174	0xbf585739	-0.8450809
175	0xbf998417	-1.1993436
176	0xc00dfb96	-2.2184806
177	0xbfe9dd33	-1.827063
178	0xbf1df8a9	-0.6170755
179	0xbf9762bf	-1.182701
180	0xbfd42430	-1.6573544
181	0xbfc2f2fa	-1.52304
182	0xbfe12bf1	-1.7591535
183	0xbfc92e4f	-1.5717257
184	0xc0423aa7	-3.0348299
185	0xc014378d	-2.3158906
186	0xbf842197	-1.0322751
187	0xc037013c	-2.8594503
188	0xc01ade07	-2.4198015
189	0xc01cf782	-2.4526067
190	0xbee91c52	-0.4552942
191	0x3e812e9a	0.25230867
192	0xc01d5c3a	-2.458754
193	0xc0260cb6	-2.5945258
194	0xbfb395ae	-1.4030054
195	0xc0228032	-2.5390744
196	0xc030c889	-2.7622397
197	0xbfe9314b	-1.8218168
198	0xbfa9721f	-1.3237952
199	0xbfabbd0a	-1.3417065
200	0xc006ed1d	-2.1082222
201	0xbff62149	-1.9228908
202	0x3d4529a7	0.048135426
203	0x3f1fd418	0.62433004
204	0xbf9cfb16	-1.2264125
205	0x3f5fd2f2	0.8743125
206	0xbfbd9eb4	-1.4814057
207	0xbff9eb84	-1.9524999
208	0xc006e5a0	-2.1077652
209	0xbfa24ceb	-1.2679724
210	0xbfeb69a7	-1.8391618
211	0xbfc931b5	-1.5718294
212	0xc0457ea7	-3.0858552
213	0xc0269249	-2.6026785
214	0xbfb03924	-1.3767438
215	0xc031a90f	-2.7759435
216	0xc007b0e7	-2.1201723
217	0xbffc2772	-1.9699538
218	0xbfc2b1ea	-1.5210545
219	0xbea3ae41	-0.31968883
220	0xbff90964	-1.9455991
221	0xc008d26c	-2.1378431
222	0x3f47600b	0.77880925
223	0xbeee6359	-0.4656017
224	0x3e48069d	0.19533773
225	0xbfb96c61	-1.44862
226	0xbe752d79	-0.23943128
227	0xc004d8dc	-2.075736
228	0xc0065020	-2.0986404
229	0xc003611d	-2.0528023
230	0xbed5f939	-0.41791704
231	0xc0357334	-2.8351564
232	0xbff79251	-1.9341527
233	0xbfac7a7f	-1.3474883
234	0xbf7f1bf2	-0.99652016
235	0xc0250ad4	-2.578786
236	0xc0352278	-2.8302288
237	0xbfd8788a	-1.6911786
238	0xbfd2ff37	-1.6484135
239	0xbeaf8baa	-0.34286243
240	0xbf4855f2	-0.7825614
241	0xbfa2a500	-1.2706604
242	0xbf00b997	-0.5028319
243	0xbfb7ca73	-1.4358658
244	0xbfaeffc9	-1.367181
245	0x3f1c6143	0.6108591
246	0xbff51821	-1.9147989
247	0xbfb4ceae	-1.4125574
248	0xbfc2e7df	-1.5227011
249	0xbfd864d7	-1.6905774
250	0xc0323071	-2.7842066
251	0xc0307484	-2.7571115
252	0xc0001045	-2.000993
253	0xbfd16182	-1.6357882
254	0xbfb33df3	-1.400328
255	0xbfd232b8	-1.6421728

fc2.weight f4 [256, 256]
0	0x3d924437	0.07141917
1	0xbeac4266	-0.33644408
2	0xbdcfa428	-0.10138732
3	0xbe99486c	-0.29938066
4	0xbf0178cf	-0.50574964
5	0x3f4fd965	0.8119109
6	0xbd4f27e6	-0.05057516
7	0x3dc17a3c	0.094471425
8	0x3f1068c5	0.56409866
9	0x3f02a183	0.510277
10	0xbf15d783	-0.5853197
11	0x3e8a9ee7	0.27074358
12	0xbf9de851	-1.2336522
13	0xbf1f52cf	-0.6223573
14	0xbf206334	-0.6265137
15	0xbf827894	-1.0193048
16	0xbe2eedac	-0.17082852
17	0xbdc944fe	-0.09827612
18	0xbe07894e	-0.13235971
19	0x3ed132b9	0.4085901
20	0xbe2b7ebd	-0.16747566
21	0xbe0d6dcf	-0.1381142
22	0xbe91172e	-0.28337997
23	0xbf9dbde8	-1.232358
24	0xbfd6a85b	-1.6770128
25	0xbe48f5dc	-0.19625038
26	0x3d9a5496	0.07535665
27	0x3de02a0d	0.109455206
28	0x3e9fa960	0.3118391
29	0xbeca981f	-0.39569184
30	0xbdf98601	-0.12183762
31	0x3f439bd9	0.7640968
32	0x3ce48672	0.02789614
33	0xbf793cad	-0.9735821
34	0xbeb2492c	-0.3482145
35	0xbeb30cd0	-0.34970713
36	0xbeb79c0d	-0.35861245
37	0x3e231cb5	0.1592892
38	0xbe261d67	-0.16222154
39	0x3dfa0893	0.12208667
40	0x3e1e2dc4	0.15447146
41	0x3ec81e79	0.3908575
42	0xbf22d99c	-0.63613296
43	0xbc048ac4	-0.008089725
44	0x3f24a8e2	0.64320195
45	0x3f7e32ba	0.9929615
46	0x3eaac13b	0.33350548
47	0xbf87e0f9	-1.0615531
48	0xbe6b56a6	-0.22982273
49	0x3e3601b3	0.17774086
50	0xbec5a610	-0.38603258
51	0x3e1567dc	0.145904
52	0xbee9adb0	-0.45640326
53	0x3db66a3d	0.08906982
54	0xbf97278a	-1.1808941
55	0x3d2423c6	0.04007318
56	0x3ea679a0	0.32514668
57	0xc014f842	-2.3276525
58	0xbf1e44f3	-0.6182396
59	0xbf138e92	-0.5763942
60	0xbe6dc636	-0.23220143
61	0xbf0e7406	-0.5564579
62	0xbf7a3d25	-0.9774955
63	0xbe5b7a75	-0.21433432
64	0xbd92bb5c	-0.07164642
65	0x3dc0b551	0.09409583
66	0x3ee64c99	0.44980314
67	0xbe56d1d2	-0.20978478
68	0xbf172c8a	-0.59052336
69	0xbe274b30	-0.16337276
70	0xbc5a10f0	-0.013309702
71	0xbeee4f14	-0.46544707
72	0x3ee4090c	0.44538152
73	0xbff0155e	-1.8756521
74	0x3f383fb3	0.719722
75	0x3d939e5c	0.07207939
76	0xbec2c474	-0.38040507
77	0xbf007866	-0.50183713
78	0x3ea132d9	0.31484106
79	0x3eb8d492	0.36099678
80	0x3f2f9e85	0.68601257
81	0x3e2aca40	0.16678715
82	0xbe554836	-0.20828328
83	0xbf0638f8	-0.5243068
84	0xbe0522c4	-0.13001543
85	0xbf072522	-0.52791035
86	0x3e814cef	0.25254008
87	0x3d4be1de	0.04977595
88	0x3f95efd9	1.1713821
89	0xbf8e02c8	-1.1094599
90	0xbf3507d9	-0.707151
91	0xbd779a6b	-0.06045
92	0x3e8eb438	0.2787187
93	0xbe98ea5a	-0.29866296
94	0xbe3b136e	-0.1826913
95	0xbb974d38	-0.0046173595
96	0xbf256480	-0.64606476
97	0xbf72c45b	-0.94830865
98	0x3f22e2e5	0.63627464
99	0xbf92ff9c	-1.1484256
100	0xbece39b6	-0.40278405
101	0xbe1c2098	-0.15246809
102	0xbf0e7743	-0.5565073
103	0x3ef3c2ef	0.4760966
104	0xbe853ff9	-0.2602537
105	0x3f49e916	0.78871286
106	0x3e894c8b	0.2681621
107	0xbc787839	-0.015165382
108	0xbf521b52	-0.8207294
109	0x3f288303	0.6582491
110	0xbed5cd19	-0.4175804
111	0x3f85fdfc	1.0468135
112	0x3eb874de	0.36026663
113	0x3e88ed0b	0.2674335
114	0x3f1d933e	0.615528
115	0xbf8a2f64	-1.0795712
116	0x3ecc744e	0.39932483
117	0xbe4449cc	-0.19168776
118	0x3e2a0ab5	0.16605647
119	0xbe8d6141	-0.2761326
120	0xbdaef527	-0.08542853
121	0x3e11bcdf	0.14232205
122	0xbd472129	-0.04861561
123	0x3ef538a5	0.4789478
124	0xbf4fde0f	-0.8119821
125	0x3f40b487	0.7527546
126	0x3f516425	0.81793433
127	0x3d0885c3	0.03333069
128	0xbecb6684	-0.3972665
129	0x3d9b4771	0.07581986
130	0x3d422359	0.04739699
131	0xbf12f339	-0.5740238
132	0xbf554aa2	-0.83317006
133	0xbeaea256	-0.34108227
134	0xbe63a1c2	-0.22229674
135	0x3e185a89	0.14878286
136	0xbf04733a	-0.5173832
137	0x3ea907bd	0.33013716
138	0xbe5c1b0d	-0.21494694
139	0x3eaf3c58	0.34225726
140	0x3e9d649c	0.3074082
141	0x3f2d5b77	0.6771769
142	0x3df0ca62	0.117573515
143	0xc00644f2	-2.097958
144	0x3d6dcfc2	0.05805946
145	0xbef9b218	-0.48768687
146	0xbdab69d3	-0.08369794
147	0xbf37a332	-0.7173339
148	0x3e0d026b	0.13770454
149	0x3e5713f8	0.21003711
150	0x3e580e60	0.21099234
151	0x3d4e1988	0.050317317
152	0xbf0154a6	-0.5051979
153	0x3e197249	0.14985003
154	0xbe53fa87	-0.20701037
155	0x3d894944	0.067034274
156	0xbf9ee5ab	-1.2413839
157	0xbf3cfb30	-0.7382078
158	0x3eb33284	0.34999478
159	0xbfcf3627	-1.6188401
160	0x3e210689	0.15725149
161	0xbe00b44c	-0.12568778
162	0x3f1d4dae	0.61446655
163	0xbe1253ea	-0.14289823
164	0x3e81076c	0.25200975
165	0xbf8f7f39	-1.12107
166	0x3f119ee1	0.56883055
167	0xbefe628c	-0.4968456
168	0xbec2205b	-0.3791531
169	0x3f1c33ba	0.6101643
170	0x3f09b284	0.5378802
171	0xbe03b473	-0.12861805
172	0x3f2f7522	0.68538105
173	0xbe8d866d	-0.2764162
174	0x3e13726a	0.14399114
175	0xbd00c7bb	-0.031440478
176	0xbf132b90	-0.57488346
177	0xbf64ecbb	-0.8942372
178	0xbf53e9cc	-0.8277862
179	0x3f32200e	0.6958016
180	0xbf71c54a	-0.94441664
181	0xbeec64ac	-0.46170557
182	0x3edffd1c	0.43747795
183	0xbec36776	-0.38164872
184	0xbd3120fb	-0.043244343
185	0x3ea109a0	0.31452656
186	0xbf35a85f	-0.7096004
187	0xbf4ab552	-0.7918292
188	0xbe23a382	-0.15980342
189	0xbe89de12	-0.2692724
190	0x3b239543	0.0024960793
191	0xbe82727d	-0.25477973
192	0x3e0ee641	0.13955022
193	0x3ed2a3be	0.4114055
194	0xbec791cc	-0.38978422
195	0x3e4778c2	0.19479659
196	0xbf29e81d	-0.663698
197	0x3f42075c	0.7579248
198	0xbdcf6df1	-0.101283915
199	0x3eee0e5f	0.4649534
200	0xbf1a946e	-0.60382736
201	0x3f69735b	0.91191643
202	0x3e1adab2	0.15122488
203	0xbdbd9be9	-0.09258253
204	0xbef6010d	-0.48047677
205	0xbeb03be7	-0.34420702
206	0x3db164e8	0.086618245
207	0xbf1c6c5e	-0.61102855
208	0x3e85ad32	0.261087
209	0xbf32bc44	-0.6981852
210	0xbed3f55a	-0.41398126
211	0xbe671e2b	-0.22570102
212	0xbe0a814e	-0.13525888
213	0xbebab16b	-0.36463484
214	0xbf3581c9	-0.7090116
215	0x3e566bf1	0.20939614
216	0x3de325a0	0.11091161
217	0x3ef1852d	0.47171918
218	0xbea4b943	-0.32172593
219	0xbeab4f83	-0.334591
220	0xbf698d17	-0.9123091
221	0xbeff9ef4	-0.4992596
222	0x3e29ecf1	0.16594292
223	0x3ef1297d	0.47101966
224	0x3db2097a	0.08693214
225	0xbe992a16	-0.29914922
226	0xbe320f64	-0.17388684
227	0x3b839059	0.0040150103
228	0x3ed847ef	0.4224238
229	0x3e79ce47	0.24395095
230	0xbd4668a4	-0.048439637
231	0xbe60581f	-0.21908616
232	0xbf63551a	-0.8880173
233	0x3d997069	0.07492144
234	0xbec747b4	-0.38921893
235	0xbd7724d8	-0.06033787
236	0xbdb26770	-0.087111354
237	0xbf06ce38	-0.52658415
238	0xbee945a2	-0.45560938
239	0x3f2ad48b	0.66730565
240	0xbf043221	-0.5163899
241	0xbe9012a4	-0.28139222
242	0xbf1a74ae	-0.6033429
243	0xbfb009e8	-1.3753023
244	0xbe47f355	-0.19526418
245	0xbf6ab37f	-0.9168014
246	0xbf1691f8	-0.5881648
247	0xbf902961	-1.1262628
248	0xbe056ef6	-0.1303061
249	0x3eb6916d	0.35657826
250	0xbe29ef6b	-0.16595237
251	0xbf7534bb	-0.95783585
252	0x3eebb163	0.46033773
253	0x3e785a29	0.24253143
254	0xbe0c1b72	-0.13682345
255	0xbe0280ef	-0.12744497

fc2.bias f4 [256]
0	0x3eb6f6da	0.35735208
1	0xbf34db33	-0.7064697
2	0xbcbac87a	-0.022800673
3	0xc004fb1f	-2.0778272
4	0x3f0b2cea	0.5436541
5	0xc02be750	-2.6859932
6	0x3d09cd0d	0.033642817
7	0xbc57f045	-0.013179843
8	0x3e8f4995	0.27985826
9	0x3ebbd809	0.3668826
10	0x3fc32517	1.5245694
11	0xbe9852e7	-0.2975075
12	0xbd5131a1	-0.05107272
13	0xbf0f7f21	-0.5605336
14	0x3cd3981f	0.025829373
15	0xbff577d8	-1.9177198
16	0x3e8805b9	0.26566866
17	0xbdc9499b	-0.09828492
18	0x3b576524	0.003286668
19	0xbd3e1dfc	-0.046415314
20	0xbd97c64c	-0.07410869
21	0xbe059b69	-0.13047566
22	0xbfb98fd7	-1.4497021
23	0x3f62e6d1	0.8863345
24	0xbcce56a7	-0.025187803
25	0x3ecac40c	0.39602697
26	0x3f95d58c	1.1705794
27	0x3f91081d	1.1330601
28	0x3ed7d4c8	0.42154527
29	0xbdde31fe	-0.10849379
30	0xbd1c5a14	-0.038171843
31	0xbf8817fb	-1.0632318
32	0xbd971d1f	-0.07378601
33	0xbc105873	-0.00881015
34	0xbd9c920c	-0.07645044
35	0x3de1d5eb	0.1102713
36	0xbf0b12bb	-0.54325455
37	0xbe5b3a88	-0.21409047
38	0x3ebeddca	0.37278587
39	0xbea174bf	-0.31534383
40	0xbd7db6a1	-0.061941747
41	0xbd3ce060	-0.04611242
42	0xbb04c44e	-0.0020258608
43	0x3ff6786c	1.92555
44	0xbf280891	-0.6563807
45	0x3edb34fb	0.42813858
46	0x3f2d7f9e	0.67772853
47	0xbd75099a	-0.05982361
48	0x3f66b027	0.9011254
49	0xbf1f7457	-0.62286896
50	0x3c00fb85	0.007872467
51	0xbde63c4a	-0.11241968
52	0xbd38482f	-0.044990715
53	0xbdb6b768	-0.08921701
54	0xbce04e30	-0.027381033
55	0xbd664c8b	-0.05622534
56	0xbe84eba3	-0.25961027
57	0x3ffd14ec	1.977201
58	0x3e15e314	0.14637405
59	0xbf9d75c9	-1.230157
60	0x3c3a0856	0.0113545265
61	0x3e7cd78e	0.24691603
62	0xbd7e9922	-0.062157758
63	0xbde15612	-0.11002745
64	0xbe8c69dc	-0.27424514
65	0x3d733e2a	0.059385456
66	0x3f42087f	0.75794214
67	0xbcecec75	-0.028921345
68	0x3c9ea879	0.019367443
69	0xbcae68b6	-0.021290164
70	0x4009e4a9	2.1545813
71	0x3f9ac609	1.2091686
72	0xbe1f4e09	-0.15557112
73	0x3e18758b	0.14888589
74	0x3f396202	0.72415173
75	0x3d839d8a	0.064265326
76	0xbe773682	-0.24141887
77	0xbf244b00	-0.6417694
78	0xbd65487f	-0.05597734
79	0xbdd7c931	-0.10536421
80	0xbf2f635c	-0.68510985
81	0x3c0c1e89	0.008552202
82	0xbdc12055	-0.09429995
83	0xbd2f8978	-0.04285571
84	0xbedf1e34	-0.4357773
85	0xbde781c9	-0.113040514
86	0xbfe79d60	-1.8094902
87	0xbdf5eaf0	-0.120077014
88	0xbcdccfce	-0.026954558
89	0x3f5e7169	0.868918
90	0xbe8dd00b	-0.27697787
91	0xbf00f76f	-0.50377554
92	0x3ab06d97	0.0013460395
93	0xbd470268	-0.04858628
94	0xbd4942d8	-0.049136013
95	0x3dac8753	0.084242485
96	0xbdec068f	-0.115246885
97	0x3f15274f	0.58263105
98	0xbd98d028	-0.07461578
99	0xbea29075	-0.31750837
100	0xbf245b8c	-0.6420219
101	0xbec65145	-0.3873388
102	0xbcacd7db	-0.021099022
103	0x3f979616	1.1842678
104	0xbdcb4c21	-0.0992663
105	0x3fb2c9f1	1.3967878
106	0xbf4b4636	-0.7940401
107	0x3cfb2793	0.030658519
108	0x3e1749fd	0.14774318
109	0xbdad9ba5	-0.084769525
110	0xbd696377	-0.056979623
111	0xbdac98b4	-0.08427563
112	0x3ef713e2	0.48257357
113	0xbf454892	-0.7706386
114	0x3df0af8c	0.11752233
115	0xbd406985	-0.04697563
116	0xbe73e2f6	-0.23817047
117	0x3c1db570	0.009625778
118	0x3d2f90df	0.04286277
119	0xbd1464d3	-0.036228966
120	0x3ef42ba0	0.47689533
121	0xbdd4cc95	-0.103905834
122	0xbd8e522b	-0.06949266
123	0xbdb96f8a	-0.090544775
124	0x3fb91b73	1.4461502
125	0xbea33e9a	-0.318837
126	0xbcdf9cdb	-0.027296474
127	0x3f8b6206	1.0889289
128	0xbe638f5f	-0.2222266
129	0xbd3c0c23	-0.045910012
130	0xbe012357	-0.12611137
131	0x3ddfc1a0	0.10925603
132	0xbcfcb4ca	-0.030847926
133	0xbed00045	-0.40625206
134	0xbfb9c086	-1.4511878
135	0x3dd79c1d	0.10527823
136	0xc00d2f0b	-2.2059963
137	0x3fa33e8d	1.2753464
138	0xbd33040b	-0.043705028
139	0xbf04befb	-0.51853913
140	0x3f2809c8	0.65639925
141	0xbefab4b3	-0.48965988
142	0x3ef9af84	0.4876672
143	0xbd9bb23e	-0.076023564
144	0xbf1013b5	-0.5628007
145	0xbfe2d5a2	-1.7721446
146	0xbd777627	-0.060415413
147	0xbf29dc5a	-0.66351855
148	0xbed91a61	-0.42402938
149	0xbbebcc86	-0.007196012
150	0x3f393232	0.72342217
151	0x3c5792f4	0.013157595
152	0xbed1fa87	-0.4101145
153	0xbece90f9	-0.4034498
154	0x3eefd781	0.46844104
155	0xbd3c91bf	-0.04603743
156	0xbd69b664	-0.057058707
157	0xbf0e18a2	-0.55506337
158	0xbf21ccda	-0.63203204
159	0xbc9ac026	-0.018890452
160	0xbda29def	-0.0794028
161	0x3d32b8d2	0.04363329
162	0x3f232d5f	0.63741106
163	0xbf1a862d	-0.60360986
164	0x3ef8718d	0.48524132
165	0xbde644e2	-0.11243607
166	0xbdd1f7e7	-0.10252362
167	0x3eace31d	0.33767024
168	0xbd7ccab9	-0.06171677
169	0x3f097041	0.5368691
170	0x3e761b10	0.24033761
171	0xbd3fab62	-0.046794303
172	0xbe339d14	-0.1754039
173	0xbcf9b033	-0.030479526
174	0xbda7f50a	-0.08201034
175	0xbdd4d2e1	-0.103917845
176	0xbb0ed807	-0.0021796243
177	0xbf8903ab	-1.0704244
178	0x3e888ea2	0.2667132
179	0x3ebf71a1	0.3739138
180	0x3f954b88	1.1663675
181	0xbdd2e48f	-0.102975
182	0xbd2de110	-0.042450964
183	0xbbd38c1f	-0.0064559127
184	0xbf81bc0e	-1.0135515
185	0xbef964c0	-0.4870968
186	0x3fa65a01	1.2996217
187	0xbd22cb40	-0.039744616
188	0xbe597796	-0.21237025
189	0xbda09f7c	-0.07842919
190	0xbdb77663	-0.08958127
191	0x3c8630f6	0.016380768
192	0x3f345c28	0.7045312
193	0xbd971c17	-0.073784046
194	0xbecb2087	-0.39673254
195	0xbf163a3c	-0.5868261
196	0xbf229a8c	-0.6351707
197	0x3fa2e492	1.2726004
198	0xbedd90d5	-0.4327456
199	0x3f95c834	1.1701722
200	0xbd82c3e5	-0.0638502
201	0x3d1f5c5a	0.038906433
202	0xbd646448	-0.0557597
203	0xbbba0898	-0.005677294
204	0xbdb6784b	-0.08909663
205	0x3e8b72d6	0.2723605
206	0xbc2d379f	-0.010572343
207	0xbda7ea67	-0.081990056
208	0xbd8b4903	-0.06801035
209	0x3e9b3ec8	0.30321336
210	0xbe82e45c	-0.2556485
211	0xbf4a941d	-0.7913225
212	0xbe917a1a	-0.2841347
213	0xbed4b7f1	-0.41546586
214	0xbdd46b40	-0.10372019
215	0x3ec337c5	0.38128486
216	0x3e64869a	0.22316971
217	0xbc441f6f	-0.011970385
218	0xbebf0141	-0.37305644
219	0xbd978f2b	-0.07400354
220	0xbd91b0a2	-0.07113768
221	0xbf174877	-0.5909495
222	0xbda22c8f	-0.07918655
223	0xbe709f7c	-0.23498338
224	0x3f8eb4c9	1.1148921
225	0x3eb6f7b9	0.35735872
226	0xbca5acaa	-0.020223934
227	0x3fdd1ba5	1.7274061
228	0x3e2be94a	0.16788211
229	0xbdbb607d	-0.09149263
230	0xbf2cf7ca	-0.67565596
231	0xc01819da	-2.3765779
232	0xbd9ea9ae	-0.077472076
233	0x3f94b6ed	1.1618325
234	0xbdc42b9b	-0.095786296
235	0x3f2bd034	0.6711457
236	0xbeac8aa5	-0.33699527
237	0xbde3f76c	-0.11131176
238	0xbd0b1d1c	-0.033963308
239	0xbf8d9a33	-1.1062683
240	0xbe6f8d73	-0.23393802
241	0xbe364457	-0.17799507
242	0x3cb7b307	0.022424234
243	0xbed93256	-0.42421216
244	0xbfa95176	-1.3227985
245	0x3e4d0eb4	0.2002514
246	0xbdc01236	-0.093784735
247	0x3f2eeffa	0.68334925
248	0x3eaed0d9	0.34143713
249	0xbf3228bb	-0.695934
250	0xbe3658be	-0.1780729
251	0xbf74c636	-0.95614946
252	0xbd61f9c2	-0.05516983
253	0x3f82aca1	1.0208932
254	0xbd0b7c65	-0.03405418
255	0xbf589b6d	-0.8461216

fc3.weight f4 [256, 256]
0	0xbeaebaef	-0.34126994
1	0xbe833173	-0.25623664
2	0xbd671704	-0.056418434
3	0xbeb33591	-0.35001805
4	0xbec5abc8	-0.3860762
5	0xbef77291	-0.48329595
6	0x3d965818	0.07341021
7	0xbe3240bd	-0.17407508
8	0xbe4549e1	-0.19266464
9	0x3ed01ace	0.4064545
10	0xbde7202d	-0.11285434
11	0x3d1ecce2	0.03876961
12	0x3cf3f360	0.029779136
13	0xbeb01dc2	-0.34397703
14	0x3d5f5699	0.054525945
15	0xbf82e737	-1.0226811
16	0xbf07f4e2	-0.53108037
17	0xbc6b202d	-0.014350933
18	0x3ded16bb	0.11576601
19	0xbce8007b	-0.028320542
20	0xbe027b4d	-0.12742348
21	0xbe5858f3	-0.21127681
22	0xbf59988a	-0.8499838
23	0x3df14db9	0.117824025
24	0xbd2ba2cf	-0.041903313
25	0xbf2f3076	-0.6843332
26	0xbdfe5d3f	-0.12420129
27	0xbf028bf1	-0.50994784
28	0x3d689447	0.056782033
29	0xbd3b1766	-0.04567661
30	0x3c21b540	0.0098698735
31	0xbf53f9b6	-0.82802904
32	0xbc80da35	-0.01572905
33	0xbd290625	-0.041265626
34	0xbd316317	-0.04330739
35	0x3ea4958f	0.32145354
36	0xbf6d64b6	-0.927318
37	0xbf1f7119	-0.6228195
38	0x3dc3392b	0.09532388
39	0xbe151f7c	-0.14562792
40	0xbd57bc77	-0.05266997
41	0xbd083c32	-0.03326053
42	0xbe3979dd	-0.18112893
43	0xbe73e293	-0.238169
44	0x3e888d16	0.2667014
45	0x3e1d035e	0.15333316
46	0x3d9c8c4d	0.07643948
47	0xbde371ed	-0.11105714
48	0xbedc170d	-0.42986336
49	0x3e8c93a4	0.2745639
50	0xbf01ef7a	-0.5075604
51	0xbd427050	-0.04747039
52	0xbe83a139	-0.2570894
53	0xbd271ce5	-0.04079904
54	0xbda059b3	-0.07829609
55	0x3ca2814f	0.01983705
56	0x3d6e2232	0.05813808
57	0xc0319323	-2.7746055
58	0xbcd36629	-0.02580555
59	0xbed2c272	-0.41163975
60	0xbcc44a17	-0.02396111
61	0x3eca08ec	0.39459932
62	0x3ccb8887	0.024845375
63	0x3cc7404f	0.024322657
64	0xbf320859	-0.6954399
65	0xbf809f44	-1.0048604
66	0x3eb20431	0.34768823
67	0x3ac45edd	0.0014981885
68	0xbf18fd7d	-0.5976179
69	0xbec5fdf0	-0.386703
70	0x3ef5cced	0.48007908
71	0xbdbd6b58	-0.0924899
72	0x3e1323c3	0.14369111
73	0xbd17a735	-0.037024695
74	0x3eb730c5	0.35779396
75	0x3b99f388	0.0046982206
76	0xbf0d26e7	-0.55137485
77	0xbf104875	-0.5636056
78	0xbc0fa2f5	-0.008766879
79	0xbd7a43ef	-0.061099943
80	0xbe1b6eba	-0.15178958
81	0x3cf3d6ee	0.029765572
82	0x3c976267	0.01847954
83	0x3bfbb7ba	0.007681814
84	0xbf125277	-0.5715708
85	0xbc65d920	-0.014028817
86	0xbec98ad8	-0.39363742
87	0xbda13aca	-0.07872541
88	0x3e596141	0.21228506
89	0xbf6172be	-0.8806571
90	0x3f0975bb	0.5369527
91	0xbf95b318	-1.169528
92	0x3db38c60	0.08767009
93	0xbca017ca	-0.019542594
94	0x3c963db6	0.018339973
95	0x3e1c67db	0.15273993
96	0xbd0942e8	-0.033511072
97	0xbe74e704	-0.2391625
98	0x3d5ed72b	0.05440442
99	0x3df0fe4b	0.117672525
100	0xbf2dc909	-0.6788488
101	0x3eca20cf	0.39478156
102	0x3e4c16cc	0.19930571
103	0xc01063cc	-2.256091
104	0xbaa9ef27	-0.001296495
105	0xbd8dd54d	-0.069254495
106	0x3d91b3bf	0.07114362
107	0xbdc22c2c	-0.09481081
108	0xbe2e6fb5	-0.170348
109	0x3c10b8f3	0.008833158
110	0xbe39ddaa	-0.18150964
111	0x3c1c8cc5	0.009555046
112	0x3edf6e3d	0.43638793
113	0x3edc041c	0.42971885
114	0x3ec138b2	0.37738568
115	0xbd89a958	-0.06721753
116	0xbf576a28	-0.84146357
117	0x3d329eed	0.043608595
118	0xbf237717	-0.6385359
119	0xbd176f93	-0.03697164
120	0xbf128d25	-0.5724662
121	0xbdc661f0	-0.09686649
122	0xbd815bf2	-0.06316365
123	0x3bc23146	0.005926284
124	0xbed7675a	-0.42071038
125	0xbef0b816	-0.47015446
126	0xbe0686e8	-0.131374
127	0x3ee1d79b	0.44109806
128	0x3e723aa1	0.23655178
129	0x3ae8778d	0.0017735824
130	0xbc3b87ea	-0.011445979
131	0xbf1527f7	-0.58264107
132	0x3cd9c2f9	0.026582228
133	0x3e356dc8	0.1771766
134	0xbf2a9db6	-0.666469
135	0x3d1a061c	0.037603483
136	0xbd9b7fb0	-0.07592714
137	0xbb1ee463	-0.0024245016
138	0xbca814c0	-0.020517707
139	0x3c611389	0.013737568
140	0x3e0350a6	0.12823734
141	0x3de5923b	0.11209532
142	0x3e0e564f	0.13900112
143	0xbd365dc2	-0.04452301
144	0xbcb8b69e	-0.022548016
145	0x3ec9b1a2	0.39393336
146	0xbcecb9ea	-0.028897244
147	0x3d885b39	0.06658024
148	0xbf783704	-0.9695895
149	0xbced8a2a	-0.028996546
150	0xbe834fdf	-0.25646874
151	0x3cf6fd7a	0.030150164
152	0xbee0c8eb	-0.43903288
153	0xbe35b361	-0.17744209
154	0xbea8bfe3	-0.32958898
155	0xbc01d042	-0.007923188
156	0xbf428ad3	-0.7599308
157	0xbf4126d4	-0.7544987
158	0xbdd3827b	-0.103276215
159	0x3cc8e5bb	0.024523607
160	0xbe24c545	-0.16090877
161	0xbded07ba	-0.11573739
162	0x3ea68df4	0.32530177
163	0xbd07f209	-0.033189807
164	0x3e8803a1	0.2656527
165	0xbdd8546a	-0.10562976
166	0xbbc4b2b0	-0.0060027465
167	0x3ead76b9	0.3387964
168	0xbd653f85	-0.05596878
169	0x3e8fee89	0.28111675
170	0xbf550c7f	-0.8322219
171	0x3c8a45de	0.016879018
172	0x3e7a162f	0.24422525
173	0x3c8b1b92	0.01698092
174	0x3be53618	0.006994974
175	0x3da9f420	0.08298516
176	0x3c543c1a	0.012953782
177	0x3ebd706e	0.3699984
178	0xbf056fb2	-0.5212356
179	0xbed3bf2d	-0.41356793
180	0xbe10e4de	-0.14149806
181	0x3cb465dc	0.022021227
182	0x3d4b44a0	0.049625993
183	0x3e1d2eab	0.15349834
184	0x3ea126be	0.3147487
185	0xbe8c5b10	-0.27413225
186	0xbccf2ad3	-0.025288975
187	0x3d2e3948	0.042535096
188	0x3d72fa59	0.05932078
189	0xbc3fecc5	-0.011714165
190	0xbdb2cf61	-0.08730961
191	0xbd3971b5	-0.045274455
192	0x3e705ab7	0.23472105
193	0xbc854e8e	-0.01627281
194	0xbe236f25	-0.15960367
195	0xbe5a1a22	-0.21299031
196	0x3e344172	0.1760309
197	0xbe86fd4d	-0.26365128
198	0x3ed97209	0.42469814
199	0xbf1c6677	-0.6109385
200	0xbeeb4853	-0.45953616
201	0x3e9898f1	0.29804185
202	0xbcbbd3ee	-0.022928204
203	0xbf4acb34	-0.79216313
204	0x3eb7e452	0.35916382
205	0xbcb221b3	-0.021744585
206	0xbdee9528	-0.11649543
207	0xbcd95fe3	-0.02653498
208	0x3c212664	0.009835813
209	0x3e854bbb	0.2603434
210	0xbe496f69	-0.19671406
211	0x3d1f67a7	0.03891721
212	0x3ef926f5	0.48662534
213	0xbe9aea4b	-0.30256876
214	0x3e1f3e9d	0.15551229
215	0x3c6d9f88	0.014503367
216	0xbe0c2c2d	-0.13688727
217	0xbd7e6e13	-0.062116694
218	0x3ee0b721	0.43889716
219	0x3c956f19	0.018241452
220	0xbcbffa42	-0.023434762
221	0x3dbb1ebb	0.09136721
222	0xbd0b64da	-0.034031726
223	0x3dc9c065	0.098511495
224	0xbf33b267	-0.70194095
225	0xbedd7294	-0.4325148
226	0xbde18ec2	-0.11013557
227	0xc00d09e3	-2.2037284
228	0xbe3afb4f	-0.18259929
229	0x3cad2378	0.021135077
230	0xbf39e189	-0.72609764
231	0xbec25818	-0.37957835
232	0x3a9c2316	0.0011912312
233	0x3d09591f	0.033532258
234	0xbeb7f87c	-0.35931766
235	0xbe96f0ae	-0.294805
236	0xbe652baf	-0.22379945
237	0x3d4f57b4	0.05062075
238	0xbc94d6c9	-0.018168824
239	0xbe79af33	-0.2438324
240	0x3bcebd04	0.0063091535
241	0xbf3bd36a	-0.7336947
242	0xbd860f90	-0.06545937
243	0x3d679be7	0.056545164
244	0xbea87655	-0.3290278
245	0x3e905974	0.28193247
246	0x3e1391ee	0.14411137
247	0xbf8fcbe8	-1.1234102
248	0x3e834e0d	0.25645486
249	0xbe192b61	-0.14957954
250	0x3db49002	0.0881653
251	0xbe2bbfd2	-0.16772392
252	0x3d6462c4	0.055758253
253	0xbe8513d3	-0.25991687
254	0xbb3c5060	-0.002873443
255	0xbedf6474	-0.43631327

fc3.bias f4 [256]
0	0x3e0e9a9f	0.13926171
1	0xbf3183e6	-0.69341886
2	0xbe6ca2aa	-0.23108926
3	0x3d62641c	0.055271253
4	0xbdefc289	-0.117070265
5	0xbe1b41b6	-0.15161785
6	0xbee0bada	-0.43892556
7	0xbe2fd948	-0.1717273
8	0xbf6143bf	-0.87994
9	0xbf9f32af	-1.2437342
10	0x3f208d10	0.62715244
11	0xbea7c353	-0.32766208
12	0xbec7cd2d	-0.39023724
13	0x3f102e5a	0.56320727
14	0x3f573ee3	0.8408033
15	0x3e59f052	0.21283081
16	0x3d0adcb6	0.033901893
17	0xbf0faf1c	-0.5612657
18	0x3e417111	0.18890788
19	0x3f5e99b4	0.8695328
20	0xbdaaaf50	-0.083342195
21	0xbe7b9d47	-0.24571715
22	0xbe2bb3fa	-0.16767874
23	0xbf5747df	-0.8409404
24	0xbe791780	-0.24325371
25	0x3e9e5e06	0.3093111
26	0xbf898043	-1.0742267
27	0xbf0e8155	-0.55666095
28	0xbee5da90	-0.44893312
29	0xbf97aef2	-1.1850264
30	0x3f371ef2	0.71531594
31	0xbe5c0edb	-0.21490042
32	0xbf56c59f	-0.83895296
33	0xbf77c7ed	-0.9678944
34	0xbf2519ca	-0.64492476
35	0xbdf11648	-0.11771828
36	0xbe87e928	-0.26545072
37	0xbf762780	-0.9615402
38	0xbeaaa646	-0.33329982
39	0x3d28b946	0.041192316
40	0xbe48c98c	-0.19608134
41	0xbe06be2f	-0.13158487
42	0xbf1e839e	-0.6191958
43	0xbf956ff0	-1.1674786
44	0xbe840f4b	-0.25792918
45	0xbe612042	-0.21984962
46	0xbf4a7768	-0.7908845
47	0x3f6f54d1	0.93488795
48	0xbe414a17	-0.1887592
49	0xbf64e681	-0.8941422
50	0xbe810e1e	-0.25206083
51	0xbe549bc4	-0.20762545
52	0xbdd93719	-0.10606212
53	0xbea3b359	-0.3197277
54	0xbe960219	-0.29298475
55	0xbfbf407e	-1.4941556
56	0xbf52fe6e	-0.8241948
57	0xbf98bb8f	-1.1932238
58	0xbe1e5d90	-0.15465379
59	0x3f003527	0.50081104
60	0xbe7344ca	-0.2375671
61	0x3da6b9a7	0.08140879
62	0xbe01c993	-0.1267455
63	0xbe900f7d	-0.28136817
64	0x3f8f47d8	1.11938
65	0xc0065bdc	-2.0993567
66	0xbf08205d	-0.5317438
67	0xbd571f8e	-0.052520327
68	0xbea238f1	-0.31684068
69	0xbfb6b868	-1.4275026
70	0xbf5d4469	-0.8643251
71	0xbf99a097	-1.2002133
72	0xbdd191fb	-0.10232922
73	0xbea93dce	-0.33054966
74	0x3f3f72d6	0.747846
75	0xbe3037e0	-0.17208815
76	0xbe86eac6	-0.26350993
77	0x3f802e0e	1.0014055
78	0xbdefc9c4	-0.117084056
79	0x3f33e14e	0.7026566
80	0xbe98635a	-0.297633
81	0xbe4a925d	-0.19782396
82	0x3e4a6736	0.19765934
83	0xbd71919b	-0.05897675
84	0x3e00fbae	0.12596008
85	0xbe9b6a5c	-0.30354583
86	0xbf41eae5	-0.75749046
87	0xbd99dbe3	-0.07512643
88	0xbf28da41	-0.6595803
89	0xbeab628c	-0.33473623
90	0xbfb1d9ee	-1.3894632
91	0xbe8a99c8	-0.2707045
92	0xbfb3f2b1	-1.4058439
93	0xbddc2197	-0.10748594
94	0xbe2b90a7	-0.16754399
95	0x3f67f01c	0.9060075
96	0xbf11daf3	-0.56974715
97	0xbeb4e2c3	-0.35329255
98	0x3ef8b0f7	0.48572513
99	0xbe930597	-0.28715202
100	0x3f97504f	1.1821383
101	0x3ee80f4d	0.45324174
102	0xbedaf61d	-0.42765895
103	0x3ef98d48	0.48740602
104	0xbf961955	-1.1726481
105	0x3e40912d	0.1880538
106	0x3f800160	1.000042
107	0x3e87613b	0.26441368
108	0xbe667f9a	-0.22509614
109	0xbe8b9a08	-0.27265954
110	0xbe504c5c	-0.20341629
111	0x3d133526	0.03593936
112	0xbee18ad0	-0.44051218
113	0xbf873951	-1.0564367
114	0xbf2bcd8b	-0.6711051
115	0xbe28648e	-0.16444609
116	0xbe5459d5	-0.20737393
117	0x3eadd9ae	0.3395514
118	0xbe5eb28d	-0.21747799
119	0x3f6ec12e	0.9326352
120	0xbe9453b1	-0.289701
121	0xbe5608f4	-0.20901853
122	0xbe085873	-0.1331499
123	0xbf29179d	-0.66051656
124	0xbe5f4b0b	-0.2180597
125	0xbe13aa75	-0.14420493
126	0xbf09d802	-0.53845227
127	0xbf8122be	-1.0088727
128	0x3edf00cb	0.43555292
129	0xbf72818e	-0.94728935
130	0xbef1f3b9	-0.47256258
131	0x3f318164	0.6933806
132	0xbf376471	-0.71637636
133	0xbe15cde3	-0.14629321
134	0xbe62ad9c	-0.22136539
135	0xbfb4e462	-1.4132197
136	0xbf1c0ec9	-0.6096006
137	0xbea0969f	-0.31364915
138	0xbcbc5f9d	-0.02299481
139	0xbf5b77a9	-0.8572946
140	0xbe222098	-0.15832746
141	0xbe8765ea	-0.26444942
142	0xbd00deaf	-0.031462368
143	0x3f1c6dd2	0.6110507
144	0xbe86dc2f	-0.26339862
145	0x3db2a0cd	0.087220766
146	0xbed79014	-0.4210211
147	0xbe13c62d	-0.14431067
148	0x3ea3d0a2	0.31995112
149	0xbe90a1e1	-0.28248504
150	0x3c3cfab9	0.011534386
151	0x3fa2aeb8	1.270957
152	0xbf2f9e3b	-0.68600816
153	0x3df9edce	0.12203561
154	0xbfc02edc	-1.50143
155	0x3e241b4e	0.16026041
156	0xbf0cb618	-0.54965353
157	0xbf77867d	-0.9668959
158	0xbe03782b	-0.12838809
159	0xbf514a77	-0.8175425
160	0xbfb380eb	-1.4023718
161	0xbe8a7c28	-0.2704785
162	0xbea7ae01	-0.32749942
163	0xbe860ca2	-0.26181513
164	0xbddb3098	-0.10702628
165	0xbe85fb9f	-0.26168534
166	0x3ecb5657	0.3971431
167	0x3f44029e	0.76566494
168	0xbe741d6b	-0.23839347
169	0xbf1acaf8	-0.60465956
170	0x3d03f99d	0.03222047
171	0x3f78a124	0.9712088
172	0xbf1a7759	-0.6033836
173	0xbf4ceaf1	-0.8004599
174	0x3fd16489	1.6358806
175	0xbe03748c	-0.12837428
176	0xbec20a0f	-0.378983
177	0xbe395c5d	-0.1810164
178	0xbeee27bc	-0.4651469
179	0xbdd60576	-0.1045026
180	0xbe29dac4	-0.16587359
181	0xbdeb8d7b	-0.11501595
182	0xbe8d7800	-0.27630615
183	0xbeec3845	-0.4613668
184	0xbe633c6b	-0.22191016
185	0xbe50685a	-0.20352307
186	0xbf6ac4f3	-0.9170677
187	0xbe912e6f	-0.2835574
188	0x3dc2def0	0.09515178
189	0xbe670cc0	-0.22563457
190	0xbf3cf881	-0.73816687
191	0xbf8c9116	-1.0981777
192	0xbefb8ed5	-0.4913241
193	0xbf32ff22	-0.6992055
194	0xbed80e09	-0.42198208
195	0xbe8dffd2	-0.27734238
196	0xbec82fc5	-0.39098945
197	0x3f9b16e0	1.2116356
198	0xbf303a62	-0.68839085
199	0xbee6d93f	-0.4508762
200	0x3f1f11c9	0.62136513
201	0x3f213117	0.6296553
202	0x3eb85e3c	0.36009395
203	0x3a9b1723	0.0011832457
204	0xbf05b38f	-0.5222711
205	0xbf884ae1	-1.0647851
206	0xbea831d7	-0.32850525
207	0xbf5338a5	-0.8250831
208	0xbeb2046d	-0.34769002
209	0xbf51c346	-0.8193859
210	0xbee0ee5c	-0.43931854
211	0xbe97e569	-0.29667214
212	0xbf6339dd	-0.8876017
213	0x3f974180	1.1816864
214	0xbecf787a	-0.40521604
215	0xbf7f7c4b	-0.9979903
216	0xbe33c0e4	-0.1755405
217	0xbf04cffc	-0.5187986
218	0xbe45c545	-0.19313534
219	0xbe56438e	-0.20924208
220	0xbe6b5b77	-0.2298411
221	0xbf01cd83	-0.5070421
222	0xbf9159ec	-1.1355567
223	0x3f444836	0.76672685
224	0xbebe767b	-0.37199768
225	0xbe62fdcd	-0.2216713
226	0xbf99f9c4	-1.2029347
227	0xbf5e4616	-0.8682569
228	0x3f0c2a16	0.5475172
229	0xbf083a83	-0.5321428
230	0xbede0c56	-0.43368787
231	0xbf86773a	-1.0505135
232	0xbf8cc5b3	-1.0997833
233	0xbf25bafd	-0.64738446
234	0xbf504f07	-0.81370586
235	0xbecad00b	-0.3961185
236	0xbdb55621	-0.088543184
237	0xbef4d950	-0.47822046
238	0x3f99d581	1.2018281
239	0x3ebed4b5	0.37271658
240	0x3df33918	0.11876124
241	0xbeb1de29	-0.34739807
242	0xbe2ba50e	-0.16762182
243	0xbf92722f	-1.1441096
244	0xbf2ab436	-0.6668123
245	0xbf0d0d6f	-0.55098623
246	0xbead6311	-0.33864644
247	0xbdd112c3	-0.10208657
248	0x3f035882	0.5130693
249	0xbe81bae0	-0.25337887
250	0x3ee1af39	0.44078997
251	0xbfab6d28	-1.3392687
252	0x3de32a2d	0.11092029
253	0xbe29d82f	-0.16586374
254	0xbde0c7d8	-0.10975617
255	0x3e937d6c	0.28806627

action_out.weight f4 [4, 256]
0	0x3da289f3	0.07936468
1	0xbd3a00b8	-0.04541084
2	0x3dcfee43	0.10152867
3	0xbed12d5d	-0.40854922
4	0x3d0acd7b	0.033887368
5	0x3cfc6505	0.030809889
6	0x3d25f8bb	0.04052041
7	0x3d8bbf21	0.06823564
8	0xbd624796	-0.05524405
9	0x3c5fca40	0.01365906
10	0x3d65efdd	0.056136955
11	0xbcc2a865	-0.023761937
12	0xbd3a12d1	-0.0454281
13	0xbd8678c7	-0.06566005
14	0x3d882836	0.06648295
15	0xbe51f7ba	-0.20504656
16	0x3e4584a3	0.19288878
17	0x3df5775e	0.11985658
18	0x3c2ca5c6	0.01053757
19	0x3cddfb90	0.027097493
20	0xbcfa094e	-0.030522015
21	0x3d71237b	0.058871727
22	0xbf080dce	-0.53146064
23	0xbc5c390e	-0.013441337
24	0xbefde021	-0.4958506
25	0x3b3ee0f3	0.002912578
26	0x3d10400b	0.035217326
27	0x38c98206	9.6086456e-05
28	0xbd451f62	-0.048125632
29	0xbfc19b61	-1.5125543
30	0xbd86f789	-0.06590182
31	0x3cc7af3c	0.02437555
32	0xbe734304	-0.23756033
33	0x3bb9b7d1	0.0056676646
34	0xbea8773b	-0.32903466
35	0x3dc39a6b	0.09550937
36	0xbd07ed0e	-0.033185057
37	0x3d8ea46f	0.06964957
38	0x3e868d22	0.2627955
39	0xbd48e1c4	-0.049043432
40	0xbdba8916	-0.09108178
41	0xbdb22ed9	-0.08700342
42	0xbe2cb353	-0.16865282
43	0xbd0333c0	-0.032031775
44	0xbd11551b	-0.035481554
45	0x3e265fb8	0.16247451
46	0xbdd42464	-0.103585035
47	0xbd93d087	-0.07217508
48	0x3e268a67	0.16263734
49	0x3d81030d	0.0629941
50	0xbddcc50a	-0.1077977
51	0xbdab3ffa	-0.08361812
52	0x3cb4683a	0.022022355
53	0x3d25399e	0.04033815
54	0xbf0fff44	-0.5624888
55	0xbb4bede0	-0.0031117126
56	0x3c618d88	0.013766654
57	0x3e0dc276	0.13843712
58	0xbc34f7e1	-0.011045427
59	0xbe4977e1	-0.19674636
60	0x3e3932f1	0.18085839
61	0xbd988171	-0.07446564
62	0x3c6a17a8	0.014287867
63	0xbe0d90cc	-0.13824767
64	0x3d632669	0.055456553
65	0x3bef66bc	0.007305948
66	0x3c9aa4a1	0.01887733
67	0x3e0a7980	0.13522911
68	0x3def809d	0.11694453
69	0x3f2a169a	0.6644074
70	0x3e635f08	0.2220422
71	0xbac30963	-0.0014880117
72	0x3d6c0a73	0.057627153
73	0xbca33b3e	-0.01992571
74	0xbd341767	-0.04396763
75	0x3cfcff8e	0.030883577
76	0xbbb203dd	-0.0054325894
77	0x3d6a9ac8	0.057276517
78	0xbdbb7878	-0.09153837
79	0x3de91c20	0.113823175
80	0xbdd6fcc0	-0.10497427
81	0x3d1a87a0	0.037727
82	0x3cbf732d	0.02337035
83	0xbe2d0b6d	-0.1689889
84	0xbcc95395	-0.024575988
85	0x3d03096b	0.031991404
86	0xbcc0a63d	-0.023516769
87	0x3e875703	0.26433572
88	0xbe00225d	-0.12513109
89	0xbf0720e5	-0.5278457
90	0xbd9bb00c	-0.07601938
91	0x3cb206e7	0.021731807
92	0xbef22b82	-0.4729882
93	0x3ca71f79	0.02040075
94	0x3d8c6cd8	0.06856698
95	0xbd8b76f0	-0.06809795
96	0xbcec8752	-0.02887312
97	0xbe93d340	-0.28872108
98	0x3e15171a	0.14559594
99	0xbd17f369	-0.03709737
100	0x3c94ccfb	0.018164149
101	0x3c8dd5c4	0.017313845
102	0xbe5426dd	-0.2071795
103	0x3d83f2a7	0.06442767
104	0x3b3caca1	0.0028789418
105	0xbda62ad4	-0.081136376
106	0xbc064ba4	-0.008196745
107	0xbcecc6bb	-0.028903356
108	0xbdfa1990	-0.12211907
109	0xbc184633	-0.009294081
110	0xbd30abf3	-0.043132734
111	0xbd26bd7b	-0.040708046
112	0x3ef9fc3a	0.48825246
113	0xbcd12f44	-0.025535233
114	0xbb3347a1	-0.0027355927
115	0xbd57d9cd	-0.052697945
116	0xbe9ba578	-0.3039968
117	0xbd587c6c	-0.052853033
118	0x3e2cf4af	0.16890214
119	0xbb3e5096	-0.0029039732
120	0x3d626d52	0.055280037
121	0x3b8fa318	0.004383456
122	0x3d6c0b87	0.05762818
123	0xbea49ddb	-0.32151684
124	0x3c36aa2b	0.01114897
125	0x3e91647a	0.2839697
126	0xbe065b16	-0.13120684
127	0xbd007a5e	-0.0313667
128	0x3d62b832	0.055351444
129	0x3df2c7f3	0.118545435
130	0xbea4ffef	-0.32226512
131	0x3e1e5324	0.15461403
132	0xbbf46193	-0.007457921
133	0x3d0d397e	0.034478657
134	0x3b532b26	0.0032221763
135	0xbd655745	-0.05599143
136	0xbd1cdc0a	-0.038295783
137	0xbca9067d	-0.020632977
138	0xbd6307b7	-0.05542728
139	0x3fc009b7	1.5002965
140	0xbd9f976d	-0.07792554
141	0x3c6385de	0.013886897
142	0xbbc865a6	-0.006115633
143	0x3ddf5cce	0.10906373
144	0x3d91f167	0.07126122
145	0xbd0f683f	-0.035011526
146	0xbe808290	-0.2509961
147	0x3d9632cf	0.0733391
148	0x3c48b776	0.012250772
149	0x3d8143d9	0.06311769
150	0xbc503858	-0.012708746
151	0x3a8576a5	0.0010182454
152	0xbda275a5	-0.07932595
153	0xbe46f51e	-0.19429442
154	0x3bd319cc	0.006442284
155	0x3d05e1f8	0.032686204
156	0xbe337b03	-0.17527394
157	0xbd7a46f5	-0.061102826
158	0xbf172547	-0.59041256
159	0x3fb073d3	1.3785347
160	0xbcc223df	-0.023698745
161	0xbea2143a	-0.31656057
162	0x3e21385d	0.15744157
163	0x3eb24e50	0.34825373
164	0x3db48f75	0.08816425
165	0x3e4a5167	0.19757615
166	0x3e0a186a	0.13485876
167	0xbd3c8c20	-0.04603207
168	0x3ce0d444	0.027444966
169	0xbe845cf7	-0.25852177
170	0xbc1b8e6b	-0.009494404
171	0xbc8f2458	-0.017473385
172	0x3d1b23fd	0.037876118
173	0xbeaa3203	-0.3324128
174	0x3d8cf5d1	0.06882823
175	0xbdc8991a	-0.09794827
176	0xbd17eef8	-0.037093133
177	0xbccc60af	-0.024948446
178	0x3e4bc942	0.19900993
179	0xbd49dc5a	-0.04928241
180	0xbcd3d1a2	-0.025856797
181	0x3c91bb8c	0.017789625
182	0x3f025998	0.5091796
183	0x3d58ebe6	0.052959345
184	0x3dad23fd	0.0845413
185	0x3ec1064a	0.3770011
186	0xbd76ea67	-0.060282137
187	0x3ddca303	0.107732795
188	0xbc08d28b	-0.008350979
189	0xbd0ab2ef	-0.03386205
190	0xbdcd689a	-0.10029717
191	0xbb3deca3	-0.0028980158
192	0x3b150c86	0.002274306
193	0xbe2a5e39	-0.16637506
194	0xbdc06486	-0.09394173
195	0xbdc022b5	-0.0938162
196	0x3e0fb1fb	0.14032738
197	0xbc1aee3a	-0.009456212
198	0x3c2a1ff2	0.010383593
199	0x3cb1a58c	0.021685384
200	0xbd8eedca	-0.069789484
201	0xbd997695	-0.07493321
202	0x3da075ef	0.07834994
203	0x3d26665c	0.04062496
204	0x3c8ad348	0.01694645
205	0xbe0c8738	-0.13723457
206	0x3d9e8c7b	0.07741638
207	0x3d1fa149	0.038972173
208	0x3d2a6771	0.041602556
209	0xbe76e9be	-0.24112603
210	0x3bff050b	0.0077825836
211	0x3bd77e53	0.0065763383
212	0xbda623d9	-0.08112306
213	0xbda45326	-0.08023672
214	0x3e8196aa	0.2531026
215	0x3d210464	0.039310828
216	0xbb5c5390	-0.0033619143
217	0x3dadb78b	0.08482274
218	0x3db38be0	0.087669134
219	0xbd26729b	-0.04063664
220	0x3e196b61	0.14982368
221	0xbdabb1af	-0.083835
222	0xbd64270f	-0.05570131
223	0xbd7504da	-0.05981908
224	0xbd17247b	-0.036900025
225	0xbe244b59	-0.16044368
226	0xbd922e12	-0.071376935
227	0xbdb57dba	-0.08861871
228	0x3ced25c5	0.028948674
229	0xbdccf6c1	-0.10008002
230	0xbdd0f5bc	-0.1020312
231	0x3c1f42b3	0.009720492
232	0x3d32a37c	0.043612942
233	0x3d5eb076	0.054367505
234	0xbd1ceefb	-0.038313847
235	0xbcaa0feb	-0.020759543
236	0x3eaaff8d	0.33398095
237	0xbae7d9af	-0.0017688776
238	0xbc178599	-0.009248161
239	0x3c871db5	0.016493658
240	0xbd5fc87e	-0.054634564
241	0x3d2eeda8	0.042707115
242	0x3d9b598c	0.07585439
243	0xbecfaac4	-0.4055997
244	0xbd2b83c9	-0.041873727
245	0xbca67b42	-0.020322446
246	0xbd5eec88	-0.054424793
247	0xbbe71f00	-0.007053256
248	0xbd933890	-0.07188523
249	0x3c11f7f1	0.0089092115
250	0x3b6763e9	0.0035307354
251	0x3cef5ab9	0.029218065
252	0x3c562334	0.0130699165
253	0x3bbee178	0.005825218
254	0x3d0838a2	0.033257134
255	0x3dc2acc6	0.0950561

action_out.bias f4 [4]
0	0xbbf86b98	-0.0075811855
1	0x3c1e12f0	0.00964807
2	0xbb13aff8	-0.0022535305
3	0xbb00b9f8	-0.0019642096
