saved_models/FetchPickAndPlace-v1/model125.pt (torch, 563151 bytes, 8 tensors)

fc1.weight f4 [256, 28]
-0.28147352 0.26173964 -0.0732231 -0.8466483 0.6285726 0.70650357 -0.3593421 0.15902582
0.2881956 -0.14262491 -0.016853854 0.022416908 -0.0019641179 -0.08605832 -0.08208885 0.07232093
0.08254233 -0.045573067 0.047325734 0.019848615 -0.09799972 0.055767246 0.16838095 -0.035335455
-0.032089308 1.3284096 -0.90208036 -0.73689526 0.39243504 0.366495 0.32096887 -0.38761795
0.35307625 0.4624899 -1.3165992 0.484304 -0.13585718 0.02518371 0.18387823 -4.4893386e-05
-0.19415414 0.14871776 -0.25480354 0.09927348 0.13457389 -0.24610743 -0.33132386 -0.12630175
-0.13515015 -0.047591332 0.095947765 -0.20834698 -0.2318993 0.25399804 -0.87627757 -0.4882473
0.18558876 -0.22006966 -0.8511871 0.47945112 0.17927872 -1.284768 -0.4563034 -0.2159111
0.7913779 0.5484669 0.17831282 -0.120742336 -0.1344742 -0.0034491175 -0.09994209 -0.1084232
-0.027682038 0.17075954 -0.03987433 -0.027179373 0.106547 -0.006592673 -0.018393412 0.011711451
-0.11555694 -0.35049802 -0.14579497 -0.0016308569 0.031682666 0.1318889 0.04733383 -0.056426976
0.12793112 0.47503048 -0.0006153029 0.45246083 0.12699465 0.36303923 0.53153807 -0.08741697
0.15244061 -0.044001527 0.27265266 0.68968445 0.14530103 0.017851293 -0.11337556 0.11784272
0.39963242 0.30874982 0.36083144 -0.12336246 0.045903407 0.17059577 -0.25287756 -0.17025694
-0.30621845 -0.20262332 -0.03805721 -0.42536253 0.46428087 0.490139 0.22336206 0.7399217
0.4265751 -0.15984301 -0.014567825 0.043888237 -0.091268286 0.08187398 0.2425555 -0.07194448
-0.315189 -0.093108036 -0.3561839 0.07624752 -0.056384422 -0.21116397 -0.03814633 0.23085256
0.062458985 0.45556277 -0.36771476 -0.031417504 0.11533738 0.08002038 0.41696444 -0.15149014
0.27813163 0.031191487 0.124596454 0.59731346 -0.88990515 0.09772901 -0.03397783 0.12383392
-0.12836218 0.10540798 0.15484448 0.6450165 -0.03356934 -0.2395355 0.06412521 0.05282514
-0.39360598 -0.017962452 -0.040435586 -0.08660629 0.12384027 0.07448458 0.21452506 -0.23047198
0.052617725 -0.2870637 -0.3397144 -0.3078851 0.08815817 -0.092531495 -0.7253461 0.74151355
0.19413096 -0.46737418 -0.34984374 0.03607816 0.1394487 -0.060490467 -0.27346352 0.45875987
0.8191602 0.01243044 -0.1910275 0.020378707 -0.14235754 0.4184964 0.77507824 0.21532117
-0.28725094 0.19067527 0.2688606 0.02855884 0.04346446 0.12007345 0.79387546 0.02807923
0.37062797 0.3506109 -0.26417837 -0.029179234 -1.6895788 0.14238657 0.3143907 -0.059005033
-0.088032365 0.02164312 0.051974025 0.037649266 -0.664235 -0.015219004 0.012803507 -0.084567174
0.21803999 0.010952086 -0.5991463 0.04647938 0.17391 -0.26189303 -0.19913374 -2.2923381
-0.70943785 0.29470772 0.052484818 -1.0763702 0.82490444 -0.44215575 -0.60415745 0.32226747
-0.06714888 0.03863457 -0.06649522 0.0046690623 0.009381584 0.019013217 -0.25234565 0.104601815
-0.08532886 0.0060114358 0.014429073 0.050782066 -0.20841841 0.124191344 -0.12599763 -0.0023860324
0.022289515 2.0344436 -1.2661978 -0.93298614 -0.027202051 -0.04673244 -0.15868723 0.08427793
00000000: 4c1d 90be bd02 863e fef5 95bd f1bd 58bf
00000010: 22ea 203f 6bdd 343f b0fb b7be aad7 223e
00000020: 608e 933e 440c 12be 1811 8abc aaa3 b73c
00000030: 6eb8 00bb 583f b0bd 331e a8bd ff1c 943d
00000040: f40b a93d d3aa 3abd a1d8 413d 9099 a23c
00000050: 14b4 c8bd 326c 643d 0e6c 2c3e e9bb 10bd
00000060: 1470 03bd 5309 aa3f bdee 66bf 2ba5 3cbf
00000070: 3fed c83e 3ca5 bb3e 0856 a43e dc75 c6be
00000080: 69c6 b43e 7acb ec3e 5386 a8bf b2f6 f73e
00000090: 251e 0bbe 114e ce3c 934a 3c3e e84b 3cb8
000000a0: 58d0 46be 7849 183e 9c75 82be e54f cb3d
000000b0: bdcd 093e 9603 7cbe 48a3 a9be 3f55 01be
000000c0: cd64 0abe 21ef 42bd 4380 c43d e958 55be
000000d0: 0377 6dbe 080c 823e ba53 60bf 8dfb f9be
000000e0: fb0a 3e3e f159 61be 66e7 59bf 9e7a f53e
000000f0: d794 373e 4773 a4bf 99a0 e9be cd17 5dbe
00000100: be97 4a3f 5468 0c3f a397 363e c247 f7bd
00000110: 9bb3 09be 970a 62bb 70ae ccbd fc0c debd
00000120: 71c5 e2bc 97db 2e3e 4453 23bd 47a7 debc
00000130: 5035 da3d 5907 d8bb c8ad 96bc 63e1 3f3c
00000140: 1ea9 ecbd 7a74 b3be 474b 15be 7ac2 d5ba
00000150: afc5 013d e20d 073e 1ee1 413d f91f 67bd
00000160: 6000 033e 3237 f33e 474c 21ba f2a8 e73e
00000170: e30a 023e 47e0 b93e e112 083f ab07 b3bd
00000180: 6419 1c3e f23a 34bd 2199 8b3e 298f 303f
00000190: cbc9 143e e03c 923c 7231 e8bd 8657 f13d
000001a0: 9f9c cc3e 7514 9e3e e6be b83e 75a5 fcbd
000001b0: 3605 3c3d a8b0 2e3e 2b79 81be d657 2ebe
000001c0: aac8 9cbe 7d7c 4fbe e1e1 1bbd 1ec9 d9be
000001d0: 39b6 ed3e 80f3 fa3e 06b9 643e 826b 3d3f
000001e0: 0d68 da3e e3ad 23be e3ad 6ebc 27c4 333d
000001f0: deea babd 8cad a73d 7860 783e a157 93bd
00000200: 7460 a1be 6daf bebd bc5d b6be a927 9c3d
00000210: 5af3 66bd 5e3b 58be 533f 1cbd 9d64 6c3e
00000220: fed4 7f3d 863f e93e 1c45 bcbe a4af 00bd
00000230: 0136 ec3d bae1 a33d 5d7c d53e 3b20 1bbe
00000240: 4567 8e3e 4a85 ff3c 6d2c ff3d 89e9 183f
00000250: d3d0 63bf 2626 c83d 562c 0bbd a39c fd3d
00000260: 6071 03be 24e0 d73d 8d8f 1e3e cd1f 253f
00000270: 0180 09bd cb48 75be 1454 833d 2d5f 583d
00000280: b986 c9be fe25 93bc c99f 25bd a35e b1bd
00000290: f89f fd3d 5f8b 983d 75ac 5b3e d900 6cbe
000002a0: af85 573d 03fa 92be 0cef adbe 1ea3 9dbe
000002b0: 458c b43d 2781 bdbd 48b0 39bf d5d3 3d3f
000002c0: 44ca 463e ab4b efbe b81e b3be b1c6 133d
000002d0: a4cb 0e3e dac4 77bd 6903 8cbe 93e2 ea3e
000002e0: 7cb4 513f 0ba9 4b3c b79c 43be 3ff1 a63c
000002f0: 2dc6 11be 2945 d63e 876b 463f 277d 5c3e
00000300: 8e12 93be 6140 433e 19a8 893e 3af4 e93c
00000310: ca07 323d 12e9 f53d 6c3b 4b3f 6a06 e63c
00000320: f3c2 bd3e 4683 b33e 6342 87be 4a09 efbc
00000330: 1e44 d8bf c9cd 113e d1f7 a03e 43af 71bd
00000340: 504a b4bd ea4c b13c b7e2 543d 1e36 1a3d
00000350: 4e0b 2abf 2159 79bc cdc5 513c 8e31 adbd
00000360: e045 5f3e 6170 333c a761 19bf 2a61 3e3d
00000370: 7715 323e d816 86be b7e9 4bbe abb5 12c0
00000380: b89d 35bf eee3 963e 52fa 563d 80c6 89bf
00000390: f02c 533f 3d62 e2be 10aa 1abf 3e00 a53e
000003a0: 5a85 89bd 483f 1e3d a52e 88bd effe 983b
000003b0: 37b5 193c 9bc1 9b3c 7333 81be 7a39 d63d
000003c0: e6c0 aebd 94fb c43b eb67 6c3c db00 503d
000003d0: a36b 55be 0858 fe3d 8605 01be fb5e 1cbb
000003e0: 8098 b63c 5334 0240 c512 a2bf 2ed8 6ebf
000003f0: d6d6 debc 846a 3fbd e87e 22be e899 ac3d

fc1.bias f4 [256]
0.098471574 -2.3015828 -1.7611247 -1.3065146 -2.4804838 -2.575195 -1.8511722 -0.9799379
-0.50527054 -1.4738041 -0.72784317 -0.35776556 -2.250957 -2.3751094 0.019424742 -1.1839803
-1.2342405 -2.1749902 -0.74639815 -0.9733236 0.008770147 -0.95822734 -0.42675823 -1.8945274
-1.7241074 -0.09440641 -1.5982473 -2.2207441 -1.6836549 0.59978 -1.7663877 -2.2161806
-0.85012394 0.48147568 -2.2813218 -2.7542412 -2.5033727 -1.7845564 -1.5301894 -2.6628325
-2.243109 -1.4556962 -0.2172274 -1.9046644 -0.1387302 -1.9108002 -0.61472857 -3.2096212
-1.4257381 -1.3327899 -1.5337892 -2.2628071 -1.8014594 -1.8500981 -1.6708878 -0.7380333
-2.7007115 -1.200728 -1.5305061 -0.15236223 0.30307066 -1.5846705 -1.155812 -1.7623414
-1.4922512 -1.0477028 -1.1544436 -1.825419 0.07649739 -1.660993 -2.1590064 -2.0308201
-1.3307866 -2.457072 -2.6180315 -1.7964991 -3.082927 -0.56909347 -0.7714148 -1.2888546
-0.061637666 -0.4192187 -0.38289925 -0.9202216 -1.6294224 -1.3263098 -1.6672019 -1.9062291
0.07663064 -1.1027443 -1.9532659 -1.955505 -2.6216958 -0.48580763 -0.5604877 -2.0652885
0.8183456 -1.918759 -1.549585 -2.120806 -1.0113611 -0.9365187 -1.9768801 0.4047725
-1.7689476 -1.4568715 -0.38904214 -2.5550678 -2.3116565 -1.5633242 -2.2880728 0.28599998
0.88761574 -1.0482659 -1.5814549 -0.45684865 -2.2125146 -0.0007140422 -0.21276128 -1.655076
-1.3416057 -1.5404587 -0.77366704 -0.43982533 -1.9590245 0.28615844 -1.8810294 -1.3585538
-1.8684425 -2.5084565 -0.91132486 -2.0716484 -1.1933532 -1.2156624 -1.8448002 -1.557487
-1.0532883 -1.5682452 -1.9688587 -1.0182998 -1.7780436 -0.8834995 -2.4174092 -1.5647831
-2.2987213 -1.203928 -1.7499331 0.30035338 -2.014734 0.31537086 -1.945743 -2.5597599
-2.0269346 -1.064377 -0.5183187 -1.4408661 1.5288212 -2.497227 -0.5472151 -1.1664429
-1.8464721 -0.40433055 -2.547786 -1.0017896 -0.3609612 -0.79101264 -0.33888167 0.6716205
-2.5073972 -2.4146638 -2.0558844 -1.892299 -1.2509115 -2.0187235 -0.6620459 -1.0013605
-2.213721 0.31044203 -1.9776853 1.3942099 -2.5329356 -2.4105814 -2.2733746 -2.3124142
-1.5755144 -2.106098 -2.1740608 -2.2119622 -1.4067467 -0.59562624 -2.5875142 -0.4668851
-1.964789 -2.115307 0.8639389 -1.6194495 -2.5808759 -0.6783701 -1.5026503 -1.879507
-2.1473281 -1.598325 -0.41726083 -0.5433955 -2.7275248 -2.782769 -1.9504374 -2.744221
-2.2982059 -1.4675963 -1.286614 -1.8209404 -1.3148606 -1.94545 1.3534502 -1.4684243
-1.6563303 -0.17283998 -1.0071297 0.8722394 -2.5807717 -2.0121763 -1.0013266 -2.6320634
-1.2984753 0.8255806 -0.69242877 -1.5302441 -1.956683 -2.0201373 -0.31424788 -2.254629
0.24090326 1.748171 -2.253466 -1.778789 -2.5790646 -1.2774507 -0.26032308 -2.1876876
-1.75987 -2.371152 -2.4333866 -0.56953126 -1.4192501 -1.6873955 0.017552093 -1.6445019
-1.5879546 -0.0427874 -1.5785534 -0.67719376 -0.05462924 -2.732079 -0.8704789 -1.3478411
00000000: 77ab c93d 224d 13c0 896c e1bf df3b a7bf
00000010: 3fc0 1ec0 ffcf 24c0 36f3 ecbf 36dd 7abf
00000020: 6959 01bf 9da5 bcbf ee53 3abf 0c2d b7be
00000030: ae0f 10c0 cb01 18c0 a320 9f3c ab8c 97bf
00000040: 98fb 9dbf 0a33 0bc0 f313 3fbf bc2b 79bf
00000050: aab0 0f3c 634e 75bf 0e80 dabe e07f f2bf
00000060: 8daf dcbf 2658 c1bd 5e93 ccbf ac20 0ec0
00000070: 0182 d7bf 2f8b 193f fe18 e2bf e7d5 0dc0
00000080: b9a1 59bf fb83 f63e 2d01 12c0 7d45 30c0
00000090: 4237 20c0 586c e4bf 3fdd c3bf d96b 2ac0
000000a0: 198f 0fc0 4154 babf dc70 5ebe 0bcc f3bf
000000b0: 4a0f 0ebe 1a95 f4bf da5e 1dbf 6f6a 4dc0
000000c0: 967e b6bf dc98 aabf 3453 c4bf d5d1 10c0
000000d0: 3996 e6bf 04d0 ecbf a7df d5bf c0ef 3cbf
000000e0: 75d8 2cc0 75b1 99bf a0e7 c3bf d804 1cbe
000000f0: 142c 9b3e 7cd6 cabf a6f1 93bf 6794 e1bf
00000100: 1602 bfbf 201b 86bf cfc4 93bf 54a7 e9bf
00000110: aaaa 9c3d 6b9b d4bf 292d 0ac0 f5f8 01c0
00000120: 3757 aabf ab40 1dc0 d48d 27c0 aff3 e5bf
00000130: ad4e 45c0 1cb0 11bf 717b 45bf 30f9 a4bf
00000140: c777 7cbd d5a3 d6be 5f0b c4be a593 6bbf
00000150: ea90 d0bf 85c4 a9bf df66 d5bf 51ff f3bf
00000160: 86f0 9c3d ba26 8dbf 9e04 fabf fd4d fabf
00000170: ddc9 27c0 c7bb f8be 1f7c 0fbf b02d 04c0
00000180: 197f 513f e599 f5bf cd58 c6bf 49bb 07c0
00000190: 4874 81bf b1bf 6fbf 680a fdbf 573e cf3e
000001a0: e06c e2bf c47a babf 8830 c7be 3b86 23c0
000001b0: 2ef2 13c0 021b c8bf c96f 12c0 976e 923e
000001c0: c93a 633f 942d 86bf 1d6d cabf 11e8 e9be
000001d0: d799 0dc0 902e 3bba 18de 59be 88d9 d3bf
000001e0: bcb9 abbf c02d c5bf 0b0f 46bf c930 e1be
000001f0: 51c1 fabf 5c83 923e 92c5 f0bf 17e5 adbf
00000200: 2029 efbf 8d8a 20c0 964c 69bf e395 04c0
00000210: ccbf 98bf d39a 9bbf 6a22 ecbf bc5b c7bf
00000220: 27d2 86bf 42bc c8bf 9003 fcbf a657 82bf
00000230: ef96 e3bf 062d 62bf d5b6 1ac0 d04a c8bf
00000240: 401e 13c0 501a 9abf cffd dfbf ebc7 993e
00000250: 67f1 00c0 4a78 a13e 1b0e f9bf 1bd3 23c0
00000260: 4cb9 01c0 813d 88bf 89b0 04bf 4d6e b8bf
00000270: 6ab0 c33f 91d2 1fc0 4a16 0cbf 004e 95bf
00000280: 3359 ecbf 6a04 cfbe ed0e 23c0 a43a 80bf
00000290: e8cf b8be ce7f 4abf e681 adbe 52ef 2b3f
000002a0: 3279 20c0 da89 1ac0 9c93 03c0 db36 f2bf
000002b0: de1d a0bf c432 01c0 d77b 29bf 952c 80bf
000002c0: 9bad 0dc0 42f2 9e3e cb24 fdbf 7875 b23f
000002d0: 9e1b 22c0 f746 1ac0 f87e 11c0 98fe 13c0
000002e0: 75aa c9bf 4fca 06c0 d023 0bc0 ca90 0dc0
000002f0: 4710 b4bf f67a 18bf d599 25c0 900b efbe
00000300: 357e fbbf 3161 07c0 1a2b 5d3f 1f4a cfbf
00000310: 122d 25c0 aaa9 2dbf d856 c0bf af93 f0bf
00000320: d36d 09c0 ea95 ccbf 36a3 d5be f81b 0bbf
00000330: c48f 2ec0 e318 32c0 efa7 f9bf 51a1 2fc0
00000340: ce15 13c0 32da bbbf c4af a4bf 9314 e9bf
00000350: 5a4d a8bf 8104 f9bf db3d ad3f 54f5 bbbf
00000360: a202 d4bf f7fc 30be a0e9 80bf 154b 5f3f
00000370: 5d2b 25c0 7fc7 00c0 782b 80bf ba73 28c0
00000380: 7034 a6bf 4059 533f 0343 31bf 0adf c3bf
00000390: 9774 fabf ee49 01c0 19e5 a0be d74b 10c0
000003a0: 58af 763e 11c4 df3f c938 10c0 5caf e3bf
000003b0: 650f 25c0 8183 a3bf 1149 85be 1303 0cc0
000003c0: 6c43 e1bf f4c0 17c0 9bbc 1bc0 cdcc 11bf
000003d0: fda9 b5bf 93fc d7bf 68c9 8f3c 0a7f d2bf
000003e0: 1942 cbbf d741 2fbd 0a0e cabf 925c 2dbf
000003f0: e9c2 5fbd 62da 2ec0 b5d7 5ebf 0f86 acbf

fc2.weight f4 [256, 256]
0.39558923 0.87350136 -0.54906 0.58435905 0.52211577 1.0801514 -0.7392154 -1.0839176
0.4734179 -0.37316987 -0.75566226 0.21637827 -0.58790594 -0.22694656 -0.36918405 0.4595908
-0.19588457 -0.4158774 -0.1494498 -1.3081667 0.1572043 -0.12573531 0.1778636 0.12177927
-0.60529023 0.039594293 -0.4416878 -0.17577279 0.31150788 -0.04276633 -0.9138203 0.060779925
-0.13282223 0.029503075 0.63312584 -0.53558725 -1.1018231 -0.88013977 -1.0507786 0.1257821
-0.4568798 0.047454506 0.19292192 -1.4412538 0.036409076 -0.5293092 -0.8002395 -0.77078557
-1.9860756 -0.64346296 0.5486884 -1.3397412 -0.35313028 -0.35330185 -0.79031104 0.46419027
0.1130366 -0.17771745 -0.4653713 -0.48788637 -0.70249915 -0.39586344 -1.0779321 -0.42759684
-0.33305997 -0.7572519 -0.35690796 -1.1161541 -0.32706222 -0.5459273 0.6627294 0.1263595
-0.15014191 -0.12674634 -0.21715863 -1.0579146 0.0074814768 -0.6710943 -1.062979 -0.2577354
-0.40047324 -0.6815495 0.35270926 -0.04076329 -0.20024726 -0.7305586 -0.16582903 -0.2057419
-0.31578872 -0.9435202 -0.53654355 0.4301035 -0.7601749 -0.50287235 -0.02954469 -0.67966634
-0.6298848 0.53433686 -1.0213746 -0.060431473 -0.47754183 -0.9002696 -0.7416716 -0.430319
-0.22818623 -0.42368856 -0.12970121 0.66412055 -0.54627186 -0.91157377 -0.6603089 -0.8566723
-0.28823707 -0.5321954 -1.1616573 -0.713032 -0.3749436 -0.59857446 0.7790403 -1.178624
0.18169373 -0.9396679 -0.39456746 -0.6562827 0.8060214 0.04820895 -0.063382156 0.6830407
-1.0020936 -0.059136238 -0.24546187 0.901658 -0.00048172157 -1.1039623 0.18914643 -0.61039305
-0.56903833 0.40948266 0.29870328 -0.20101029 0.1365812 -0.21706733 0.24962877 -0.6408347
0.25408578 -0.4036701 -0.42730084 -0.030783651 -0.42728877 -0.36764905 -0.26691616 0.69045264
-1.4189297 -1.1526928 -0.09958699 -0.08725254 -0.12344152 1.2358477 -0.26825732 -0.17138015
-0.20609382 -0.35316584 0.051002543 -0.063348606 -0.19172251 -0.353043 -0.46526104 -1.3133543
-0.6518221 -0.7181222 -0.06447328 -0.69664115 0.3372285 -0.20101617 -0.260675 -0.5964313
0.7853939 -0.22717705 -1.0673313 -0.57679397 0.36228898 -0.5822011 1.3707355 -0.63264936
-0.68216085 0.28981882 0.50050735 -0.3025518 1.1246759 -0.6439745 0.43741277 0.117571816
0.27960232 -0.4537881 -0.5858522 -0.2966896 0.36542597 -0.22807059 -0.62134176 -0.82656
-0.41299477 1.1834046 0.15768203 -0.20385353 -1.305912 0.4411571 -0.71424353 0.20619144
-0.14000463 0.4971301 0.6960255 -0.67954767 0.16283156 0.76149803 -1.0874189 0.28859082
0.77843446 -0.082272984 0.5131901 -0.6699075 -0.54317415 -2.2598069 -0.38272142 0.86526334
-0.344021 -0.22976051 -0.2555147 -0.8273882 -0.11764042 -1.1820134 -0.9669433 -0.44661134
-0.658907 -0.595441 0.4006848 -1.4830453 -0.88049525 -0.4892104 -0.84574705 -0.7771979
-1.1598008 0.13756652 -0.58587986 -1.0674567 0.07614659 -0.46088377 0.015436978 -1.0330851
0.48945463 -0.11258555 -0.5804921 -0.2966397 -0.505739 -0.5168069 0.38642845 0.6618447
00000000: ac8a ca3e c99d 5f3f 328f 0cbf 8e98 153f
00000010: 61a9 053f 6742 8a3f 383d 3dbf d0bd 8abf
00000020: d563 f23e 1f10 bfbe 1573 41bf 4492 5d3e
00000030: 0181 16bf ae64 68be b105 bdbe 7c4f eb3e
00000040: f795 48be e2ed d4be 5e09 19be 0272 a7bf
00000050: 2afa 203e c2c0 00be e021 363e 6967 f93d
00000060: 4df4 1abf a02d 223d e724 e2be c8fd 33be
00000070: f67d 9f3e bf2b 2fbd 21f0 69bf 5ff4 783d
00000080: 8d02 08be 6fb0 f13c 8914 223f 3f1c 09bf
00000090: 8a08 8dbf d750 61bf ea7f 86bf 06cd 003e
000000a0: 26ec e9be a85f 423d 538d 453e 017b b8bf
000000b0: af21 153d cf80 07bf 7fdc 4cbf 3452 45bf
000000c0: ba37 febf fdb9 24bf d876 0c3f a47c abbf
000000d0: 7ecd b4be fbe3 b4be d351 4abf 59aa ed3e
000000e0: bc7f e73d 90fb 35be 2645 eebe 3ecc f9be
000000f0: fcd6 33bf 9dae cabe aef9 89bf f9ed dabe
00000100: d686 aabe 43db 41bf a4bc b6be 23de 8ebf
00000110: b374 a7be e4c1 0bbf a2a8 293f 6364 013e
00000120: cdbe 19be cbc9 01be d55e 5ebe bf69 87bf
00000130: 2d27 f53b d6cc 2bbf b20f 88bf e5f5 83be
00000140: d40a cdbe 077a 2ebf 4f96 b43e 68f7 26bd
00000150: 9e0d 4dbe e305 3bbf 16cf 29be 01ae 52be
00000160: 0faf a1be 8a8a 71bf eb5a 09bf 8736 dc3e
00000170: d29a 42bf 3ebc 00bf b507 f2bc 9dfe 2dbf
00000180: 2140 21bf 4dca 083f 67bc 82bf fe86 77bd
00000190: 5d80 f4be 1278 66bf 31de 3dbf c652 dcbe
000001a0: a7a9 69be b5ed d8be 65d0 04be ce03 2a3f
000001b0: 79d8 0bbf e65c 69bf 010a 29bf e04e 5bbf
000001c0: cf93 93be f53d 08bf 30b1 94bf 4489 36bf
000001d0: 9cf8 bfbe 2d3c 19bf 2f6f 473f 27dd 96bf
000001e0: ec0d 3a3e 138e 70bf bf04 cabe 2502 28bf
000001f0: 6b57 4e3f bf76 453d 81ce 81bd c1db 2e3f
00000200: 9a44 80bf d738 72bd 5b5a 7bbe 0fd3 663f
00000210: 938f fcb9 a34e 8dbf 9aaf 413e b842 1cbf
00000220: 7fac 11bf b6a7 d13e a3ef 983e a4d5 4dbe
00000230: f1db 0b3e e646 5ebe af9e 7f3e be0d 24bf
00000240: 8817 823e d9ad cebe 2dc7 dabe ff2d fcbc
00000250: 98c5 dabe 7f3c bcbe 3ca9 88be 81c1 303f
00000260: 7d9f b5bf 708b 93bf 44f4 cbbd 76b1 b2bd
00000270: e8ce fcbd 4230 9e3f 0659 89be 477e 2fbe
00000280: 420a 53be 27d2 b4be 0be8 503d eabc 81bd
00000290: e852 44be 0dc2 b4be b236 eebe fe1b a8bf
000002a0: d0dd 26bf dbd6 37bf 910a 84bd 1357 32bf
000002b0: 37a9 ac3e 2fd7 4dbe 3277 85be b9af 18bf
000002c0: 930f 493f 1aa1 68be 509e 88bf c5a8 13bf
000002d0: f17d b93e 220b 15bf 4374 af3f 4ff5 21bf
000002e0: 18a2 2ebf 2263 943e 4021 003f 12e8 9abe
000002f0: 61f5 8f3f 83db 24bf 91f4 df3e 7ec9 f03d
00000300: 0928 8f3e ea56 e8be 69fa 15bf b3e7 97be
00000310: 1d19 bb3e 568b 69be 4110 1fbf 7099 53bf
00000320: 0d74 d3be cd79 973f 6677 213e fbbe 50be
00000330: 2028 a7bf 58df e13e aad8 36bf d923 533e
00000340: 605d 0fbe d687 fe3e ba2e 323f d6f6 2dbf
00000350: 51bd 263e 89f1 423f 8b30 8bbf 2dc2 933e
00000360: 7b47 473f bd7e a8bd 6d60 033f 0f7f 2bbf
00000370: 760d 0bbf ada0 10c0 10f4 c3be e681 5d3f
00000380: 8523 b0be 5746 6bbe d3d2 82be b7cf 53bf
00000390: 76ed f0bd 374c 97bf 9989 77bf 3eaa e4be
000003a0: 21ae 28bf d26e 18bf 8f26 cd3e 6ed4 bdbf
000003b0: 2368 61bf c979 fabe e182 58bf 71f6 46bf
000003c0: 5a74 94bf 3dde 0c3e 39fc 15bf 6ca2 88bf
000003d0: bef2 9b3d f5f8 ebbe 61eb 7c3c 223c 84bf
000003e0: cc99 fa3e 4193 e6bd 219b 14bf 29e1 97be
000003f0: 1c78 01bf 754d 04bf f3d9 c53e a76e 293f

fc2.bias f4 [256]
-0.1434981 -0.061108705 -0.0333574 -0.033562157 0.890644 0.912817 -2.5355089 -0.0267768
-0.00055250194 0.58464 0.8817411 -0.00440384 -0.025945526 0.05026433 -0.10242896 -0.3236287
0.5598962 -0.1435914 0.6879505 0.7547378 0.4543859 -0.30064356 -0.1919842 0.7511088
1.5931861 0.8736974 -0.6394954 -0.6822923 0.5097688 0.62107116 -0.37436134 0.43500856
-1.0607101 -0.16626166 -0.6269729 -0.095951036 0.35616252 -1.4322457 -0.12864318 0.6480138
0.29419068 -0.757764 -0.24417128 -1.0193969 0.9176956 -0.10457388 -0.047424085 -1.5041574
-0.038954623 0.44588152 0.2820324 0.24733348 -0.17526066 -0.010955696 -0.012286269 -0.29625553
0.07077284 -0.07209299 -0.10500335 0.33042428 -0.14866978 -0.3124011 -0.89321834 -0.91110176
-0.07702246 1.1159575 -0.19148785 -1.190637 -0.34007666 0.90689874 0.7466209 -0.01262979
0.120221086 -0.34387586 -0.3956503 0.62056834 -0.7395779 -0.565361 -0.2713861 -0.591848
0.5093985 0.3190485 0.69983214 -0.08609428 -0.18027072 -0.08865753 -0.06974405 -0.055182762
-0.15055905 0.01050324 0.35655046 -0.13915497 0.017031942 -1.0013553 0.018991848 1.5364172
-0.06967491 -0.96473855 -0.1356497 -1.3307446 -0.9619059 -0.11768534 -0.019127218 2.1995974
-0.10034279 -0.60105276 0.8483815 0.85737085 -0.033335403 0.032640744 0.87282956 1.7978323
-0.8727028 -0.10828235 0.38769606 -0.976623 0.08965289 -0.5515143 0.9287649 -0.8218119
0.56171054 0.16196617 0.14461382 1.9661982 -1.3318537 0.69830793 0.17649712 -0.65245044
-0.12851603 -0.124027595 -1.1015118 0.83814305 -0.82284445 0.15634945 0.3871784 0.13676043
0.14004843 0.61081237 0.72083604 0.7895063 1.2830923 0.2962403 -0.10615472 0.6844199
0.24457833 0.47720063 0.28233522 -0.02436078 0.40038848 0.821979 -0.11291386 0.45090124
-0.09690396 -0.28381628 -0.033783223 0.3460269 -0.075002834 0.881877 -0.29012677 -0.08234437
0.6788069 -0.08701043 -0.079191834 -0.065373905 -1.0371614 -0.09983998 -0.090659566 0.44154087
0.5532858 0.45563406 0.5033021 -0.63438857 -0.093576625 -1.0936825 -0.5560474 -0.03502019
-0.3582359 -0.6200524 -0.4022783 -0.23881847 -0.056933995 0.17976823 -1.5825568 -0.44199893
-1.1446508 -0.16842768 -0.99250513 0.50091803 0.8706963 1.3864838 0.012812694 -0.66226685
-0.09443377 0.7856251 0.80042464 -0.056414064 -0.27118775 -0.027724331 -0.05872893 -0.08522154
0.29985026 -1.1820599 1.2276374 -0.5221654 -0.11496695 0.43170115 -4.1007223 0.032119915
0.5457336 0.24076596 -0.12562421 -0.6834305 1.2409863 -0.00931892 0.001804057 0.81963295
-0.025332449 -0.37155506 -0.20171486 -0.03444903 0.35523826 -0.24357514 -0.5065866 1.3540611
-2.07684 -0.2999963 -1.7435951 0.28685883 0.22454998 -0.30332303 0.0005126462 -0.5839929
0.48320633 0.46652254 0.35920215 1.6891346 -0.030154483 0.5594136 0.07510333 1.4586685
0.09976922 0.4182768 -0.30210993 0.43422928 -0.036084704 0.5839155 -0.04108037 -0.670086
-0.10645798 -2.2010484 -0.8066682 -0.36093557 0.071506396 -0.115121506 0.05560133 1.2103814
00000000: 2af1 12be 1f4d 7abd c5a1 08bd 7978 09bd
00000010: 3f01 643f 60ae 693f c745 22c0 055b dbbc
00000020: c7d5 10ba f8aa 153f c9b9 613f 164e 90bb
00000030: b68b d4bc f8e1 4d3d 46c6 d1bd a9b2 a5be
00000040: 5b55 0f3f a009 13be 861d 303f 7f36 413f
00000050: 45a5 e83e f4ed 99be 8297 44be ab48 403f
00000060: 86ed cb3f a2aa 5f3f f8b5 23bf b5aa 2ebf
00000070: 3580 023f 85fe 1e3f 4aac bfbe 71b9 de3e
00000080: 59c5 87bf 7f40 2abe 4c81 20bf fa81 c4bd
00000090: ef5a b63e d453 b7bf 0abb 03be 3be4 253f
000000a0: 29a0 963e d2fc 41bf 0908 7abe 997b 82bf
000000b0: 19ee 6a3f d52a d6bd c23f 42bd 3b88 c0bf
000000c0: e28e 1fbd 954a e43e 8d66 903e fd44 7d3e
000000d0: 8877 33be 857f 33bc 594c 49bc ceae 97be
000000e0: 5af1 903d 7da5 93bd ff0b d7bd 5f2d a93e
000000f0: e43c 18be 09f3 9fbe f5a9 64bf f73d 69bf
00000100: f4bd 9dbd b2d7 8e3f 6415 44be cb66 98bf
00000110: 871e aebe 842a 683f 8c22 3f3f 2eed 4ebc
00000120: 7936 f63d 7f10 b0be ad92 cabe 91dd 1e3f
00000130: fa54 3dbf 80bb 10bf 1ef3 8abe 5a83 17bf
00000140: f167 023f 535a a33e 3328 333f 3352 b0bd
00000150: e398 38be 1492 b5bd f8d5 8ebd 5207 62bd
00000160: 272c 1abe c815 2c3c c88d b63e a47e 0ebe
00000170: 9286 8b3c 692c 80bf cb94 9b3c 52a9 c43f
00000180: b8b1 8ebd 1bf9 76bf c1e7 0abe d755 aabf
00000190: 773f 76bf 0305 f1bd afb0 9cbc 34c6 0c40
000001a0: 8580 cdbd 98de 19bf 882f 593f a87c 5b3f
000001b0: b48a 08bd 4db2 053d c271 5f3f 5e1f e63f
000001c0: 7369 5fbf 23c3 ddbd 1980 c63e f703 7abf
000001d0: ef9b b73d 0b30 0dbf 89c3 6d3f 4462 52bf
000001e0: 43cc 0f3f 76da 253e a515 143e 62ac fb3f
000001f0: 2f7a aabf 4fc4 323f a9bb 343e fe06 27bf
00000200: b599 03be 2e02 febd 57fe 8cbf 8b90 563f
00000210: efa5 52bf 121a 203e 3f3c c63e ed0a 0c3e
00000220: db68 0f3e 335e 1c3f b688 383f 161d 4a3f
00000230: 5e3c a43f cfac 973e a567 d9bd 2436 2f3f
00000240: be72 7a3e a453 f43e 3e8e 903e 4290 c7bc
00000250: b8ff cc3e 376d 523f 623f e7bd 87dc e63e
00000260: 9575 c6bd 5e50 91be 4760 0abd 702a b13e
00000270: 169b 99bd b1c2 613f 7f8b 94be 2aa4 a8bd
00000280: 4ac6 2d3f 8632 b2bd 542f a2bd c1e2 85bd
00000290: b4c1 84bf e778 ccbd b9ab b9bd a511 e23e
000002a0: 23a4 0d3f de48 e93e 68d8 003f 4a67 22bf
000002b0: 1aa5 bfbd cafd 8bbf 1f59 0ebf 5571 0fbd
000002c0: b26a b7be c1bb 1ebf 6cf7 cdbe d48c 74be
000002d0: 9f33 69bd 2a15 383e 3991 cabf af4d e2be
000002e0: eb83 92bf 4e78 2cbe d114 7ebf 2a3c 003f
000002f0: f4e5 5e3f 4d78 b13f 55ec 513c 528a 29bf
00000300: 7e66 c1bd ba1e 493f a1e8 4c3f 6f12 67bd
00000310: 1fd9 8abe 231e e3bc bf8d 70bd a188 aebd
00000320: f985 993e bd4d 97bf 3923 9d3f a2ac 05bf
00000330: cb73 ebbd ef07 dd3e 1e39 83c0 2c90 033d
00000340: 32b5 0b3f 5a8b 763e a2a3 00be 4df5 2ebf
00000350: a4d8 9e3f 62ae 18bc 1c76 ec3a 77d3 513f
00000360: ff85 cfbc 773c bebe 578e 4ebe 6d1a 0dbd
00000370: cae1 b53e c36b 79be a9af 01bf e051 ad3f
00000380: f2ea 04c0 1d99 99be 202e dfbf 29df 923e
00000390: 6ef0 653e 284d 9bbe 1b63 063a 8f80 15bf
000003a0: d266 f73e 0bdc ee3e 58e9 b73e 9035 d83f
000003b0: 8906 f7bc bb35 0f3f c6cf 993d a6b5 ba3f
000003c0: ce53 cc3d 6028 d63e 27ae 9abe 4d53 de3e
000003d0: 8ecd 13bd 7c7b 153f e443 28bd c28a 2bbf
000003e0: a406 dabd fadd 0cc0 cf81 4ebf 8ccc b8be
000003f0: f271 923d d3c4 ebbd 38be 633d c7ed 9a3f

fc3.weight f4 [256, 256]
-0.2279976 -0.10593456 0.047803555 -0.045938693 0.4643492 -0.65785635 -0.8165782 0.025788503
-0.036648817 -0.7966299 -0.4310918 -0.9935074 -0.32501963 0.51303947 0.018988682 -0.16626103
0.055785596 -0.047717765 -0.7444626 -0.49496365 -0.14681247 -0.26357028 -0.17856838 -0.17029233
0.31951147 -0.9266137 -0.87352705 -0.053738337 0.22364852 0.112039655 -0.4143251 -0.17177133
0.27548596 0.016875014 -0.085201904 -0.2358341 0.47659934 -0.6137878 0.0558565 -1.4515179
-0.08667596 -0.058848575 -0.3848126 -0.42762083 -0.93805444 0.048650146 -0.28377423 0.27688396
0.09632964 -0.1148976 -0.5295212 -0.50328386 -0.06500038 0.09616222 0.10820951 -0.13153222
0.16958295 -0.029438768 0.08069278 -0.38131067 -0.44364107 0.22029373 -0.6107221 0.41413733
-0.46381736 -0.03148642 -0.07274651 -0.68163997 0.3000045 -0.31445077 0.32860553 -0.017470762
0.2981594 -1.1077137 0.052955337 0.15499422 0.18918431 -1.292946 0.16845661 -0.5942147
-0.6061241 0.19644286 -0.8740873 0.037335724 -0.40061828 -0.08751021 -0.0011346063 0.029784461
0.070034966 -0.027223237 -0.36447543 -0.0058734966 0.17499271 -0.34537566 -0.064638235 -0.4518533
-0.068062834 0.4807641 -1.319766 0.13428992 -0.8859944 -0.017597115 0.11081738 -0.22613372
-0.006550596 -0.030540625 -0.60138214 -0.13776821 0.050175995 -0.53733337 -0.5622595 -0.6180332
0.060275864 0.047444742 -0.027073268 -0.31299752 0.057537764 -0.866211 -0.9009547 0.38654065
-0.064500265 -0.31486255 -0.20556903 -1.069887 -0.21300659 -0.6674749 0.2794557 -0.25478357
-0.034441475 0.00358447 -0.07048986 -0.22161227 -0.64671385 0.30065578 -0.4091152 -0.17166997
-0.31789815 0.14736909 -0.5630692 -0.3068264 -0.628717 0.19323616 -0.09837295 -0.67339784
-0.4737032 -0.52052766 -0.09871724 0.061217885 0.011095981 -0.0133413775 0.03798019 -0.29668027
-0.021259634 0.013676497 -0.0058039404 -0.018234327 0.001048758 -0.9190315 0.31889918 -0.008870737
-0.15874185 0.04408686 -0.08279707 0.069620565 0.17065732 0.018014526 -0.011600906 -0.002992725
-0.17321482 0.29726556 -1.1157265 0.24323705 -0.062268924 -0.10523711 -0.078693785 -0.039966997
-0.43802994 -0.6096119 -0.07637909 -0.017433446 -0.027403388 -0.056879643 -0.094151035 0.15739535
0.14807613 0.4006741 -0.58063745 -0.40433276 -0.83834296 -0.21258292 -0.004813333 0.09623375
-0.03857329 -0.5199618 -0.55973697 0.0006021335 -0.2565273 0.04512551 -0.0061909724 -0.04445039
-0.3159954 0.31481352 -0.40390208 -0.3996338 0.029466191 -0.5544822 -0.55864173 0.10253127
0.44511285 -0.56776667 -1.4307066 -0.0904149 -0.6005908 0.07768535 -0.927871 -0.18970911
-0.026581947 -0.9034135 0.16153263 -0.037394837 -0.2803867 -0.99725866 0.053148195 -0.253023
-0.66049296 -0.6339944 -0.6519563 -0.16225983 -0.5207577 -0.7623867 -0.047819305 0.25655353
-0.30515528 0.0750865 -0.16884975 -1.0000274 -0.07511481 -0.48344153 -0.24378487 -0.17947243
-0.027290741 -0.0075679515 -1.0092796 -0.5163094 -0.0972719 -0.042547137 0.06369687 -0.66401345
0.008440933 -0.8144697 -0.80772674 0.103193946 0.13438977 0.18202648 0.0023426726 -0.13407803
00000000: 3478 69be 38f4 d8bd a9cd 433d 362a 3cbd
00000010: 2ebf ed3e 4669 28bf 450b 51bf 6942 d33c
00000020: 121d 16bd f0ef 4bbf 10b8 dcbe 8056 7ebf
00000030: f968 a6be 8e56 033f 278e 9b3c 5540 2abe
00000040: 707f 643d b473 43bd 1a95 3ebf e06b fdbe
00000050: 0256 16be aff2 86be a1da 36be 1d61 2ebe
00000060: 0297 a33e 8e36 6dbf 789f 5fbf bb1c 5cbd
00000070: 1e04 653e 0c75 e53d 6b22 d4be d3e4 2fbe
00000080: 7f0c 8d3e 783d 8a3c 567e aebd 7f7e 71be
00000090: d404 f43e 3221 1dbf c9c9 643d 57cb b9bf
000000a0: 2a83 b1bd 340b 71bd 2806 c5be 1ef1 dabe
000000b0: 5624 70bf 6045 473d db4a 91be bcc3 8d3e
000000c0: 7948 c53d 6f4f ebbd b48e 07bf 36d7 00bf
000000d0: eb1e 85bd b3f0 c43d f39c dd3d 62b0 06be
000000e0: 27a7 2d3e 9229 f1bc 4242 a53d 273b c3be
000000f0: ec24 e3be ae94 613e 4958 1cbf cf09 d43e
00000100: 7879 edbe e8f7 00bd 1ffc 94bd f57f 2ebf
00000110: 319a 993e b1ff a0be fc3e a83e d81e 8fbc
00000120: 59a8 983e 90c9 8dbf b2e7 583d ceb6 1e3e
00000130: 88b9 413e 417f a5bf e47f 2c3e 741e 18bf
00000140: f32a 1bbf 5128 493e 2fc4 5fbf 58ed 183d
00000150: d71d cdbe 8e38 b3bd 12b7 94ba 8bfe f33c
00000160: 7e6e 8f3d 4403 dfbc 869c babe 7676 c0bb
00000170: 4a31 333e 14d5 b0be 0d61 84bd 5159 e7be
00000180: 8764 8bbd b626 f63e 18ee a8bf 4c83 093e
00000190: 87d0 62bf d327 90bc 39f4 e23d 998f 67be
000001a0: 62a6 d6bb 5530 fabc 2ef4 19bf 1c13 0dbe
000001b0: 5885 4d3d ae8e 09bf 3df0 0fbf 6c37 1ebf
000001c0: d3e3 763d 6b55 423d c2c8 ddbc 3641 a0be
000001d0: b8ac 6b3d 01c0 5dbf f8a4 66bf a8e8 c53e
000001e0: b718 84bd aa35 a1be b080 52be 0ff2 88bf
000001f0: 661e 5abe a3df 2abf d114 8f3e fe72 82be
00000200: 8112 0dbd 6de9 6a3b fd5c 90bd 54ee 62be
00000210: 0a8f 25bf 8eef 993e 8c77 d1be 41ca 2fbe
00000220: 8cc3 a2be ece7 163e 4e25 10bf 5a18 9dbe
00000230: 99f3 20bf b3df 453e c277 c9bd cd63 2cbf
00000240: 3a89 f2be 4d41 05bf 442c cabd 9bbf 7a3d
00000250: ebcb 353c cb95 5abc 1e91 1b3d 7ae6 97be
00000260: af28 aebc 6313 603c fb2e bebb 2860 95bc
00000270: 7b76 893a a645 6bbf c146 a33e 9156 11bc
00000280: 398d 22be 6c94 343d 8391 a9bd 3a95 8e3d
00000290: cbc0 2e3e 3393 933c ba11 3ebc 9821 44bb
000002a0: 3a5f 31be 3133 983e 20d0 8ebf 2213 793e
000002b0: b30d 7fbd 8e86 d7bd 352a a1bd 6fb4 23bd
000002c0: 7645 e0be 870f 1cbf a46c 9cbd 96d0 8ebc
000002d0: 127d e0bc a1fa 68bd 42d2 c0bd 3f2c 213e
000002e0: 45a1 173e 2825 cd3e a8a4 14bf b404 cfbe
000002f0: a59d 56bf 56af 59be 2ab9 9dbb 3316 c53d
00000300: 07ff 1dbd 371c 05bf ec4a 0fbf 7fd8 1d3a
00000310: 8c57 83be 87d5 383d a4dd cabb 9d11 36bd
00000320: 26ca a1be 3d2f a13e 41cc cebe cd9c ccbe
00000330: 1563 f13c 8cf2 0dbf 2503 0fbf eafb d13d
00000340: d5e5 e33e 2859 11bf 6521 b7bf 722b b9bd
00000350: 52c0 19bf 7f19 9f3d f488 6dbf 1b43 42be
00000360: 62c2 d9bc 1b46 67bf cf68 253e 542b 19bd
00000370: d88e 8fbe 584c 7fbf ecb1 593d 3b8c 81be
00000380: 1116 29bf 754d 22bf 9ce6 26bf 7127 26be
00000390: 6050 05bf c62b 43bf 2dde 43bd fc5a 833e
000003a0: 503d 9cbe f3c6 993d f3e6 2cbe e600 80bf
000003b0: cbd5 99bd a685 f7be bea2 79be 9fc7 37be
000003c0: d590 dfbc 94fc f7bb 1330 81bf da2c 04bf
000003d0: 7d36 c7bd e845 2ebd 8173 823d c9fc 29bf
000003e0: d74b 0a3c 1681 50bf 2ec7 4ebf 5957 d33d
000003f0: 799d 093e 2665 3a3e 8687 193b c04b 09be

fc3.bias f4 [256]
-0.6362417 -0.6022148 0.4493002 -0.28993908 0.03881036 -0.6960747 -0.35175228 -0.27050817
-0.09615611 0.113103434 -0.6517607 0.9283725 -0.07782099 -0.06906638 -0.67179704 -0.37685826
-0.37553427 -0.092349 0.5388779 -1.004802 0.0037669246 1.2256621 -0.20428759 -0.8248218
-0.13577583 0.42349294 -0.47297704 -0.52961624 -0.59940624 0.31268528 0.81627303 -0.20976193
-0.24446686 0.40878704 -0.14992985 -0.15048963 -0.8130573 -0.23007046 1.1420844 -0.052723564
0.36729664 -0.2855082 -1.211183 0.05489584 1.3104526 1.3001848 1.4616477 -0.2565982
-0.26930568 -0.11438778 1.0590783 -0.20868719 -0.11687523 0.333048 -0.3946836 -0.37095502
-0.310251 -0.08354531 -0.21999352 0.5715083 -0.007852835 -0.1370777 -0.31350705 -0.16423897
-0.70845026 0.88530886 0.061268408 -0.6347208 -0.2011018 -0.4035892 -0.5480991 -0.73581356
0.30226004 -0.39770183 0.1143957 0.10425563 -0.13373093 -0.25771004 -0.21223956 0.13439132
-0.7822834 -0.21472311 -0.24115373 0.8124725 -0.03161672 -0.3104972 -0.46736085 0.009418739
-0.30336896 2.445627 -0.11904953 -0.70243174 -0.52613443 -0.023547927 -1.2613263 -0.12975764
-0.62806165 1.1732229 -0.3037465 -0.15793821 -0.046851743 0.094246 -0.26893556 -0.4003989
-0.6016161 -0.1288684 -0.2232377 -0.012128836 0.15928167 -0.10002465 -0.77139086 -1.187446
0.19386807 1.1388087 -0.23062338 -0.36117777 0.5182083 -0.26328844 -0.81501573 1.1426309
-0.2613325 -0.34036264 -0.89210635 -0.34056446 -0.21535209 -0.2971392 1.7452744 -0.443033
-0.46635368 -0.105418794 -0.044942733 1.2089995 -0.46509588 -0.123961754 -1.3143125 0.023071732
-0.094894856 -0.21400146 -0.25792494 -0.31309953 -0.102498986 -0.05544649 -0.41275012 -0.73905706
-0.6108749 0.5691613 -0.31526935 -0.19928381 -0.42051667 -0.18753316 -0.5263052 0.5433142
-0.5258675 1.0838075 -0.18683463 -0.7732766 0.045742135 -0.36678088 -0.38766947 1.0833398
0.03567866 -0.33940572 -0.8868657 0.15744625 -0.20149133 0.101966634 0.112896405 0.16351448
-0.022745373 0.7810341 0.4186096 -0.6878442 -0.89573085 0.25603348 -0.009512863 0.08850828
1.6361207 -0.61775005 -0.08591109 -1.1043034 -0.27511308 -0.41494152 -0.028240593 1.2135946
-0.35548756 -0.21416682 -0.28626657 -0.47881866 -0.005771612 -0.36524847 -0.6261128 0.15907784
-0.3436882 -0.18505545 0.06306547 -0.5993498 -0.6421409 0.40734243 -0.6963818 1.0425406
0.12681478 -0.2308655 0.76050466 -0.09864938 0.32419142 -0.41751522 -0.1109393 -0.25546587
0.70322543 -0.37024805 0.5644753 -0.21125765 -0.9748263 -0.467906 1.4862298 -0.7719451
0.022115786 -0.19537681 -0.5730674 0.7567618 -0.3946045 1.0207069 -0.35579866 -0.23277716
-0.7202067 0.597059 0.22058778 -0.0059801703 -0.2377875 -0.32222134 -0.210372 0.24753799
0.40760767 0.051274102 -1.0202681 0.059108637 -0.7684252 -0.6869085 0.722925 -0.27288628
-0.16551635 -0.2379784 -0.20694922 0.06628382 0.1986568 -0.04127578 0.8265812 0.31252363
-0.4225302 -0.1614625 -0.14545353 -0.109761894 0.39258686 -0.19717462 -0.18217556 -1.3475374
00000000: bce0 22bf c02a 1abf ad0a e63e e572 94be
00000010: 9df7 1e3d f431 32bf e018 b4be 0c80 8abe
00000020: 7fed c4bd c6a2 e73d cad9 26bf d2a9 6d3f
00000030: 9c60 9fbd ad72 8dbd e4fa 2bbf 91f3 c0be
00000040: 0746 c0be 7921 bdbd e7f3 093f 5a9d 80bf
00000050: 82de 763b 7fe2 9c3f c430 51be 8627 53bf
00000060: d208 0bbe 11d4 d83e 0c2a f2be ee94 07bf
00000070: b072 19bf 4918 a03e 45f7 503f d5cb 56be
00000080: 8555 7abe 894c d13e 3687 19be f419 1abe
00000090: 8624 50bf 9797 6bbe d22f 923f aaf4 57bd
000000a0: 4e0e bc3e 212e 92be 0b08 9bbf 76da 603d
000000b0: e9bc a73f 756c a63f 4617 bb3f d760 83be
000000c0: 6fe2 89be 2444 eabd e18f 873f 18b2 55be
000000d0: 485c efbd 4485 aa3e f813 cabe d1ed bdbe
000000e0: 38d9 9ebe ce19 abbd fb45 61be 5e4e 123f
000000f0: 2da9 00bc 195e 0cbe ff83 a0be 432e 28be
00000100: ff5c 35bf 9aa3 623f 95f4 7a3d 107d 22bf
00000110: a1ed 4dbe 3ea3 cebe 3950 0cbf 475e 3cbf
00000120: d4c1 9a3e 939f cbbe 4b48 ea3d fa83 d53d
00000130: c3f0 08be 92f2 83be 5455 59be e19d 093e
00000140: ba43 48bf 60e0 5bbe 01f1 76be 33fe 4f3f
00000150: 8980 01bd 7df9 9ebe ec49 efbe 0e51 1a3c
00000160: 2d53 9bbe 2785 1c40 3dd0 f3bd 91d2 33bf
00000170: bfb0 06bf 95e7 c0bc 2473 a1bf 30df 04be
00000180: a6c8 20bf 2b2c 963f a984 9bbe 8eba 21be
00000190: 9de7 3fbd 0c04 c13d ecb1 89be 1601 cdbe
000001a0: 8303 1abf 14f6 03be 6c98 64be 06b8 46bc
000001b0: bc1a 233e b9d9 ccbd df79 45bf 3bfe 97bf
000001c0: 5a85 463e 7cc4 913f 8928 6cbe 4bec b8be
000001d0: 4da9 043f becd 86be dfa4 50bf bb41 923f
000001e0: 60cd 85be 0344 aebe 1561 64bf 775e aebe
000001f0: 4285 5cbe a122 98be 2765 df3f 39d5 e2be
00000200: e9c5 eebe cfe5 d7bd df15 38bd 7fc0 9a3f
00000210: 0c21 eebe a9df fdbd 643b a8bf ee00 bd3c
00000220: 3c58 c2bd 3323 5bbe bd0e 84be 954e a0be
00000230: fdea d1bd dc1b 63bd fc53 d3be d832 3dbf
00000240: 4c62 1cbf 8eb4 113f fc6a a1be 0e11 4cbe
00000250: f64d d7be b108 40be f0bb 06bf a416 0b3f
00000260: 419f 06bf 34ba 8a3f 9451 3fbe 75f5 45bf
00000270: 1b5c 3b3d b4ca bbbe 9d7c c6be e1aa 8a3f
00000280: c923 123d 96c6 adbe a109 63bf 9739 213e
00000290: be53 4ebe e2d3 d03d 3b36 e73d 5770 273e
000002a0: 8154 babc daf1 473f ff53 d63e 8f16 30bf
000002b0: 9e4e 65bf d216 833e d7db 1bbc d443 b53d
000002c0: 676c d13f de24 1ebf 27f2 afbd d059 8dbf
000002d0: 9fdb 8cbe 3773 d4be d158 e7bc 1157 9b3f
000002e0: 7702 b6be 8c4e 5bbe 8891 92be b827 f5be
000002f0: ca1f bdbb d901 bbbe ee48 20bf 4de5 223e
00000300: e6f7 afbe 2d7f 3dbe 7828 813d fd6e 19bf
00000310: 5963 24bf 308f d03e 1446 32bf f871 853f
00000320: bcdb 013e 0168 6cbe 6fb0 423f b008 cabd
00000330: 6bfc a53e 8ec4 d5be 2534 e3bd 6ccc 82be
00000340: 9506 343f 2791 bdbe 7481 103f ed53 58be
00000350: 378e 79bf 6091 efbe c73c be3f 329e 45bf
00000360: 2a2c b53c dc10 48be 8cb4 12bf 24bb 413f
00000370: 9a09 cabe 86a6 823f 3e2b b6be 235d 6ebe
00000380: 775f 38bf dcd8 183f c3e1 613e 4ef5 c3bb
00000390: 917e 73be 32fa a4be c26b 57be 997a 7d3e
000003a0: f4b1 d03e cb04 523d 2598 82bf e61b 723d
000003b0: 84b7 44bf 3cd9 2fbf 9d11 393f c0b7 8bbe
000003c0: 1e7d 29be 9cb0 73be 7fea 53be d0bf 873d
000003d0: b06c 4b3e cb10 29bd d39a 533f 1903 a03e
000003e0: e155 d8be 6d56 25be c5f1 14be d8ca e0bd
000003f0: 2501 c93e 25e8 49be 3b8c 3abe 1b7c acbf

action_out.weight f4 [4, 256]
0.049437966 -0.013714751 -0.09781158 0.082126044 0.072530955 0.0138538405 0.10391349 -0.2892237
-0.1137982 -0.028659876 0.08071313 -0.02607832 -0.3080613 -0.027706519 -0.11958096 -0.085108146
-0.23690982 0.035441246 0.04784867 0.004159675 -0.027703758 -0.39610025 -0.015694425 0.03397391
-0.05106035 -0.017542044 -0.026939798 0.038598374 0.004471895 -0.0032638821 0.044684634 -0.028320145
-0.052008435 -0.11532091 -0.1055503 -0.036636565 -0.021872152 -0.30337077 0.08253028 0.006452494
-0.7016058 -0.026544848 0.0058887745 -0.0045971326 -0.058931224 -0.0036464839 -0.0065967077 0.15594572
-0.119337305 -0.10326741 0.06780202 -0.014162483 -0.094131224 -0.11346089 0.30778208 0.2286046
0.10036948 0.08246216 -0.01828892 -0.18567622 -0.14011863 0.0022124883 0.006064629 0.005802579
0.01976528 -0.13904344 -0.024656035 -0.11018305 0.18542928 -0.02193912 -0.1274893 0.06350552
-0.026927287 -0.0037572144 0.18253854 -0.034885924 -0.059551194 -0.82663316 -0.006143094 0.017859222
-0.005413941 -0.003454528 -0.10819174 -0.106757045 -0.22293526 0.06505971 -0.020464526 -0.015268369
0.031489678 0.0048708213 0.0028383122 -0.028978264 -0.36342016 0.46448958 -0.013287483 -0.5268297
-0.17993397 -0.07238814 -0.022183826 -0.0848089 0.5133479 0.021428246 -0.04733533 -0.0016397289
0.051622197 -0.037424564 0.01747662 0.30445585 -0.006552939 0.15209514 0.021114513 0.51997805
0.6018728 -0.10236143 -0.14650291 0.034016192 -0.024520531 0.43210223 -0.0005632288 -0.10194653
0.0018887349 -0.07316281 0.008678087 0.006427771 -0.11264592 -0.0796216 -0.01117262 0.26489848
0.08192539 1.3068025 0.3703416 -0.017684177 0.109799206 -0.051534005 0.014879076 0.06697107
-0.28071144 -0.038182653 0.18127742 -0.25106457 0.62076086 -0.018010499 0.14341453 -0.35139638
0.11166384 0.012993487 -1.5750003 -0.18891992 -0.14150691 0.21130548 -0.08222618 0.038900197
0.014888904 0.032926418 0.042607334 0.011457713 0.049741935 0.27003485 0.1684527 0.03962981
-0.18759981 0.030144328 -0.481242 0.041650493 -0.04708421 0.3378999 -0.23778914 -0.02426615
0.7176823 -0.006675826 -0.021112362 0.61933845 0.030798333 0.22678919 0.74248844 -0.007838372
-0.008669787 1.0736709 0.08327551 -0.01838483 0.089256346 0.035394385 -0.016824719 0.00025471626
0.057152748 -0.09588541 0.49318576 -0.21358827 0.0024305591 0.02419393 0.08498433 0.07640681
0.013949295 -0.06441427 -0.07120154 -0.32448196 0.07131244 0.0045065903 0.022181649 -0.0044141756
0.0054255826 0.018807452 0.005683588 0.24098541 -0.037047803 -0.094608925 0.014882466 -0.04578643
-0.004585563 -0.0068346104 0.003966083 -0.45591503 0.038179684 0.07751874 0.021662353 0.059701346
-0.03336628 0.2788638 -0.031238955 -0.042506173 0.43638027 0.12429402 -0.010382093 0.0903276
-0.544024 0.0041361093 0.4186871 0.00017581237 -0.034205493 0.057169173 -0.012600208 0.3246262
-0.27467546 0.058047883 0.00076995726 0.17293043 -0.022053922 0.19879232 -0.1294695 0.009984853
0.018586269 0.13888423 -0.06050131 -0.033886798 -0.059109524 -0.04985102 -0.09190883 -0.039837677
0.116737574 0.014901996 -0.041741975 -0.005556699 0.11647818 -0.17551737 0.00026953142 0.025996042
00000000: 777f 4a3d d6b3 60bc 7051 c8bd b331 a83d
00000010: 1c8b 943d 38fb 623c 99d0 d43d 2115 94be
00000020: 080f e9bd 1ec8 eabc ed4c a53d 33a2 d5bc
00000030: 36ba 9dbe c8f8 e2bc dde6 f4bd 2e4d aebd
00000040: 7d98 72be d72a 113d f8fc 433d e24d 883b
00000050: fef2 e2bc a7cd cabe 9891 80bc 3a28 0b3d
00000060: a824 51bd 55b4 8fbc dab0 dcbc 5419 1e3d
00000070: f988 923b dbe6 55bb 3c07 373d a6ff e7bc
00000080: cc06 55bd 5f2d ecbd c12a d8bd 3910 16bd
00000090: 3a2d b3bc 6a53 9bbe a305 a93d 716f d33b
000000a0: 709c 33bf 9574 d9bc 9ff6 c03b 8ba3 96bb
000000b0: de61 71bd d9f9 6ebb 3229 d8bb 3cb0 1f3e
000000c0: 1e67 f4bd dd7d d3bd c9db 8a3d c209 68bc
000000d0: dfc7 c0bd 2f5e e8bd 9d95 9d3e 5317 6a3e
000000e0: 848e cd3d ece1 a83d a5d2 95bc e821 3ebe
000000f0: 427b 0fbe 65ff 103b ccb9 c63b 9023 be3b
00000100: ccea a13c 6761 0ebe 74fb c9bc a7a7 e1bd
00000110: 2ce1 3d3e abb9 b3bc 8e8c 02be 2f0f 823d
00000120: 9d96 dcbc 993b 76bb 62eb 3a3e 8be4 0ebd
00000130: f4eb 73bd 3b9e 53bf 024c c9bb 814d 923c
00000140: 6e67 b1bb 5d65 62bb a293 ddbd 70a3 dabd
00000150: 2449 64be 063e 853d 39a5 a7bc 2e28 7abc
00000160: 52fb 003d 699b 9f3b fa02 3a3b d363 edbc
00000170: 3512 babe 94d1 ed3e beb3 59bc 50de 06bf
00000180: 9c40 38be 3c40 94bd dbba b5bc 4ab0 adbd
00000190: c56a 033f 4a8a af3c b1e2 41bd 2cec d6ba
000001a0: cc71 533d 804a 19bd 212b 8f3c a3e1 9b3e
000001b0: 09ba d6bb d4be 1b3e 58f8 ac3c 481d 053f
000001c0: 5614 1a3f dfa2 d1bd dc04 16be 9054 0b3d
000001d0: 48df c8bc 813c dd3e a5a5 13ba 58c9 d0bd
000001e0: 6d8f f73a 62d6 95bd 892e 0e3c 0da0 d23b
000001f0: e7b2 e6bd a610 a3bd 5d0d 37bc c6a0 873e
00000200: 80c8 a73d 4e45 a73f 6a9d bd3e 68de 90bc
00000210: 68de e03d 5215 53bd 5ec7 733c 2128 893d
00000220: 69b9 8fbe 6a65 1cbd caa0 393e 898b 80be
00000230: 2fea 1e3f c18a 93bc 42db 123e 3aea b3be
00000240: 03b0 e43d a2e2 543c 9c99 c9bf 3974 41be
00000250: 30e7 10be 7760 583e 3366 a8bd d055 1f3d
00000260: 97f0 733c dadd 063d 0785 2e3d 22b9 3b3c
00000270: 33be 4b3d 0242 8a3e dd7e 2c3e de52 223d
00000280: 2a1a 40be 3df1 f63c 5a65 f6be b599 2a3d
00000290: 5fdb 40bd 3701 ad3e ff7e 73be cec9 c6bc
000002a0: 07ba 373f e3c0 dabb d5f3 acbc f78c 1e3f
000002b0: c94c fc3c 6d3b 683e b913 3e3f 846c 00bc
000002c0: b90b 0ebc 0c6e 893f 5a8c aa3d c89b 96bc
000002d0: 08cc b63d b4f9 103d fed3 89bc 708b 8539
000002e0: 0019 6a3d 925f c4bd d882 fc3e e2b6 5abe
000002f0: 044a 1f3b 5932 c63c 440c ae3d 2c7b 9c3d
00000300: 958b 643c a1eb 83bd 1dd2 91bd 8022 a6be
00000310: 420c 923d 05ac 933b 4ab6 b53c caa4 90bb
00000320: 16c9 b13b 1612 9a3c 643d ba3b e1c4 763e
00000330: 70bf 17bd 53c2 c1bd 96d5 733c 8d8a 3bbd
00000340: 7e42 96bb def4 dfbb eaf5 813b b26d e9be
00000350: 4d62 1c3d 25c2 9e3d 3f75 b13c 6689 743d
00000360: 15ab 08bd 3cc7 8e3e d6e8 ffbc f41a 2ebd
00000370: 3c6d df3e dd8d fe3d a719 2abc adfd b83d
00000380: 2845 0bbf 3388 873b 285e d63e 465a 3839
00000390: 0f1b 0cbd 392a 6a3d 1a71 4ebc 6835 a63e
000003a0: 43a2 8cbe 9ec3 6d3d f5d6 493a ad14 313e
000003b0: 6daa b4bc 3790 4b3e a793 04be 8297 233c
000003c0: 3b42 983c ab37 0e3e 39d0 77bd e2cc 0abd
000003d0: d41c 72bd 9530 4cbd b23a bcbd d52c 23bd
000003e0: 1c14 ef3d 8027 743c a2f9 2abd f814 b6bb
000003f0: 1d8c ee3d d3ba 33be e54f 8d39 a7f5 d43c

action_out.bias f4 [4]
-0.000707023 0.00999646 0.0005048556 -0.013014139
00000000: 8357 39ba 31c8 233c 4958 043a 4139 55bc
