saved_models/FetchPickAndPlace-v1/model133.pt (torch, 563151 bytes, 8 tensors)

fc1.weight f4 [256, 28]
0	0xbef8cff1	-0.48596147
1	0x3e0933b6	0.13398632
2	0xbe74235b	-0.23841612
3	0xbe50cb57	-0.20390068
4	0xbd535fdd	-0.051605094
5	0x3f3b5f4d	0.7319229
6	0x3eb9ef20	0.3631525
7	0x3d299f4e	0.04141169
8	0x3eced00a	0.40393096
9	0xbd66c76b	-0.056342524
10	0x3d66f046	0.056381486
11	0x3ccdb3e6	0.025110196
12	0xbda75dfd	-0.08172224
13	0xbe34795f	-0.17624424
14	0xbe8c4aa5	-0.274007
15	0x3cd9a9e6	0.026570272
16	0xbe26dded	-0.16295595
17	0xbd9c5fa5	-0.0763543
18	0x3e7bc628	0.2458731
19	0xbda3bf0d	-0.079954244
20	0xbdd9a814	-0.106277615
21	0x3e9b7db4	0.3036934
22	0xbe85d52d	-0.26139203
23	0xbed631ab	-0.4183477
24	0xbea46557	-0.32108566
25	0x3f27b37d	0.6550825
26	0x3df6fd8b	0.12060078
27	0xbedb64cf	-0.42850348
28	0xbf612cda	-0.87959063
29	0x3de92ecd	0.1138588
30	0xbe7fb6b3	-0.24972038
31	0x3f97371b	1.1813692
32	0xbe6826a6	-0.22670993
33	0x3e360e84	0.17778975
34	0x40665de7	3.5994813
35	0x3e02d216	0.12775454
36	0x3ede284a	0.43390113
37	0xbdea4154	-0.114382416
38	0x3e425542	0.18977836
39	0xbd58a69e	-0.052893274
40	0xbdccf8ee	-0.10008417
41	0x3d9ab08f	0.07553207
42	0x3e9c0080	0.3046913
43	0xbdd9113c	-0.1059899
44	0x3e0a0dfd	0.13481899
45	0x3cf52f3c	0.02992975
46	0x3da434e0	0.080178976
47	0xbd34be6b	-0.04412691
48	0x3dee17cf	0.11625635
49	0xbdc97312	-0.09836401
50	0x3dd00bf3	0.10158529
51	0xbea49a7c	-0.32149112
52	0xbe9e2e1c	-0.30894554
53	0xbdcbcd7b	-0.09951302
54	0x3d8ef35a	0.069800094
55	0xbdace6a6	-0.0844243
56	0xbdee8c34	-0.116478354
57	0xbdae6b72	-0.08516587
58	0x3d1f61b6	0.038911544
59	0xbdea1cf1	-0.114313014
60	0x3e8a1f50	0.26977015
61	0xbcd2bed4	-0.02572576
62	0xbe96f8d6	-0.29486722
63	0x3ed092c2	0.40736967
64	0x3d87719b	0.066134654
65	0x3cd02d89	0.025412338
66	0x3df558b7	0.11979812
67	0x3e77340e	0.24140951
68	0x3d965ba9	0.073417015
69	0xbd8f8ba8	-0.07009059
70	0xbef108e1	-0.47077087
71	0x3f4bde82	0.79636395
72	0x3f90d67b	1.1315454
73	0x3dfad72d	0.12248073
74	0xbe125b36	-0.14292607
75	0x3d2af505	0.041737575
76	0xbe967766	-0.2938797
77	0x3f388ea3	0.72092646
78	0x3f18eef9	0.59739643
79	0xbd8d82cd	-0.06909714
80	0xbdec98ae	-0.11552559
81	0x3dbfbea0	0.09362531
82	0x3ea106b0	0.31450415
83	0xbe7a7acf	-0.2446091
84	0x3e8f82d2	0.28029495
85	0x3e9f5c44	0.3112508
86	0xbe8f8351	-0.28029874
87	0xbe3849ff	-0.17996977
88	0xbf75440d	-0.9580696
89	0x3eb55498	0.35416102
90	0xbf8fbb80	-1.1229095
91	0xbfe6070f	-1.7970904
92	0xbe861aec	-0.26192415
93	0x3e861b99	0.2619293
94	0xbea7d203	-0.32777414
95	0x3cbfd40c	0.023416542
96	0x3d4d4004	0.05010988
97	0xbe3a76fe	-0.18209454
98	0x3d6220fc	0.055207238
99	0xbf00f04a	-0.5036665
100	0x3ed8710f	0.42273757
101	0xbe54fc3f	-0.20799349
102	0x3d25a3c0	0.040439367
103	0x3d3c6a61	0.04599989
104	0x3e8c0ad3	0.27352008
105	0xbe786534	-0.24257356
106	0x3eab8581	0.33500293
107	0x3eba045a	0.36331445
108	0xbd286239	-0.041109297
109	0xbb448149	-0.0029984287
110	0xbb22b523	-0.0024827204
111	0x3dfb7ea8	0.12280017
112	0xbe0d6847	-0.1380931
113	0xbe92816a	-0.2861436
114	0xbe86dbdd	-0.26339617
115	0xbe0371a8	-0.12836325
116	0xbf11e6b1	-0.5699263
117	0xbf97a663	-1.1847652
118	0xbd5308e3	-0.051522147
119	0xbea393cc	-0.31948698
120	0xbebaa915	-0.36457124
121	0xbd806ae6	-0.06270389
122	0xbe628940	-0.22122669
123	0xbd4a1bf1	-0.049343053
124	0x3c3728ef	0.011179193
125	0xbd163c03	-0.036678325
126	0xbd3e7061	-0.04649389
127	0xbe17c260	-0.14820242
128	0xbecde023	-0.40210065
129	0x3bace5f4	0.005276436
130	0x3d4fb7c6	0.05071237
131	0x3d1e1cc0	0.038601637
132	0xbd01a1c9	-0.03164843
133	0xbde90cc5	-0.11379389
134	0xbea54017	-0.3227546
135	0x3d1e0c88	0.03858617
136	0x3b8363ed	0.004009715
137	0x3e8c039c	0.27346504
138	0x3f5bde19	0.8588577
139	0xc02ab05d	-2.6670144
140	0x3e0db74d	0.13839455
141	0xbdb3357d	-0.087504365
142	0x3df8264d	0.1211668
143	0xbf859989	-1.043748
144	0x3dbc5d6e	0.09197508
145	0x3f0ff711	0.5623637
146	0xbfc82045	-1.5634848
147	0x3e5f4158	0.2180227
148	0x3f05f2b2	0.5232345
149	0x3c799cff	0.015235185
150	0xbdbd1b42	-0.09233715
151	0x3b4d926a	0.0031367787
152	0xbcb6d7f0	-0.022319764
153	0x3c11f7f3	0.008909213
154	0xbdb5aa01	-0.08870316
155	0xb9be6b39	-0.0003631951
156	0x3d885247	0.06656318
157	0xbcfbdcb0	-0.03074488
158	0x3ce2553a	0.02762853
159	0xbd327840	-0.04357171
160	0x3b8d4c90	0.0043121055
161	0x3d997cb6	0.0749449
162	0x3d50bf36	0.050963603
163	0xbb48766a	-0.0030588158
164	0x3cc2c4d9	0.023775505
165	0x3f85b5c3	1.0446094
166	0x3e261e87	0.16222583
167	0xbfb2116b	-1.3911566
168	0x3d727c85	0.059200782
169	0xbe393c3c	-0.18089384
170	0x3dcdc4ec	0.100473255
171	0x3d3a1160	0.045426726
172	0x3e8caed9	0.27477148
173	0x3d53db94	0.051723078
174	0x3e8fb15a	0.28064996
175	0x3ecb391c	0.39692008
176	0xbefdca4e	-0.4956841
177	0x3ddabb06	0.10680203
178	0x3ec7e860	0.39044476
179	0x3e48b316	0.19599566
180	0xbe0a24b5	-0.13490565
181	0xbe430d0b	-0.19047944
182	0x3eb9558c	0.3619808
183	0x3f5c9627	0.86166614
184	0x3e8a96dd	0.27068225
185	0x3da18dff	0.07888412
186	0xbc7382b1	-0.014862702
187	0x3e321666	0.17391357
188	0x3f1ed2fd	0.6204069
189	0x3f7a69d8	0.97817755
190	0x3e9d833d	0.3076419
191	0x3e1bf459	0.1522993
192	0x3e44c182	0.19214442
193	0xbdbb6c5f	-0.091515295
194	0x3e861bd6	0.26193112
195	0xbd251333	-0.040301513
196	0xbedc6e52	-0.43052918
197	0xbba7da80	-0.005122483
198	0xbb5ff79e	-0.003417469
199	0xbedbd682	-0.42937094
200	0x3d1eb4f9	0.038746808
201	0x3e90d4b0	0.28287268
202	0xbe086379	-0.13319196
203	0xbd9e18d7	-0.077195816
204	0xbe0166e0	-0.126369
205	0xbdf3b43c	-0.11899611
206	0x3cbd1a41	0.023083808
207	0xbdcabb77	-0.09899037
208	0xbe07c9a9	-0.13260521
209	0xbd17cac7	-0.037058618
210	0xbeaa02ab	-0.3320516
211	0x3cb37696	0.021907132
212	0xbbcb54fa	-0.0062051984
213	0xbb7e006e	-0.003875758
214	0x3cef807b	0.029236069
215	0xbe4243b7	-0.18971144
216	0x3e18565e	0.14876696
217	0xbd900388	-0.070319235
218	0x3c8e5aea	0.017377336
219	0x3d7b1227	0.06129661
220	0x3e620018	0.22070348
221	0xbf2212f3	-0.63310164
222	0x3c6d7233	0.014492559
223	0x3e5ef0a5	0.21771486
224	0xbd3dec59	-0.046367977
225	0xbcf27603	-0.029597288
226	0xbf1ca13e	-0.61183536
227	0xbe5a20e5	-0.21301611
228	0xbde5c35d	-0.11218903
229	0xbfeec993	-1.8655266
230	0xbf14c77a	-0.5811688
231	0x3cc354f3	0.023844218
232	0xbe4797ea	-0.19491544
233	0x3f651322	0.8948232
234	0x3f247c2e	0.64251983
235	0xbddaedc9	-0.10689885
236	0x3d28ff30	0.04125899
237	0x3df1d6dd	0.1180856
238	0xbe342756	-0.1759313
239	0x3cdd939d	0.027047927
240	0xbea8b060	-0.32947063
241	0xbe4794df	-0.19490384
242	0x3d60dd17	0.054898348
243	0x3d6843e2	0.056705363
244	0xbe369c87	-0.17833148
245	0xbdfe1cb1	-0.12407816
246	0xbe9766bb	-0.29570565
247	0x3e0c7bc9	0.13719095
248	0x3ecd6039	0.40112475
249	0x3e0c938f	0.13728164
250	0x3d1ff734	0.03905411
251	0x3cde68bd	0.027149552
252	0xbdb3587e	-0.08757113
253	0x3e41a62b	0.18911044
254	0x3f08af59	0.5339256
255	0xbdd59e9c	-0.10430643

fc1.bias f4 [256]
0	0xbfce743e	-1.6129224
1	0xbfdee24f	-1.7412814
2	0xbfdfd04c	-1.7485442
3	0xc009f5e5	-2.1556332
4	0x3f901221	1.1255533
5	0xbf8d8edc	-1.1059222
6	0xbfdcc0b7	-1.7246312
7	0xc0228b95	-2.5397694
8	0x3f2aa0f0	0.6665182
9	0xbfda8dc9	-1.7074519
10	0xc014ce27	-2.3250825
11	0xbfb51a3f	-1.4148635
12	0xbef7d982	-0.48408133
13	0xbfbf70a1	-1.4956247
14	0x3d3ad6c2	0.045614965
15	0xc01abb3a	-2.4176774
16	0xbffea8b4	-1.9895234
17	0xbf95a809	-1.1691905
18	0xbf488adc	-0.7833688
19	0xc007c456	-2.1213584
20	0xbfce4239	-1.611396
21	0xc005a8f3	-2.0884368
22	0xbf8e9cbf	-1.1141585
23	0x3f1ca1a3	0.6118414
24	0x3f6b53d6	0.919248
25	0xbefdb2a6	-0.4955036
26	0xc025f86f	-2.5932882
27	0xbea87c88	-0.3290751
28	0xbf670055	-0.9023488
29	0xc006feb8	-2.1092968
30	0xbffd9d0e	-1.9813554
31	0xbf7f8830	-0.9981718
32	0xbf97344b	-1.1812834
33	0xbfda9f91	-1.7079946
34	0xc016f43f	-2.3586576
35	0x3db15631	0.08659018
36	0xc0168c68	-2.3523197
37	0xc02e33e5	-2.7219174
38	0xbfa2c575	-1.2716509
39	0xbfd9b8df	-1.7009543
40	0xc01d14ec	-2.454402
41	0xc0401191	-3.0010722
42	0xbf13c8d1	-0.57728297
43	0xc01beebf	-2.436447
44	0xc0182b8e	-2.3776584
45	0xbfa89f3d	-1.3173596
46	0xbf4823d9	-0.781797
47	0xbe1538f4	-0.14572507
48	0xbfd6b51f	-1.6774024
49	0xbf837533	-1.0270141
50	0xbfeaeaa2	-1.8352854
51	0xbfff479b	-1.9943727
52	0xbfc71481	-1.5553132
53	0xbfb1a2e4	-1.3877835
54	0xbfeac56c	-1.8341498
55	0xbef304d3	-0.47464618
56	0xc03e9152	-2.9776196
57	0x3f2450b9	0.64185673
58	0xbfb8c0c1	-1.4433824
59	0xbfdf4806	-1.7443855
60	0xbfd634a6	-1.6734817
61	0xbf1cdb6d	-0.6127232
62	0xbff169d2	-1.8860419
63	0xbf9397d9	-1.1530715
64	0xbfd2ef7f	-1.6479338
65	0xc005eeb7	-2.092695
66	0xbe119e08	-0.1422044
67	0xbff7e1d8	-1.9365797
68	0xbfb5a565	-1.41911
69	0xc003eb59	-2.0612395
70	0xbf960bd2	-1.1722357
71	0xc02ca343	-2.6974647
72	0xbf887598	-1.0660887
73	0xbf8768e0	-1.057888
74	0xc02e8aba	-2.7272172
75	0xc029105d	-2.6416237
76	0xbf888dde	-1.0668294
77	0x3f61443d	0.8799475
78	0xc009aee0	-2.1512985
79	0x3fdf356e	1.743818
80	0xbf23c455	-0.63971454
81	0xbfd32f37	-1.6498784
82	0xbf08a273	-0.5337288
83	0xbf26e3c6	-0.65191305
84	0xbf3c3d9b	-0.735315
85	0x3d8af404	0.067848235
86	0x3f04d792	0.51891434
87	0x3f616c6c	0.88056064
88	0xbff2ec26	-1.8978317
89	0xbfe6e50b	-1.8038648
90	0xbffb73c7	-1.9644707
91	0xc01b7264	-2.4288568
92	0x3f0673bf	0.52520365
93	0xbf9f7fc1	-1.2460862
94	0xbc6a67d3	-0.01430698
95	0xbf9ca3f1	-1.2237531
96	0xbef2b81f	-0.47406098
97	0xbf3e65be	-0.74373996
98	0xbfd8378f	-1.6891955
99	0xc01196c3	-2.2748268
100	0xbfc9c6e1	-1.5763818
101	0xbf20fc43	-0.6288492
102	0xbff4ea94	-1.9134088
103	0xbf28ae4b	-0.6589095
104	0xbfe33253	-1.7749733
105	0xc005661c	-2.0843573
106	0xbff36231	-1.9014341
107	0xbea5bd91	-0.3237119
108	0xbf9da979	-1.2317344
109	0xc057ad98	-3.3699703
110	0xbef7d986	-0.48408145
111	0xbf4c965f	-0.7991695
112	0xbf9c8295	-1.222735
113	0xbffddee1	-1.9833642
114	0xc009eb6b	-2.1549938
115	0xc008919d	-2.1338875
116	0xbf9e64a1	-1.237446
117	0xc0002383	-2.0021675
118	0xbfdcdc23	-1.725468
119	0xc036bccf	-2.855274
120	0xbf86c193	-1.0527824
121	0xbe269076	-0.16266045
122	0x3ead5184	0.33851254
123	0x3f0a4c10	0.5402231
124	0xc015f762	-2.343224
125	0xc00db86d	-2.2143815
126	0x3e7074a6	0.23481998
127	0xbfb8382d	-1.4392143
128	0xbf9b6148	-1.2139063
129	0xbffda135	-1.9814821
130	0xbe53ebb3	-0.20695381
131	0xbfb39f51	-1.4032995
132	0xbf6bcceb	-0.92109555
133	0x3e9a9372	0.30190617
134	0xbffcf622	-1.9762614
135	0xc009138e	-2.1418185
136	0xbe694f04	-0.22784048
137	0xbfbe38f4	-1.4861131
138	0x3f4558e7	0.7708878
139	0xbfdcf3a4	-1.7261853
140	0xc023a6e3	-2.557061
141	0xc00ad9e9	-2.1695502
142	0xbfcfe9e1	-1.6243249
143	0xc000a324	-2.0099573
144	0xbfcb551a	-1.5885346
145	0xc025b72c	-2.589305
146	0x3ddb64d8	0.10712594
147	0xc007ac35	-2.1198857
148	0xbf967eba	-1.1757424
149	0x3f34140c	0.7034309
150	0xbfc13875	-1.5095354
151	0x3dc9154c	0.09818515
152	0xbfe3b1d7	-1.7788647
153	0xc00cbb58	-2.1989346
154	0xc030995d	-2.7593606
155	0xbfee0e90	-1.8598194
156	0xbfc12e03	-1.5092167
157	0xbfe34e19	-1.7758209
158	0xbea2e4fe	-0.31815332
159	0xbfcd8596	-1.6056392
160	0xc014c26d	-2.3243668
161	0xc005c227	-2.089975
162	0xbed2eab2	-0.41194683
163	0xc005485d	-2.0825417
164	0xbfeb2b49	-1.8372585
165	0xbf15b849	-0.5848432
166	0xc0135b13	-2.3024337
167	0xbf84ac69	-1.0365115
168	0xbdf107e7	-0.117690854
169	0xbf66ce86	-0.9015888
170	0xbf9ac185	-1.2090307
171	0xc009b96d	-2.1519425
172	0xbfb04193	-1.3770012
173	0xbf40d9fb	-0.7533261
174	0xc01d5d4f	-2.45882
175	0xbfba5203	-1.4556278
176	0xbf62b467	-0.8855652
177	0xc04884b9	-3.1331007
178	0xc01da23a	-2.4630265
179	0xc0136f35	-2.3036625
180	0xbfe04306	-1.7520454
181	0x3f50eff3	0.81616133
182	0xbf5775b0	-0.8416395
183	0xbfc23cda	-1.517482
184	0xbf840ef8	-1.0317068
185	0xc0019bdd	-2.0251381
186	0xc0106fdb	-2.256827
187	0xbf2f62b2	-0.6850997
188	0xbf0992e5	-0.5373977
189	0xc040d300	-3.0128784
190	0xc0045c36	-2.068128
191	0xbf443dcd	-0.766568
192	0xc00e220b	-2.2208278
193	0xbf230b87	-0.63689464
194	0x3fe9233f	1.8213881
195	0xc0057391	-2.0851786
196	0xc01fb391	-2.4953349
197	0xbfc5f309	-1.5464793
198	0xc005bc81	-2.0896304
199	0xbec32ba7	-0.38119242
200	0xbf88c009	-1.0683604
201	0xc0200b38	-2.5006847
202	0xbf96bf4d	-1.177713
203	0xbf6ee9fd	-0.9332579
204	0xbfea2dee	-1.8295267
205	0x3de36bfe	0.11104582
206	0xbffaf752	-1.9606726
207	0xc041f343	-3.0304725
208	0xbfb26eb0	-1.3940029
209	0xbfaa43bb	-1.330192
210	0xc0169636	-2.3529181
211	0xc0035a73	-2.0523956
212	0xbf9d9d6d	-1.2313668
213	0xbf9c7bd0	-1.2225285
214	0x3f2fdd8f	0.68697447
215	0xc00c56b7	-2.1927927
216	0xbef970de	-0.48718923
217	0x3f174b75	0.59099513
218	0xbfabb924	-1.3415875
219	0x3f046301	0.5171357
220	0xbfe9a1a0	-1.8252449
221	0xbfc258c2	-1.5183337
222	0xbf48b8a3	-0.78406733
223	0xbff540ea	-1.9160435
224	0xbfb6b803	-1.4274906
225	0x3fb2b823	1.3962444
226	0xbed9936d	-0.4249529
227	0xbd452378	-0.04812953
228	0xc00f58c2	-2.2397923
229	0xbfd22c74	-1.6419816
230	0xbfc291e2	-1.520077
231	0xbe660478	-0.22462642
232	0x3e51ab83	0.20475583
233	0xbff5e4fb	-1.9210504
234	0xbfd590ad	-1.6684777
235	0xbfc0df39	-1.5068122
236	0xbfe8b7b3	-1.818106
237	0xbfc3f9d6	-1.5310619
238	0xbfcda010	-1.6064472
239	0xc015e55f	-2.3421247
240	0x3ff6d2e7	1.9283112
241	0xbe371afd	-0.17881389
242	0xbf72bce3	-0.9481947
243	0xbfe9e0f9	-1.8271781
244	0xbd989f23	-0.07452228
245	0xbffbd8ae	-1.96755
246	0xbfc6b6d5	-1.5524546
247	0xbfb35516	-1.4010341
248	0xbffaf796	-1.9606807
249	0xbf08e7d7	-0.5347876
250	0xc011ee2c	-2.2801619
251	0xbf3e2f21	-0.74290663
252	0xc016a516	-2.353826
253	0xbf251ecf	-0.64500135
254	0xbfe09bc5	-1.7547537
255	0xbfbc2fc0	-1.4702072

fc2.weight f4 [256, 256]
0	0x3ee7c73a	0.45269185
1	0x3f0d6cc2	0.55244076
2	0xbe881dc2	-0.26585203
3	0xbfbaf507	-1.4606026
4	0xbeeb93fc	-0.4601134
5	0x3efb210e	0.49048656
6	0xbe090769	-0.13381733
7	0x3f8a320b	1.0796522
8	0xbf254ae9	-0.6456743
9	0xbf202c6d	-0.6256779
10	0x3dd01ff0	0.101623416
11	0x3e9e6949	0.309397
12	0x3f31718f	0.693139
13	0x3f9a48da	1.2053483
14	0x3f43a0ba	0.76417124
15	0xbe505ca6	-0.20347843
16	0xbdb530e8	-0.08847219
17	0x3e9c5f81	0.30541614
18	0x3e7e1bff	0.24815367
19	0x3edf0f55	0.43566385
20	0x3f5d6e4e	0.86496437
21	0x3e1d49ac	0.15360135
22	0xbf843060	-1.0327263
23	0xbe1c84b8	-0.15285003
24	0xbd984b3e	-0.07436226
25	0xbecc5b3f	-0.39913365
26	0xbf5fb5cb	-0.8738677
27	0xbec48577	-0.38383076
28	0xbee7a24e	-0.45241016
29	0xbe35aba3	-0.17741255
30	0xbeb056ea	-0.3444131
31	0x3f263e29	0.649386
32	0xbf46d836	-0.7767366
33	0x3eb39ece	0.35082096
34	0xbf04cad8	-0.51872015
35	0xbe480f97	-0.19537197
36	0xbf055ea0	-0.5209751
37	0x3e1e890a	0.15481964
38	0x3e11ceb8	0.14239013
39	0xbd009c2e	-0.031398945
40	0x3f891b28	1.0711412
41	0x3f1138ef	0.567275
42	0x3e2e70a2	0.17035154
43	0x3e64a7e3	0.22329669
44	0x3f14ef18	0.5817733
45	0xbf09a264	-0.53763413
46	0xbde6064d	-0.112316705
47	0x3e8d4014	0.2758795
48	0x3ecf944e	0.40542835
49	0x3e345ad0	0.17612767
50	0xbefb3b83	-0.4906884
51	0xbdf2a88a	-0.118485525
52	0x3e68cbe0	0.22734022
53	0x3e9498aa	0.29022723
54	0x3f5a8754	0.85362744
55	0xbe496ce1	-0.1967044
56	0xbef9e4b6	-0.48807305
57	0xbdf494d9	-0.11942453
58	0x3f28632a	0.6577631
59	0xbd961791	-0.07328714
60	0xbeb651cc	-0.3560928
61	0xbf385f5b	-0.720205
62	0x3dd97d22	0.1061957
63	0x3ee14475	0.4399754
64	0xbf431b2c	-0.76213336
65	0xbf4b0a1d	-0.79312307
66	0xbe3ad2e3	-0.1824451
67	0x3c54a71a	0.012979293
68	0xbf1a4135	-0.6025575
69	0xbf8c79d8	-1.0974684
70	0xbeea0e2e	-0.45713943
71	0x3d341f4f	0.04397517
72	0x3f24a32a	0.6431147
73	0xbecf38e0	-0.4047308
74	0xbed24e92	-0.4107557
75	0x3ec60137	0.38672802
76	0x3d9750a5	0.073884286
77	0xbe474da5	-0.19463213
78	0xbf5d3366	-0.8640655
79	0xbf4724dc	-0.7779062
80	0x3e918118	0.28418803
81	0xbdcfe8dc	-0.10151836
82	0x3e93ff38	0.28905654
83	0x3df66b66	0.120322034
84	0x3cbf5518	0.023356006
85	0xbe4efd3e	-0.20213792
86	0x3e75f86a	0.24020544
87	0xbee3ec1d	-0.44516078
88	0xbf907379	-1.128524
89	0xbe731131	-0.23737027
90	0xbe86740a	-0.26260406
91	0x3fac910b	1.3481764
92	0x3e4c1988	0.19931614
93	0x3f02c89d	0.5108736
94	0x3e80d699	0.25163725
95	0x3e5f5876	0.21811089
96	0x3e9d14e2	0.30679995
97	0xbe924499	-0.2856796
98	0xbe19d5d1	-0.1502297
99	0xbefd6dc2	-0.494978
100	0xbd9fa310	-0.077947736
101	0xbbff477a	-0.007790503
102	0x3e0b85f5	0.1362532
103	0x3e54f352	0.20795944
104	0x3c649a96	0.013952872
105	0x3f3aa6e7	0.7291092
106	0x3ea9578b	0.33074602
107	0xbf0e86d7	-0.556745
108	0x3f24df83	0.6440355
109	0xbca608fb	-0.020267954
110	0x3f211d56	0.6293539
111	0xbed03a1d	-0.40669337
112	0x3d4feff4	0.050765947
113	0x3e895103	0.2681962
114	0x3f03707a	0.513435
115	0xbfdb1587	-1.7115945
116	0x3ea88fa9	0.32922104
117	0x3d377664	0.04479064
118	0xbef1778e	-0.47161525
119	0xbf8f8706	-1.1213081
120	0x3ebadda1	0.36497214
121	0x3ed0fe4d	0.40819016
122	0xbe8c3ff3	-0.2739254
123	0x3e40e0f1	0.18835808
124	0x3f5d2448	0.86383486
125	0xbdf4ef02	-0.119596496
126	0x3c6dfdb4	0.01452582
127	0xbda5eb23	-0.081014894
128	0x3f409540	0.7522774
129	0xbf6514b7	-0.89484733
130	0xbeea4361	-0.4575453
131	0xbebfd870	-0.37469816
132	0xbee7bf92	-0.45263344
133	0xbeebfa8b	-0.46089587
134	0xbe46fef6	-0.19433197
135	0xbf4155e6	-0.75521696
136	0xbea17b8c	-0.3153957
137	0xbe9aac31	-0.30209497
138	0x3e8c01df	0.27345178
139	0xbf14aebf	-0.5807914
140	0xbf99f560	-1.2028008
141	0xbf4bd488	-0.7962117
142	0xbd3c426e	-0.04596179
143	0xbf66f631	-0.9021941
144	0xbdc5ed8f	-0.09664451
145	0x3f2bba9b	0.6708161
146	0xbe49c556	-0.19704184
147	0x3f0e1c86	0.55512273
148	0x3ec38592	0.38187844
149	0xbe467e4d	-0.19384117
150	0x3ee02408	0.4377749
151	0xbf39cfbb	-0.72582597
152	0x3e0ce23c	0.13758177
153	0xbf53a30f	-0.8267068
154	0xbccacdd4	-0.02475635
155	0x3e19b43b	0.15010159
156	0x3f6b8405	0.9199832
157	0xbf4460db	-0.7671029
158	0xbca27de1	-0.019835414
159	0xbe835a32	-0.2565475
160	0xbed79e68	-0.42113042
161	0x3e645b1e	0.22300383
162	0xbe8cba73	-0.27486
163	0x3f3fbd4d	0.74898225
164	0xbfd6811d	-1.6758152
165	0x3d6ba7f5	0.057533223
166	0x3f843644	1.032906
167	0x3ef71915	0.48261324
168	0xbdcd5821	-0.10026575
169	0x3e68de6d	0.22741099
170	0x3da2c3ce	0.07947503
171	0xbdb825be	-0.08991574
172	0xbed20f7d	-0.41027442
173	0x3e5adbd9	0.21372928
174	0x3e2b63e9	0.16737331
175	0xbe4d38c7	-0.2004119
176	0x3cd8efbe	0.026481505
177	0x3fd59e33	1.6688904
178	0x3e1ab79c	0.15109104
179	0x3995524a	0.00028480805
180	0x3f513bb0	0.817317
181	0xbf0180b9	-0.5058704
182	0xbea11a38	-0.31465316
183	0x3e3c8050	0.18408322
184	0xbf12b2c0	-0.57304
185	0x3efb0767	0.49029085
186	0xbf0ffc41	-0.56244284
187	0xbc66bcea	-0.014083127
188	0x3ecabe5a	0.39598352
189	0x3db61186	0.08890061
190	0x3f3d3736	0.7391237
191	0xbdb1212b	-0.086489044
192	0x3e3ec3da	0.18629399
193	0x3e944ef1	0.28966478
194	0x3eee01f2	0.4648586
195	0xbe39caae	-0.18143722
196	0x3fb0c336	1.3809574
197	0x3e31de76	0.17370018
198	0xbe77cd0b	-0.24199311
199	0xbf857709	-1.0426952
200	0xbf23894e	-0.63881385
201	0x3dda2517	0.106516056
202	0x3e94e11b	0.29077992
203	0xbed03a6d	-0.40669575
204	0xbff2ba03	-1.8963016
205	0xbdc150e1	-0.094392546
206	0xbed5b943	-0.41742906
207	0x3d23566d	0.039877344
208	0xbe615972	-0.22006777
209	0x3eab5571	0.33463624
210	0x3edc31f1	0.43006852
211	0xbe995422	-0.29947
212	0x3e375a3f	0.1790552
213	0xbe03baf0	-0.1286428
214	0xbcf9ca49	-0.030491965
215	0xbf3c18f5	-0.7347558
216	0x3ed006d3	0.40630206
217	0xbf222fd1	-0.6335421
218	0x3e766693	0.24062566
219	0xbd32cfc9	-0.04365519
220	0x3e3dfabc	0.18552679
221	0x3f15d318	0.5852523
222	0x3edb4878	0.42828727
223	0x3e19afb3	0.1500843
224	0x3d048130	0.032349765
225	0xbe45b2bb	-0.19306462
226	0xbead028d	-0.3379101
227	0x3ea29a25	0.31758228
228	0xbed08ff0	-0.40734816
229	0xbe8331a4	-0.2562381
230	0xbf6f4fd5	-0.9348119
231	0x3f0573b8	0.521297
232	0x3e7ec156	0.2487844
233	0xbeb6b0e0	-0.3568182
234	0x3ef08e11	0.46983388
235	0x3e920e24	0.28526413
236	0xbf0ed8de	-0.55799663
237	0xbe764c8a	-0.24052635
238	0xbe7bf73a	-0.24606028
239	0xbf182e0f	-0.5944528
240	0x3e20e081	0.15710641
241	0x3e66a039	0.22522058
242	0x3ee9cccb	0.45664057
243	0xbf1fbd8e	-0.6239861
244	0xbe2b10d4	-0.16705638
245	0x3e1c2804	0.1524964
246	0xbcbc7ea6	-0.02300961
247	0x3cf9c8bd	0.030491227
248	0x3e9a7a47	0.30171415
249	0x3f757604	0.958832
250	0xbed11c71	-0.40842012
251	0x3d9e8b86	0.07741456
252	0x3ea5b704	0.32366192
253	0x3e3bbdf1	0.18334176
254	0xbe941f81	-0.28930286
255	0xbf0f3329	-0.5593744

fc2.bias f4 [256]
0	0xbfdc6d09	-1.7220775
1	0x3f4df57f	0.8045272
2	0xbf90cc60	-1.131237
3	0xc06c6d5b	-3.6941745
4	0xbee725d9	-0.45146063
5	0xbfdc2cd0	-1.7201176
6	0x3f930ced	1.148832
7	0x3f9be9a2	1.2180674
8	0x3ffcd576	1.9752643
9	0xbf996534	-1.198401
10	0x3eab512a	0.3346036
11	0xbf325203	-0.6965639
12	0xbf2924e2	-0.66071904
13	0x3f453c8e	0.77045524
14	0x3f80fc79	1.0077049
15	0x3e74baed	0.23899432
16	0xbfa2840a	-1.2696545
17	0xbdc43ae8	-0.09581548
18	0xbd14fb18	-0.036372274
19	0x3cb40170	0.021973342
20	0xbcd44c7b	-0.025915375
21	0xbd99f65e	-0.07517694
22	0xbf04d662	-0.5188962
23	0x3e10f2a9	0.14155068
24	0x3eeca8a7	0.46222422
25	0x3ba3733b	0.004988102
26	0xbe0c1efc	-0.13683695
27	0x3d9bd7e1	0.07609535
28	0xbd3d3e1f	-0.04620182
29	0xbdfa8738	-0.12232822
30	0xbd4d0c01	-0.050060276
31	0xbf82e9ed	-1.0227638
32	0xbdc407d1	-0.09571803
33	0x3f139b38	0.5765872
34	0xbdbb7f7c	-0.09155175
35	0xbc96c4af	-0.018404333
36	0xbf3db7fd	-0.7410887
37	0xbce6a10e	-0.028152969
38	0xbd84bc4c	-0.06481227
39	0xbdcd2876	-0.10017483
40	0xbded2a22	-0.11580302
41	0xbf92fa3a	-1.1482613
42	0x3e738434	0.237809
43	0x3f8955fe	1.0729368
44	0x3dfb7e51	0.12279952
45	0x3f141eda	0.57859576
46	0x3f19ca98	0.6007476
47	0xbef03267	-0.46913454
48	0xbef04f2f	-0.46935412
49	0xbef853b4	-0.4850136
50	0xbd6af06b	-0.057358187
51	0xbf23b1cf	-0.6394319
52	0x3deb8772	0.115004435
53	0xbe9f4bca	-0.3111251
54	0x3efa4a15	0.48884645
55	0xbd43f7e3	-0.047843825
56	0xbeffe8bf	-0.4998226
57	0x3dd51bb9	0.10405678
58	0x3f503d2f	0.8134336
59	0x3f90a586	1.1300514
60	0x3f959029	1.1684619
61	0xbda2e287	-0.07953363
62	0xbfcd0a6e	-1.6018808
63	0xbe912ceb	-0.28354582
64	0xbfb8e522	-1.4444926
65	0xbda880e0	-0.08227706
66	0x3ffe972d	1.9889885
67	0x3e94f4fc	0.29093158
68	0xbe62984b	-0.22128408
69	0x3f092fc4	0.5358851
70	0xbf79b6ee	-0.97544754
71	0x3f8d5c8d	1.1043869
72	0xbf8a4f05	-1.0805365
73	0xbf25aceb	-0.64716977
74	0x3fee27c4	1.8605886
75	0xbf0862bb	-0.5327565
76	0xbea45572	-0.3209644
77	0x3fadf755	1.3591105
78	0x3e87cd2d	0.26523724
79	0xbeb74189	-0.35792187
80	0x3fafd636	1.3737247
81	0xbfaac189	-1.3340312
82	0xbde95199	-0.11392517
83	0xbd322b7d	-0.043498505
84	0xbdfd4d0c	-0.12368211
85	0xbdaf60bc	-0.085633725
86	0xbfd8d476	-1.6939838
87	0x3f8497e7	1.0358857
88	0xbf35b22e	-0.70975006
89	0xbe71c06a	-0.23608556
90	0xbf99efef	-1.2026347
91	0xbf491905	-0.785538
92	0xbce7e137	-0.028305633
93	0x3f4bbaf3	0.79582137
94	0xbf4c96cf	-0.79917616
95	0xbd45a9c1	-0.048257593
96	0xbdd6efb3	-0.10494938
97	0x3f41cdff	0.7570495
98	0x3f409164	0.7522185
99	0xbcb9a432	-0.022661302
100	0x3f534f93	0.82543296
101	0xbf5d6c0e	-0.86493003
102	0xbed66633	-0.41874847
103	0xbd40efa9	-0.047103558
104	0xbd92ffb1	-0.071776755
105	0xbc0b48e7	-0.008501268
106	0xbd33bc08	-0.043880492
107	0x3eccb3d3	0.39980945
108	0xbee37f0f	-0.44432876
109	0xbf0388c3	-0.51380557
110	0x3f8f255a	1.1183274
111	0xbd291e80	-0.041288853
112	0xbe39c49d	-0.18141408
113	0xbf324c2d	-0.69647485
114	0xbeca8d4f	-0.39560935
115	0x3fa1e506	1.2648017
116	0xbf3c7f4e	-0.7363175
117	0x3d585182	0.052812107
118	0xbc2b1be8	-0.010443665
119	0x3dda90e9	0.10672171
120	0xbdda03e3	-0.106452726
121	0xbf706962	-0.939108
122	0xbec6079e	-0.38677686
123	0x3f80b54e	1.005533
124	0xbd9d73bc	-0.0768809
125	0x3eb61ea8	0.35570264
126	0xbf07e99a	-0.5309082
127	0xbde0d325	-0.109777726
128	0xbe3b9854	-0.18319827
129	0xbf0f9b34	-0.56096196
130	0xbdb16a75	-0.08662883
131	0x3dcdbbf8	0.10045618
132	0x3d3ffcbb	0.046871882
133	0xbf8f33fb	-1.1187738
134	0xbf5322c7	-0.8247494
135	0xbfda93e6	-1.7076385
136	0xbd0465ef	-0.032323774
137	0xbcf0d2a4	-0.029397316
138	0xbd7d11c8	-0.061784536
139	0xbda8798e	-0.0822631
140	0x3e86898b	0.26276812
141	0xbefbb186	-0.49158877
142	0x3eaf42aa	0.34230548
143	0xbe9648da	-0.29352456
144	0x3be82c0f	0.0070853303
145	0x3e6dbb67	0.2321602
146	0xbf5c28f5	-0.85999995
147	0x3fd7b4ec	1.6852088
148	0x3f920a6b	1.1409429
149	0x3f2ee086	0.68311346
150	0xbdd69664	-0.104779035
151	0xbedaea54	-0.42756903
152	0xbf58b205	-0.84646636
153	0x3caa0c42	0.020757798
154	0x3e66b64b	0.22530477
155	0xbc4d6090	-0.012535229
156	0x3f4f4f6f	0.8098058
157	0xbf75536d	-0.9583042
158	0xbf942307	-1.157319
159	0xbd46435e	-0.04840409
160	0x3f195229	0.5989099
161	0xbcf5d138	-0.03000699
162	0xbf92b596	-1.1461666
163	0xbdbe628c	-0.0929614
164	0x3fe003a9	1.7501117
165	0xbdf49a40	-0.11943483
166	0x3fafba0b	1.3728651
167	0xbe7d25c6	-0.2472144
168	0x400f3642	2.2376866
169	0x3e323d53	0.17406206
170	0xbfc601b8	-1.5469275
171	0x3f28325c	0.6570184
172	0xbc77eb5a	-0.015131796
173	0xbd957cbc	-0.07299182
174	0xbdbe9c97	-0.09307211
175	0xbdf9cb64	-0.12196997
176	0xbf53c4a2	-0.8272191
177	0x3e3c1aed	0.18369646
178	0x3f3b8518	0.7324996
179	0xbcc2f0d3	-0.023796475
180	0xbf05b081	-0.5222245
181	0xbe47f8b2	-0.19528463
182	0xbd33d6c0	-0.043905973
183	0x3fd415f4	1.65692
184	0xbe3d0794	-0.18459922
185	0x3f963873	1.1735977
186	0xbd87c43a	-0.06629224
187	0xbf35b316	-0.7097639
188	0x3efecf39	0.49767473
189	0xbf4edbdf	-0.80804247
190	0xc01ea231	-2.4786494
191	0x3fbbd5fd	1.4674679
192	0x3f4b8b14	0.7950909
193	0xbdc88a75	-0.097920336
194	0xbdd264ff	-0.1027317
195	0xbd9ea68a	-0.077466086
196	0x3eec95d0	0.46208048
197	0x3c6d1d9e	0.014472393
198	0xbc907267	-0.017632676
199	0xbf6f75ec	-0.9353931
200	0xbf7c47a4	-0.98546815
201	0xbf62a5e6	-0.8853439
202	0x3ddb2792	0.10700907
203	0xbe64f10d	-0.22357579
204	0x3f5e8ef0	0.86936855
205	0x3eec4036	0.4614274
206	0x3e7c7d71	0.24657227
207	0xbe1ab5cc	-0.15108413
208	0xbd7e6551	-0.06210834
209	0x3d1f07fb	0.03882597
210	0xbbc1b597	-0.00591154
211	0x3f62be4e	0.8857163
212	0xbef646e6	-0.48100966
213	0xbc43fe19	-0.011962437
214	0xbed06593	-0.40702495
215	0xbb40dcee	-0.002942856
216	0x3e36920d	0.17829151
217	0xbf395161	-0.723898
218	0xbc768093	-0.015045303
219	0x3e0f4cc0	0.13994122
220	0xc010e13e	-2.2637477
221	0x3e3ab049	0.1823131
222	0xbf208527	-0.62703174
223	0xbef72b4b	-0.48275217
224	0x3ee05ce4	0.4382087
225	0x3f986e6e	1.19087
226	0x3be734ba	0.007055846
227	0x3ed939ca	0.42426902
228	0xbf22077d	-0.63292676
229	0xbe02a22e	-0.12757179
230	0x3c5d19b2	0.013494896
231	0xbdc5069c	-0.09620401
232	0xbddf14ba	-0.10892625
233	0xc00410fc	-2.0635366
234	0xbdea93ec	-0.11453995
235	0xbf0ac2f3	-0.5420372
236	0xbd39e08b	-0.045380156
237	0xbe047bd3	-0.1293786
238	0x3fb796b4	1.4342866
239	0xbecf3745	-0.40471855
240	0x3f0c12df	0.54716295
241	0xbe192d74	-0.14958745
242	0x3baf0ba9	0.005341966
243	0xbda1822b	-0.07886156
244	0xbd3f23f6	-0.046665154
245	0xbf7bcf05	-0.9836276
246	0xc023330e	-2.5499911
247	0xbf17868e	-0.5918969
248	0xbdc5a984	-0.09651473
249	0xbd47ff6b	-0.04882757
250	0x3fd46882	1.6594393
251	0x3ce710ce	0.028206255
252	0x3f8348ab	1.0256552
253	0xbcd59fdc	-0.026077203
254	0xbcd9cdb5	-0.026587347
255	0xbda45df3	-0.08025732

fc3.weight f4 [256, 256]
0	0xbe66faad	-0.22556563
1	0xbf08ea28	-0.53482294
2	0xbde70c73	-0.112816714
3	0x3d797a79	0.060907815
4	0xbecf7df2	-0.40525776
5	0xbfa4f31d	-1.2886692
6	0xbd54a48f	-0.051914748
7	0xbf0396a9	-0.51401764
8	0xbce9fa6b	-0.028561791
9	0xbf22618e	-0.63430107
10	0xbe608460	-0.21925497
11	0x3e0ba5d4	0.13637477
12	0x3e74f053	0.23919801
13	0x3e5ee650	0.21767545
14	0x3e33de36	0.17565235
15	0xbdc5ebb9	-0.09664101
16	0xbf1468ab	-0.5797221
17	0x3c779e48	0.015113421
18	0x3cfd3f51	0.03091398
19	0xbd4f9328	-0.05067745
20	0x3d05ecdf	0.0326966
21	0xbe20685a	-0.15664807
22	0x3c0e75a6	0.008695042
23	0xbd7d955e	-0.061910026
24	0xbf3bb55d	-0.73323613
25	0x3b92de79	0.004482087
26	0x3d491062	0.04908789
27	0xbe7f4746	-0.24929532
28	0x3d0dc75a	0.034613945
29	0xbbc26c2b	-0.005933305
30	0xbd36d35f	-0.044635173
31	0xbeeac8c6	-0.45856303
32	0x3c3efbd8	0.011656724
33	0x3e097861	0.13424827
34	0xbd758f94	-0.05995138
35	0xbda53564	-0.08066824
36	0xbd34f054	-0.044174507
37	0x3d73b754	0.059501007
38	0xbc5e267c	-0.01355898
39	0xbe7bd918	-0.24594533
40	0xbcdb4975	-0.026768425
41	0x3e98e509	0.2986224
42	0xbc8acdfd	-0.016943926
43	0xbdfea39c	-0.1243355
44	0xbe385a13	-0.1800311
45	0x3e50f7b4	0.20406991
46	0xbe533461	-0.2062545
47	0x3e139739	0.14413156
48	0xbe4bb5dd	-0.19893594
49	0x3e0c90dc	0.13727134
50	0x3b24f6b6	0.0025171465
51	0xbe865928	-0.26239896
52	0x3dfbf9b1	0.12303484
53	0x3dbc87d7	0.09205597
54	0x3e1e6116	0.15466723
55	0xbe06fd85	-0.13182648
56	0x3e336552	0.1751912
57	0xbf1d59cf	-0.6146516
58	0x3e0ef002	0.13958743
59	0xbdb11917	-0.08647364
60	0x3d40d075	0.0470738
61	0x3d6349b1	0.0554902
62	0x3e7f7a64	0.24949032
63	0xbf6a05fe	-0.91415393
64	0xbdce68e1	-0.10078598
65	0xbda4e5a7	-0.08051615
66	0xbe4b2a2d	-0.19840308
67	0xbe0abe03	-0.13549046
68	0x3e49e296	0.19715342
69	0xbe81bc3b	-0.2533892
70	0x3e9ac78c	0.30230367
71	0xbdd14251	-0.10217727
72	0xbed24bd5	-0.4107348
73	0x3e131e15	0.14366944
74	0x39bc004b	0.00035858373
75	0x3e722f30	0.23650813
76	0x3d955ba7	0.07292872
77	0x3de5d957	0.11223095
78	0x3e8a8bbd	0.27059737
79	0xbe495256	-0.19660315
80	0xbcf0f983	-0.029415851
81	0xbab80c49	-0.0014041747
82	0x3dbb0487	0.09131723
83	0x3d054292	0.03253419
84	0xbd3ff2a5	-0.046862263
85	0xbd21bdcd	-0.03948765
86	0xbf251f83	-0.6450121
87	0x3de65482	0.11246587
88	0xbcaf8c16	-0.021429103
89	0x3de6ee57	0.112759285
90	0x3ba97596	0.005171488
91	0xbdedd788	-0.11613375
92	0x3c4c96a8	0.012487091
93	0x3cb7abcf	0.022420792
94	0xbd8f5a6a	-0.06999667
95	0x3c36ab7b	0.011149283
96	0xbd95731a	-0.072973445
97	0xbd671444	-0.05641581
98	0x3e383425	0.17988642
99	0xbcb3dfcc	-0.0219573
100	0xbdaecab9	-0.0853476
101	0xbea27d37	-0.31736156
102	0x3d94ead4	0.072713524
103	0x3e24c6ab	0.16091411
104	0x3e0191cc	0.12653273
105	0xbc42d943	-0.01189262
106	0xbc3ee9bb	-0.011652405
107	0x3f0ab1e6	0.541777
108	0xbe0d5d9b	-0.13805239
109	0xbf1e5a98	-0.61856985
110	0xbe8c2992	-0.27375466
111	0x3d245ccc	0.04012756
112	0xbc99baf6	-0.018765908
113	0x3eea4db3	0.45762405
114	0xbdbc1b6e	-0.09184919
115	0x3ba1c608	0.0049369372
116	0xbe5eee6b	-0.21770637
117	0xbd8e72b4	-0.06955472
118	0x3d74cdd4	0.059766605
119	0x3d744c48	0.05964306
120	0xbd551365	-0.05202045
121	0xbdabbf10	-0.08386052
122	0xbccb328b	-0.024804374
123	0xbe7999a8	-0.24375021
124	0xbd430a93	-0.047617506
125	0x3e029eb3	0.12755851
126	0xbe701c53	-0.23448305
127	0xbecc951f	-0.3995752
128	0x3c8b386b	0.016994676
129	0xbd41f753	-0.047355007
130	0x3d0ba4c4	0.03409268
131	0xbe3882b9	-0.18018617
132	0x3d416334	0.047213748
133	0xbd8c7171	-0.06857575
134	0x3c803640	0.015650868
135	0x3d32b705	0.043631572
136	0xbc478e64	-0.012179945
137	0xbd8bdb7e	-0.06828974
138	0xbd4fd716	-0.05074223
139	0xbc1a50da	-0.009418691
140	0xbe9a6f3d	-0.30162993
141	0xbd978dd6	-0.074001
142	0xbe4038fe	-0.18771741
143	0xbe6e408e	-0.23266813
144	0xbe2ce2f3	-0.1688345
145	0xbde22117	-0.11041468
146	0x3c4354e7	0.011922098
147	0x3c8acad8	0.016942427
148	0xbd80cf83	-0.0628958
149	0xbd45d073	-0.048294496
150	0x3c13254f	0.008981063
151	0xbda25f4a	-0.07928331
152	0x3d2faf91	0.042892043
153	0x3d8e30dc	0.06942913
154	0x3dc7149f	0.0972073
155	0xbd6d65d2	-0.05795843
156	0x3d9b4a6e	0.07582556
157	0x3b85434e	0.0040668612
158	0x3e869b4b	0.26290354
159	0x3d75325f	0.05986249
160	0xbc464c1c	-0.012103107
161	0xbd43245b	-0.047642093
162	0xbda649e8	-0.08119565
163	0x3c467737	0.012113384
164	0x3e272564	0.16322857
165	0xbc1a5f8d	-0.009422195
166	0xbe12d067	-0.14337312
167	0x3d9ad2b6	0.07559721
168	0xbd3f50eb	-0.04670803
169	0x3e79b584	0.24385649
170	0xbdc5f597	-0.09665983
171	0xbe02df1e	-0.12780425
172	0xbd31c378	-0.043399304
173	0xbd44f188	-0.048081905
174	0xbcbe2715	-0.023211995
175	0x3d0d4015	0.03448494
176	0x3c69f3f5	0.014279355
177	0xbf017349	-0.50566536
178	0xbd142c1e	-0.036174886
179	0xbd4285c3	-0.047490846
180	0xbf0e0210	-0.554719
181	0x3ee2f0dc	0.44324386
182	0x3d2ec992	0.0426727
183	0xbf96d5fe	-1.1784055
184	0xbddbf674	-0.107403666
185	0xbd20fc10	-0.039302886
186	0xbd03430b	-0.03204636
187	0xbcd57cf5	-0.02606056
188	0xbc5156a8	-0.012777008
189	0x3eb2860a	0.3486789
190	0xbe8dd6b0	-0.27702856
191	0x3de44177	0.11145299
192	0xbdf23de8	-0.11828214
193	0x3e662632	0.22475508
194	0x3d21b44f	0.039478596
195	0x3d06acdc	0.032879695
196	0x3e21a56d	0.15785761
197	0x3d6fb7be	0.05852484
198	0x3d63dc20	0.05562985
199	0x3cedc444	0.02902425
200	0x3d8cc163	0.06872823
201	0xbf8a9a94	-1.0828424
202	0x3de628a5	0.11238221
203	0xbcc50e9d	-0.02405482
204	0x3d35234e	0.044223122
205	0x3eb2f2c1	0.34950832
206	0x3df3f3f6	0.11911766
207	0xbe678250	-0.22608304
208	0x3c8c6f56	0.017142933
209	0xbd1679dd	-0.03673731
210	0xbc4f621c	-0.012657668
211	0xbebdf530	-0.37101126
212	0xbf0a1634	-0.5394013
213	0xbd9461ad	-0.07245193
214	0xbf15a065	-0.5844787
215	0x3d2f8d59	0.04285941
216	0x3bd8e624	0.006619232
217	0xbeb1bff2	-0.34716755
218	0x3dfa61e1	0.122257
219	0xbdb73397	-0.08945387
220	0xbc4f40fe	-0.012649773
221	0xbe6984a8	-0.2280451
222	0x3d7f0b6f	0.062266763
223	0x3d56c257	0.05243143
224	0x3c366c81	0.011134268
225	0x3dc76fcf	0.09738123
226	0x3b04889b	0.0020223025
227	0x3dc234f7	0.094827585
228	0x3d255f02	0.04037381
229	0x3ce24171	0.027619096
230	0xbc375105	-0.01118875
231	0x3cdc3c62	0.026884262
232	0xbab3ff6f	-0.0013732741
233	0xbc12bba1	-0.008955867
234	0x3d9d8cdb	0.07692882
235	0xbc1f3289	-0.009716638
236	0x3da32736	0.07966463
237	0xbea8b16d	-0.32947865
238	0x3d447bce	0.04796963
239	0x3ea49bab	0.32150015
240	0x3dbfe6d3	0.09370198
241	0xbe056de9	-0.13030209
242	0xbd2fe7c8	-0.042945653
243	0x3d88cb74	0.066794306
244	0x3e34f136	0.1767014
245	0xbea5d5bf	-0.32389638
246	0xbdf692b3	-0.120396994
247	0xbf09120a	-0.5354315
248	0xbdac3eb2	-0.08410396
249	0xbbf028d6	-0.007329087
250	0x3d3b5337	0.045733657
251	0x3d2a6cdd	0.041607726
252	0xbdbba459	-0.09162206
253	0xbd02298e	-0.03177791
254	0xbd85091a	-0.064958766
255	0xbc1a9ecf	-0.009437277

fc3.bias f4 [256]
0	0xbf815ea9	-1.0107013
1	0xbf1b78fe	-0.60731494
2	0xbeaf9d77	-0.34299824
3	0x40011374	2.0168123
4	0xbde86153	-0.11346688
5	0x3f6a0e4d	0.9142807
6	0x3f37b332	0.71757805
7	0xbe79df78	-0.24401653
8	0xbf818b52	-1.0120642
9	0x3e74031e	0.23829314
10	0xbe03feb5	-0.12890132
11	0xbe9d2c7c	-0.30698
12	0x3eb8ba8f	0.36079833
13	0xbdde3e6c	-0.1085175
14	0xbf4ece55	-0.8078359
15	0xbe3c832a	-0.1840941
16	0x3ed4370f	0.41448256
17	0xbff337c1	-1.900139
18	0xbe86e5a4	-0.26347077
19	0xbfd110b8	-1.6333227
20	0xbe68a6b9	-0.2271985
21	0xbe66cc7c	-0.22538942
22	0x3fd24a04	1.6428838
23	0xbeeb2d57	-0.4593303
24	0xbe27d68b	-0.16390435
25	0x3f1b1f32	0.60594475
26	0xbf810ea8	-1.0082598
27	0xbeba0600	-0.36332703
28	0xbe8c5e1d	-0.27415553
29	0xbe88b263	-0.26698598
30	0x3e1fcf2b	0.15606372
31	0x400f9cab	2.2439373
32	0xbe949764	-0.29021752
33	0xb8f50cdd	-0.00011684906
34	0xbf3e6890	-0.743783
35	0xbec2209f	-0.37915513
36	0xbefa99bd	-0.48945418
37	0xbea0ae69	-0.31383064
38	0x3f09f30b	0.5388648
39	0xbed90f85	-0.42394653
40	0xbf448697	-0.7676787
41	0xbe8d0a86	-0.2754709
42	0xbe3e488e	-0.18582365
43	0xbeb372c1	-0.35048488
44	0x3f0126c4	0.50449777
45	0x3ef9a6e2	0.48760134
46	0xbf143e0d	-0.5790718
47	0xbde0d8e3	-0.10978868
48	0xbe9de485	-0.3083841
49	0xbe9a3c0a	-0.3012393
50	0xbe8fcacf	-0.28084418
51	0xbf29f3bf	-0.6638755
52	0xbfa452cf	-1.2837771
53	0x3deb6366	0.11493568
54	0xbeeaa5c8	-0.45829606
55	0xbf54d9af	-0.8314466
56	0xbf17d281	-0.5930558
57	0xbf034a48	-0.5128522
58	0xbeb00aa7	-0.34383127
59	0xbe20f5c0	-0.15718746
60	0xbe29cd66	-0.1658226
61	0x3f385ff2	0.720214
62	0xbd58d09a	-0.052933313
63	0xbec6f7a6	-0.38860816
64	0xbddf99b4	-0.109179884
65	0x3e331e74	0.17492086
66	0xbef99973	-0.48749885
67	0xbe017882	-0.12643626
68	0xbeec4ed1	-0.46153882
69	0xbd2eca71	-0.042673532
70	0xbf3d8b55	-0.7404073
71	0xbfe153f1	-1.7603742
72	0xbbb8abcf	-0.0056357156
73	0xbfb298e8	-1.3952913
74	0x3ea8c76f	0.32964656
75	0x3ce43e0d	0.02786162
76	0xbf07fb11	-0.5311747
77	0xbf71f270	-0.94510555
78	0xbf12107f	-0.5705642
79	0xbe64055c	-0.2226767
80	0xbe7626a1	-0.24038173
81	0x3f944832	1.1584532
82	0xbeaf3efd	-0.34227744
83	0xbdca3396	-0.098731205
84	0x3e90e0a5	0.2829639
85	0xbf056ce3	-0.5211927
86	0xbef81e87	-0.4846079
87	0xbe0cda15	-0.13755067
88	0x3e8da0a0	0.2766161
89	0xbf2a1a50	-0.664464
90	0xbfc5d52d	-1.5455681
91	0x3e2fcb38	0.17167366
92	0xbe9057df	-0.2819204
93	0x3ecf2053	0.4045435
94	0xbf94d4bf	-1.1627425
95	0xbd88b82d	-0.06675754
96	0xbe1fa6cf	-0.15590976
97	0x3dcfc707	0.10145383
98	0xbe1d4e33	-0.15361862
99	0xbe885f60	-0.26635265
100	0xbf35e425	-0.71051246
101	0xbea6a9ce	-0.32551426
102	0xbe5bc53b	-0.21461956
103	0xbe533da8	-0.20628989
104	0x3dfc68a3	0.12324645
105	0x3e551ce5	0.20811804
106	0x3f6b823a	0.91995585
107	0xbd5a1499	-0.0532423
108	0xbe817537	-0.2528474
109	0x3e8769e3	0.26447973
110	0xbdcda6e9	-0.10041601
111	0xbea3011c	-0.31836784
112	0xbf45d187	-0.7727284
113	0x3ee94a78	0.45564628
114	0xbdbbd1da	-0.091708854
115	0xbdeeba59	-0.11656637
116	0xbf173a64	-0.5907347
117	0x400308c4	2.04741
118	0xbdc02040	-0.09381151
119	0xbe63b351	-0.22236373
120	0xbf77c45e	-0.9678401
121	0xbd5e782e	-0.05431383
122	0xbe80702e	-0.25085586
123	0xbf066f1d	-0.52513295
124	0x3fa49327	1.2857407
125	0xbe86ad86	-0.26304263
126	0x3d5b8ace	0.05359917
127	0xbd99fa73	-0.075184725
128	0xbeb50db6	-0.35362023
129	0xbf31dcae	-0.69477355
130	0x3faba072	1.3408339
131	0xbe9c2391	-0.30495885
132	0x3e9a30e6	0.30115432
133	0xbe8ee676	-0.27910203
134	0x3babe027	0.005245227
135	0xbf1a3ed1	-0.602521
136	0xbf3a1489	-0.72687584
137	0x3ef7df4a	0.48412544
138	0x3df2f845	0.1186376
139	0x3f709522	0.9397756
140	0x4024e807	2.5766618
141	0x3e45e203	0.19324498
142	0xbebcde15	-0.36888185
143	0xbf4404da	-0.765699
144	0x3e9db641	0.3080311
145	0x3f3d4ae5	0.73942405
146	0x3f9f76af	1.2458094
147	0xbf4c8aa7	-0.79899067
148	0x3e6c5095	0.23077615
149	0xbf555b22	-0.8334218
150	0xbf587050	-0.84546375
151	0xbeaa82ad	-0.33302823
152	0xbf954f7d	-1.1664883
153	0xbe9eb1cd	-0.30995026
154	0xbef5b23a	-0.4798754
155	0xbeca655b	-0.39530453
156	0xbf28bb13	-0.6591045
157	0x3f7875f3	0.97054976
158	0xbf753e2e	-0.95798004
159	0xbea586a0	-0.32329273
160	0xbea1360f	-0.31486556
161	0xbeb11d9e	-0.3459291
162	0xbe6b4442	-0.22975257
163	0xbe5dff28	-0.21679366
164	0xbf031a2d	-0.51211816
165	0xbf4e06aa	-0.8047892
166	0xbe70edc0	-0.23528194
167	0xbfce1ef7	-1.61032
168	0xbde0368d	-0.10947905
169	0xbeb4890f	-0.35260817
170	0xbf2bb0da	-0.6706673
171	0xbe8100dc	-0.25195968
172	0xbed9752a	-0.42472202
173	0xbf3a8518	-0.72859335
174	0xbfa5bdfa	-1.2948601
175	0xbf3821be	-0.71926486
176	0xbe533285	-0.2062474
177	0xbf492464	-0.7857115
178	0xbee878bd	-0.45404616
179	0xbdb17cdc	-0.08666393
180	0xbf00357a	-0.500816
181	0xbeab7906	-0.3349077
182	0xbf258280	-0.6465225
183	0xbeb6d007	-0.35705587
184	0xbefece7c	-0.4976691
185	0xbe49a6b8	-0.19692504
186	0xbf971e5d	-1.1806141
187	0xbeea41d4	-0.45753348
188	0xbf70b1ab	-0.940211
189	0xbfa3e867	-1.2805299
190	0xbe9ec661	-0.31010726
191	0xbf07c3fc	-0.53033423
192	0xbf50e397	-0.81597275
193	0x3c44a7c5	0.01200289
194	0xbf258019	-0.64648587
195	0x3e71830d	0.23585148
196	0xbedc2298	-0.42995143
197	0x3e74cfa5	0.23907335
198	0xbf1e7e57	-0.6191153
199	0xbb2cf809	-0.0026392958
200	0xbf5c0751	-0.85948664
201	0xbf87a71f	-1.0597876
202	0xbea5c885	-0.32379547
203	0x3e6d3b23	0.2316709
204	0x3e987808	0.29779077
205	0x3e32b722	0.17452672
206	0x3f025e81	0.5092545
207	0xbf2c7668	-0.67368174
208	0xbe5c5713	-0.21517591
209	0xbe4ccead	-0.20000716
210	0x3f2cc38a	0.6748587
211	0xbf118c9a	-0.56855166
212	0xbf0c3b7f	-0.54778284
213	0xbf900290	-1.1250782
214	0xbedefea6	-0.43553656
215	0xbf4cbf56	-0.79979455
216	0x3ef8ec38	0.4861772
217	0xbf17db5c	-0.5931909
218	0xbecbdfed	-0.3981928
219	0xbe35b56e	-0.17744991
220	0x3e43d4a8	0.1912409
221	0xbe6d61ed	-0.23181887
222	0x3f234e1f	0.6379108
223	0xbe5b470f	-0.21413825
224	0xbf6d2271	-0.9263068
225	0x3eb15c05	0.34640518
226	0xbed02108	-0.406502
227	0xbea23302	-0.3167954
228	0xbe12af6d	-0.14324732
229	0xbe26ea60	-0.16300344
230	0xbdc9170e	-0.098188505
231	0xbe93d771	-0.28875306
232	0xbeb0c3f3	-0.34524497
233	0xbea6b789	-0.325619
234	0xbe98c578	-0.29838157
235	0xbe048821	-0.12942554
236	0xbe588191	-0.21143176
237	0xbec194d7	-0.37808868
238	0xbeda1322	-0.42592722
239	0xbf324b48	-0.6964612
240	0xbe5a66da	-0.21328297
241	0x3e3a359e	0.18184516
242	0xbf49b511	-0.7879191
243	0xbe3afd47	-0.1826068
244	0xbfbdbd46	-1.4823387
245	0xbe512146	-0.20422849
246	0xbe64f815	-0.22360261
247	0x3da6f140	0.081514835
248	0x3fa809be	1.3127973
249	0x3e972e85	0.2952768
250	0x3f7f189d	0.9964693
251	0xbe87c97d	-0.2652091
252	0xbeac1a14	-0.33613646
253	0x3ef0a47c	0.47000492
254	0x3e51bb35	0.2048157
255	0xbf48d598	-0.7845092

action_out.weight f4 [4, 256]
0	0xbd635388	-0.055499583
1	0x3e4158e3	0.18881564
2	0x3da1f124	0.07907322
3	0x3bbfde88	0.005855385
4	0xbe849a29	-0.25898865
5	0x3d51c662	0.051214583
6	0xbe27a42a	-0.16371217
7	0x3dba9d4d	0.09112034
8	0xbe95dc9c	-0.29269874
9	0xbeffbf95	-0.49950853
10	0x3d1cfc97	0.038326826
11	0x3ce65887	0.028118385
12	0xbd098898	-0.03357753
13	0x3d970fe5	0.073760785
14	0x3d8752cf	0.06607591
15	0x3c840ea1	0.016120257
16	0x3d99085b	0.07472297
17	0xbf5b7984	-0.85732293
18	0x3c03a45e	0.008034794
19	0xbc078d88	-0.00827349
20	0xbd2b3e64	-0.041807547
21	0xbd188ba7	-0.037242558
22	0x3c366990	0.0111335665
23	0x3cca6d3d	0.024710292
24	0x3d11b785	0.03557541
25	0x3d93a962	0.072100416
26	0xbd3baeb8	-0.04582092
27	0x3c196092	0.009361403
28	0x3bc08f74	0.005876476
29	0x3dd62931	0.104570754
30	0xbc9ad7ef	-0.018901793
31	0xbc8d3538	-0.01723729
32	0xbd7f26b7	-0.06229278
33	0x3e49f2c3	0.19721512
34	0x3ceaeb57	0.028676672
35	0xbd7d158a	-0.06178812
36	0x3e60e6e4	0.21963078
37	0x3e333f74	0.17504674
38	0x3d34a9cd	0.044107247
39	0xbe02fc9b	-0.12791674
40	0xbd1efe7f	-0.038816925
41	0x3e5086fc	0.20363992
42	0x3e26c867	0.16287385
43	0xbe640b76	-0.22269997
44	0x3cd40943	0.025883323
45	0x3b3c18b9	0.002870126
46	0xbd9065e6	-0.070506856
47	0xbd45e6c0	-0.048315763
48	0xbe085783	-0.13314633
49	0xbd953e14	-0.07287231
50	0x3ce39448	0.027780667
51	0xbe4e5ac1	-0.20151807
52	0xbbe03fe8	-0.0068435557
53	0x3d45c79c	0.048286065
54	0xbd03abd4	-0.03214629
55	0x3d9f80bb	0.07788225
56	0xbd1b0001	-0.0378418
57	0xbe1407ef	-0.14456151
58	0x3d1fc103	0.03900243
59	0x3e037126	0.12836131
60	0xbcc5fce8	-0.024168447
61	0xbe0cf442	-0.13765052
62	0x3f5ee1c6	0.8706325
63	0xbea37ee9	-0.31932762
64	0xbd0bffd8	-0.03417954
65	0x3e363d49	0.17796816
66	0x3bd71908	0.0065642633
67	0x3ec938a5	0.3930103
68	0xbba044e2	-0.004891024
69	0xbd583fbd	-0.05279516
70	0xbe3207c4	-0.17385775
71	0x3c268ad1	0.010164932
72	0x3dbf7e40	0.09350252
73	0x3ed5c77b	0.41753754
74	0x3ca7d57e	0.020487543
75	0xbd00979f	-0.031394597
76	0xbf235444	-0.63800454
77	0xbd54916e	-0.051896505
78	0xbbe4b6aa	-0.006979783
79	0xbdc27728	-0.094953835
80	0xbd760301	-0.06006146
81	0x3c736f73	0.0148581145
82	0x3d4ef623	0.050527703
83	0xbde85810	-0.113449216
84	0x3ce2a993	0.02766875
85	0xbd37595d	-0.044762958
86	0x3d3f3f87	0.046691444
87	0x3dba3dbd	0.09093807
88	0xbc41bd2b	-0.011824886
89	0xbcf6d894	-0.03013257
90	0xbd75a12b	-0.059968155
91	0xbd3228f3	-0.043496083
92	0xbc1cfaff	-0.0095813265
93	0xbea2ae54	-0.31773627
94	0xbc1095ff	-0.008824824
95	0x3d369dfc	0.04458426
96	0xbd32d133	-0.04365654
97	0xbe941aa6	-0.2892658
98	0x3e57b469	0.21064915
99	0xbe0b7fd9	-0.13622989
100	0xbdcca2a7	-0.09991961
101	0x3d83a099	0.06427116
102	0xbe1d4726	-0.15359172
103	0xbe0fa750	-0.14028668
104	0x3ce123cd	0.027482891
105	0xbb13d772	-0.0022558835
106	0x3cc49309	0.023995893
107	0xbe1cfa04	-0.15329748
108	0x3bce38cc	0.006293392
109	0x3ce1b5a8	0.02755244
110	0x3c987182	0.018608812
111	0x3d7bb88c	0.061455294
112	0xbc47a7ce	-0.012186004
113	0xbed704ec	-0.41995943
114	0x3f151f79	0.5825115
115	0xbb222792	-0.0024742824
116	0x3dd1053a	0.10206075
117	0x3e2a611e	0.1663861
118	0xbac5d13e	-0.0015092266
119	0xbe3607c9	-0.17776407
120	0xbca4230b	-0.020036241
121	0x3d6b1f89	0.05740312
122	0x3ca8d0fc	0.020607464
123	0x3d275bc6	0.040859006
124	0x3db9d6f7	0.090742044
125	0x3da3c981	0.07997418
126	0x3d69960b	0.057027858
127	0x3dc34da9	0.09536297
128	0x3e50693b	0.20352642
129	0x3ca095f5	0.019602755
130	0xbc22f050	-0.00994499
131	0x3e07bae0	0.13254881
132	0x3e4e4437	0.2014321
133	0xbddd12b3	-0.10794582
134	0x3da79100	0.081819534
135	0x3da31fd1	0.07965053
136	0xbd2a9683	-0.041647445
137	0x3d377e69	0.04479829
138	0xbde7d155	-0.11319224
139	0x3dc8bc39	0.098015256
140	0x3b873972	0.004126721
141	0x3bb8642a	0.005627175
142	0xbd2248f9	-0.039620373
143	0x3dcebfb5	0.10095159
144	0xbdbd094e	-0.0923029
145	0xbda0a136	-0.078432485
146	0xbd6d22c0	-0.05789447
147	0x3df55adc	0.11980221
148	0x3bc4ccf0	0.0060058758
149	0xbf8d96a1	-1.1061593
150	0xbc599b77	-0.013281695
151	0xbcd74ad5	-0.0262808
152	0x3a0bbb7c	0.00053303665
153	0xbd40e2a3	-0.047091138
154	0xbd3beb63	-0.04587878
155	0x3e8bdd9e	0.27317518
156	0x3d342130	0.043976963
157	0x3befe48b	0.0073209456
158	0xbf4cd2fc	-0.80009437
159	0xbd629728	-0.055319935
160	0x3e0cac7e	0.13737676
161	0xbdadaeca	-0.08480604
162	0xbd052b62	-0.032512076
163	0xbe84cddb	-0.25938305
164	0x3d9305a5	0.07178811
165	0xbd797075	-0.060898263
166	0xbd292c0a	-0.041301765
167	0x3f0cad7a	0.54952204
168	0x3cd1494f	0.025547652
169	0xbdcc399b	-0.09971925
170	0xbbef74c9	-0.007307623
171	0x3f1e6594	0.61873746
172	0xbf28aef0	-0.65891933
173	0x3cd8769c	0.026423745
174	0xbcc4195a	-0.02393787
175	0xbe3ee1e9	-0.18640865
176	0x3d5111f2	0.051042505
177	0xbed16b24	-0.40902054
178	0x3e13a04e	0.1441662
179	0xbd8445e6	-0.064586446
180	0x3d09470a	0.033515014
181	0x3d6fbfbe	0.05853247
182	0xbcabf754	-0.020991959
183	0x3afb8ccf	0.0019191745
184	0x3e091f3e	0.13390824
185	0x3d59cd62	0.053174384
186	0xbdffefe9	-0.12496931
187	0xbea95e61	-0.33079818
188	0x3d3bc4ff	0.045842167
189	0xbad5be4d	-0.0016307324
190	0xbd2a2d7a	-0.041547276
191	0x3dbd8cca	0.09255369
192	0x3b7612b2	0.0037547764
193	0x3eb7d369	0.3590348
194	0x3e093c22	0.13401845
195	0x3cf41ffb	0.029800406
196	0x3c4172b3	0.011807132
197	0xbe052472	-0.13002184
198	0x3d96b1c1	0.073581226
199	0xbb8a2326	-0.004215616
200	0x3d6231be	0.05522322
201	0x3e0c54f5	0.13704284
202	0x3dbde1cd	0.09271584
203	0x3dc7dba6	0.097586915
204	0xbd651e98	-0.05593738
205	0x3c94d21c	0.018166594
206	0xbd073faa	-0.0330197
207	0xb85fef92	-5.339046e-05
208	0xbcb6d426	-0.022317957
209	0xbdccdc7e	-0.10002993
210	0xbb5be71e	-0.0033554505
211	0x3c434d77	0.0119203245
212	0xbdd692e5	-0.10477237
213	0xbda51214	-0.08060089
214	0xbddce7b0	-0.107863784
215	0xbb819ec8	-0.003955696
216	0x3ba7511b	0.005106104
217	0xbd80ad0a	-0.062830046
218	0xbc89e1a8	-0.016831234
219	0x3d81d7c1	0.0633998
220	0xbe975251	-0.2955499
221	0x3d8cc35a	0.06873198
222	0x3d10c814	0.03534706
223	0x3e0e0cb9	0.13872041
224	0x3c7f1133	0.015568065
225	0xbd07324b	-0.033006947
226	0xbe4f0211	-0.20215632
227	0x3d77b39a	0.060474016
228	0xbd257e52	-0.04040367
229	0x3e4b21ec	0.19837159
230	0x3ece69dd	0.40315142
231	0x3c18e097	0.00933089
232	0x3c1ec97c	0.009691592
233	0x3cba2ba8	0.022725895
234	0xbe1f59db	-0.15561621
235	0x3e77d78e	0.24203321
236	0xbdd50386	-0.10401063
237	0x3d8ad895	0.06779591
238	0xbe0c862d	-0.13723059
239	0xbe1705e5	-0.14748342
240	0xbcce6a0f	-0.025197057
241	0x3db24419	0.08704395
242	0xbbca1d0a	-0.0061680125
243	0x3ddd1c6a	0.10796435
244	0x3c3dff03	0.011596444
245	0x3e13775e	0.14401004
246	0x3d7a3b4f	0.061091717
247	0x3d9b2bea	0.07576735
248	0x3cd49014	0.025947608
249	0x3dd25395	0.10269848
250	0xbde1f93f	-0.11033868
251	0x3a1ee976	0.000606201
252	0x3cdca55f	0.026934324
253	0x3dcec10a	0.10095413
254	0xbe0cd438	-0.1375283
255	0x3d45128c	0.04811339

action_out.bias f4 [4]
0	0xbb8d858e	-0.0043188995
1	0xbb15e562	-0.0022872319
2	0xbc04a6c3	-0.0080964
3	0xbae947ed	-0.0017797925
