saved_models/FetchPickAndPlace-v1/model121.pt (torch, 563151 bytes, 8 tensors)

fc1.weight f4 [256, 28]
000000 21 98 ea 3e 98 a6 74 bd 2f ee ac 3d 58 28 83 3f
       0.4581919 -0.05972919 0.084438674 1.0246687
000010 ac d9 e7 bd 09 20 bf 3e 12 4d d6 3f ca 95 0f be
       -0.113208145 0.37329128 1.674227 -0.14021984
000020 b8 f4 7c 3e 1b 49 44 3e a7 30 0a 3c 4d c5 b2 bc
       0.24702728 0.19168513 0.008434451 -0.021822596
000030 79 e8 08 3d 1a df 63 bd 1f 36 ca 3e 04 0b 59 3c
       0.03342483 -0.055632688 0.39494416 0.013247255
000040 b4 7a 7e 3e 60 19 bc 3c 66 d0 00 be e7 5d 03 bd
       0.24851495 0.022961318 -0.12579498 -0.032071974
000050 73 a8 c3 3e fc 8f 0f bd a4 cb 76 3e 6f 78 17 3c
       0.38214454 -0.035049424 0.2410112 0.009245022
000060 ab 4e 03 bd 86 f3 b4 bf a8 a6 3a 3d a6 61 49 c0
       -0.032057445 -1.4136817 0.045569092 -3.146585
000070 cf 2e 0a bf ee 59 8e be 5b 0d 2b bf d2 7d e6 3e
       -0.53977674 -0.27802986 -0.66817254 0.45017868
000080 d4 84 99 3e a1 be 39 3f 25 7c 05 40 a4 d2 d9 3e
       0.29984152 0.725565 2.0857022 0.4254352
000090 42 a3 af 3f 5f 34 19 bf 88 68 a3 be a2 5f f9 3c
       1.3721697 -0.59845537 -0.3191569 0.03044111
0000a0 40 8d 76 bd 61 10 9e bb 10 8b 79 3d d5 cc e7 bd
       -0.0601933 -0.00482373 0.060923636 -0.113183655
0000b0 0c 21 c2 3e b3 b3 67 3d f5 a9 86 3d e2 3f 42 3d
       0.37915838 0.05656786 0.065753855 0.047424205
0000c0 e0 3b 18 bd 5a 23 84 bd 23 6c 55 3e 9c b8 54 be
       -0.037166476 -0.06452055 0.20842032 -0.20773548
0000d0 18 7b a0 be a9 d5 e8 3d d1 1b 6b 3c ee f5 e8 3c
       -0.31343913 0.113688774 0.014349894 0.02843758
0000e0 4c a6 4d be 98 0b bd 3d 32 69 7b 3e 11 ad 24 be
       -0.20082968 0.09230727 0.24551848 -0.16081645
0000f0 5f 3c 40 3f 72 88 9f bd f2 8c c9 bd 67 8b 19 3f
       0.7509212 -0.07789697 -0.09841336 0.59978336
000100 9c a4 14 3e e0 83 9d 3d 6f c0 55 3d e4 9e 19 be
       0.14515918 0.07691169 0.052185472 -0.15002018
000110 d7 d4 22 3d be 25 54 3e 75 80 10 3d ac 39 48 3f
       0.03975376 0.20717523 0.035278756 0.78213
000120 c3 b8 82 be 84 37 7c bd 51 c7 e1 3c 2e 8c eb 3d
       -0.25531587 -0.06157638 0.027560862 0.115013465
000130 1b 9e a2 be ea 94 d6 3e b9 2a 42 be 66 f6 66 be
       -0.3176125 0.41910487 -0.1896161 -0.22554931
000140 29 12 83 be 1d 92 c2 3d 5a fb f9 be 4d 5b 7d bb
       -0.25599793 0.09500525 -0.4882458 -0.0038659156
000150 21 e6 1d bf a1 61 f1 be 23 9a 0a 3f f1 4b 8b be
       -0.61679274 -0.47144797 0.54141444 -0.27206376
000160 3b 29 90 3e 71 3b b3 bf 60 d0 76 3e 99 7c 40 3f
       0.28156456 -1.4002515 0.24102926 0.7519012
000170 a7 4c 3b bf 92 fe c9 be 77 db 07 be d3 8f 20 3e
       -0.7316384 -0.39452034 -0.13267313 0.15679865
000180 14 40 c0 bd 33 dc 23 3e 9f 4e 5e bd fe 89 85 be
       -0.09387222 0.16001968 -0.054274198 -0.26081842
000190 75 ae 86 be 64 11 68 bd c7 6f 13 bd 89 c8 0d be
       -0.26304975 -0.05665721 -0.03599527 -0.1384603
0001a0 1a 7d 07 3d d7 a4 15 be 59 9a db be 7c 1b 28 3e
       0.03307829 -0.14613663 -0.42891195 0.16416734
0001b0 a5 36 9f 3d 3d af 7c 3e 85 d5 c1 3d 88 4a 13 c0
       0.077740945 0.24676223 0.09464554 -2.301424
0001c0 d4 60 8e be 13 aa 41 be 63 6b 90 be 02 8a 84 3e
       -0.2780825 -0.18912534 -0.2820693 0.25886542
0001d0 e9 c3 45 3e b4 e4 1d 3f af ba 84 3e ec 82 a9 3c
       0.19313015 0.616771 0.25923678 0.020692311
0001e0 9a b4 bb 3e fb e9 53 3e 08 fa 6a 3d 22 4a 11 3d
       0.36661226 0.20694725 0.057367355 0.03547109
0001f0 90 0f b8 bd 68 38 fb 3d cb d4 eb 3e c4 a0 de 3d
       -0.08987343 0.12266618 0.46060786 0.10870507
000200 1f 87 6c 3f 8a 4f 99 bd 98 53 d1 bc 1e 05 9c bd
       0.9239368 -0.07485874 -0.025552556 -0.076181635
000210 49 bb c9 3e ce a2 f9 3d f2 d7 4b 3f 0c 3b 09 3c
       0.394007 0.12189256 0.7962638 0.008375894
000220 a7 1f 02 3e 02 2a a1 bc 97 51 89 be 79 4b 0f be
       0.12707387 -0.019673351 -0.2682006 -0.13993634
000230 c7 6d 0e bf 20 79 0a 3e 26 68 f0 bc 83 5f 3f bf
       -0.55636257 0.13522768 -0.029346537 -0.74755114
000240 5d 16 11 be ad ae d6 be 94 1d c9 3d ef d9 17 bf
       -0.14168687 -0.41930142 0.09820095 -0.59316915
000250 f3 b7 5f bd 35 ea 58 3c a2 60 80 bc d6 29 b6 3d
       -0.054618787 0.013239433 -0.015671078 0.08894698
000260 a6 8e 2a 3e 95 2d c3 bd 5c 52 a7 be 31 eb 92 3d
       0.16655979 -0.095301785 -0.32680023 0.071737655
000270 b3 e5 32 be 7c 8d c9 3a e3 b2 9c bd 33 63 e7 bd
       -0.17470436 0.0015377249 -0.076513074 -0.112982176
000280 2b 96 c0 be 01 27 49 3d 9f 72 84 be 69 57 f1 3d
       -0.3761457 0.049109463 -0.258687 0.1178425
000290 f9 c4 35 3e b2 94 79 bd 2c 98 a5 bd 38 bc ad bc
       0.1775092 -0.060932823 -0.08085665 -0.021207914
0002a0 c0 f9 9a 3e 6f ad 8e be d0 10 ff bd 47 dd 83 3e
       0.3026867 -0.27866694 -0.124543786 0.2575476
0002b0 f2 d8 b8 bd e4 49 ca bf 62 26 0e bf 56 77 ed 3d
       -0.09025754 -1.58038 -0.5552732 0.11595027
0002c0 de aa c6 bc 89 bb ba bd ca b9 b6 3e a7 f1 70 3e
       -0.024251398 -0.09117801 0.3568862 0.23529683
0002d0 d2 d4 b5 3d e3 56 23 3d 7a 95 d3 bd 8e a1 7b 3e
       0.08878483 0.039877784 -0.10331245 0.24573347
0002e0 bb 9a 28 3e 29 e6 0b 3f 81 68 06 3f 9c 23 9f ba
       0.16465275 0.5464807 0.5250321 -0.001214135
0002f0 27 9d 30 3e fa b7 99 3e 84 c2 21 3e 3f d8 7a 3d
       0.17247449 0.30023175 0.15796858 0.061241385
000300 c2 2f 9d 3c 61 ac bb be 37 23 aa 3e 02 19 09 be
       0.019187812 -0.36654952 0.33229992 -0.13388446
000310 7c 41 0d be d5 30 5c bd 6e ef e9 be 33 b1 35 be
       -0.13794512 -0.053757507 -0.45690483 -0.17743377
000320 47 eb e2 bd d3 43 d0 bf e5 b2 bd be e8 d4 3c 3b
       -0.11080032 -1.6270698 -0.37050548 0.0028813425
000330 b4 7a 95 3e f5 23 e0 3e 0c 07 db 3d bf cb f6 bd
       0.29195178 0.43777433 0.106947035 -0.1205058
000340 c8 21 4a 3e 1f 7b 42 be 7d 18 90 be cf 38 fb bd
       0.19739449 -0.1899228 -0.28143683 -0.12266695
000350 39 ae a9 be 50 75 90 bd 97 cb d9 3c 67 a0 64 3e
       -0.33140734 -0.070536256 0.026586337 0.22326814
000360 cf 8d a9 be 2d ca 8c bd 69 20 a2 be 30 95 d1 3e
       -0.33116004 -0.068744995 -0.31665352 0.40934134
000370 5f 3f 57 3e 78 87 52 3e 89 76 8d 3d d6 f0 9c 3d
       0.21020268 0.2055949 0.069073744 0.07663123
000380 58 82 9f 3d 29 16 c4 3d af ee 3a 3e bc 87 e1 bd
       0.07788533 0.09574539 0.18255113 -0.110122174
000390 55 16 0e 3d 0a 93 16 bc 48 9b 75 bf 0c f1 ab 3e
       0.034689266 -0.00919033 -0.95940065 0.33582342
0003a0 9d ae 72 bd 1e 6b cf 3b 5b a5 83 3d a3 f9 9e bc
       -0.059248555 0.006329908 0.064280234 -0.019406145
0003b0 c9 fb 29 3d df 05 5d 3e 2f 12 2c be 29 c4 24 be
       0.041499887 0.21584271 -0.16803811 -0.16090454
0003c0 02 08 ca 3e d6 48 4d bd ec b2 d2 3e 46 f1 99 3e
       0.39459234 -0.05011829 0.41152132 0.3006689
0003d0 53 07 ff 3d 8a 08 c4 3d 58 2f ac be ca c8 b1 be
       0.12452569 0.09571941 -0.3362987 -0.34723502
0003e0 16 c6 88 bd c7 70 f4 3d c9 38 d0 bd 02 62 49 3e
       -0.06678407 0.11935573 -0.10167081 0.19666293
0003f0 ff 0d 91 3d 62 a2 b4 bd f8 72 5c 3e 50 1c 9a bc
       0.07082748 -0.088200346 0.21528232 -0.018812329

fc1.bias f4 [256]
000000 e8 14 27 bf 9c a8 e5 3c bf f3 2f c0 3b c9 59 bf
       -0.65266275 0.0280345 -2.749252 -0.8507268
000010 f1 8b 31 bf 72 1d eb bf 75 11 0b c0 e8 b0 90 bf
       -0.6935416 -1.8368361 -2.1729405 -1.1303988
000020 00 d2 de bf 0f a1 87 bf f6 65 ca bd 0a 79 c7 bf
       -1.7407837 -1.0596026 -0.09882729 -1.5583813
000030 d0 54 29 bf c6 d2 00 c0 da cc d3 bf df 0d 0d c0
       -0.6614504 -2.0128646 -1.6546891 -2.2039716
000040 c9 ce 14 c0 eb f9 2d be f6 3d 61 bf cd 67 b3 bf
       -2.3251212 -0.16989867 -0.8798517 -1.4016052
000050 50 03 06 3f 16 ab cb bf 64 33 ab be 87 f0 32 3f
       0.52348804 -1.5911586 -0.33437645 0.69898266
000060 6d 58 a7 bf ea 97 12 3f 7c 98 04 c0 2d e9 37 c0
       -1.307386 0.5726305 -2.071807 -2.873607
000070 62 61 34 bf 19 ef 07 c0 20 c6 98 bf 91 b6 d2 bf
       -0.70461094 -2.1239684 -1.1935463 -1.6461965
000080 a5 8d dd bf 32 47 c7 bf 22 41 2a c0 31 a9 19 c0
       -1.7308851 -1.5568602 -2.6602254 -2.4009516
000090 15 1d d9 bf f2 0c 27 c0 99 19 fd bf f7 f7 c5 bf
       -1.6962 -2.610165 -1.9773437 -1.5466298
0000a0 3f d5 ec bf 84 43 f9 bf 48 c1 f7 bf 3c 02 08 bf
       -1.8502578 -1.9473729 -1.935586 -0.5312841
0000b0 c1 71 0b c0 82 e6 e9 bf a4 73 d2 bf b3 80 06 c0
       -2.178818 -1.827347 -1.6441541 -2.1016052
0000c0 e2 6d 58 c0 5b 4e 3d c0 fc 42 35 3e 03 e2 ed bf
       -3.3817067 -2.9579074 0.17701334 -1.8584598
0000d0 f8 a9 4e bf 42 67 d1 bf 21 0c d3 bf b7 f7 fc bf
       -0.807281 -1.6359637 -1.6488076 -1.9763097
0000e0 28 23 a0 bf 4e 1c f0 be 49 5c 80 be 65 f3 22 bf
       -1.2510729 -0.46896595 -0.25070408 -0.6365264
0000f0 0c 2d e4 3e 15 ed 47 c0 07 9a ad bf e1 0e 9f bf
       0.44565618 -3.1238453 -1.356263 -1.2426416
000100 db bb 08 c0 f1 ab 00 c0 33 70 ee 3e f5 2a ff bf
       -2.1364658 -2.0104945 0.46569976 -1.9934984
000110 14 19 3d bf d2 b5 39 c0 44 80 35 c0 21 65 eb bf
       -0.7386639 -2.9017224 -2.8359537 -1.8390237
000120 b3 9b d5 bf d3 aa 43 c0 fb b2 88 bf 0f da d9 bf
       -1.6688141 -3.0573013 -1.067962 -1.7019671
000130 52 6e bc 3f b9 71 20 c0 0f 47 e0 bf 66 16 d4 3f
       1.4721167 -2.506941 -1.7521685 1.6569335
000140 82 5b 0c c0 7c b3 db bf 0a 15 07 c0 f7 16 b0 be
       -2.1930852 -1.7164149 -2.1106591 -0.3439252
000150 91 2f 99 3e 38 28 22 c0 14 c5 10 3f 41 64 70 3f
       0.29919103 -2.5337048 0.5655072 0.93902975
000160 ab c6 06 bf 1e bc 02 bf 4d 7f f5 bf 0b ff bb bf
       -0.52646893 -0.51068294 -1.9179474 -1.4687208
000170 6f 5f 9b bf 24 9c 05 c0 f6 c8 1c bf ad a1 80 bf
       -1.2138499 -2.087655 -0.6124414 -1.004934
000180 e5 16 a8 be 7f 08 c5 bf 17 cc 89 bf 98 45 28 bf
       -0.32829967 -1.5393218 -1.0765408 -0.6573119
000190 d9 fd f4 bf 26 a6 1d bf c9 9a 53 bf 12 98 95 bf
       -1.9139968 -0.6158165 -0.8265806 -1.1687033
0001a0 6d e3 aa 3f b0 7b 6c bf 43 11 2f c0 e2 c3 04 bf
       1.3350655 -0.9237623 -2.7354286 -0.51861393
0001b0 01 4e b8 bf 92 1b 39 c0 28 1d d7 bf 8e 01 fb bf
       -1.4398805 -2.8923078 -1.6805773 -1.960985
0001c0 86 89 24 bd 95 07 97 3f 38 68 a6 bf 1f 62 14 c0
       -0.040170215 1.1799189 -1.3000555 -2.3184888
0001d0 e0 f8 32 c0 ca 94 42 3e d2 fc 1e c0 f9 ea 5b bf
       -2.7964401 0.19002071 -2.484181 -0.85905415
0001e0 7f 6c f5 bf 8b e2 22 bf cb b7 4b bd d5 3b e6 bf
       -1.9173735 -0.6362693 -0.049735826 -1.7987009
0001f0 94 78 00 c0 d4 bd d9 bf c5 a8 91 bf 46 6d b4 bf
       -2.0073595 -1.7011056 -1.1379629 -1.4095848
000200 1d 64 2c bd 29 fc 04 c0 27 80 4f c0 91 bc 6e bf
       -0.042087663 -2.0778906 -3.2421968 -0.9325648
000210 fb 67 09 c0 17 f1 29 bf bc ce 15 c0 72 77 21 3e
       -2.1469715 -0.663835 -2.340743 0.15768221
000220 8c 1c bf be ca ec b7 bf d5 7d ee bf c3 65 56 bf
       -0.37326467 -1.4369137 -1.8632151 -0.83749026
000230 f5 f4 f2 bf ed 1c 0d bf 92 e8 07 c0 3d 30 a4 bf
       -1.8981005 -0.5512226 -2.12357 -1.2827221
000240 91 71 08 c0 af e0 a5 bf 66 b8 e1 bf dc 98 b0 3f
       -2.1319315 -1.2959193 -1.7634399 1.3796649
000250 d0 a3 25 c0 f8 41 f4 bf 13 4c 42 bf f0 95 02 c0
       -2.5881233 -1.9082632 -0.7589733 -2.0404015
000260 5a 42 6a 3f 65 6d e7 be db 78 0a c0 1c 3f 4b c0
       0.91507494 -0.4520065 -2.1636264 -3.175727
000270 95 a9 a5 bf 82 b9 fc bf d9 11 c6 bf 57 cd 02 be
       -1.2942377 -1.9744112 -1.5474197 -0.12773643
000280 e7 5d 54 bf c0 e9 e0 bf 41 1e eb bf fa 64 b4 3e
       -0.82955784 -1.7571335 -1.8368608 0.3523329
000290 f8 fc 36 c0 16 a3 17 c0 38 8a 97 bf 33 9e 35 c0
       -2.85919 -2.369329 -1.1839056 -2.8377807
0002a0 63 fa a7 bf 31 62 f2 3e 33 9f 7f bf a6 02 87 bb
       -1.3123287 0.4734054 -0.99852294 -0.0041201888
0002b0 de d6 d8 be e7 a2 0b c0 a3 31 2b bf dd ff 4a bf
       -0.4235143 -2.1818178 -0.66872615 -0.79296666
0002c0 ff 5a 37 c0 e0 29 9d be cf 57 48 bf 72 52 ee bf
       -2.864929 -0.3069601 -0.78258985 -1.861891
0002d0 fd ae 49 bf 97 b6 c0 3e 1b 1a c9 be f5 85 e5 bf
       -0.78782636 0.37639305 -0.3927773 -1.7931505
0002e0 69 5c a4 bf ee 91 e4 bf b0 d0 c2 bf bc 58 2e c0
       -1.2840701 -1.7857034 -1.5219936 -2.724166
0002f0 02 c8 01 bf 53 3b 1e c0 be b0 0d c0 60 34 9d bf
       -0.5069581 -2.4723709 -2.2139125 -1.2281609
000300 77 c2 94 be 62 f3 db bf 6b 43 85 bf 76 c0 30 bf
       -0.29054615 -1.718365 -1.0411199 -0.6904367
000310 3a 9d 0f c0 9e 96 dd bf d9 a8 13 c0 28 f4 25 c0
       -2.2439713 -1.731159 -2.3071806 -2.593027
000320 02 77 56 be 80 25 15 c0 d4 11 0a c0 08 47 13 bf
       -0.20943835 -2.3304138 -2.1573381 -0.5753026
000330 df e9 b6 bf 2f 53 e6 bf 74 63 6c bf 22 cc 12 3e
       -1.4290122 -1.7994136 -0.92339253 0.14335683
000340 43 13 f4 bf af 4f 37 bf 07 52 e1 bf 9c eb 43 3f
       -1.9068378 -0.7160596 -1.7603158 0.76531386
000350 15 6b f9 be 5e dd 30 bf 64 0a 01 be cb c6 77 be
       -0.4871451 -0.6908778 -0.1260162 -0.24196927
000360 33 a3 c8 bf b9 ec f0 bf 1c 79 cd bf 9e 2a 2f c0
       -1.5674804 -1.8822242 -1.6052585 -2.7369761
000370 20 7f 0b c0 37 3a 58 bf 4c 3f 2b c0 7b 9f 0e c0
       -2.179634 -0.8446383 -2.6757383 -2.228484
000380 22 e4 3e 3f 54 52 d9 3f f9 79 d4 bf 9b df a8 bf
       0.74566853 1.697825 -1.6599723 -1.3193239
000390 9d a8 00 c0 11 1b e0 bf 6c 50 ed bf 92 b6 f5 bf
       -2.0102913 -1.750826 -1.8540168 -1.9196341
0003a0 83 ef f7 bf 13 3c 33 c0 96 c9 d3 3e 8c a4 c0 bf
       -1.9369968 -2.8005416 0.41364735 -1.5050216
0003b0 6b ad cc be f4 0d d7 bf 98 6f 3c bf 72 b6 2f c0
       -0.39976057 -1.6801133 -0.7360778 -2.7455106
0003c0 e1 c4 fc bf 34 79 62 bf 04 3d 9e 3f a2 aa 01 c0
       -1.9747583 -0.8846619 1.236237 -2.0260396
0003d0 a0 54 13 c0 7d 93 8c bf dc 6a 68 3e 55 e3 04 c0
       -2.30204 -1.098251 0.22697014 -2.0763752
0003e0 78 58 48 bf 78 26 b6 bf 1b f1 df bf 40 4e f6 bf
       -0.7825999 -1.423049 -1.7495455 -1.924263
0003f0 39 4e 02 c0 bf c9 67 bf 28 4f cd bf e4 c5 0f c0
       -2.0360243 -0.90542215 -1.6039782 -2.2464533

fc2.weight f4 [256, 256]
000000 bd b8 69 be 3a 07 78 3e b9 c6 8b bd 46 be d8 bd
       -0.22824378 0.24221507 -0.06825013 -0.10583167
000010 43 d8 c2 be 8b c9 48 3f e9 c5 ba 3e 2e cd 31 be
       -0.3805562 0.7843253 0.36479118 -0.17363426
000020 91 ef d6 3d 75 4c 81 bf 2b 04 15 bf 1d 9e ae bf
       0.104949124 -1.0101458 -0.58209485 -1.3642002
000030 f2 13 81 3e 90 aa c8 3d 04 40 14 bf 63 25 4a 3e
       0.2521053 0.09798157 -0.5791018 0.19740824
000040 d7 63 bf be e3 87 23 bf f9 14 9d be 50 05 a4 be
       -0.3738086 -0.6387922 -0.30680063 -0.32035303
000050 1d 35 1c bd 86 fe 00 3f 61 1a 7a 3e 9c f5 99 bf
       -0.03813659 0.5038837 0.24424125 -1.2028079
000060 8c 0e c5 be a8 f1 02 bf 59 d1 83 3d d9 6d 6b 3d
       -0.3848766 -0.5114999 0.06436414 0.057477806
000070 ab ae 90 3e dc fa ba bd 11 38 8d be 4e a2 0a bf
       0.2825826 -0.09129879 -0.27581838 -0.5415391
000080 ab dc 2a be 19 44 c1 3e 8d db d2 be 17 62 9f be
       -0.1668574 0.37747267 -0.4118313 -0.31129524
000090 7b 7a d5 3e b4 0e b7 bd e8 43 14 bf 43 9b e2 be
       0.41695008 -0.08938351 -0.57916117 -0.4425908
0000a0 81 87 b7 bd a4 16 0e be 24 71 44 3f 31 df 87 3e
       -0.08961392 -0.13875824 0.7673514 0.2653747
0000b0 ae ce 68 3e f7 cd 37 3e de ba eb bd 21 5c c5 3e
       0.22735092 0.17949663 -0.115102515 0.3854685
0000c0 01 92 18 3f 08 f6 28 bf 1a b0 37 bf 43 6e b7 bf
       0.59597784 -0.66000414 -0.71753085 -1.4330524
0000d0 93 36 a4 3e 19 66 e2 be c4 8c ff bf 29 36 1c 3e
       0.32072887 -0.4421852 -1.9964833 0.15255035
0000e0 32 88 6a bf d4 36 f7 bd 41 b6 0b bf 7a 51 b3 bf
       -0.9161407 -0.120710045 -0.5457497 -1.400924
0000f0 c8 33 65 bf d4 6f 04 c0 94 49 0b 3f db 81 85 3e
       -0.89532137 -2.0693254 0.54409146 0.26075634
000100 cb c8 10 3f cb 1b 21 3f 9c 3d 30 be 49 e9 d7 bc
       0.56556386 0.62933034 -0.17211002 -0.026356356
000110 9a ce 8a bf 48 4b 62 bf 17 2f ea bb 7e 46 90 3d
       -1.08443 -0.8839612 -0.007146727 0.07044695
000120 26 e3 69 3e f6 b7 4a be 4c ac fc be a0 4f a8 3e
       0.22840557 -0.19796738 -0.49350202 0.3287325
000130 40 60 ce bd 5b 3c b4 3e 35 8d 62 3e 18 64 99 bd
       -0.10076952 0.35202298 0.22124179 -0.074897945
000140 d9 6f 75 3f d8 b4 16 bf 7f 68 c0 be 2d 77 8d 3e
       0.9587379 -0.58869696 -0.37579724 0.27629986
000150 46 20 07 be 15 e5 b2 3c 75 4c c3 bf 0f 0d 5a 3e
       -0.13195905 0.02183775 -1.5257708 0.21294044
000160 56 95 15 3e 4e 7d c0 bf d7 f7 d5 3b df 41 8c be
       0.14607748 -1.503824 0.006529789 -0.27394006
000170 30 f8 93 bc d5 de d9 3d a6 5f 2b 3e 5e 37 ae bd
       -0.018062681 0.10638205 0.16735706 -0.08506654
000180 a8 9d 22 3f 34 16 8d 3c 09 9f 3c 3f b4 e7 ac be
       0.63521814 0.017222501 0.7368017 -0.33770525
000190 ad d5 b2 be 00 79 9d 3e 44 4b e3 be 91 bf 1d bf
       -0.34928647 0.30756378 -0.4439336 -0.6162043
0001a0 f5 74 16 3f 92 9e 8f be 13 be aa 3d 94 02 e1 be
       0.5877221 -0.28050667 0.08337035 -0.4394728
0001b0 5e 6e 7d bd ce 47 3d be af a2 95 be fb 2a 6c bf
       -0.061872832 -0.18484423 -0.2922568 -0.92253083
0001c0 06 09 b4 3e 58 6b 66 be 6b 6b f3 bd 50 d8 10 be
       0.35163134 -0.22501886 -0.11885723 -0.14145017
0001d0 77 7b 86 bf e1 f7 5f 3d ab 6e a5 bc 40 b7 9b be
       -1.0506428 0.054679755 -0.020194372 -0.30413246
0001e0 99 e9 0e bd 56 41 f1 bd 8e db 88 bf 85 3b 84 3f
       -0.034890745 -0.1178004 -1.0692003 1.0330664
0001f0 b6 91 9b bf 19 6a 65 be 6b f2 26 bf 78 31 1f 3e
       -1.2153842 -0.22403754 -0.6521365 0.15546215
000200 a3 3f 92 bf 07 ac ea be 5c 07 21 3e 84 59 47 bd
       -1.142567 -0.4583437 0.15725464 -0.048669353
000210 6f 19 8d 3e d2 6f 8e be df 98 94 bd 1e 66 de 3d
       0.27558467 -0.27819687 -0.0725572 0.10859321
000220 d3 e4 0e 3e 90 af 63 be 69 2c ed 3d 36 a4 50 bf
       0.13954477 -0.2223494 0.11580736 -0.81500566
000230 49 83 f7 3d 66 b0 51 be 00 09 13 3e 50 05 5d 3f
       0.120855875 -0.20477447 0.14358902 0.8633623
000240 7f 63 a1 bd 9d 69 63 bd cc 81 7b bc d7 21 aa 3d
       -0.078803055 -0.055520643 -0.01535077 0.08307236
000250 08 2c 70 be c9 45 33 3f d6 56 7d bf eb 82 01 c0
       -0.23454297 0.7002836 -0.98960626 -2.0236156
000260 ab 3d 0d 3f 50 b5 6a 3e 1d 02 b6 3e 76 af 3f bd
       0.5517222 0.22920728 0.35548487 -0.046798192
000270 28 7a bb be 98 7e a4 3e 77 bc 92 bd fc 3e d6 be
       -0.36616635 0.32127833 -0.07164853 -0.41844928
000280 63 38 59 3c e0 c2 6c be b0 ab 8b 3e 30 60 da be
       0.013258073 -0.23121214 0.27279425 -0.4265151
000290 d4 42 87 bf bb 3d 1b 3f f5 28 d6 be 0b b2 87 bf
       -1.0567269 0.6064107 -0.41828123 -1.0601209
0002a0 8b ee 03 c0 e7 e2 c4 bd 35 5e 08 bd 9e 2c c5 be
       -2.0614345 -0.09613591 -0.033292968 -0.38510603
0002b0 b5 42 ad bf d1 70 10 bf 76 e9 bb bd b5 92 a6 3e
       -1.3535982 -0.56422144 -0.091753885 0.32533804
0002c0 ee 3e cb be bc b9 12 be 7f cd ff 3e b7 04 ad be
       -0.3969645 -0.14328665 0.4996147 -0.3379266
0002d0 eb 89 c2 be 39 5a bd bd 0d ac 18 3f 64 75 bd 3d
       -0.37995848 -0.09245724 0.5963753 0.09250906
0002e0 78 db f0 3e af c5 8d 3e fc ad d6 3c 7a fb d1 3b
       0.4704244 0.27689883 0.02620601 0.006408152
0002f0 c3 d3 ac 3d ce ba 54 be cc 66 d7 be 49 cd 04 be
       0.08438828 -0.20774385 -0.42070615 -0.12968935
000300 d8 05 20 bf 66 f5 2c 3f 44 ca 80 3e 35 52 14 3e
       -0.62508917 0.6756195 0.25154316 0.14484484
000310 88 c7 5c be b6 c6 1a 3e 7f 62 86 3e 89 75 8f be
       -0.2156049 0.15114865 0.26247022 -0.2801936
000320 46 cd d9 bd 58 c8 52 3e 96 76 14 3e b2 2d 0f bf
       -0.10634856 0.20584238 0.14498362 -0.559291
000330 40 55 87 be 2c 5e 2b 3d 79 9c 21 bd e8 1f 42 bf
       -0.26432228 0.041837856 -0.039455865 -0.75829935
000340 e3 e4 99 3e 44 86 29 3e ce 04 04 c0 77 3a 17 be
       0.3005744 0.16555125 -2.0627933 -0.14768396
000350 cf 79 37 bf 68 e6 97 be f2 2c e5 3e 27 8d c7 bc
       -0.7167024 -0.29667974 0.44760853 -0.024359299
000360 04 f5 92 bf 92 ce ad be 40 49 e0 be cb 6d 64 bf
       -1.1481023 -0.33946663 -0.43805885 -0.8923003
000370 7b 0f 10 3f 8d 3c 85 bd 89 43 14 3f e1 6a e5 bd
       0.5627362 -0.0650569 0.5791555 -0.11202026
000380 8e a1 16 3f 3c 8f 26 be a7 fa 2d 3e 1f 2a 1c bf
       0.5884026 -0.16265577 0.16990148 -0.6100177
000390 69 53 6e bf 9f 50 5a 3d 27 c0 a8 be fe 8c 04 3f
       -0.93096024 0.053299543 -0.329591 0.51777637
0003a0 33 9e fc be fa 47 8e bf db c8 27 bf d2 8b 19 bd
       -0.49339446 -1.1115716 -0.65540856 -0.03748686
0003b0 0d fc bc bd 1a 52 15 be 13 3a c1 3e f9 7c 05 bf
       -0.09227762 -0.145821 0.3773962 -0.5214382
0003c0 5b bc 2b 3f 9b e1 f1 3e 75 06 f8 bf b1 94 81 be
       0.6708428 0.47242436 -1.937697 -0.25308755
0003d0 89 ff fe 3c f3 6c 07 3d c0 f6 98 3e 1c 06 40 3f
       0.031127708 0.033062886 0.29875755 0.7500932
0003e0 14 be 03 bf 11 32 89 3e 62 6b a2 be b0 4a b8 be
       -0.5146191 0.2679601 -0.31722552 -0.35994482
0003f0 91 11 4d be 45 c9 f8 bd 63 63 e0 3e 5a ec 8c 3e
       -0.20026232 -0.12147764 0.43825826 0.27524072

fc2.bias f4 [256]
000000 ae 5b 81 be 54 a1 55 3e a2 f5 cd be cb 91 74 bd
       -0.2526526 0.20862323 -0.40226465 -0.05970935
000010 cc a8 ca bd e1 82 d7 3e cc d9 3d 3c cf 9d 33 bd
       -0.09895477 0.4209204 0.011587571 -0.04385167
000020 87 25 56 3e a6 60 69 3e 6b e7 ca bd f8 b6 d1 be
       0.20912753 0.22790775 -0.09907421 -0.40959907
000030 02 7f ca bd 0c 5e 4e bd fb b0 cc 3f ed 49 72 bd
       -0.09887506 -0.05038266 1.599151 -0.059152532
000040 d6 48 e3 3e 14 9a 12 bd f3 da 79 3d 34 f4 c9 be
       0.44391507 -0.03579147 0.060999822 -0.39444125
000050 77 1c 36 bd 95 fc 38 bd 0f c3 9a 3e e9 0f 4d bf
       -0.04446074 -0.045162756 0.30226943 -0.801024
000060 cd c7 71 bd d6 81 59 3e 24 47 59 bd 26 23 8d bf
       -0.059028435 0.21240935 -0.05304636 -1.1026351
000070 45 4d ad 3f bc b0 19 3c bd 0d 10 be ba 3d 86 3e
       1.3539206 0.009380516 -0.1406774 0.2621897
000080 49 45 16 c0 0d 5d ff bc 82 e8 36 bc 9a 05 b4 bf
       -2.3479788 -0.0311723 -0.011163833 -1.406421
000090 d5 ef 2e 3f d8 a8 81 3e 90 4a e5 3e f9 a2 2f 3f
       0.68334705 0.2532413 0.4478345 0.6860805
0000a0 d1 d5 ac bd eb c1 9f bd 8f a1 ba be ec 13 83 3e
       -0.0843922 -0.07800659 -0.36451384 0.25601137
0000b0 6b 00 54 3e 0f 38 5a 3f cc 62 3d 3f 09 b4 eb bc
       0.20703284 0.8524179 0.7397888 -0.02877237
0000c0 79 01 0c be b1 5c b3 bd b5 f5 ec 3e d5 92 43 bd
       -0.13672437 -0.08757914 0.4628121 -0.04774745
0000d0 40 3e e9 3e 3e 17 20 bd cc 5a 11 bf 59 93 5f 3f
       0.45555305 -0.039084665 -0.5677917 0.8733421
0000e0 30 c3 ca 3b 9e fd d1 bd f8 b2 f4 bd cc a2 b9 bf
       0.006187819 -0.10253452 -0.11948198 -1.4502807
0000f0 f6 85 19 be 90 ca cd 3e f7 ee 17 3f f0 7d 92 bd
       -0.14992508 0.40193605 0.59349006 -0.07152927
000100 68 a5 f8 bc f3 58 ab 3e 4a 8d 4d bf 74 21 b2 3c
       -0.03035231 0.334663 -0.80293715 0.021744467
000110 b1 13 f5 bc 87 d7 56 bf 05 9c e6 3e 03 37 25 bd
       -0.029916616 -0.8392262 0.45040908 -0.040335666
000120 0c c7 c0 bf 68 7c fe 3e 06 05 c9 bd d7 f6 96 bf
       -1.5060744 0.4970429 -0.09815411 -1.179408
000130 40 19 c2 bb 8d 7a b0 3e ed 25 2d 3f f1 d5 7f 3f
       -0.00592342 0.344685 0.67635995 0.99935824
000140 2f ce d4 3f 97 ed ad 3e f4 13 7c 3f 3f d0 3b 3f
       1.6625422 0.3397033 0.98467946 0.73364633
000150 b2 0b c8 bf 75 8f cd 3e 1f 41 06 bf ed d0 00 bd
       -1.5628569 0.40148512 -0.52443117 -0.031449247
000160 ab 65 1c 3e 4c aa fd 3e a3 ca 0e bd 08 1a 99 bd
       0.15273158 0.4954399 -0.03486122 -0.07475668
000170 14 61 3e 3e 78 91 88 be 61 78 97 3e 93 94 db 3f
       0.1859172 -0.26673484 0.2958403 1.7154716
000180 7c 43 a7 3e 44 10 13 3d 63 1f ae 3e 5c 30 36 c0
       0.32668674 0.035904184 0.3400832 -2.8467016
000190 44 b2 ce bd eb 95 0c 3f b8 10 95 be 43 60 35 be
       -0.10092595 0.54916257 -0.29114318 -0.17712502
0001a0 35 9e d8 3b 98 f7 01 be 5f 8d 99 bd 75 25 44 be
       0.0066106566 -0.12692106 -0.074976675 -0.19154914
0001b0 e2 89 b1 3c 9d 97 85 3f 79 d5 1c 3e 38 24 b2 3c
       0.021672193 1.0436894 0.15315808 0.021745786
0001c0 f2 4e 39 bf 35 3b 14 bb b2 c8 1f bf 2c 23 07 bf
       -0.72386086 -0.0022618298 -0.6241561 -0.52788043
0001d0 83 a4 15 bd 88 f0 a5 bd 54 dd 73 3f f4 58 d6 bd
       -0.036533844 -0.08102518 0.95259595 -0.10466185
0001e0 a1 c7 ce 3e fa 67 7c be e5 ab eb 3e 8c bc bc bd
       0.4038668 -0.24649039 0.46029583 -0.0921565
0001f0 98 6f 16 3f b2 0a 1f bf ba 3e 6d be 78 93 84 3f
       0.5876403 -0.62125695 -0.2316846 1.0357504
000200 59 dc 3e 3f 49 e8 90 be 22 a2 80 bd 83 e9 9a be
       0.74554974 -0.2830222 -0.062809244 -0.3025628
000210 e6 89 fd 3e 9b 2f 87 3f 9c 63 8c bf 19 e3 80 3f
       0.4951927 1.0561403 -1.0967898 1.0069305
000220 e1 0b af be 39 ba 22 3f 64 19 f3 bd ba ab 74 3e
       -0.3418875 0.63565403 -0.11870077 0.23893633
000230 3a 71 e7 3d 8c e2 83 3f 5b 26 45 3f 9d 2c aa 3d
       0.11300893 1.0303512 0.7701165 0.083092906
000240 c1 b7 a3 be 26 2b 1b be c1 2e e7 be b9 53 ca bb
       -0.3197613 -0.15153179 -0.45152858 -0.0061745313
000250 e9 53 9f 3c 11 2c 14 3e b6 46 f9 bd fd 18 c8 bf
       0.019449191 0.14469935 -0.1217169 -1.5632626
000260 4a 26 ec bd eb 22 44 3b 6e 77 2b 3f 92 e4 16 3f
       -0.115307406 0.002992804 0.6697911 0.5894252
000270 a4 9f a5 bd 5c e4 0c 3f cd 2d c7 bd 71 0e 43 bf
       -0.0808709 0.5503595 -0.09725533 -0.7619391
000280 f3 20 91 3f de e2 eb bc ca 0f 2c 3c bf 0a 90 3e
       1.133818 -0.028794702 0.010501811 0.281332
000290 50 8b 2d 3f 44 45 b7 bf a9 3e 24 3f c8 8b 8b 3e
       0.677907 -1.4318013 0.6415811 0.27255082
0002a0 75 a4 86 3f 44 33 95 3e 31 00 ff bd 20 32 8b bd
       1.0518938 0.29140675 -0.124512084 -0.0679667
0002b0 3f a9 06 be 68 1b 30 3f 26 92 b2 be c1 fc 34 3f
       -0.131505 0.6879182 -0.34877127 0.7069817
0002c0 7e ef 63 bf 74 0c b4 bd c8 34 a7 be 02 04 e7 be
       -0.8903731 -0.08791438 -0.32657456 -0.45120245
0002d0 5c 0d f7 3e 0d 15 ed be 4b 9f 12 be f7 55 e0 bc
       0.4825238 -0.46305123 -0.14318578 -0.027384741
0002e0 bf 3b b5 3e c8 95 92 3f f2 1b ea bd 2f c1 04 be
       0.35397145 1.145196 -0.114311114 -0.12964319
0002f0 00 50 e8 bc 24 26 8b 3f 8d 83 b2 bf 88 36 19 bf
       -0.02835846 1.0871015 -1.3946396 -0.59848833
000300 ec 78 d0 bd 04 28 bf 3b 89 a1 a4 3f 79 d5 6c bb
       -0.10179314 0.0058336277 1.2861797 -0.0036137982
000310 ed 46 86 3d e6 3a ce be a3 b1 76 bd 2c f8 46 bf
       0.06556497 -0.4027931 -0.060228 -0.7772243
000320 80 e8 02 3f d1 82 39 3f 66 26 d4 be a8 86 89 bd
       0.51136017 0.72465235 -0.41435546 -0.06715137
000330 35 0d 8d 3e 39 ab 30 3f 78 c8 16 bf d4 62 56 3f
       0.2754914 0.69011265 -0.5889964 0.8374455
000340 b5 94 4e bd 57 54 0c be 48 13 2b 3f ac 87 30 3f
       -0.050434787 -0.13704048 0.66826296 0.6895702
000350 00 b1 85 bd 3b db 41 c0 84 1c 1a 3e 75 06 f4 3d
       -0.06527901 -3.0290058 0.1504994 0.11915294
000360 ef 1d d3 3d 53 b1 f2 3d e1 7d 85 bf 10 1c 57 bf
       0.10308444 0.11850228 -1.042904 -0.84027195
000370 38 c2 03 bf 0f 34 aa be 5c 72 15 3f eb 14 31 bd
       -0.5146823 -0.33242843 0.58377624 -0.04323284
000380 3f b0 73 3e 72 2f 11 bd c8 ed b1 bd 86 bd b8 3e
       0.23797701 -0.035445638 -0.08687931 0.36082095
000390 5e c2 35 3e 56 1f 6a 3f 95 23 a1 be 3c dd a1 bc
       0.17749926 0.91454065 -0.3147246 -0.019758813
0003a0 de d8 7b bc 08 1f ca 3e 55 44 3c be 26 79 f7 3e
       -0.015371529 0.394768 -0.18385442 0.48334616
0003b0 71 a4 06 3f c5 02 c6 bd 0d 39 b0 3e f5 01 35 3f
       0.5259467 -0.09668497 0.34418526 0.7070611
0003c0 67 05 44 c0 68 07 47 3f bc 15 ca bf 53 45 a4 bf
       -3.0628297 0.77745676 -1.5787883 -1.2833656
0003d0 81 a7 9a 3f d7 e3 6f 3f 0a 76 47 3e d0 3e 40 ba
       1.2082368 0.9370703 0.19478622 -0.00073335785
0003e0 f9 53 e5 3c 36 4a 58 3c 46 87 22 3f a1 c3 62 c0
       0.027994143 0.013201287 0.6348766 -3.5431902
0003f0 6f 62 3f bf b7 da 2e be aa 27 ac bd cd c3 76 3d
       -0.7475957 -0.1707562 -0.08406003 0.060245324

fc3.weight f4 [256, 256]
000000 bf a9 75 bc 79 54 15 3f d6 2e 6f bf 9b 51 b9 3b
       -0.014994084 0.5833202 -0.9343084 0.00565548
000010 7e 49 9c 3d 65 70 09 be f3 4e 32 3d 85 c8 96 bd
       0.07631205 -0.13421781 0.043532323 -0.07362465
000020 19 62 97 be 32 1e e7 bf 18 77 6c bc 2d da 76 3e
       -0.2956703 -1.805609 -0.014432691 0.24106665
000030 97 71 ac bc 6a ff 86 be 22 34 6e 3c 81 68 ee 3c
       -0.021050258 -0.2636674 0.014538797 0.029102566
000040 2f 65 7a bb 67 2c 66 3c 55 70 bd be e6 ef 05 bd
       -0.0038207283 0.014048672 -0.36999765 -0.032699488
000050 ed b7 8b 3a c3 9b c2 3c 5e 79 8d be 20 ca 0d bf
       0.0010659673 0.023755914 -0.27631658 -0.55386543
000060 a7 bf 41 3d b9 e5 1f 3e 52 65 0b 3d 6a db 8d be
       0.047301915 0.15614976 0.034032173 -0.27706462
000070 fd 87 9b be 0f 48 2c 3d 27 ad 11 3d b4 65 29 be
       -0.30377188 0.042060908 0.03556552 -0.16542703
000080 1f 62 02 3e 9b ea 41 bc af 76 9b 3e fa 4f 1b 3e
       0.12732743 -0.011835719 0.30363986 0.15167227
000090 13 6f d0 be e4 09 e5 3b 15 ef 2d be 19 0a c8 3d
       -0.40709743 0.0069897044 -0.16985734 0.09767551
0000a0 b8 8b 5f bd 94 50 c8 bd 5e cd 95 3e 86 e1 74 3d
       -0.054576606 -0.09780994 0.29258245 0.05978539
0000b0 2e e3 27 3c 4e 35 5a bf 3f 99 c0 3e a3 97 c5 3c
       0.010247035 -0.85237586 0.37616917 0.024120158
0000c0 d2 e6 12 3d 28 c1 2f bd 36 9a 90 bd c0 10 b4 3c
       0.03586466 -0.042908818 -0.070606634 0.021980643
0000d0 61 79 81 3d 15 6b 0d bb 7d b4 af be 37 1f 31 be
       0.06321979 -0.0021578718 -0.3431739 -0.17297064
0000e0 3c d7 b1 bc eb 60 77 bc c5 04 82 3e ff 7f a8 be
       -0.021709077 -0.015098791 0.25394264 -0.32910153
0000f0 3d 29 5f bb 47 dd 1b 3e 5b e1 99 3d 10 b5 95 bd
       -0.003405168 0.1522113 0.07513686 -0.073099256
000100 06 b3 6c 3d af 96 10 be c6 ef 08 3e e9 19 3d be
       0.057787918 -0.14119981 0.13372716 -0.18466915
000110 0c 22 f0 bd 35 97 fc be 26 83 95 be 6b 83 80 3d
       -0.11725244 -0.49334112 -0.2920162 0.06275066
000120 96 a7 c2 bd 4f 6a 38 3e 1e c8 c5 3c c4 e0 2a bf
       -0.09504621 0.18009304 0.024143275 -0.66749215
000130 4e f2 97 3d 47 23 3b be 00 07 e8 be c8 07 45 ba
       0.07419263 -0.18275176 -0.4531784 -0.0007516113
000140 5f 80 c1 3d 6d 8f 8e bd 78 b7 46 bd 93 c4 cf 3e
       0.09448313 -0.0696095 -0.048514813 0.40579662
000150 e7 da 72 3e e7 f2 91 be 74 e6 14 be 8b 81 59 3e
       0.23716317 -0.28505632 -0.14541036 0.21240823
000160 78 65 e9 3d 01 4b 27 3e f5 61 e4 3d af 0d 56 bd
       0.11396307 0.16337205 0.11151496 -0.052259143
000170 77 fc 07 3e f9 a9 04 3f bb 72 9f be 56 8e dc 3e
       0.13279901 0.5182186 -0.3114222 0.43077344
000180 ad 1d 22 3e 9c a0 03 bd 1c 7f fc be 82 2a 83 be
       0.15831633 -0.03213559 -0.49315727 -0.25618368
000190 31 a9 4a bd 9d ff 0f bf 06 f5 95 3e f6 95 a1 3d
       -0.04947776 -0.5624941 0.292885 0.07889931
0001a0 d3 d7 02 bd d3 f7 6a 3d 4e ff 6a 3d 2f 02 db 3e
       -0.031944107 0.05736525 0.057372384 0.42775103
0001b0 ea a7 c5 3d 56 20 93 be 38 6d a3 3e df 5e 76 bd
       0.09651168 -0.28735608 0.31919265 -0.06014907
0001c0 3d 64 c0 3c ce 3e 69 3d 46 3d c6 be 20 6a c4 be
       0.023485297 0.05694466 -0.38718623 -0.38362217
0001d0 77 e9 ec 3e ee 13 84 bc a4 22 56 3d 8f 3c 20 bc
       0.4627187 -0.016122784 0.05227913 -0.009780063
0001e0 58 b5 94 bd d3 22 a6 3d 73 2b 80 bd 80 7b 11 bd
       -0.07261151 0.08112111 -0.06258287 -0.03551817
0001f0 06 2f 69 bd a2 66 18 3e 0a d2 a0 3e 9b 25 76 be
       -0.05692961 0.14882901 0.31410247 -0.24037783
000200 d6 38 80 3e 31 bd 19 3e f6 4c 7f bd 66 3d 95 3d
       0.25043362 0.15013577 -0.062329255 0.072871014
000210 46 2e 3e 3d 97 8e 4c bd dd 90 bf 3c 96 66 3b be
       0.04643085 -0.04994067 0.023384506 -0.18300852
000220 98 00 0f 3f d5 f4 0b bf a4 dc 49 bc 2e 42 e6 3d
       0.5586028 -0.5467046 -0.012320671 0.112430915
000230 be e5 72 bd 5c a1 b1 be f0 7e 7c 3e 0f 77 41 3e
       -0.05930113 -0.3469342 0.24657798 0.18893073
000240 ab a3 0e be ee 95 59 3e 2b 02 77 bd 50 ad 54 bd
       -0.13929622 0.212486 -0.060304802 -0.051923096
000250 50 45 f2 ba 98 a6 22 3d 4d f8 25 bd 35 90 2e be
       -0.0018483792 0.039709657 -0.04052 -0.17047198
000260 f2 06 09 be 20 6c 56 3d fc 4a 92 3c d7 2d 81 be
       -0.13381556 0.05234921 0.017858021 -0.25230286
000270 57 d8 1d bc 77 77 d6 bd 63 7b 21 3e 3f 7f ba be
       -0.009634099 -0.10472005 0.15769725 -0.36425206
000280 1b 0c 0e bf 35 5f ad 3a 13 33 28 bb 3e 91 9e bc
       -0.5548722 0.0013227226 -0.0025665208 -0.019356366
000290 14 db bc bd 7e ce cf 3d ca e6 af bd 07 02 26 be
       -0.09221473 0.10146807 -0.085889414 -0.16211711
0002a0 ea fb 96 3d ce d4 13 bf e1 a2 1d 3e 3f f3 9f bd
       0.073722675 -0.5774659 0.15394165 -0.078100674
0002b0 e6 80 90 bd db 55 40 3e 11 8d e3 bc 4a 75 3a be
       -0.070558354 0.18782751 -0.027777227 -0.18208805
0002c0 5d bf 24 bf 25 22 68 3d 1f 0a ba bc 01 4e 14 be
       -0.643545 0.056673188 -0.022709904 -0.14482881
0002d0 ac c4 34 3e f1 c1 90 be a9 67 b3 bf 36 59 13 3d
       0.1765315 -0.28272966 -1.401601 0.03597375
0002e0 6d 41 80 3e c8 3c 8a be 5c 7d 7f bd 9b ae 3f bd
       0.25049916 -0.26999497 -0.06237541 -0.046797376
0002f0 65 a0 68 3d d9 ad de 3e 9c 3c e6 be 20 c1 d5 be
       0.05679359 0.4349201 -0.44968116 -0.41748905
000300 8c 83 ca 3c fb ad 6e 3d 28 4e 1f bf ac c7 18 bd
       0.02472093 0.05827139 -0.6222863 -0.037299797
000310 1b ea 75 3e 05 1e 69 3e d6 f5 04 3d d4 68 89 bc
       0.24015085 0.22765358 0.03246101 -0.016773619
000320 62 0e 80 bf ca fb 40 bd 21 6b 7c be a8 17 2e bd
       -1.0004389 -0.047115125 -0.24650241 -0.04250303
000330 e7 73 13 bd ae 16 ec 3d 88 50 19 3c 53 72 78 be
       -0.035999205 0.11527763 0.009357579 -0.24262361
000340 9f a2 c1 3c b0 52 62 bd 5a bb de 3d 05 4e 1f 3e
       0.023637114 -0.05525464 0.10875578 0.15557106
000350 02 51 07 3c 7b 12 68 3e bf d6 04 3e f7 02 92 bf
       0.00825906 0.226633 0.12972544 -1.1407155
000360 5b b2 e7 be 10 c4 53 be 2d 13 9c be 9a 05 5a 3e
       -0.45253262 -0.2068026 -0.3048338 0.212912
000370 3b d8 79 bf ec fd bb 3d 2d 20 94 3e 8c 40 16 3d
       -0.97595567 0.09179291 0.28930798 0.03668265
000380 28 3f a9 bd 17 78 fd 3c 93 43 67 3d 15 97 dd bd
       -0.08263999 0.030941052 0.05646093 -0.10819832
000390 b4 88 15 be c6 35 db bd 1b 96 0d bf 36 e8 eb bc
       -0.1460293 -0.10703616 -0.5530717 -0.02879725
0003a0 59 bb 9c bd 54 4c 98 bd c7 9f d4 3d 42 7e 59 be
       -0.07652921 -0.074364334 0.103820376 -0.2123957
0003b0 86 74 fa 3d 0a 2a 6c 3d 8d e1 26 be 29 17 b4 be
       0.12229256 0.05765728 -0.16296978 -0.3517392
0003c0 8a cb c5 bd 5a cb d0 3d ff 5c 3c 3e 41 7d 1a be
       -0.096579626 0.10195036 0.1839485 -0.15086843
0003d0 aa 08 49 be a2 77 d0 3d 4c 07 9a 3e ed 30 e4 bc
       -0.19632211 0.10179068 0.30083692 -0.02785536
0003e0 47 ee f9 3d 3e 9f 65 3b 04 72 f5 bd d4 52 1a bd
       0.12203651 0.0035037543 -0.119846374 -0.037676647
0003f0 f9 25 11 3e 06 74 b7 bd bf 54 fc bc ed 4f 73 be
       0.14174642 -0.089576766 -0.030802129 -0.23760958

fc3.bias f4 [256]
000000 9f af 17 bf 44 40 e4 be 02 8a 7b be 54 23 97 3f
       -0.5925235 -0.4458028 -0.24564365 1.1807656
000010 ab 69 80 3e af 07 5a be d0 4d 24 bf 25 29 56 3e
       0.25080618 -0.21291994 -0.6418123 0.20914133
000020 76 b0 cd be 68 4c 98 be 58 27 ef be 5c 25 79 be
       -0.40173692 -0.29745793 -0.46709704 -0.24330658
000030 51 ef d4 bf 72 0b a8 bd 06 2b 51 bf 2d f1 2a bf
       -1.6635534 -0.08205308 -0.81706274 -0.66774255
000040 ec f1 6a bd 59 91 6a bf d4 63 c9 be d6 f7 a2 bf
       -0.05735962 -0.9162803 -0.39333975 -1.2731884
000050 8f a2 d1 be 66 a5 f6 3e ca 64 07 be 3d cc 86 bf
       -0.40944335 0.48173064 -0.13222042 -1.0531079
000060 de 2b bd bd 0e 7a 11 bf ad b5 1d bf 91 5b 14 bf
       -0.092368826 -0.56826866 -0.6160534 -0.5795222
000070 2e 58 1b 3e 51 4d a4 be 1b 0e 10 bd 51 ed a4 be
       0.15170357 -0.32090238 -0.035169702 -0.32212308
000080 a8 a2 c1 bd 55 3a 3f bf 4d e2 0b bf a2 d7 50 3f
       -0.09454852 -0.7469838 -0.5464218 0.8157903
000090 05 ff 0d bf 90 29 22 be dd 12 d4 3f 71 88 ae bd
       -0.55467254 -0.15836167 1.6568257 -0.08522118
0000a0 78 b1 c5 be 74 0a 04 be 80 25 e9 bd c0 51 06 40
       -0.3861196 -0.12894613 -0.11384106 2.0987396
0000b0 2d 54 e7 be 79 fb 48 bf 26 f7 00 bf 98 d7 37 3e
       -0.4518141 -0.78508717 -0.5037712 0.17953336
0000c0 e0 ef 76 be 4f c1 07 be bf 1c 42 be 38 ec 06 bf
       -0.24114943 -0.13257335 -0.18956278 -0.5270419
0000d0 5a bd 22 3e e0 ac 8b be 25 c7 1b 3f 7c d2 f6 be
       0.15892544 -0.2728033 0.60850745 -0.48207462
0000e0 2a 92 b3 bd 9a cb 9a be 15 2b be 3e 20 50 b1 be
       -0.08768113 -0.3023346 0.37142244 -0.34631443
0000f0 59 91 0e bf 20 c7 80 bf fb e8 b8 be f7 95 04 40
       -0.5569053 -1.0060768 -0.3611525 2.0716531
000100 d6 b2 14 bd 42 26 5e bf 90 b5 24 3f 78 57 db be
       -0.036303364 -0.86777127 0.6433954 -0.4284017
000110 24 65 e7 3f c1 ab 03 bf e4 a4 da bb 6b 4e bd be
       1.8077741 -0.5143395 -0.0066724885 -0.3697389
000120 df ab a9 bd d1 d9 af be 91 30 81 3d 81 8a 45 be
       -0.08284735 -0.34345868 0.063080914 -0.19291116
000130 74 95 04 bf 42 0a 31 bf b6 b4 1c bf 15 ed 79 3f
       -0.5179055 -0.6915628 -0.61213243 0.97627383
000140 43 31 02 bf 13 9b 9c bc d3 4b ef 3f d6 83 23 3e
       -0.5085642 -0.019116914 1.8695015 0.1596826
000150 47 e1 78 3f 2d ea e0 be 20 27 da bf 25 b5 b3 be
       0.97218746 -0.43928662 -1.704319 -0.3509914
000160 4d 71 0b 3f 28 9b 2c bf 9e 8c 87 be fe 76 ea be
       0.5446976 -0.6742425 -0.2647447 -0.4579391
000170 70 e0 9f be a4 f5 74 bf 7d 1d 89 bf b2 b5 b8 be
       -0.3122592 -0.9568732 -1.0712124 -0.36076123
000180 63 9b cb be 77 fd cc be a0 e1 82 be b1 fc 0b bf
       -0.39766988 -0.40037128 -0.25562763 -0.5468245
000190 8a fb 3b 3f a0 43 76 3f 9c 79 c2 be b3 c5 af bf
       0.73430693 0.9619694 -0.37983406 -1.3732208
0001a0 d0 9e c4 bd 3f 8d 08 bf 3b ae 8e 3f 34 04 b4 be
       -0.096006036 -0.53340524 1.1146921 -0.35159457
0001b0 c8 1f 11 bf 83 84 44 bf f0 a1 6f bf 95 82 83 be
       -0.5668912 -0.76764697 -0.9360647 -0.25685564
0001c0 6d 2b fa bd c7 77 fb be 29 a9 94 be 9f c1 f1 3c
       -0.12215314 -0.4911482 -0.2903531 0.029511271
0001d0 f4 69 a2 be 8c 12 78 bf b6 b1 cb bf 25 df d0 be
       -0.3172146 -0.969033 -1.5913608 -0.40795246
0001e0 c3 ca cd be cf 69 98 bf d5 89 53 be a7 12 87 be
       -0.40193757 -1.190729 -0.20658047 -0.26381418
0001f0 05 2b 3a bf fb 4a 83 be 05 a0 25 3e 4c eb 15 3f
       -0.7272189 -0.25643143 0.16174324 0.5856216
000200 8c 84 88 bf 40 59 52 bf 30 76 f8 be 18 e3 58 3e
       -1.066545 -0.82167435 -0.4852767 0.2118038
000210 b5 58 bd be 4c 17 08 3f 68 85 2b bf 88 38 20 be
       -0.3698174 0.5316055 -0.67000437 -0.15646565
000220 a7 c0 43 be 01 7d 30 bf c6 b8 23 be 77 6d 4e be
       -0.1911646 -0.6894074 -0.15988454 -0.20158945
000230 11 5a 19 3e 16 42 9c be 0e c2 19 be d6 0c d8 be
       0.14975764 -0.3051917 -0.15015432 -0.42197293
000240 48 19 15 3b ed 83 5b 3d 9d ff 34 be 7d 86 4d be
       0.0022750665 0.05359261 -0.17675634 -0.20070834
000250 2c a4 e0 bd 6d ef 85 be 48 13 46 bf ac 85 57 be
       -0.10968813 -0.2615923 -0.7737317 -0.21047086
000260 6f dc 47 be cc 0d 9d be b7 3e b2 be 48 61 83 3b
       -0.19517682 -0.3067459 -0.34813473 0.0040093996
000270 df 1a 84 bf 5e a5 4a 3d c7 66 03 3e e2 70 c6 bd
       -1.03207 0.049474113 0.12832175 -0.096894994
000280 0c 08 a4 bd 28 95 c8 be f5 08 65 bf ce c9 25 bf
       -0.08009347 -0.39176297 -0.8946679 -0.64761055
000290 c7 20 88 3e 35 7f 30 bf dd 81 60 3f a0 e2 00 bf
       0.26587507 -0.689441 0.87698156 -0.503458
0002a0 f6 5d 10 bd be 00 f0 be 6e bb 9f be 15 f0 0c be
       -0.035245858 -0.46875566 -0.31197685 -0.13763459
0002b0 bf 18 9a be 31 90 a7 3e 1e 50 4a be 20 7e 9c be
       -0.30097005 0.32727197 -0.19757125 -0.30564976
0002c0 ae db 6a 3f 38 0f ce 3e 76 de bb be 91 5a 82 be
       0.91741455 0.40245986 -0.36693162 -0.25459722
0002d0 6a 5f 08 3e 2d b5 3d bf 31 ea ce bd 6b 72 f6 bd
       0.13317648 -0.7410458 -0.10103262 -0.12033542
0002e0 ba 51 a6 be cb ef aa be 78 c5 26 bf 3b 26 af bd
       -0.32484227 -0.33386073 -0.65145063 -0.08552214
0002f0 1b 9d 93 bf 68 7b 32 be 2e 81 9c be fb 5b 7d be
       -1.153232 -0.17429888 -0.30567306 -0.24742119
000300 28 32 50 be 8c 04 fb be 51 f4 f8 be 5d 1e 27 3f
       -0.20331633 -0.49026906 -0.486239 0.65280706
000310 b0 73 af 3e 38 db 71 be d4 b7 c3 be 19 01 9d 3d
       0.3426795 -0.23618782 -0.38226187 0.07666225
000320 a8 f5 87 bf 4a 34 0d bd 09 7a 41 3f 3b 89 cc be
       -1.0621843 -0.034473695 0.75576836 -0.3994845
000330 e4 a9 bf 3d 14 e2 4f be 4a 06 08 3c a8 30 93 be
       0.09358576 -0.20301086 0.008302281 -0.2874806
000340 1a a7 94 be 28 49 93 be 95 39 38 bf 3d e0 49 3e
       -0.29033738 -0.2876675 -0.71962863 0.19714446
000350 12 c0 a5 3f a0 61 91 bf 01 98 ab bd d6 ae 79 be
       1.294924 -1.1357918 -0.08378602 -0.24383101
000360 4d e0 09 3f 35 2a 15 bf 65 06 e0 be ea 04 4d bf
       0.5385788 -0.5826753 -0.4375488 -0.80085623
000370 f4 77 74 bd 14 b4 89 be d7 46 57 bf 3d 59 2c 3f
       -0.05968471 -0.268952 -0.8409247 0.67323667
000380 7e 33 47 3e 4d aa 49 bc d8 3b 80 be d0 5e 91 bf
       0.19453236 -0.012308669 -0.25045657 -1.135706
000390 17 3a 01 bf 89 b9 85 3e a9 83 9a bf fd 4b 99 3f
       -0.50479263 0.26118115 -1.207143 1.1976315
0003a0 a7 b4 9c be 3b 6c f8 be 1a 9d 3d be 48 de 54 bf
       -0.30606577 -0.48520073 -0.1851696 -0.83151674
0003b0 73 d3 a0 be 28 c6 3f bd 5b b2 d5 bd 46 75 79 be
       -0.31411323 -0.046819836 -0.10434409 -0.24361143
0003c0 b3 db 2b bf d1 06 f6 3e 1d 26 38 3c b0 e5 48 bd
       -0.6713211 0.48052076 0.011239556 -0.049047172
0003d0 b2 aa eb bd 7e 76 d0 3e eb 22 01 3f ce d0 18 be
       -0.11507167 0.40715402 0.50443906 -0.14923403
0003e0 6d c2 ca be 0c 51 f1 3d a4 83 99 3f 0a 98 10 bf
       -0.3960146 0.117830366 1.1993299 -0.56481993
0003f0 81 07 80 be b8 e7 c6 be 06 61 de be ca 49 03 bf
       -0.25005725 -0.38848662 -0.43433398 -0.5128447

action_out.weight f4 [4, 256]
000000 f9 f0 81 3c 67 84 b8 3e fd 86 f2 bd d9 c1 e2 3c
       0.015861975 0.36038515 -0.11842153 0.027680324
000010 8f 3a 40 bd 03 20 8b bd bd 9d df bc ba 48 68 be
       -0.046930846 -0.06793215 -0.027296895 -0.22683993
000020 e2 15 e8 3c 48 a7 02 be fd fe b5 3d f8 53 06 3e
       0.028330747 -0.12759125 0.08886526 0.13117969
000030 f9 55 c3 bc 16 61 26 be 3e 39 44 3d 3e 0f c3 bd
       -0.023844706 -0.16247973 0.047906153 -0.095243916
000040 79 df a7 3d a7 29 3a bd 33 c6 51 3c f7 0a 5a 3e
       0.08196921 -0.04544988 0.012803602 0.21293245
000050 be ad 7b 3d 0f 37 1d 3d 57 ac 23 bd 58 e4 91 be
       0.06144499 0.038382586 -0.039959278 -0.28494525
000060 84 19 4f bc ac 6b 91 be b7 4d 1b be f5 70 04 3d
       -0.012640361 -0.2840246 -0.15166365 0.032334287
000070 9d cb 99 3d 2c 1a 73 be 43 a5 52 3c c5 60 06 bd
       0.07509539 -0.23740453 0.012856784 -0.03280713
000080 21 a2 1f bc f1 ce 01 3c 35 8c ed 3c 90 c9 58 3c
       -0.009743244 0.007922874 0.02899752 0.01323165
000090 5e 31 dc bc e7 20 17 3d 16 e4 18 3c 82 07 01 be
       -0.026879009 0.036896612 0.009331724 -0.1260052
0000a0 ae 7b 05 be 56 e6 64 bd 9f 9f 0a be 2a 9a 8b 3c
       -0.13035461 -0.055883728 -0.13537453 0.017041285
0000b0 83 5e 99 3e 4b eb 8a 3c 02 cf 94 bd bc 86 9d be
       0.2995492 0.0169579 -0.07266046 -0.30766857
0000c0 89 a8 24 3b da a8 29 bd 14 8e 9e 3e a5 86 22 be
       0.002512487 -0.041420795 0.30967772 -0.15871675
0000d0 8d 28 2d 3b 10 e5 44 bd 41 39 df bd 19 4d cf 3e
       0.0026421875 -0.048070014 -0.10899592 0.40488508
0000e0 b0 79 8e be c0 50 58 3e b9 42 1e 3d d8 ff 90 3d
       -0.27827215 0.21124554 0.03863785 0.07080048
0000f0 74 09 9a 3d 23 c8 c6 3c 16 3f ff 3b 31 76 fd bc
       0.07521334 0.024265354 0.007789503 -0.030940147
000100 f1 c4 44 3e 67 2e 07 3e 70 d9 a4 bc 58 a0 4d bc
       0.19215752 0.13201295 -0.020123214 -0.012550436
000110 ef 07 c1 3c fc 82 d7 3c e1 f3 3f 3e 94 4b c5 ba
       0.023563353 0.026307575 0.18745376 -0.0015052431
000120 93 30 f7 bd 98 4a cc 3d d2 01 29 be 9e 62 a0 bd
       -0.12069812 0.09975165 -0.165046 -0.0783131
000130 34 d2 73 be 0b c1 de 3c f7 8b 9f bb 8f e4 87 be
       -0.23810655 0.02719166 -0.00486898 -0.26541564
000140 ec 13 7d 3b 65 78 6c bf 23 44 b0 3c 18 76 cf 3d
       0.003861661 -0.9237121 0.021516865 0.101299465
000150 2c b6 6f 3c 74 65 e5 3d 76 30 ef 3a d1 18 cb 3d
       0.0146308355 0.11200991 0.0018248695 0.09916843
000160 cd b2 21 bd 55 11 72 bd d8 90 31 3d 93 e0 bc be
       -0.03947716 -0.05909856 0.043351024 -0.36890087
000170 31 b4 d2 bc 42 f2 15 be 90 e3 ad bb 61 c3 00 be
       -0.025720688 -0.14643195 -0.0053066686 -0.12574531
000180 b6 1c 7b be 10 a1 34 bd e8 17 7c 3d 12 1f 7b 3e
       -0.24522671 -0.044098914 0.061546236 0.24523571
000190 31 1f e6 bb 80 31 36 bd a5 16 51 bd b8 f2 01 3e
       -0.0070227613 -0.0444808 -0.051046986 0.12690246
0001a0 47 f9 47 3f 90 ad 33 be 84 90 50 bd 59 61 aa 3e
       0.7811474 -0.17546678 -0.05091907 0.33277395
0001b0 02 07 3e 3d 93 48 73 bc 24 50 33 bd 39 9a 37 3d
       0.046393402 -0.014848846 -0.0437776 0.044824813
0001c0 6f ca 9a bd 4f 66 cd bb 26 1e 88 bd 7c 5d 4b 3e
       -0.075581424 -0.0062682997 -0.06646375 0.1985988
0001d0 91 19 bc bc a1 4e bb 3b af 07 19 bf ef 86 f9 bd
       -0.02296141 0.0057161604 -0.5977735 -0.1218394
0001e0 57 d1 1f bc f0 5a a2 bb 0f d5 db bc f7 3d 87 bd
       -0.0097545 -0.0049546883 -0.026834993 -0.06603616
0001f0 eb f0 99 3d 54 88 57 bb 18 16 e6 bc 6c bc 16 3d
       0.075166546 -0.0032887654 -0.028086707 0.036800787
000200 e6 51 d2 3e 87 b7 98 3c 7a d5 44 3c 3f 2b 01 3e
       0.4107811 0.0186422 0.012013787 0.12614153
000210 56 c9 b3 b9 17 9f 32 3f a7 00 c3 3d 75 89 2b 3d
       -0.00034291547 0.69774 0.09521609 0.041879136
000220 a0 b8 0c bd 0c dc 38 bb 94 5d 58 bc e6 c8 52 3c
       -0.03435576 -0.002820733 -0.0132059045 0.012865281
000230 5b 9f 3f 3e 93 5b 49 3c b7 cc 71 bc 9e da f5 3d
       0.18713133 0.012289899 -0.0147582805 0.120045885
000240 7f 60 cd 3d 0a a8 78 3d c8 f3 b6 3d f1 7f 60 bd
       0.10028171 0.06070713 0.08933216 -0.054809514
000250 9d 93 55 be 98 2a 97 bd 8f 8e 5f be df 21 92 bd
       -0.20857091 -0.07381171 -0.21831726 -0.07135367
000260 98 ec 62 3e 13 de e2 be 54 66 de 3c 17 42 83 3e
       0.22160566 -0.44310054 0.027148403 0.2563636
000270 7b ed d0 3b 86 68 7e 3c a1 38 6f be 38 74 a6 bc
       0.006375966 0.01552785 -0.23361446 -0.02031909
000280 1f fb df 3d 8c 25 74 3d 7f ba 41 bc 0a f3 91 3d
       0.109365694 0.05960612 -0.011824249 0.07126434
000290 0b 9e a6 3d 23 7c 54 3d 4b dc 8a 3b 31 37 c3 bc
       0.08135613 0.0518762 0.0042376867 -0.023830028
0002a0 c4 4a ec bd 0e 95 06 bd 3c c6 bb 3d 88 d8 31 3e
       -0.11537698 -0.032856993 0.091686696 0.17367756
0002b0 5c c6 a3 bc 8b a5 96 bc c0 48 fd 3b 5a 86 52 3d
       -0.019992046 -0.018389484 0.0077296197 0.05139766
0002c0 d6 49 08 bc 9d 96 9b bd 17 1a a8 bd bd 55 93 3c
       -0.008318385 -0.075970866 -0.08208101 0.01798522
0002d0 1b e6 d0 be ff c8 07 3d 16 a6 71 bd e0 e5 b7 bd
       -0.40800557 0.03315067 -0.058996283 -0.08979392
0002e0 48 87 0a be ef 42 f0 bd 2d e5 67 3c 2d 4f 9d bc
       -0.13528168 -0.117315166 0.014153761 -0.019202793
0002f0 2b 01 16 3c 44 01 24 3e 20 55 6b 3e 9a 09 ed bc
       0.009155552 0.16016108 0.22981691 -0.028935242
000300 16 25 aa bd 8d 7f d9 3d 81 bf a7 bd 14 e2 23 3d
       -0.08307855 0.106200315 -0.08190823 0.040010527
000310 e6 87 9d 3b 8f 4b 1b bd 7c 51 63 3c cd 0c fa bd
       0.00480746 -0.037913855 0.013874408 -0.12209473
000320 d6 13 f5 bb 33 c7 48 3c f1 75 84 bc a1 d0 9f 3c
       -0.0074791713 0.012254524 -0.01616952 0.019508662
000330 f0 25 ac 3d 0f 82 48 3d 16 68 89 3a 6d 90 a5 3d
       0.084056735 0.04895216 0.001048329 0.08084188
000340 0e 94 8f 3d 6a 34 cf 3d 36 54 e3 bd 33 76 21 3e
       0.07010661 0.10117419 -0.11100046 0.15767746
000350 11 f6 85 bc 2d 5e 45 3d 24 85 12 bd 47 37 da bd
       -0.016352685 0.048185516 -0.035771504 -0.106550746
000360 03 3e 0c bc 3a bb 84 3c 90 66 b0 3d 7a 35 4a bd
       -0.008559707 0.016202558 0.08613312 -0.049367405
000370 69 98 fa 39 e0 21 e8 bc 7c 0c 58 be 5e 50 0c bd
       0.0004779727 -0.028336465 -0.21098512 -0.03425633
000380 00 17 0e 3e ab b6 af 3d c9 83 07 3f 0a 7b 9f 3e
       0.13875961 0.08579763 0.52935463 0.3114856
000390 36 1f 8e bd cd 37 a8 3e a4 26 b6 be 1b 81 e4 3d
       -0.06939547 0.32855073 -0.35576355 0.111574374
0003a0 c8 2c 2d 3b 55 a2 7e bd 4d e7 af be 5f ff 21 bf
       0.0026424397 -0.06216653 -0.34356156 -0.6328029
0003b0 10 41 5b 3d 52 77 9b 3e d6 20 6d 3f 79 51 d9 3d
       0.053528845 0.30364472 0.9262823 0.10611243
0003c0 06 97 55 be 41 26 45 3d 7e 24 65 bb 8b 27 a4 bd
       -0.20858392 0.048132185 -0.0034964378 -0.08015355
0003d0 6f 2d 9e 3e b7 76 36 3c 87 7b b6 bc d6 c6 98 3d
       0.30894038 0.011136702 -0.0222757 0.074598
0003e0 8f 3c 0e be b9 56 04 bd b6 2c 77 3d 29 cf 67 bf
       -0.13890289 -0.032309268 0.060345374 -0.90550476
0003f0 a4 a0 58 bd 32 53 1f bd 1a 72 44 3a b4 30 7a be
       -0.052887574 -0.0388977 0.0007493809 -0.24432641

action_out.bias f4 [4]
000000 67 c5 e2 bb 99 83 84 bb c6 d0 b9 3b 22 60 f5 bc
       -0.006920505 -0.004044008 0.0056706397 -0.029953066
