saved_models/FetchPickAndPlace-v1/model123.pt (torch, 563151 bytes, 8 tensors)

fc1.weight f4 [256, 28]
000000 d2 0a 61 3e 36 d2 3b be a1 a2 31 3e c2 79 d0 bc
       0.21976784 -0.18341908 0.17347194 -0.025448684
000010 34 cf df be 2f 6a dc 3d 3c fa ae 3d ce 71 10 bf
       -0.4371277 0.107624404 0.08543822 -0.5642365
000020 09 00 a8 bf 61 87 ad be e3 8f d2 bd e6 76 8c bd
       -1.3125011 -0.33892348 -0.102813505 -0.068586156
000030 87 b4 0d 3c 21 40 6f 3c 45 6a 81 3e d1 f7 9c be
       0.008648998 0.014602692 0.2527639 -0.3065782
000040 3b 4f 8a be 0a 04 f7 be 3f dc 7e 3c 68 69 39 bc
       -0.27013573 -0.4824527 0.01555544 -0.011316635
000050 d0 8e 86 3e b2 95 2e 3e ba 7c 48 3c 81 a4 90 3d
       0.26280832 0.17049292 0.012236768 0.07062627
000060 37 fa 88 be 8e b1 0b be 95 f0 36 3f 34 75 3d 3e
       -0.267534 -0.1364195 0.7146085 0.1850174
000070 cd 1f ff 3e 27 28 04 be 60 ff 09 bd 48 96 ab 3e
       0.4982895 -0.12905942 -0.03369081 0.33513093
000080 21 4e a9 3e 57 72 15 3f 55 fb 09 3e d7 a3 3f 3d
       0.3306742 0.58377594 0.13474782 0.04678711
000090 93 cb b7 3e ce 5a 1d be be 48 ea 3d 58 4c 75 bd
       0.35897502 -0.1536667 0.11439656 -0.05988726
0000a0 94 53 a3 3d 46 5f 9b 3d c3 a2 25 3f 9f 08 b5 3e
       0.07974926 0.07586531 0.6470148 0.3535814
0000b0 2c 5e 45 3f 2f 47 b7 bd 91 d3 a8 bd d7 98 60 bd
       0.7709682 -0.08949124 -0.08243478 -0.05483326
0000c0 87 9c 0b 3f 6e 27 55 3e 6b 2a 34 3f 89 a8 95 bd
       0.54535717 0.20815822 0.70377225 -0.07307536
0000d0 a4 d2 37 bd 04 50 3d bf 95 fe 9f be e8 1b 45 c0
       -0.044878617 -0.7395022 -0.31248918 -3.0798283
0000e0 83 b7 d4 3e 3d e0 9c 3f 3c 01 56 bd 6e a9 57 be
       0.41546258 1.2255932 -0.05224727 -0.21060726
0000f0 4e 4a 89 bf 40 f8 b9 bd 50 91 f0 be f5 3c 19 c0
       -1.0725801 -0.09080553 -0.46985865 -2.3943455
000100 71 62 d7 be 7d 91 47 3d 33 af c9 be db 1d c3 3d
       -0.42067292 0.048722733 -0.3939148 0.09527179
000110 25 5a 82 3d ae 78 1c bd 09 03 99 bd 02 ac ca 3d
       0.0636485 -0.038201027 -0.07471282 0.09896089
000120 73 af 23 be 23 b5 67 3c de 15 c2 3d 89 b9 6a be
       -0.15984897 0.014142307 0.09476827 -0.22922339
000130 da 66 38 3d 1b d4 80 3e fd 0b 18 be 70 04 f1 bd
       0.045019962 0.25161824 -0.14848323 -0.117684245
000140 71 02 fb bd f7 3b 44 3d d1 28 00 bd 23 97 34 3d
       -0.12256325 0.04790875 -0.031288926 0.044089448
000150 11 30 81 be bc 8f ed 3d 6a 39 3b be 52 25 7f bd
       -0.25231984 0.11599681 -0.1828362 -0.06229145
000160 c9 d2 1d be 43 0f 73 bf 87 6e ae be b3 d0 20 bf
       -0.1541244 -0.9494516 -0.340687 -0.6281845
000170 77 68 c4 3c 5d 76 f9 be 58 6c 26 be 7d a0 ae bd
       0.023975594 -0.48723117 -0.16252267 -0.085267045
000180 de b5 54 3d 50 91 07 bd af e9 05 3f b5 9d fd be
       0.051931255 -0.033097565 0.523097 -0.49534383
000190 92 26 08 3d 7c 94 b6 be ac 1f 07 be 18 73 81 be
       0.03323991 -0.3566016 -0.13195676 -0.25283122
0001a0 08 04 2c 3f b5 90 91 be ba 1f 4a 3e e5 8f 96 3c
       0.6719365 -0.28430715 0.19738665 0.018379161
0001b0 5b 8a 79 3e 6e e7 75 3e 82 af 0f be 42 07 b2 be
       0.24369185 0.24014065 -0.14031795 -0.34771162
0001c0 d3 40 53 3f 6b a1 75 3e 07 27 8f bd ca 1a 67 3f
       0.8252079 0.23987357 -0.06989866 0.9027525
0001d0 19 94 87 be 84 de 09 3f 19 6f 1e 3e 8e cb e6 bd
       -0.26480177 0.53855157 0.15472068 -0.11269294
0001e0 3a 7c 81 be f0 05 de bd 58 99 41 be f3 2f 98 bc
       -0.2529009 -0.10840976 -0.18906152 -0.018577551
0001f0 ad 4c 3c 3d a8 de 32 bd e2 d3 72 3e ce f3 9b 3d
       0.04597156 -0.043669373 0.2371364 0.076148614
000200 ba ad a4 3e 52 f3 98 bd 4e d5 e8 bd 9d c1 98 3d
       0.32163793 -0.07468285 -0.1136881 0.07458804
000210 34 f1 2c 3e 24 09 4d 3c 44 a8 a1 3e e9 c5 66 3e
       0.16888887 0.012514386 0.3157369 0.22536434
000220 1f 1a aa 3d a5 03 d6 bd db 5d f6 3d cf 0b a2 be
       0.083057635 -0.10449914 0.1202962 -0.31649634
000230 96 e7 38 3d 32 55 a4 bb 6d 95 cc bd a7 73 49 3e
       0.045142733 -0.005015039 -0.09989438 0.19673024
000240 eb d2 ec 3e 8a 61 80 3d b1 09 73 bd 20 8a 05 3f
       0.46254668 0.06268604 -0.059335414 0.5216389
000250 b8 64 9b 3e 9e dd 5d bf f5 99 15 be 9d 13 39 be
       0.3035028 -0.86666286 -0.14609511 -0.18073888
000260 34 c1 dc 3d 00 b9 6b be 04 09 36 3e 1d 84 bb bd
       0.10779038 -0.2301979 0.17776877 -0.09156058
000270 0b a1 4f 3e ae 66 a2 3c 9d 80 bb bd fd 98 e9 bc
       0.20276277 0.019824352 -0.091553904 -0.028515333
000280 33 09 8b 3e 29 1d 46 3b 17 9d 03 3f 60 7b ec bd
       0.27155456 0.0030229783 0.51411575 -0.115469694
000290 41 99 a3 be d7 2e e4 be 02 64 bd be 3d fe ac 3e
       -0.3195286 -0.44566986 -0.36990362 0.33787718
0002a0 28 31 73 bd 78 a2 fe 3d ac e9 aa bd 07 d6 9f be
       -0.05937305 0.12433332 -0.083453506 -0.31217977
0002b0 ff 1e 88 3f c1 45 88 bf 5d 0f 37 bd 0b 2e 89 3f
       1.0634459 -1.0646287 -0.044692386 1.0717176
0002c0 9b 5c a0 be 94 dd 68 bd b9 dc ae bd e9 51 77 3d
       -0.31320652 -0.05685194 -0.08538193 0.06038085
0002d0 f2 19 7c 3e f2 d9 15 bd 30 ff ea 3c 2b 43 83 3e
       0.24619272 -0.036584802 0.028686136 0.25637183
0002e0 6b 36 0b 3e af 73 5d 3e 7a 16 b4 3c 0e d0 77 3d
       0.13594978 0.21626161 0.021983374 0.06050115
0002f0 a3 52 09 3e 0f 72 19 3e 04 96 b0 bd 8a 41 49 be
       0.1341043 0.14984916 -0.08622363 -0.19653907
000300 e8 17 6b be f0 32 19 3f b6 d0 88 bf 78 6c 93 bf
       -0.22958338 0.5984335 -1.0688694 -1.1517477
000310 e9 b8 3b 3f 0e 07 63 be eb 3b b8 3e ca 23 3e bd
       0.73329026 -0.2217066 0.35983214 -0.04642085
000320 cf 98 3d be 1d 39 d0 3e c6 75 6e bf da b8 19 bf
       -0.18515323 0.40668574 -0.9314846 -0.60047686
000330 3b 29 44 be ed e7 02 3e 29 c7 b7 3c 8a 41 0d bd
       -0.19156353 0.12783785 0.022433834 -0.03448633
000340 b0 5f 85 3e 80 2a 06 bd f4 63 f0 bb c0 7a e2 3e
       0.26049566 -0.032755375 -0.007336134 0.44234276
000350 6b da 81 3e 7c dd 09 3d e1 fa 3a 3e 92 7f 1c be
       0.25361952 0.03365849 0.18259765 -0.15283039
000360 79 6f 36 bd 80 28 b7 3e 47 47 a4 3e e1 f7 8a 3e
       -0.044539902 0.35773087 0.3208563 0.27142242
000370 3c 9f f5 3e e4 fd 2f bf 33 e0 00 3f 58 fa 67 bf
       0.4797305 -0.6874678 0.503421 -0.9061637
000380 ba 2f 65 3e d7 40 c3 be c7 37 bc 3e e4 c8 75 3d
       0.22381487 -0.38135406 0.36761305 0.060006037
000390 03 8b 46 3c e4 40 21 3d 80 0f 06 be ad ec d0 3c
       0.012118104 0.039368525 -0.1309185 0.02550348
0003a0 c1 ec 82 bf f0 9e 92 3d 74 59 6b 3d ee ce 9a 3d
       -1.0228502 0.07159221 0.057458356 0.07559
0003b0 7a a0 d5 bd 77 9d f8 3c a8 b1 45 3e 6f 89 82 3e
       -0.10430999 0.030348523 0.19306052 0.2549548
0003c0 64 c7 fb 3d 1c 75 28 3d c2 1f 9d bd 31 c7 17 be
       0.1229389 0.04112731 -0.07672073 -0.14822079
0003d0 09 f5 9c bd c2 7a d1 bb 1c 4b 50 3d 4a b3 48 3d
       -0.07663924 -0.0063928077 0.05085288 0.04899911
0003e0 ed 37 78 3e c2 69 04 3f b1 a7 9b 3e 35 89 c1 3e
       0.24240084 0.51723874 0.30401376 0.37799993
0003f0 0b 8b 1c 3f ab ec 45 3b 3f 01 7c 3e 94 49 8c 3f
       0.6114966 0.003020088 0.2460985 1.0959954

fc1.bias f4 [256]
000000 72 1c 11 c0 7e 8c f3 bf f6 ba 08 c0 b7 6c e8 bf
       -2.2673612 -1.902725 -2.1364112 -1.8158177
000010 da ef fa bf 40 c4 08 c0 fd ba 80 bf 20 01 d7 bf
       -1.9604447 -2.1369781 -1.0057064 -1.6797218
000020 c8 94 fe bf 92 36 47 c0 a7 83 35 bf 5c b0 bb bf
       -1.9889154 -3.1127057 -0.7090401 -1.4663196
000030 10 4c 89 bf 6d 03 16 c0 f8 0b 2c c0 15 91 d2 bf
       -1.0726337 -2.343959 -2.6882305 -1.6450526
000040 f6 3f 26 3f be d7 23 c0 19 c4 16 c0 20 14 63 c0
       0.64941347 -2.5600429 -2.3557189 -3.5481033
000050 c4 37 09 c0 7d 81 04 3f 9c 1a 2c c0 1e 1f a4 bf
       -2.1440287 0.51760083 -2.689124 -1.2821996
000060 63 6e be bf fe ef 23 c0 a6 b6 f8 be de 7a 53 bf
       -1.4877437 -2.561523 -0.4857685 -0.82609355
000070 75 2b 07 c0 b0 78 b5 be d1 a3 95 bd 61 f5 87 bf
       -2.1120274 -0.3544364 -0.07306636 -1.0621759
000080 98 d4 31 bf 17 59 32 bf e6 49 0e c0 bd bc 2b 3e
       -0.6946502 -0.6966719 -2.2232604 0.16771217
000090 3a f1 0a c0 a8 dc bb bf cc e1 dc bf e2 59 1b c0
       -2.1709733 -1.4676714 -1.7256408 -2.427361
0000a0 35 e5 b6 bf d2 6b 52 3d e1 ce d6 bf c7 cd 88 bf
       -1.4288698 0.051372357 -1.6781884 -1.0687798
0000b0 f2 16 3c bf 64 06 9e 3f a4 9c 36 bd 30 81 84 bf
       -0.7347251 1.23457 -0.044582978 -1.0351925
0000c0 70 80 ee bf bf d0 21 bf 09 88 0b c0 69 22 d6 bf
       -1.8632946 -0.63209146 -2.180178 -1.6729251
0000d0 7d e6 8e bf 0e 59 46 bf 7a 85 af 3f 2e 56 d3 be
       -1.116409 -0.77479637 1.3712609 -0.41276687
0000e0 82 28 70 bf 66 f1 20 c0 17 44 02 c0 c1 7f 00 c0
       -0.9381181 -2.5147338 -2.0354059 -2.0077975
0000f0 07 55 0b c0 46 ec 20 bf 42 98 fa bf 06 26 c1 bf
       -2.1770647 -0.62860525 -1.9577715 -1.5089729
000100 7d a9 b3 bf fa 84 8c bf ea c4 4c bf 4e 23 10 c0
       -1.4036099 -1.0978081 -0.79987967 -2.2521548
000110 cc 75 98 bf 4c 3a 37 c0 92 c2 f0 bf 40 cc ce bf
       -1.1910949 -2.8629332 -1.8809378 -1.6156082
000120 49 b8 06 bf 61 54 d7 bf 6d a3 47 bf a6 53 11 c0
       -0.52624947 -1.6822625 -0.7798374 -2.2707305
000130 29 ed 2a c0 fd c3 98 bf a1 23 cc bf 7c 36 35 bf
       -2.670725 -1.1934811 -1.5948373 -0.7078626
000140 25 51 37 bf 34 33 a4 bf 14 6f b7 bf 4a d2 a7 bf
       -0.7160819 -1.2828126 -1.4330773 -1.311105
000150 20 0b 32 c0 55 66 2f c0 4e dd 10 c0 6f 8b 12 c0
       -2.781929 -2.7406209 -2.2635074 -2.2897604
000160 6f c7 19 c0 9f 72 05 c0 14 47 0b c0 d1 37 15 c0
       -2.4027975 -2.085121 -2.1762133 -2.3315318
000170 2a 94 33 c0 ac 09 db bf d2 18 89 3e ab 4d d3 be
       -2.8059182 -1.7112327 0.2677675 -0.41270193
000180 79 41 0b c0 57 1a 73 3f 58 0f 1c c0 36 75 fa bf
       -2.1758711 0.94962066 -2.4384365 -1.956702
000190 93 a8 df bf bb 64 a8 bf 5d d2 cf bf 77 37 c0 be
       -1.747332 -1.315574 -1.6236073 -0.37542316
0001a0 51 7f 10 3f 8d 06 15 c0 85 90 fd bf 12 47 c8 bf
       0.5644427 -2.3285248 -1.9809729 -1.5646689
0001b0 c2 b8 1f c0 dd 1e 0e bf 93 08 d0 bf 91 7d d3 bf
       -2.4956517 -0.55515844 -1.6252617 -1.6522695
0001c0 63 e1 6b 3e cc 2a e7 bf a8 1e e7 bf 07 d1 1f bf
       0.23035197 -1.8059936 -1.805623 -0.62428325
0001d0 25 58 e8 bf b2 4f f4 bf 6b 6b 07 c0 9b a7 1d bf
       -1.81519 -1.9086821 -2.1159313 -0.6158387
0001e0 c0 42 54 c0 4d 93 3e bf 79 eb 41 c0 22 a6 f4 bf
       -3.316574 -0.74443513 -3.029997 -1.91132
0001f0 22 02 c2 bf 44 09 73 bf 61 b5 15 c0 bf 0c b0 bc
       -1.5156901 -0.94936013 -2.3391955 -0.021490453
000200 4d 04 1f c0 3b 5d 82 3f 70 0a 1e c0 6a ef fd bf
       -2.4846375 1.0184702 -2.469387 -1.9838688
000210 ff dd ee bf de a4 52 3e f9 e7 e5 bf 98 26 93 bf
       -1.8661498 0.20570704 -1.7961417 -1.1496153
000220 f0 dd 8d bf 60 cf 59 bf 6f b9 06 c0 cd 66 9e bf
       -1.1083355 -0.85082054 -2.105068 -1.2375122
000230 5a 94 f0 bf e0 98 84 bf d2 1b 1b c0 ed 2b 08 bf
       -1.8795273 -1.0359154 -2.423573 -0.53192025
000240 a6 f4 90 be 4e 96 bb 3f e8 34 0d bf 58 bf 90 bf
       -0.28311652 1.4655244 -0.55158854 -1.1308393
000250 b1 2b 34 bf ad 61 ba bf a8 c7 08 3d a4 f3 cd bf
       -0.7037917 -1.4561058 0.033393532 -1.6089978
000260 03 28 0f c0 66 29 94 3f 8f 9a 51 3e 92 84 32 c0
       -2.2368171 1.1575134 0.20469116 -2.7893414
000270 c7 b7 fe bf 48 30 fa bf e5 e9 18 c0 38 fa 77 bf
       -1.9899834 -1.9545984 -2.3892758 -0.9686618
000280 86 e6 96 3f 8c 1b b6 bf a0 8d 07 c0 4b 62 30 be
       1.17891 -1.4227157 -2.118019 -0.17224996
000290 f0 16 a7 bf 6e 2c e7 be d4 64 a6 bf 07 35 c3 bf
       -1.3053875 -0.45151085 -1.299952 -1.5250558
0002a0 01 e5 db bf a8 1d 23 c0 ce 65 00 c0 28 3e ca bf
       -1.7179261 -2.548685 -2.0062137 -1.5800219
0002b0 ca fd 07 c0 35 10 23 c0 e9 e7 43 3e e6 53 c4 be
       -2.124865 -2.5478642 0.19131435 -0.3834526
0002c0 12 ff e6 be 08 8a aa bf a9 97 99 bf b7 3a 21 c0
       -0.45116478 -1.3323374 -1.1999408 -2.5192087
0002d0 21 5b 4d bf 67 7a 62 be c4 dd f2 bf db 11 36 c0
       -0.80217177 -0.22117005 -1.8973927 -2.8448398
0002e0 fd c6 b2 bf 7c 80 61 bf 24 d9 ec bf 61 ce 95 bf
       -1.3966976 -0.88086677 -1.8503766 -1.1703607
0002f0 e9 14 ae bf 4d 9f 79 bf 34 7c 60 bf b1 4a fa bf
       -1.3600131 -0.975087 -0.8768952 -1.9554044
000300 e0 b8 75 bf 02 36 46 3d 85 29 98 bf 12 79 23 c0
       -0.9598522 0.04839135 -1.1887671 -2.5542645
000310 cb 35 9d be 61 80 c2 bf 36 fb 8a bf 2e 69 02 c0
       -0.30705103 -1.5195428 -1.0857913 -2.0376697
000320 7b 07 45 bf 3a 93 15 c0 da 03 fe bf c5 9c 86 bf
       -0.7696454 -2.337111 -1.9844925 -1.0516592
000330 39 f0 13 c0 fc 0a c7 bf 47 e0 02 c0 1c 1c b1 bd
       -2.311537 -1.5550227 -2.0449388 -0.086479396
000340 c8 59 cb bf b1 62 01 c0 a6 a9 69 bf 19 7c 50 be
       -1.5886774 -2.0216486 -0.9127449 -0.2035984
000350 41 c9 fb bf 79 3e ee bf da e4 c8 bf b1 4c 55 bf
       -1.9670793 -1.8612815 -1.569484 -0.83320147
000360 5e f8 34 c0 e2 de 31 be a8 8d c9 bf 2a 5e 98 bf
       -2.8276591 -0.1737018 -1.5746355 -1.1903737
000370 fa 34 29 c0 d2 38 1d c0 42 13 4c bf 41 01 91 bd
       -2.6438584 -2.456593 -0.79716885 -0.07080317
000380 06 8b c7 bf 84 f6 a8 bf 0b 8d f6 bf 82 17 b0 bf
       -1.5589302 -1.3200231 -1.9261793 -1.3757174
000390 c4 f4 d0 bf 59 9d 1c c0 ee 3d d2 3d a0 29 18 c0
       -1.6324697 -2.4471037 0.102657184 -2.3775406
0003a0 69 bb 02 c0 ea 2b 98 bf fd a1 d0 bf 5c 64 0a bf
       -2.0426886 -1.1888402 -1.6299435 -0.54059386
0003b0 e9 7d 15 c0 47 40 8c bf f2 40 c8 bf 6b 7f d4 bf
       -2.33581 -1.0957116 -1.564482 -1.6601385
0003c0 1c 64 67 bf db 37 19 bf bb 72 0c c0 cc 05 3a 3e
       -0.9038713 -0.59850854 -2.1945026 0.18166274
0003d0 c1 dd c8 bf ef 68 48 c0 70 1f 91 bf 03 c0 c8 bf
       -1.5692674 -3.1314046 -1.1337719 -1.5683597
0003e0 23 dd 08 c0 c8 57 02 c0 fa f7 46 c0 3b a9 c3 be
       -2.138497 -2.0366077 -3.1088853 -0.3821505
0003f0 78 29 26 c0 ed f8 d7 bf 98 e7 c1 bf b2 41 82 3f
       -2.596281 -1.6872841 -1.5148802 1.0176299

fc2.weight f4 [256, 256]
000000 51 e4 cd bd 0d c2 26 bd 80 c2 b8 bd fa 7b e9 3b
       -0.100533135 -0.040712405 -0.09021473 0.007125375
000010 92 8d 9f bd 4e 4c ff bd 02 35 96 bd 62 9c 8d be
       -0.07790674 -0.12465726 -0.07334329 -0.27658373
000020 0e fc 03 be 2c d6 16 bd af 62 28 3b 82 bb 35 be
       -0.1288912 -0.036825344 0.0025693586 -0.1774731
000030 e8 27 aa bd c3 45 d3 3c d2 eb dc bd 11 87 d4 bd
       -0.08308393 0.0257901 -0.10787167 -0.103773244
000040 bb 70 79 3d 0a ca f6 bd 36 0d 82 bd 72 65 6f 3d
       0.060898524 -0.12050255 -0.06350176 0.058446355
000050 30 01 c5 bd 85 0c d7 bc 6e d6 64 be 45 46 65 be
       -0.09619367 -0.026251087 -0.22347423 -0.22390087
000060 ba b0 ac bc 29 d0 d1 bd d4 79 99 bd a0 f1 1d be
       -0.021080364 -0.102447815 -0.0749394 -0.15424204
000070 3b b7 c0 bd 6b 37 c5 bd 02 b3 27 bb db e5 09 be
       -0.094099484 -0.09629711 -0.0025588875 -0.13466589
000080 a5 46 94 bd c0 2d 25 be 60 b3 17 bc 93 49 3a be
       -0.07240037 -0.16130733 -0.009259075 -0.18192129
000090 24 d9 f5 bd 57 f7 4b bd 67 82 0e be 2d d4 f6 bd
       -0.12004307 -0.04979643 -0.13916932 -0.12052188
0000a0 01 c0 45 bd a4 b2 b0 bd 86 18 f9 bd a9 74 d1 bd
       -0.048278812 -0.08627823 -0.121628806 -0.10227329
0000b0 c2 06 45 bd c0 29 0b bd 88 38 49 bd fa 75 40 be
       -0.048102148 -0.033975363 -0.049126178 -0.18795004
0000c0 40 57 8c 3c 87 4c 21 3d 2e 89 b8 bb c5 25 db bd
       0.017131448 0.039379623 -0.0056315875 -0.10700563
0000d0 8b dc a0 bd f7 6f f0 bd 60 6d 9b bc fa 6a 9b bc
       -0.07854565 -0.117401056 -0.018973053 -0.018971909
0000e0 42 8c c8 bc 2c 31 34 bd ec 32 19 3d e4 95 0d be
       -0.024480943 -0.043992206 0.03740208 -0.1382671
0000f0 b6 e9 e8 bd 85 b2 05 be 4c d8 47 3c 6f 18 62 bd
       -0.11372702 -0.13056381 0.012197565 -0.055199083
000100 d4 04 1a be 54 72 43 3d 7c 44 73 be 31 bd b4 bc
       -0.15040904 0.047716454 -0.23756593 -0.02206287
000110 2f 5f af 3c 96 01 67 be 25 35 0f be 24 58 e3 bd
       0.021407692 -0.22559199 -0.13985117 -0.11100796
000120 3c 42 0c be 54 9d 1d bd 7c b3 b4 bd 29 14 8b bd
       -0.13697141 -0.038480118 -0.088232964 -0.067909546
000130 02 e4 26 be a0 7b 15 be 11 65 87 bd dc 1b be bc
       -0.16297916 -0.1459794 -0.06611074 -0.023206644
000140 dc e4 c6 bd f2 13 2f be c1 99 e3 bd d3 56 ca bd
       -0.0971162 -0.17097452 -0.111133106 -0.09879842
000150 41 85 d6 3c 70 06 e7 3c 68 db 8d bc 7b fd db 3c
       0.026186587 0.028201312 -0.017316535 0.026854267
000160 9b b7 32 bd 67 0d 63 be 69 f2 07 3c f7 eb 39 bd
       -0.04363213 -0.22173081 0.008297541 -0.04539105
000170 06 aa 09 bb 5e 5f c3 bd b0 46 52 bd 9b 0b b9 bd
       -0.0021005883 -0.09539674 -0.051336944 -0.09035417
000180 56 95 ee 3c 56 e9 21 bd 53 e9 13 be 2f 1e 76 bd
       0.029123943 -0.039529167 -0.14444475 -0.06008738
000190 3c e8 a4 bd 23 61 34 3d 17 d0 a2 bd f3 4d e0 bc
       -0.08052108 0.04403795 -0.07949846 -0.02738092
0001a0 f8 32 6c bc 50 ea 32 bd 77 7b f0 3b 2d 46 ed bc
       -0.014416449 -0.04368049 0.007338937 -0.028964126
0001b0 77 b4 49 3b 01 9c a8 bc a1 61 14 bc 5b ce 9a bd
       0.0030777731 -0.020582201 -0.00905648 -0.075588904
0001c0 34 7b b8 bc 46 4b 25 be 5f ba b6 bd b8 7f d5 bd
       -0.022519685 -0.16141996 -0.08922266 -0.10424751
0001d0 46 47 e6 3b 0f f8 16 be 31 96 01 3d 80 de b7 bd
       0.0070275394 -0.14743064 0.031637374 -0.089779854
0001e0 77 5f 62 3d 20 7f d5 bc 32 9b af 3b f5 3c 5c be
       0.055266824 -0.026061594 0.005359077 -0.21507628
0001f0 2a 6f 13 be 26 12 fe bd 8b 08 dd bd ba 9e db bc
       -0.14397874 -0.12405805 -0.10792645 -0.026809085
000200 18 c1 9a bc ab 3d 75 3d 39 83 1d be b8 a6 ba bd
       -0.018890902 0.059873264 -0.15382089 -0.0911383
000210 ce f0 00 bd cb 45 bb bd df 6b 0e be c4 ed 51 3c
       -0.03147965 -0.09144171 -0.13908337 0.012813035
000220 8f d1 d0 bd 38 cb d4 bd db 9d 58 bd 01 cb 1c bc
       -0.1019622 -0.103903234 -0.052884918 -0.009569884
000230 2f fa 94 bc cf d4 5d bd 1c 73 3a be 2d 65 e1 bc
       -0.018185703 -0.05415803 -0.18207973 -0.027514065
000240 dc 68 c0 3d 59 1d f1 be bb f1 1a 3d 55 32 55 bd
       0.09395 -0.47092703 0.03782819 -0.052049953
000250 d5 a9 ac be 47 fd ad bd 28 f6 cd be d3 42 b3 bd
       -0.33723322 -0.084955744 -0.40226865 -0.0875298
000260 2b 6f 9e bd 89 aa fd 3c 1f 27 6a bd 6d 67 39 be
       -0.07736047 0.030965107 -0.057166215 -0.1810586
000270 e6 87 7f be 6d 4a 63 bc 73 70 2e be 03 2f 8b be
       -0.24954185 -0.013872725 -0.17035083 -0.27184305
000280 e3 f7 27 be 3b d8 71 bd 25 28 db bd 06 bf 36 be
       -0.16403155 -0.059044104 -0.10701016 -0.17846307
000290 34 7d f5 bd 56 17 1c bd a2 04 bb bd a7 e4 90 3c
       -0.11986771 -0.038108192 -0.09131743 0.017687155
0002a0 03 00 8c bc c8 34 24 be 57 35 9f bd 81 a1 4b bd
       -0.01708985 -0.1603576 -0.07773846 -0.04971457
0002b0 ab 90 36 bc 62 80 ee bd 44 2d e8 bd 68 aa 07 be
       -0.01114289 -0.11645581 -0.11336759 -0.13248599
0002c0 09 e3 5b be d1 18 7b be 02 c0 de bd ff b3 23 3d
       -0.21473326 -0.24521185 -0.10876466 0.03996658
0002d0 f2 f7 70 bc e1 3e 8f bd 1d 67 a7 bd fc 84 cc bd
       -0.014707552 -0.06994415 -0.08173964 -0.09986302
0002e0 15 f3 e4 bc 06 cc cf bd 01 55 56 bd 38 f3 b7 bc
       -0.027947942 -0.10146336 -0.05232716 -0.022454843
0002f0 f9 b8 31 3d a7 7b 0f bd aa 9e 8c bd 10 19 02 be
       0.043389294 -0.035030033 -0.068662 -0.12704873
000300 65 63 5a 39 c3 5b ad be af d9 e2 bd 37 6b 5d 3d
       0.00020827127 -0.3385907 -0.11076676 0.054057326
000310 5e 94 0d bd 36 32 c6 bd bd 52 31 be 13 e3 ea bd
       -0.034565322 -0.09677546 -0.17316718 -0.11469092
000320 4f d1 a6 3b 94 48 83 3d ad fa b7 bd e4 f9 35 be
       0.0050908695 0.064103276 -0.089833595 -0.17771107
000330 ce 42 b2 bd 5b 33 3c bc a0 24 84 be 72 f6 c8 bd
       -0.08704148 -0.0114868535 -0.25809193 -0.09812631
000340 f5 dd 8f bd af a7 66 be d5 a5 4c 3b ce 33 4c bd
       -0.07024757 -0.22524904 0.0031226773 -0.049854092
000350 66 82 ab bd c3 7e 02 3d 60 c5 11 be 2d 26 4e bc
       -0.08374481 0.03185917 -0.14235449 -0.012582344
000360 23 fc b3 3d 94 78 f6 3c e2 b0 33 bd 62 73 0b 3d
       0.08788326 0.030086793 -0.04386986 0.034045584
000370 32 82 df bd bc f0 f2 bc 9f 8d a4 bc 15 b2 c2 bb
       -0.10913505 -0.029655807 -0.020087061 -0.005941639
000380 90 b4 09 be de 82 2e bd 3e 20 27 be 18 b3 26 3c
       -0.13447785 -0.042605273 -0.16320893 0.010174535
000390 8e 62 2a bd 34 ae 9e 3c d0 fd 07 bd 38 66 aa bc
       -0.041597895 0.019370176 -0.03320104 -0.020800695
0003a0 a3 28 9b bd 4e b4 9c 3c 5f c7 ed bc cc e2 e7 bb
       -0.0757611 0.019128945 -0.029025732 -0.007076597
0003b0 86 45 cd bd bc 3e c9 bd b2 4b 3f 3d d4 85 d0 bd
       -0.10023026 -0.09826419 0.046703048 -0.10181776
0003c0 7b df 80 3d 07 61 56 be 98 6a f8 3c 3f 75 53 be
       0.062926255 -0.2093545 0.030324265 -0.20650195
0003d0 7a 73 06 be 31 00 73 3c 16 f0 20 be 85 28 4f ba
       -0.13129988 0.014831589 -0.15716586 -0.0007902461
0003e0 2c 41 05 bd 4d d2 14 be 1c de 29 bd c2 cf 47 bd
       -0.032532856 -0.14533348 -0.041471586 -0.048782118
0003f0 19 4f 87 3c 80 72 81 bd 88 6f 96 bc c1 dd 3e bd
       0.016517209 -0.06320667 -0.01836373 -0.0465982

fc2.bias f4 [256]
000000 11 dc ab 3d 4b 44 a0 3f 6a d6 d5 3e 8a 38 0e bf
       0.08391584 1.2520841 0.41765147 -0.5555502
000010 8d a2 b8 bc a9 6a e3 bc bc dd ed be 95 95 bb 3d
       -0.022538448 -0.02776082 -0.46458232 0.0915939
000020 c5 a7 ef 3d 88 4d 8d 3f 94 cc 54 3f 2d 92 21 bf
       0.117019214 1.1039286 0.8312466 -0.6311367
000030 77 b6 af 3d a2 49 cb be 14 76 07 3f dd e8 65 be
       0.08579724 -0.39704615 0.5291455 -0.22452112
000040 80 99 8c bd bb 30 9d 3e 5f 4d db 3e 52 db 16 3f
       -0.06865215 0.3070124 0.42832467 0.58928406
000050 5b 9f 8d 3f 0c 91 33 3d e2 4e 1a 3e 28 5f de 3c
       1.1064256 0.0438395 0.15069154 0.027144983
000060 62 c0 5d 3a 36 25 70 3c 47 70 3d 3f 97 3a 8f bf
       0.0008459148 0.014657309 0.73999447 -1.1189755
000070 1d 3d e5 3e 12 02 51 3f b8 9b 66 3e 1f 92 68 3f
       0.44773188 0.81643784 0.2252034 0.90847963
000080 17 c5 50 3f 01 fe 63 bd 1c 6c 46 3f 30 4b e7 bd
       0.81550735 -0.05566216 0.7750871 -0.11293638
000090 4b 1d 85 bf 50 c8 5a bd f7 a2 d6 3c c1 ae ee 3e
       -1.0399565 -0.05341369 0.026200755 0.46617702
0000a0 36 1b a1 bf 39 bb 3d 3f 52 1d f3 3e a4 96 ae be
       -1.2586429 0.74113804 0.47483307 -0.34099305
0000b0 96 9a 79 be 56 90 1f 3f 4e 75 6f 3f 43 d6 7e 3d
       -0.24375376 0.62329614 0.9353837 0.062216055
0000c0 6f d3 82 3e f9 55 24 3f 8d d9 5e 3f c9 be 47 bd
       0.25551936 0.64193684 0.87050706 -0.04876593
0000d0 eb 86 1f bc e0 54 a4 3d d9 7a 43 bf 0d 8b a0 bf
       -0.009736757 0.08024001 -0.76359326 -1.2542435
0000e0 52 48 d4 3e 91 14 51 be 8c e7 6b 3f dc c8 08 be
       0.41461426 -0.20418002 0.9215019 -0.13357872
0000f0 52 02 be bd e4 67 89 3e 18 3d ce 3e cf be db bf
       -0.09277786 0.26837075 0.40280986 -1.7167605
000100 57 32 dc bd 68 b1 a4 ba e2 e7 a7 bf 20 39 4d 3f
       -0.10751789 -0.0012565078 -1.311764 0.8016529
000110 4a 1a 08 bd 09 b2 b2 bd 94 6f 42 bd a7 1d d3 bc
       -0.033228196 -0.08725364 -0.04746969 -0.025770975
000120 2f 2b 04 c0 fc a6 96 3f f1 10 4c 3e 31 07 f9 bc
       -2.0651357 1.176971 0.19928338 -0.030398937
000130 fb 58 c4 3f 7a be 9d 3c f6 34 96 bc f9 f5 9a 3d
       1.5339655 0.019255865 -0.0183358 0.07566447
000140 c7 28 86 3f 7f be 1f 3f 1e 60 89 bf 62 6f 03 3f
       1.0481194 0.6240005 -1.0732458 0.5134183
000150 3c 07 82 bc fd c2 0c be 6c 82 af bc cb 20 9a 3e
       -0.01587259 -0.13746257 -0.021424495 0.30103144
000160 96 67 b5 be 35 c1 e1 3e ed 76 dc 3d 30 a9 37 3e
       -0.35430592 0.44092718 0.10764871 0.17935634
000170 74 32 6e be 7f 23 53 bd 29 c2 a7 bd 87 a9 22 bd
       -0.23261434 -0.051547524 -0.0819133 -0.039712455
000180 51 2b 8e bd 64 01 84 3e 6e cf d5 bd 7a a7 61 3f
       -0.06941856 0.2578231 -0.10439955 0.88146174
000190 d9 4a 76 bf ef f1 07 3f 6a 9c 66 be 4c e8 2e bd
       -0.9620796 0.53103536 -0.22520605 -0.042702004
0001a0 72 55 2b bc 3e f1 93 3f 24 db d9 bd ba d4 c3 3f
       -0.0104573835 1.1557996 -0.10637501 1.5299294
0001b0 b0 56 b7 3f 78 23 f3 bd 99 9f 98 3c 0f e8 a8 bf
       1.432333 -0.118719995 0.01863079 -1.3195819
0001c0 0d 08 0a 3f 67 78 62 3f 37 96 5e be bf 84 59 bd
       0.53918535 0.8846497 -0.2173699 -0.053105112
0001d0 1c c8 b7 bd e1 ea d2 3e 1a 64 21 be 11 ac 0c bf
       -0.08973715 0.41194823 -0.15760842 -0.5495005
0001e0 10 4f e7 bc a6 f8 cc 3e c5 7e 9f be 8d 7b b7 39
       -0.028235942 0.40033454 -0.31151405 0.00034996532
0001f0 10 d1 07 3f c4 a0 1c 3f b2 e6 94 c0 40 1e 86 3e
       0.5305338 0.6118281 -4.653161 0.26194954
000200 0d d0 9d bd 60 27 43 3f b9 69 c6 bd ff 90 88 bd
       -0.07705698 0.76231956 -0.09688134 -0.06668281
000210 e2 a5 86 3d e6 5c db bd 7b 9d 66 3e a4 da c0 be
       0.065746084 -0.10711078 0.22521012 -0.3766681
000220 cd 4b 87 3f f6 3e f6 bd 9a bf 46 3d 0b 56 01 bf
       1.0570008 -0.120237276 0.04852257 -0.50521916
000230 b5 89 74 3f bc d0 82 bc a4 26 8c bd 69 c1 97 3f
       0.95522624 -0.015968673 -0.068433076 1.1855899
000240 a0 42 f3 bd e5 b1 b3 be c6 0e 89 3e 89 51 6f 3f
       -0.11877942 -0.3509666 0.26769084 0.9348379
000250 af eb 67 3e 33 dd 7c 3f f5 8e a5 bd 71 61 ab bd
       0.226485 0.98775023 -0.080839075 -0.08368195
000260 ba 96 0e bf 37 32 3e bd 00 9f d5 bf e0 3a 15 3f
       -0.5569874 -0.046434607 -1.6689148 0.5829296
000270 fd 5f f2 be ab 76 37 bd 6e 94 76 3c 33 52 1d be
       -0.47338858 -0.044790905 0.015050037 -0.15363388
000280 13 f4 97 bd ba 45 ec bd 8a 4f a3 bf 70 35 48 bd
       -0.074196 -0.11536737 -1.2758648 -0.048879087
000290 a4 ca 09 3f 56 7c 3d 3d 3d 8f d7 3e 92 b7 5e bd
       0.5382483 0.046261154 0.4210147 -0.054374285
0002a0 8f c4 c5 bc d6 ff 49 3f ce b1 19 3f c8 0e 31 3f
       -0.024141578 0.78906 0.60036933 0.6916318
0002b0 71 3f 82 bd 80 96 c5 be c1 ef a3 3e 57 cf cc bd
       -0.06359757 -0.38591385 0.32018855 -0.100004844
0002c0 19 07 dc bd ab 03 15 bd c0 a5 04 be 14 fd c5 3e
       -0.10743541 -0.03638045 -0.12953854 0.38669646
0002d0 0c 8f ec 3e 1f 72 f9 3e 6b 1b 74 3f 61 1f d5 bd
       0.46202886 0.4871988 0.95354337 -0.10406376
0002e0 18 dd ab 3f 8b 7b cb be e6 7a a2 3e f5 3b af 3c
       1.3426847 -0.39742693 0.3173439 0.021390894
0002f0 30 3c 2d c0 c1 c9 7e be f6 99 17 bf 0e ea 2d bf
       -2.7067986 -0.2488165 -0.592193 -0.67935264
000300 bd f5 f5 bd 00 9d c7 bc cd 7f dc 3f 91 88 01 c0
       -0.120097615 -0.024366856 1.7226502 -2.0239604
000310 e2 d8 93 3f da 8d 1a bf b3 55 d0 bd 0f 75 9a 3f
       1.1550562 -0.603727 -0.10172596 1.2066973
000320 85 05 eb 3e 5f 6c cb bd ca 7e de bd d4 f6 1c 3f
       0.4590265 -0.099327795 -0.10864027 0.6131413
000330 6f 9b 74 3f 41 12 53 bd 75 73 21 3d 28 4a 30 bf
       0.9554967 -0.05153108 0.03941675 -0.68863153
000340 7a 48 89 be ba 22 00 3e cc 26 32 3f 33 23 35 3f
       -0.26813108 0.12513247 0.6959045 0.70756835
000350 35 bf 5d 3f 36 42 63 3f f1 24 08 3f 80 57 90 be
       0.86619884 0.88772905 0.5318137 -0.28191757
000360 d4 ce e7 3e ef e5 51 3f 15 4f f9 3e 6e d8 af 3d
       0.45274985 0.81991476 0.48693147 0.085862026
000370 5f 52 c7 3c 9c e1 90 3e 9b d8 7f bf d4 e4 50 3b
       0.02433127 0.28297126 -0.9993989 0.0031874673
000380 1f 4a bd 3e 79 de 0f 3c 12 85 58 3e 63 92 8c 3c
       0.36970612 0.008781069 0.21144512 0.017159646
000390 95 39 17 3f e1 a1 f3 be f2 ae b0 3e 28 06 47 bd
       0.5907224 -0.4758444 0.34508473 -0.048589855
0003a0 52 f9 86 bd a4 dd 72 bd 0a 1f fd be ce b0 8b bd
       -0.06590523 -0.059293404 -0.49437743 -0.06820832
0003b0 05 c0 55 be 70 f1 a5 3e 77 f3 cc bd fb 04 56 3f
       -0.20874031 0.32410765 -0.10007375 0.8360135
0003c0 ff b3 c9 3d 57 b9 f2 bf 79 61 06 bf 17 7e f4 bd
       0.09848785 -1.8962811 -0.5249248 -0.11938112
0003d0 b4 cf c2 bd cd f6 e0 3e d2 7c 11 3f 53 f2 7d bd
       -0.095122725 0.43938294 0.56831086 -0.061998677
0003e0 a2 1c e5 3d 0a 7c 3f 3d fe 4f ad be 88 96 86 3f
       0.11187102 0.046749152 -0.33850092 1.0514688
0003f0 e4 d7 ca bf b2 c7 99 bc bf f6 75 be cc e0 3e bd
       -1.5847135 -0.01877198 -0.24019907 -0.0466011

fc3.weight f4 [256, 256]
000000 d3 91 58 3d 79 c2 05 be 20 86 e3 be 48 7f 76 be
       0.052873444 -0.13062467 -0.44438267 -0.24071991
000010 e9 cc 36 bd 81 b1 15 3d e4 59 11 bf 40 08 a9 be
       -0.04462901 0.036546234 -0.5677779 -0.33014107
000020 6f 2a 73 be c0 35 11 bf b6 b5 84 be 54 cd ec bc
       -0.23746656 -0.5672264 -0.25919884 -0.028906502
000030 1d 74 65 be e0 d8 1b bf 79 45 8d be c7 28 a7 bd
       -0.22407575 -0.608778 -0.27592066 -0.081620745
000040 e6 22 78 bd 90 77 f4 3e e8 36 83 3d 5f b3 ca 3e
       -0.060580157 0.4774747 0.06406957 0.39589974
000050 fb 25 48 be 72 66 28 be 86 56 db 3b 9b 7a e3 bc
       -0.19545738 -0.1644533 0.006693664 -0.027768424
000060 80 75 ab bc 3d 79 85 bc 84 35 b5 be 01 90 63 bf
       -0.020930052 -0.016293162 -0.35392392 -0.8889161
000070 d2 81 5c bd cf 16 8d 3e 56 73 62 bc 44 86 34 be
       -0.053834744 0.27556464 -0.013821444 -0.17629343
000080 f0 19 1e be 34 4b 5c 3d d4 12 60 be 9f 76 7e 3c
       -0.15439582 0.053782657 -0.21882182 0.015531211
000090 23 ef 1c bc 23 c1 e2 3a 21 18 26 bd 0d 07 2b be
       -0.009578499 0.0017299991 -0.040550355 -0.16701908
0000a0 3f 37 14 bf 77 93 6a 3e 37 a9 38 be 8c 87 92 be
       -0.578968 0.22907816 -0.180333 -0.2861904
0000b0 54 43 87 bc 96 3b 32 bf 22 5e 94 be 94 a1 54 3e
       -0.016511597 -0.6962217 -0.28978068 0.20764762
0000c0 0b 1a 23 bf 8d dd cf bd 8b 0c 1c be bd d0 64 3c
       -0.63711613 -0.10149679 -0.1523916 0.013965783
0000d0 b5 1d 24 bd 94 ae e2 3d dc 95 5f bd a1 08 8c be
       -0.040067393 0.110684544 -0.054586276 -0.27350333
0000e0 d8 48 6e 3d 15 fa 95 bd 96 b7 54 bf 9a c4 26 bc
       0.058174938 -0.0732309 -0.8309263 -0.010178709
0000f0 e7 e8 cf bc 4e ad 8f 3d 41 b5 1b 3d a0 a0 8b be
       -0.025379611 0.07015477 0.038014654 -0.27270985
000100 90 d0 93 3d 3e b8 00 be d5 69 bf be 10 5e 17 be
       0.072175145 -0.12570283 -0.3738543 -0.14781976
000110 ba 17 3f bd f7 13 8c be a8 9f 09 be 63 34 a4 3c
       -0.046653487 -0.27358982 -0.1343981 0.020044511
000120 60 65 84 be c3 97 5d be 1a fd 02 be ba 6a 29 bd
       -0.25858593 -0.21639924 -0.12791863 -0.041361548
000130 0b 04 fc bd a8 14 d4 bd 90 bd 33 3c 45 00 ca bd
       -0.12305459 -0.10355502 0.010970488 -0.09863333
000140 b3 aa bb be ca 5f 1c be e1 d5 a2 be c5 17 6a bd
       -0.3665367 -0.15270916 -0.31803802 -0.057151575
000150 93 f0 b8 3c 7d 7c 78 be 9b 8c 82 3d c7 49 65 3e
       0.022575652 -0.24266239 0.063744746 0.22391425
000160 97 b7 8b 3d 9e 4b ef be 15 1f fd bd cf b2 c0 bc
       0.06822126 -0.4673738 -0.12359444 -0.023522763
000170 7d 5f 44 3d 0d 3e 14 be f4 03 23 bd 29 72 0c be
       0.047942627 -0.14476795 -0.039798692 -0.13715424
000180 86 fc 82 3d 2c ab 04 be 4c fc b4 3c 0b 4b aa be
       0.06395821 -0.12955922 0.02209296 -0.33260378
000190 0c 77 4d bd dd 49 65 bd 72 85 b0 bd 73 ad 8b bd
       -0.05016236 -0.055978645 -0.08619203 -0.06820192
0001a0 17 21 ba b9 af fc 87 3d 62 bc b1 3c 7f 35 9d bd
       -0.00035501338 0.066399924 0.021696273 -0.07676219
0001b0 f2 82 0a be 04 a3 5f bd 2e 93 aa bc 66 b0 f3 be
       -0.13526514 -0.054598823 -0.020822134 -0.4759552
0001c0 80 99 11 bc 53 1d a9 be 65 04 84 be 69 52 d0 bc
       -0.008886695 -0.33030185 -0.25784603 -0.025429921
0001d0 f7 8d 87 bd d8 99 81 be b1 08 88 be c6 f5 37 bd
       -0.066188745 -0.25312686 -0.2656913 -0.044912122
0001e0 2b 6f 96 3c 0e d9 3f be 7c d3 27 be 29 3d 48 3d
       0.018363556 -0.18735144 -0.16389269 0.048886452
0001f0 a9 a4 91 3d a5 72 26 be 04 1b ed be 4e 05 39 3d
       0.071114846 -0.16254671 -0.46309674 0.045171075
000200 99 5c 1d bd 1e dd b2 bd 62 29 2d bc 3e 41 11 bf
       -0.038418386 -0.08733581 -0.010568948 -0.56740177
000210 20 b5 5b bd 6b 8c 31 3d ea c2 8f 3c 2f b4 d8 bd
       -0.05363953 0.043346804 0.017548997 -0.10581242
000220 b2 f5 20 bd 80 6f e1 bb c1 a9 39 3d 5c bd 89 bd
       -0.039296813 -0.006879747 0.045327906 -0.067255706
000230 23 11 90 be 62 d7 c3 3c cc cb b5 bc 62 cb 05 bf
       -0.28138074 0.023906413 -0.022191904 -0.5226346
000240 38 1a ee 3c 98 43 53 be 2b af e2 be 2c 29 60 be
       0.029065236 -0.20631254 -0.44274268 -0.21890706
000250 88 88 c2 3d 5e 74 41 3d dc 77 74 bd 59 37 53 3d
       0.094986975 0.047230117 -0.05968462 0.051566456
000260 20 2e 94 be 72 f5 2a bc 4b bc 71 bf 78 90 ab bd
       -0.2894144 -0.010434495 -0.9442794 -0.083771646
000270 6d a3 d2 be 4f 05 67 3d b9 c3 88 3d 88 20 c1 3c
       -0.4114031 0.056401547 0.06677956 0.023575082
000280 8f 38 15 bd 7d bc 8f bd 96 79 1e bf e5 a0 1a be
       -0.03643089 -0.07018373 -0.61904275 -0.15100439
000290 33 bb a9 3c 32 e8 9c 3d 9b 20 45 be 13 1b 3e ba
       0.020719146 0.07661475 -0.19250719 -0.0007251959
0002a0 e7 9f 10 bd 51 f1 bb be e5 6d ba be 8c b8 84 3c
       -0.035308745 -0.36707547 -0.36411968 0.01620128
0002b0 df a3 07 3d 30 a3 a2 be b9 47 15 be a5 15 1f bd
       0.033115264 -0.31765127 -0.14578141 -0.038839
0002c0 33 fb 2f bc 9e 44 a7 bd 58 67 bf bc 14 2d 35 bd
       -0.010741043 -0.081673846 -0.023364708 -0.044232443
0002d0 b4 01 9e be da 03 c5 be b1 e0 1b be 4c a4 31 bc
       -0.30860674 -0.384795 -0.15222432 -0.010842394
0002e0 ac 41 b1 3d 36 c0 7d be 63 ef b9 be 80 b8 ce 3c
       0.08655104 -0.24780354 -0.3631545 0.02523446
0002f0 bf a5 7d 3b 76 c0 eb be 5c a4 80 be ea 1b 11 be
       0.0038703529 -0.46045274 -0.25125396 -0.14170805
000300 40 0a 46 3d ec 3c 9a 3c 01 25 05 be 49 b0 fd 3d
       0.04834962 0.018827878 -0.13002397 0.12387139
000310 ae 2e b1 be e4 0e 03 3d 74 a9 34 3d 89 ee 8e 3c
       -0.34605926 0.031996623 0.044106916 0.017447727
000320 a1 9f 57 bd e2 1e e7 bc 6c 4f f8 3c 7a ed ea 3d
       -0.05264247 -0.028212968 0.030311309 0.11471076
000330 de 51 12 3d 24 d5 87 3d 0f 4a 5a be c0 ee 1a be
       0.035722606 0.0663245 -0.21317314 -0.15130138
000340 be 96 98 bd ad a1 7a be 29 17 7a bd 03 ef f7 bd
       -0.07450627 -0.24475737 -0.061057243 -0.12106135
000350 0b 3a 3b bc 4a df 22 be 6b 74 1b be d9 a4 e8 bd
       -0.011427413 -0.1590549 -0.15181129 -0.11359567
000360 98 ca f6 bd 4d e0 51 be c4 e3 49 be ec d4 01 bc
       -0.120503604 -0.2049572 -0.19715792 -0.0079243
000370 18 a3 2e bd 6f c6 8d be a6 b4 9b be ca 68 a8 3d
       -0.042636007 -0.27690455 -0.3041126 0.08223112
000380 c6 d8 6a be 60 6c cd bc b7 2b 11 be 95 dd f3 bc
       -0.22934255 -0.025076091 -0.14176832 -0.029768744
000390 19 df 0e 3e 54 6a 0e bd 20 31 84 be 0e 01 be be
       0.13952293 -0.03476937 -0.2581873 -0.3711018
0003a0 02 0a fa 3c 65 ed 01 bd ae 80 18 be 6d f0 27 be
       0.03052235 -0.031720538 -0.14892837 -0.16400309
0003b0 82 58 a6 bd 56 c7 9b 3d b3 22 d7 3c e1 87 60 bd
       -0.0812235 0.0760638 0.026261663 -0.054817084
0003c0 f4 0f 20 3e 78 28 da 3c 9d cb c6 be 2d 40 86 3c
       0.15631086 0.026630625 -0.3882722 0.016388023
0003d0 b6 2a f8 bd 12 0c 8c bd a6 4a fc bd 3e 7e 00 3d
       -0.121175215 -0.0683824 -0.123189256 0.031370394
0003e0 94 2d 00 be 7a 73 d2 be 8a 39 47 be 43 2e 2d be
       -0.12517387 -0.41103727 -0.19455543 -0.16912179
0003f0 61 0e 70 be 6c c7 a3 bb 3b 69 8d 3d c8 d5 52 bd
       -0.23442985 -0.004998138 0.06904837 -0.05147341

fc3.bias f4 [256]
000000 b1 05 ec be 48 bd 8c be 66 ef ba bd 3a d3 44 be
       -0.46098092 -0.2748816 -0.09127693 -0.19221202
000010 b4 9c 2a bf 69 13 cf be d7 b0 a1 be 96 fb b3 be
       -0.6664536 -0.40444496 -0.3158023 -0.35152882
000020 ac 5e e6 be 66 5b 55 bf f8 b3 85 be a7 cc a0 bf
       -0.44994104 -0.8334259 -0.26113868 -1.2562455
000030 60 39 30 be 3e f5 c1 be 54 8f 8e be 8f 15 19 be
       -0.17209387 -0.37882417 -0.27843726 -0.1494963
000040 7e 77 14 bf 7a 51 69 bf a6 37 fd be 67 e3 5a be
       -0.5799483 -0.9113995 -0.4945652 -0.2137581
000050 7c 9a 89 be 5b 06 12 40 6a 0d 9b be 4b af 26 ba
       -0.26875675 2.281638 -0.30283672 -0.0006358518
000060 b2 9f 8c 3e d8 15 39 be d0 9d bd be 30 55 b1 be
       0.27465588 -0.18074739 -0.37034464 -0.34635305
000070 61 a1 42 be 64 c6 35 bf ad e1 f3 be 0c fa 3a be
       -0.19006874 -0.71005845 -0.47633114 -0.18259448
000080 f0 1d 48 3d a8 0e 39 be b3 af 8e 3f b8 fb f2 be
       0.048856676 -0.18071997 1.1147369 -0.4745767
000090 a3 4a 8f 3f af f2 04 3e 64 f8 e1 bd bc 30 b9 bf
       1.1194652 0.12983201 -0.11033705 -1.4467998
0000a0 b4 c6 60 3f 68 93 b8 3f ed 3a 44 bf f8 1c 4a bf
       0.87803197 1.4419985 -0.76652414 -0.7895045
0000b0 00 ac fa bd 42 09 95 be 39 1c 0d bf c3 b6 5c 3f
       -0.12239838 -0.29108626 -0.5512119 0.8621637
0000c0 59 db 39 3f 4b 10 3c bf 43 33 fe 3e f3 b3 f9 be
       0.7260032 -0.7346236 0.49648485 -0.48770103
0000d0 01 93 42 be 74 a6 80 be d8 37 79 be 9d 35 e6 be
       -0.1900139 -0.25126994 -0.24337709 -0.4496278
0000e0 c2 17 f4 be 40 f8 cd 3e ab 64 38 bf b6 95 69 be
       -0.47674376 0.40228462 -0.7202861 -0.22811016
0000f0 47 97 32 be a3 a7 c0 be 01 5f f8 be 87 5a 04 3d
       -0.1744052 -0.37627897 -0.48509982 0.032312896
000100 33 03 8e bd 14 9e 12 bd ee 72 71 bf 37 20 92 3f
       -0.06934204 -0.035795286 -0.94315994 1.1416081
000110 62 e6 12 3e 05 a3 2c 3e 68 34 7c 3e 86 6f 46 bf
       0.14345697 0.16859062 0.24629366 -0.7751392
000120 20 89 99 be 78 8e 25 be 32 3c 04 bf f2 14 33 3e
       -0.2998743 -0.16167629 -0.5165435 0.17488459
000130 39 d0 ba bd 9f 22 3f be 26 88 23 be d0 62 f1 3d
       -0.091217466 -0.1866555 -0.15969905 0.11786425
000140 88 5b eb be 4d e3 d1 be 26 0a b4 be 2d 48 c8 be
       -0.4596827 -0.4099373 -0.35163993 -0.39117566
000150 20 98 1d bf 3a 96 d0 be 1a cf 26 3e 5d a8 0e bf
       -0.6156025 -0.40739614 0.1628994 -0.5572565
000160 e2 49 9c be 5d ce 4f bf 97 cb 5d 3e 63 62 10 bf
       -0.30525118 -0.8117426 0.21659695 -0.56400126
000170 dc ab 4c be 79 5f f5 bf e3 cb 3e bf f3 06 22 bf
       -0.19987434 -1.9169761 -0.74529856 -0.63291854
000180 2d 3a 71 be 70 1e 1c 3c 2a 44 8b 3e 47 53 47 be
       -0.23557349 0.009528741 0.27200443 -0.19465362
000190 42 04 7e bd b6 74 52 be 7c c5 68 be 66 b7 d2 3d
       -0.06201578 -0.20552334 -0.22731584 0.10288887
0001a0 53 6b 8a be c2 d4 9b 3f 2e 1a 8d be 87 8c 0d be
       -0.27035007 1.2174304 -0.27559036 -0.13823138
0001b0 b9 28 0d be 06 39 09 3f b2 68 c1 3e b7 43 2e 3f
       -0.13785066 0.53602636 0.3777519 0.68072075
0001c0 48 7f 59 bf 5f 3b 27 3e f6 26 03 bf 8e 90 df be
       -0.8495984 0.16331242 -0.51231325 -0.43664974
0001d0 f2 31 10 bf 37 60 4f be cc 1c 2a be 94 e6 a9 3e
       -0.5632621 -0.20251547 -0.16612548 0.3318373
0001e0 1d 69 ac be c4 60 20 3f bd 75 cf bd 81 00 38 bf
       -0.33673945 0.6264765 -0.10129879 -0.7187577
0001f0 82 42 1f 3f f0 e1 0a bf f8 aa ce bd 94 9e e4 be
       0.6221086 -0.54251003 -0.100912035 -0.44652236
000200 78 ae 6b 3f a8 d0 02 bf 77 b1 3a bf 9d 4a 43 3e
       0.92063093 -0.51099634 -0.7292704 0.19071431
000210 1d 5c 1f bf 22 e4 9f 3f 79 2f bc 3e 3a f7 a3 be
       -0.6224993 1.2491496 0.3675497 -0.32024556
000220 26 bc 61 3e a5 a2 eb 3e 50 a4 86 3f b7 51 c8 3e
       0.22044429 0.46022525 1.0518894 0.39124843
000230 9b 2e c2 be 54 e9 2d be 13 3f be 3e 16 1f b5 be
       -0.37926182 -0.16983539 0.37157497 -0.3537528
000240 b7 80 10 bf ac b8 ec 3f a1 07 46 bf d9 54 33 3f
       -0.56446403 1.8493857 -0.7735539 0.7005134
000250 96 4c bb 3e fc dc 7d 3e 7c f3 e8 be 57 bc 27 3f
       0.36581868 0.2479133 -0.45498264 0.6552176
000260 d3 6b 20 bf 7c 72 b9 bd 64 9f d6 3e a1 ec bb be
       -0.62664527 -0.09055039 0.4191848 -0.3670397
000270 94 e6 28 bf f2 5e 9d be 23 74 3d bf 7a 3d 76 3f
       -0.65976834 -0.307365 -0.74005336 0.96187556
000280 97 2c 6e 3f 4a 12 2b be f5 a1 6b be 45 39 09 3f
       0.9303679 -0.16706195 -0.23011 0.5360301
000290 7f b7 fa be ba d4 0d bc 07 f2 0a 3e bd bc 75 3e
       -0.4896812 -0.008656675 0.13568889 0.23997779
0002a0 38 df 19 bf 6c ca 52 be 3f 4b ac bf 20 b9 ca be
       -0.6010623 -0.2058503 -1.3460463 -0.39594364
0002b0 1d 02 d6 be dd b1 9c be 48 4a 05 3e dd 17 b3 be
       -0.41798487 -0.3060445 0.13016617 -0.34979144
0002c0 0b 93 57 be 1c d2 1f bf f9 83 c2 bd c7 95 b6 3f
       -0.21052186 -0.62429976 -0.09497828 1.4264458
0002d0 b0 36 84 be 90 01 88 3d b6 60 85 3d ba 0b f3 bd
       -0.25822973 0.06640923 0.06512587 -0.11867471
0002e0 f1 45 c3 3e 39 87 17 bf 58 a2 af be f9 32 07 be
       0.381393 -0.5919071 -0.34303546 -0.13203038
0002f0 99 7a 92 3e 51 78 b5 be 8c 8d 56 bf af 1b 23 be
       0.2860916 -0.35443357 -0.83809733 -0.15928529
000300 20 90 45 3d 6c f4 a3 3e c5 9e e7 bc 40 f3 a7 be
       0.04823315 0.32022417 -0.02827395 -0.32802773
000310 10 17 c4 be 0e 03 61 be f1 58 ef bd 0c e4 25 be
       -0.38298845 -0.21973822 -0.11686886 -0.16200274
000320 be f2 88 3e d1 3f 62 bf 59 f2 0e 3f d4 6d 5e 3f
       0.26747698 -0.88378626 0.55838543 0.86886334
000330 9d 68 0b 3f d3 22 1b bf 20 63 e5 be 04 e1 8b be
       0.544565 -0.6060001 -0.4480219 -0.2732011
000340 50 06 4a bf 13 ff d4 be 39 90 0c bf b4 c9 f5 3e
       -0.7891588 -0.41600856 -0.54907566 0.4800545
000350 0a 4c c0 be 03 a7 dd 3e 8b be 39 bf c8 e9 26 bf
       -0.37558013 0.43291482 -0.7255637 -0.6520047
000360 59 d0 5c bf 3f 25 9d 3e 94 56 8c be c9 d1 6e bf
       -0.86255413 0.3069248 -0.27409804 -0.93288857
000370 2f 45 d2 bc d9 b3 a9 3e 67 35 14 bf a8 1f db be
       -0.025667755 0.33145025 -0.57893986 -0.4279759
000380 7f c6 27 bf 9a f5 09 bf 15 9b 33 3f 09 d1 6f bf
       -0.65537256 -0.53890383 0.7015851 -0.9367834
000390 24 f5 94 be b4 9f 8d bf 4d 5f e4 be cd c4 07 bf
       -0.29093277 -1.1064363 -0.4460396 -0.5303467
0003a0 d1 97 88 3e cf d6 f1 be 05 be de 3f 2a 04 0b 3d
       0.26678327 -0.47234198 1.7401739 0.033939518
0003b0 6e 8b 07 3f 69 1e 6b be 92 b1 d4 3f 46 ba 8e bf
       0.5294713 -0.2296082 1.661669 -1.1150596
0003c0 da 44 be be 37 5a 92 bf b4 fd af 3e 44 9c 08 bf
       -0.37161905 -1.1433781 0.34373248 -0.5336344
0003d0 7c dc 8e be 18 8f ef be 15 0b 74 be 45 98 8d be
       -0.2790259 -0.4678886 -0.23832352 -0.27655235
0003e0 ec 41 c4 be cc 00 20 be c0 f4 04 bf 1b 77 91 bf
       -0.38331544 -0.15625304 -0.5193596 -1.1364473
0003f0 cd ac 46 be 7e f2 ae be 16 a5 0c bf e7 a8 0d bf
       -0.19401856 -0.34169382 -0.549394 -0.5533585

action_out.weight f4 [4, 256]
000000 8f f0 be be 68 25 cf 3d 5e ad bd 3d d0 75 d5 39
       -0.37292907 0.101145566 0.09261583 0.00040714303
000010 4f 74 61 3e bd 61 82 3f aa db 04 bc cf 33 89 3c
       0.22017024 1.0186077 -0.008109013 0.016748337
000020 c1 11 fb 3c 26 86 ad bd 9f 5f 91 bc 75 46 d6 ba
       0.030648114 -0.084728524 -0.017745791 -0.0016347902
000030 21 f7 fb 3c a7 7b a5 3d 4f 84 85 bd 07 0c 9e bd
       0.030757489 0.080802254 -0.065193765 -0.07717138
000040 43 e4 73 bd fb ff 5d 3d 66 03 f8 3d 74 c3 52 3c
       -0.05954386 0.0541992 0.12110023 0.0128639825
000050 05 05 2b 3d 4d 01 d7 3a ba f9 05 bd e1 5b 86 3d
       0.041752834 0.0016403586 -0.03270886 0.06560493
000060 3b 39 b7 3b ec 5b 63 be af 00 5d bd fa c9 8a 3e
       0.005591539 -0.22203034 -0.05395573 0.2710722
000070 88 68 c3 be d0 17 97 bd f3 55 8e bc f9 46 e3 bc
       -0.3816569 -0.07377589 -0.017374968 -0.027743803
000080 9f d8 8a 3e ec a0 f5 3d 88 ea 4f bc f5 84 25 bc
       0.27118394 0.11993584 -0.012690194 -0.0101025
000090 13 e5 9f bc 69 de fc 3c 2d ca ac 3d a5 8b e8 3e
       -0.01951841 0.030867772 0.084369995 0.4541904
0000a0 c8 da ac 3a d6 ff ad 3c d5 52 10 3e 69 98 a3 bb
       0.001318776 0.021240156 0.14094098 -0.004992534
0000b0 aa 59 29 3d 72 17 e6 3d ee aa 9f 3c de 05 0b bd
       0.041345276 0.112349406 0.019490685 -0.033941142
0000c0 b5 ed 0f bd d2 37 c4 bc 2c 44 b6 3d 44 8b 16 be
       -0.035138804 -0.023952398 0.088997215 -0.14701563
0000d0 4e 25 74 3d ec 24 07 bd f7 c6 c1 3d 22 7b 90 3e
       0.05960589 -0.032994196 0.09461778 0.28218943
0000e0 36 fc ff bd d6 d1 e5 bb e8 f3 c0 bd 70 97 17 3e
       -0.12499277 -0.00701354 -0.094215214 0.14803863
0000f0 f0 35 01 be 3a 67 49 3e 5e 27 b4 bd ac 71 2a 3c
       -0.12618232 0.19668284 -0.08796571 0.010403078
000100 41 6b dc bd 0f 2f b0 bd 3f 00 bb 3b 7c 8e ca 3d
       -0.107626446 -0.08602726 0.0057068164 0.09890458
000110 08 4c 43 bd 27 04 29 3d d7 87 37 bc ab ad 0f bc
       -0.04767993 0.041263726 -0.01120182 -0.008769433
000120 0a a7 9b 3b b2 5e 48 3d 9d 5f bd 3d 1a a9 3b 3d
       0.004750137 0.048918433 0.092467524 0.045815565
000130 38 1a 33 bd f6 4e 74 bc cc a6 e5 bc a6 03 9d 3d
       -0.043726176 -0.014911404 -0.028033637 0.076667115
000140 21 27 9d 3d 8d af 48 3d bb de 62 bd 54 27 75 be
       0.07673479 0.048995543 -0.055388194 -0.23940784
000150 fb dd 8e bd 4e bc 09 bd 7d 01 08 3e f1 d3 3b bd
       -0.06975933 -0.033626847 0.13281818 -0.04585642
000160 8f 98 6a bd 75 7d f9 bb e4 ad ec bd 4a 66 2b 3b
       -0.057274397 -0.0076138326 -0.115566045 0.0026153498
000170 28 7f 39 be 9d 5d 44 bf 64 b2 f1 bc b4 b2 81 3e
       -0.18114913 -0.7670534 -0.029504009 0.25331652
000180 1f 56 e5 bc d0 8b f5 39 f4 9d 98 3d c3 a5 8d 3d
       -0.027995167 0.0004683421 0.07452002 0.06916382
000190 ba ea 81 bd 99 58 a4 be cb dc bf 3d 47 7f 78 bc
       -0.06343599 -0.32098845 0.09368285 -0.015167064
0001a0 70 41 43 be 83 89 b9 ba 2a ad 06 bd da bd cf 3e
       -0.19067931 -0.0014155362 -0.032879986 0.40574533
0001b0 cf 4a c1 3e 4d 82 78 bd 90 9e 8d 3e 8b 46 e7 ba
       0.37752387 -0.06067114 0.27660036 -0.0017644925
0001c0 ef cc 09 bd 94 f8 98 bd 81 77 37 bf 2b f0 5b 39
       -0.033642706 -0.074692875 -0.71666723 0.00020974937
0001d0 90 e6 3e 3e 4d 01 b9 bc a2 34 30 bd a6 ea fd bc
       0.1864264 -0.022583628 -0.043018945 -0.030995678
0001e0 f5 26 6b 3d c4 7f ae bc 90 c8 26 bd f0 a5 7d 3c
       0.0574102 -0.021301158 -0.040718615 0.015481457
0001f0 1f 3d a5 3d 41 d4 62 bc 15 fa 33 bd f0 75 16 3d
       0.080682985 -0.013844551 -0.04393967 0.036733568
000200 9b a0 00 bd 6b af ff bd 00 3b 9d bc 94 0f b1 be
       -0.031403165 -0.1248463 -0.019193172 -0.34582198
000210 c5 ae ab 3d 7c 6d cc 3b 82 c0 fa 3e 4e d7 38 3d
       0.08382944 0.0062386375 0.48974997 0.045127206
000220 da ff 53 bd 0b 39 4b bd 07 bd 32 3e e4 71 0c 3f
       -0.05175767 -0.049614947 0.1745492 0.54861283
000230 a9 c4 dd 3d f6 6e 32 3c 52 3c 4c 3e 6e ee 16 3e
       0.108285256 0.010890713 0.19944885 0.14739391
000240 90 9b a0 be a2 90 45 3b 6e a4 e5 3d 48 ff 00 3d
       -0.31368685 0.0030146022 0.11213003 0.031493455
000250 92 53 78 bd 0d 30 ac 3b bc b0 a9 3d fc bc f1 bd
       -0.060626574 0.0052547515 0.082856625 -0.11803624
000260 12 07 5b bd 1e e2 e4 3e af 11 de bd 12 49 15 be
       -0.05347354 0.44703764 -0.10843217 -0.14578655
000270 78 d4 d2 3c e7 c5 8a 3c 15 36 18 3f fd 5c 4a 3d
       0.025736079 0.01694007 0.5945752 0.049405087
000280 77 7f f7 3b 45 a6 69 bd 54 19 93 bd 77 3c c3 bc
       0.007553037 -0.057043333 -0.07182565 -0.023832543
000290 b3 e4 2c bb 0c bf ef bc 20 fa b0 3d 2a 35 04 3c
       -0.0026381433 -0.029265903 0.086414576 0.008069316
0002a0 97 c0 ae bb 1d 47 34 3d 99 f8 85 bc bc c1 80 3d
       -0.005333017 0.04401313 -0.016353892 0.06286952
0002b0 ff 91 e7 bc 04 3e e8 bd 4c d9 a9 3d 7e 04 4e bf
       -0.028267859 -0.113399535 0.08293399 -0.80475605
0002c0 c4 60 49 3d 5e d1 92 3c 41 be 15 3f 9c 36 fa bb
       0.04916455 0.0179221 0.5849343 -0.0076359045
0002d0 fc a0 5b bd 2e 8a fb bc 7a fa e1 bd 7c fc 5f 3c
       -0.053620324 -0.030705538 -0.11034103 0.013671037
0002e0 94 3d fe 3d 44 a6 eb 3d a8 16 71 bd 64 44 2e 3e
       0.12414089 0.11506322 -0.058859497 0.17018276
0002f0 04 8a 04 bc dd 1e f3 bd 13 6b 26 bd e3 d6 12 3e
       -0.008089546 -0.11871121 -0.040629458 0.14339785
000300 21 69 cb bd 95 a0 8a bd a6 0b d6 3c a2 0c ad bd
       -0.09932161 -0.0676891 0.026128601 -0.08449675
000310 c2 42 18 be 94 36 28 3d af 13 c0 bb b8 1b 3c 3d
       -0.14869216 0.041067675 -0.0058617215 0.045924872
000320 19 b3 5b bc 9b d9 93 bb e7 bf a1 b8 8c 6b 1d bd
       -0.013409399 -0.0045120246 -7.712823e-05 -0.038432643
000330 93 42 aa bd c8 fc 1b 3b 11 91 92 3c 46 97 c9 bd
       -0.08313479 0.0023801792 0.017891439 -0.09843306
000340 31 09 26 be 76 07 b2 bd 0b 3d bb 3d 27 5a 9e bd
       -0.16214444 -0.08692829 0.091425024 -0.07732039
000350 a6 e5 f2 3c 5c 47 91 bd a3 5e c1 3d 93 33 a1 3e
       0.02965052 -0.07093689 0.09441879 0.3148466
000360 ca 7c 66 bd c4 ec 7a bd be a8 5b 3e b3 78 07 be
       -0.056271352 -0.061260954 0.21451089 -0.13229637
000370 6b b0 e2 bb 47 c2 04 be 48 2d 7d 3e f2 24 8a 3d
       -0.0069180033 -0.12964736 0.24724305 0.06745328
000380 78 32 bd 3c 15 b8 4b bb 38 0a 81 3d 6c 3c 2c 3c
       0.023095354 -0.0031085063 0.06300777 0.010512453
000390 38 6b 88 3d 46 3c a2 bb 92 e6 cc 3d 5d b5 31 3c
       0.06661075 -0.004951033 0.10004915 0.010846463
0003a0 35 92 b6 be 51 58 8c bd ac da c5 39 11 06 bc 3d
       -0.35658422 -0.068527825 0.0003773769 0.091808446
0003b0 12 5e b6 be f8 9e 09 be ef b8 85 bd 11 eb 0d bf
       -0.35618645 -0.13439548 -0.06529414 -0.5543681
0003c0 c6 21 cc 3d 4d b2 a3 bd 39 b0 ba bd 00 1c 50 bc
       0.09967379 -0.079929926 -0.09115643 -0.012701988
0003d0 99 41 6b 3b d8 4c 36 bd 14 44 68 3d a1 28 16 be
       0.0035897254 -0.044506878 0.05670555 -0.14663936
0003e0 28 36 89 be 72 03 8c 3c dd f3 99 ba 1a 5b af 3c
       -0.2679913 0.017091487 -0.001174565 0.021405745
0003f0 92 f0 68 be dd 8f 2a bb 64 42 85 3e 2f 2d 14 bd
       -0.2274802 -0.002602569 0.26027215 -0.036175903

action_out.bias f4 [4]
000000 29 08 7e bb 2f 38 56 3c 59 b9 b9 bc d7 20 9b bb
       -0.0038762188 0.013074919 -0.022671388 -0.0047341394
