saved_models/FetchPickAndPlace-v1/model127.pt (torch, 563151 bytes, 8 tensors)

fc1.weight f4 [256, 28]
00000000: 0ef9 d5bc f356 6bbe ef60 913e 95c3 6d3e
00000010: 7aed 5dbe 286c f53e 53e1 3a3f 9f8d 503e
00000020: 1763 cbbe 7a8d 1d3e f6e9 ab3e 5b88 183d
00000030: d5ce 1e3e b737 9f3d 68e2 643f adc2 1a3f
00000040: 9f50 9f3e 7a49 0b3e 5efb 42bc d853 64be
00000050: 8257 633f 62ac a73e 7a39 3c3e 915c 6a3d
00000060: 7371 9bbd a1ba 793c dea2 3a3d f841 05bf
00000070: 4a06 18be 9b16 55bc 4548 373e 6bcc 293d
00000080: 947e 9e3e 7f60 d4be 256d e03c 2f98 5a3e
00000090: 41d1 a3be c2fe d1be bd59 51bd aa7a e43c
000000a0: 4275 723e 1139 843d 6538 0c3e a476 193f
000000b0: 493b c63e df65 cf3d 161c 1e3e bca0 a13e
000000c0: 045c c03d 1f84 e53e 60c4 193f b540 393e
000000d0: be2e 653e 9404 9b3e e263 80be 253b a33e
000000e0: f87d d2be 59fa 3ebd 3b00 293e d0c5 a1be
000000f0: 0f50 3e3d 2d35 c3bd 781a ab3d 2f69 ae3e
00000100: 45ef 04be b9a5 133e dd81 053e 43ca b83d
00000110: d4e5 d6bd 1467 14be 306e d7bd 1491 62bd
00000120: b4a6 06bd 84af 64bd a549 af3d a3a1 c33d
00000130: 78b3 b4bd d61e 96bc bbe3 b73d dda6 d13d
00000140: 076b 5b3d 8c7c 40bf 7302 493d b58f 02bf
00000150: 28a1 593d 0547 9abd f7e0 c13d 6970 203f
00000160: bb2a afbe a966 973e 87a5 293f 3175 0437
00000170: 0448 483e 6e0d 78bd a205 8a3d 684f 2a3e
00000180: d14a 143d 4a3d 6b3e fb3f 3c3e 03c7 50bd
00000190: f3f3 343e 50a3 bbbd 513b 5a3e 623b 5e3e
000001a0: d76c 13be 9eb1 083c dc51 c83e 9ce6 703e
000001b0: 39c8 8e3e d2d7 81bf 2148 b13d ad51 ebbe
000001c0: a9be a6be e7da 83be 91d5 b2be 7cdc cdbe
000001d0: 61a4 7bbc 0b78 2fc0 b38d c2be db4a aebe
000001e0: a497 efbe 99ac 01be 2a60 c1bc 589a f13d
000001f0: f560 3f3e 1880 3abe 26ef 04be 0aa4 363e
00000200: 9d2f 95bf ea30 81bd c13e 163e a8cf 5abc
00000210: 9704 c6bd 3790 cd3d 91f4 24bf 581e 07bf
00000220: a95d 0dbe d62d 793e b622 e7bc 3f26 063e
00000230: 4651 7cbf 374f b53e e41d c33d 7abf 553f
00000240: 386e d0bd 080c dc3d 32f4 2e40 f59d 51bf
00000250: dab9 9b3e e84a 273d 9ab2 ab3d 3955 9eba
00000260: a3b3 babd 0a24 773d 6f7f bd3e ca5d 673c
00000270: 5687 12be 6616 93bc 8cf4 653d a175 27bd
00000280: 82a6 843e 3447 20be 31c9 dbbd 65f8 7ebc
00000290: a12c 4abd 8321 a53e 9fa5 69ba ec68 0cc0
000002a0: ed6b 153e 4ef7 3a3f 6bad c3be e033 2ebf
000002b0: 6409 69bf 7a88 e13e 1d9f a0bf 6a04 40c0
000002c0: e07f f93e e3c1 bc3e 1850 54be e769 6bbd
000002d0: 1993 fa3c b4fc 2c3e 445d 82be 0699 81be
000002e0: 791c 4a3e 7335 1d3c ca60 5abd 8b7b 3fbd
000002f0: 9484 68be d165 29be c63e 163e b87e 003e
00000300: c801 4abe ae12 133e 6482 103e 33ba bbbd
00000310: eeeb 443f dbbb fdbb eadf d83c c800 7b3f
00000320: af40 ebbe 53ec 073d b776 4b3f e8d2 45bd
00000330: bfb1 113d 76e5 ad3d 367a 4a3d 070f 17be
00000340: 8577 0cbe 87bb 693c 48a3 d63e 8800 67be
00000350: ef4b 6a3a 8d4b 5d3d 8c66 7b3d 4507 99bd
00000360: 526a d83e 104c 0cbe e303 a33d a5a5 4b3e
00000370: b25f 283d 225d 1f3e 9dc3 c8bd c268 37bd
00000380: e0a2 59be d587 df3c 52d7 8abf 8d8f 7d3e
00000390: 1aa1 093d 605a 9f3f 69c5 c93e 0ff6 9cbd
000003a0: 7b74 623f cbe7 f9bf 9aff f5bf 5bfb 2abc
000003b0: a458 58bd f7cb 8dbd db70 07bd 4645 adbd
000003c0: e414 ae3e a07c 66bd 11e0 09be 1729 b83c
000003d0: 333a 7ebb ed5d 3ebc 6614 acbd fc11 d3be
000003e0: a786 b1be ab2b d23c 4ce4 3b3d 5f11 5abd
000003f0: de53 703e 029c a4be 233e 9fbf 390d 59be
-0.026119735 -0.22982387 0.28394267 0.2321914 -0.21672621 0.4793408 0.7300007 0.20366524
-0.39724037 0.15386 0.33576936 0.037239414 0.15508588 0.07774299 0.8940797 0.604533
0.31116197 0.13602248 -0.011900751 -0.22297609 0.888054 0.32748705 0.183813 0.057217184
-0.07589998 0.01524225 0.04556548 -0.52053785 -0.14846149 -0.013005878 0.17898662 0.041454714
0.30955946 -0.4147987 0.027395794 0.21347116 -0.31995586 -0.41014677 -0.05111097 0.027890522
0.23677543 0.06456197 0.13693388 0.59946656 0.38717106 0.10126852 0.15440401 0.31567943
0.093925506 0.44827363 0.6006527 0.1809109 0.22381112 0.3027693 -0.25076205 0.3188106
-0.41111732 -0.04662547 0.16503994 -0.3159623 0.04646307 -0.09531627 0.08354658 0.34064624
-0.12981899 0.14418687 0.1303782 0.09022953 -0.10493055 -0.14492446 -0.105190635 -0.05531414
-0.032873824 -0.055831447 0.085589685 0.09552314 -0.088232934 -0.01832525 0.08978983 0.10236905
0.053568866 -0.75190043 0.0490746 -0.5100053 0.053132206 -0.07533077 0.09466737 0.62671524
-0.34212288 0.2957051 0.662682 7.895099e-06 0.19558722 -0.060559683 0.067393556 0.16631854
0.036204163 0.22972599 0.18383782 -0.050971042 0.17671184 -0.09162009 0.2131169 0.2170234
-0.14396988 0.0083431285 0.39124954 0.2352547 0.27887133 -1.0143988 0.086563356 -0.4596075
-0.32567337 -0.25752947 -0.34928563 -0.4020728 -0.015359015 -2.7417018 -0.37998733 -0.34041485
-0.4679538 -0.12663497 -0.023605425 0.11797017 0.1868933 -0.18212926 -0.12981853 0.17836013
-1.1655155 -0.06308158 0.14672376 -0.013355173 -0.09668844 0.100372724 -0.6443568 -0.52780676
-0.1380526 0.24333891 -0.028214794 0.13100527 -0.98561513 0.35412 0.095271856 0.83495295
-0.101772726 0.10744482 2.7336545 -0.8188165 0.3041523 0.04084292 0.08383675 -0.0012079842
-0.09116294 0.060337104 0.37011287 0.014121482 -0.14309439 -0.017955016 0.05614142 -0.040883664
0.25908285 -0.15652162 -0.107317336 -0.015562152 -0.049358968 0.3225213 -0.0008912924 -2.193904
0.14591952 0.73033607 -0.38218245 -0.68047905 -0.91029954 0.44049436 -1.2548558 -3.0002694
0.48730373 0.36866674 -0.20733678 -0.057474043 0.03058772 0.16893274 -0.2546178 -0.2531206
0.19737424 0.009595263 -0.05331496 -0.04674868 -0.22706825 -0.16542746 0.14672384 0.1254834
-0.19727242 0.14362594 0.1411224 -0.09166374 0.769225 -0.0077433414 0.026473958 0.9804807
-0.45947787 0.03318436 0.7947802 -0.04829684 0.035569903 0.08491032 0.049432956 -0.14751826
-0.13717468 0.014265901 0.4192145 -0.22558796 0.00089377066 0.05402713 0.061377093 -0.0747209
0.42268616 -0.1370089 0.07959726 0.19887407 0.041106887 0.15562871 -0.09802935 -0.04477764
-0.21253538 0.02728645 -1.084696 0.24761792 0.033600904 1.2449455 0.39408424 -0.076641195
0.88458985 -1.9523863 -1.9218628 -0.010435904 -0.05281891 -0.06923669 -0.03306661 -0.084604785
0.34000313 -0.056271195 -0.13464381 0.02248053 -0.0038792014 -0.011619073 -0.08402328 -0.41224658
-0.34673044 0.025655588 0.045872018 -0.053239223 0.23469493 -0.32150275 -1.2440838 -0.2119645

fc1.bias f4 [256]
00000000: 405a 01c0 dfbf e0bf 4f90 a6bf eb2b 1dc0
00000010: 665f 10c0 b671 92bf 0e0b efbf cb1a 0bc0
00000020: 3822 cebf d879 e0bf e83e 12c0 3296 c93f
00000030: f412 03c0 1ec7 1bc0 f80d 41bf 696f f1be
00000040: b4f7 d9bf 5242 13bf 9adb d8bf 8e6f 92bf
00000050: 9f9f 17be 9354 94bf f4af 05bf 3728 b8be
00000060: b6dd 31c0 f557 1fc0 6e19 15c0 cbd1 a8bf
00000070: 060b dfbf d303 b0bd 48a9 14c0 78a9 34c0
00000080: 9168 2dc0 2efe aebf ca2e 06c0 4b64 453c
00000090: 1fe1 12c0 6c00 10c0 9dd2 d0bf 3e13 12c0
000000a0: ea9b 01bd 327e 273f edd3 dbbf 8e71 a8bf
000000b0: 36b0 86bf 1baa ebbe d672 19c0 126d babf
000000c0: 1e17 97bf 95a7 2fc0 76cb 4c3f 9084 36be
000000d0: 1d4e fbbf 62cc 33c0 2975 c63f ba4d dabc
000000e0: df99 49c0 73db f4bf 9e13 3b3f a106 b2bf
000000f0: 7159 b4bf 1b4f 14c0 300e fbbf 86cd 8fbf
00000100: f942 49c0 b655 32bf 1aa1 d6bf 01f7 2dc0
00000110: fa8a 18bf 4500 1dbe ac08 d0bf 80ab 09c0
00000120: c4f0 12bd 7bd8 2ac0 5ef1 c1be 8ba3 b5bf
00000130: 6254 8a3e 7e0f 8bbe 409a 1cc0 dd96 babf
00000140: 16f1 0fc0 f35d aebf 1545 28c0 c081 5dbf
00000150: 639b b7bf 5b30 5b3d 029b 9b3d b415 8fbf
00000160: 71e9 d5bf 1c0f edbe 8efd 5fbe ad3d 343f
00000170: 04f6 253f 7674 b3bf fe66 04c0 242d 94bf
00000180: 4188 88bf 2b2f 17c0 018e 16c0 e0b0 81bf
00000190: d4eb 7a3d ef0c d0bf 7d70 7bbf 0a4a 473f
000001a0: e738 02c0 69e8 07c0 3520 10c0 4972 b9bf
000001b0: 22d4 26c0 bf50 48c0 9d0b 0fc0 850c 0ec0
000001c0: f947 d8bf 12d7 94bf d314 f8bf 34ad 1dbf
000001d0: 63c6 6d3e 6ef0 a1bf 934f 7ebd 481a 25c0
000001e0: 587b a9bf 956c bcbf b39b 75bf 43ff 42c0
000001f0: 1693 313f d65e 20bf 130b 0ac0 e2fa 06c0
00000200: a161 dbbf 7af2 35c0 e171 c9bf 2f20 3fc0
00000210: f98d 17c0 a1d1 07c0 cae0 9abf 1a68 c8bf
00000220: 86b4 e5bf f5da 1dc0 cf39 33c0 b447 24c0
00000230: c0eb d23e 113e 9dbf fb17 c6bf 71b3 32c0
00000240: 1c8f f9bf 61b0 36c0 6a65 fabf 3f97 eabe
00000250: b835 8abf 68b9 17c0 5095 e2bf 0568 4cc0
00000260: b45b 96be 2495 50c0 5e21 26c0 b967 3fc0
00000270: c187 b9bf a8ed dbbf ef4f 1dc0 5b34 c03d
00000280: d4a4 f8bf 354f 01c0 fe70 ecbf 0c6f aa3f
00000290: b53e 2f3f 0aaa 3dbf 0aaa c0bf c227 a8bf
000002a0: 7985 42c0 e65a eebf 4b99 1ec0 2770 c9bf
000002b0: d4df d5bf b320 dfbf 723a 833f 5c6e 4bbf
000002c0: 2e9f a0bf 089c 88bf 145a a83d 1716 e3bf
000002d0: cb8f 1bc0 2762 33c0 f4bf b6bf c90d 0ac0
000002e0: 83fe 88bf 3af5 22c0 68b3 ce3f 9143 90bf
000002f0: 80f9 933f 7da2 16c0 8dd4 ae3e 49ce 01c0
00000300: 2b73 babf f7fd dabf 8cde 163f 4145 1dbe
00000310: 1418 c4bf ba54 2fbf 1be8 82bf 89f1 babd
00000320: 238e 88bf 0527 51bf 08b5 0a3f 3be4 10c0
00000330: f975 42c0 155e ccbf ad0d 25bf c4a0 3ec0
00000340: d47a 0d3d e01b 14bf 2ea4 19c0 a05d 88bf
00000350: 6340 bebf 5db7 03c0 e92a 14c0 4ff8 9ebf
00000360: ae4f ddbf e597 2ec0 5609 e23d e185 7abf
00000370: 548d 18c0 a886 a6bf cb99 15c0 9cb9 23c0
00000380: 5232 dfbf 131f 15c0 f399 92bf 4f04 c4bf
00000390: 0d63 b2bf ffee f7bf 8c0d 1dc0 8d7b edbf
000003a0: 74e1 e9bf 2687 8dbf 64bb dc3f d7c8 0fc0
000003b0: 5279 c0bf 5385 e3bf 16d9 b9bf 0de1 00c0
000003c0: f5ac 0dc0 9cad 25c0 14ed d4be 27b4 b63e
000003d0: 79da cabe 9b75 f9bf 44e5 14c0 4a72 3ac0
000003e0: 21d1 18c0 b00f 5ac0 fd78 08c0 8e47 e9bf
000003f0: aa15 3cc0 ea0e bbbf 852c 9bbf 3bd4 bcbf
-2.0211334 -1.7558554 -1.301279 -2.4558055 -2.2558227 -1.1440952 -1.8675249 -2.1735103
-1.6104193 -1.7537184 -2.2850895 1.5748961 -2.0480318 -2.4340281 -0.7541194 -0.47155312
-1.7028718 -0.5752307 -1.6942017 -1.1440294 -0.14806984 -1.158831 -0.5222161 -0.35968181
-2.7791572 -2.4897435 -2.329677 -1.3189024 -1.7425239 -0.085944794 -2.322832 -2.8228436
-2.7095072 -1.367132 -2.0966058 0.0120478375 -2.2949903 -2.2500257 -1.6314274 -2.2824244
-0.03164283 0.65426934 -1.717405 -1.3159654 -1.0522525 -0.46028218 -2.397634 -1.4564536
-1.180393 -2.7446034 0.79997957 -0.17824006 -1.9633213 -2.8093495 1.5504504 -0.026648391
-3.1500165 -1.912947 0.7307681 -1.3908273 -1.4089795 -2.3173282 -1.9613705 -1.1234596
-3.1447127 -0.69662035 -1.6767914 -2.718201 -0.5958706 -0.15332134 -1.6252646 -2.1510925
-0.035874143 -2.669463 -0.3787946 -1.4190534 0.27017504 -0.27160257 -2.4469147 -1.457729
-2.2490897 -1.3622421 -2.6292164 -0.8652611 -1.4344295 0.053512912 0.07597925 -1.1178498
-1.6711866 -0.4630059 -0.21874067 0.7040661 0.64828515 -1.4019916 -2.0687861 -1.1576276
-1.0666581 -2.362254 -2.3524172 -1.0132103 0.06126006 -1.6253947 -0.9821852 0.7784735
-2.034723 -2.1235602 -2.2519658 -1.4488002 -2.6066976 -3.1299284 -2.2350838 -2.2195141
-1.6896964 -1.1628134 -1.9381355 -0.6159241 0.2322021 -1.2651498 -0.062087607 -2.579729
-1.3240767 -1.4720637 -0.95940703 -3.04683 0.6936506 -0.6264471 -2.156926 -2.1090627
-1.7139169 -2.8429246 -1.5737878 -2.9863393 -2.3680403 -2.1221697 -1.209985 -1.5656769
-1.7945716 -2.466489 -2.8004034 -2.5668764 0.41195488 -1.2284566 -1.5476068 -2.7922022
-1.9496799 -2.8545153 -1.9562199 -0.45818517 -1.0797644 -2.3706913 -1.7701817 -3.1938488
-0.2936684 -3.2591028 -2.5957866 -2.9907057 -1.4494554 -1.7181902 -2.4580038 0.09384986
-1.9425302 -2.0204594 -1.8471982 1.3315139 0.6845506 -0.74087584 -1.5051892 -1.3137133
-3.0393965 -1.862149 -2.4781063 -1.5737351 -1.6708932 -1.7431854 1.0252211 -0.7946527
-1.2548578 -1.0672617 0.08220306 -1.7741116 -2.4306514 -2.8028657 -1.427733 -2.1570914
-1.0702671 -2.5462174 1.61485 -1.127062 1.1560516 -2.3536675 0.34146538 -2.0282156
-1.4566396 -1.7108754 0.5893333 -0.1535845 -1.5319848 -0.6848866 -1.0227083 -0.091281004
-1.0668377 -0.81700164 0.5418248 -2.26393 -3.0384505 -1.5966212 -0.6447399 -2.9785624
0.034540966 -0.57855034 -2.4006457 -1.0653572 -1.4863399 -2.0580666 -2.315119 -1.2419528
-1.7289941 -2.728021 0.11036937 -0.97860533 -2.383626 -1.3009844 -2.3375118 -2.5582037
-1.7437232 -2.3300216 -1.1453232 -1.5313815 -1.3936478 -1.9369811 -2.4539518 -1.855333
-1.8271928 -1.1056869 1.7244687 -2.2466333 -1.5037024 -1.7775062 -1.4519374 -2.013736
-2.2136815 -2.5887213 -0.41587126 0.3568432 -0.39619806 -1.9489015 -2.3264933 -2.9132257
-2.3877642 -3.4072075 -2.1323845 -1.8224962 -2.9388223 -1.4613926 -1.2122961 -1.4752268

fc2.weight f4 [256, 256]
00000000: b236 e2be 10b3 81bd 0ffe b83e dfe1 0f3e
00000010: d45e 043f de19 373f ae68 133f abd2 57be
00000020: 6ca5 da3d 4058 1d3e ca5a 9d3d 0b6d 41be
00000030: c024 41bf 3fb9 013f 9639 1c3f 7856 163e
00000040: 7e28 75be 8ec5 07be dc83 863e 2d67 74be
00000050: a8b6 d7be 39ed b03e f958 aebe 2ba3 4abf
00000060: 1fbc d23e dd8e 9fbe 15db 4fbf db44 35be
00000070: b172 02bf 033d 51bd 94ae c23e 8a28 2dbd
00000080: 4fc1 e1bf 2016 2d3e 5156 143f ccd7 f3bd
00000090: 02ab 84bf 9f02 103f 8dba de3d 2a1b b13e
000000a0: 6d9f 18be dcf6 943f 788c e33e ccd5 57be
000000b0: 3e4f 27be 4fe0 a5be 16d5 a93e b61b b7bd
000000c0: cfec 813d d32b a7be 6236 53be 82f9 a3bf
000000d0: 3e82 8b3d 6cf2 1fbf 25e2 1ebe 057f 3abb
000000e0: 055a 2cbe 65c0 22be 0826 1abe 8c37 0abe
000000f0: e7ff 9a3d 480e 4bbe c072 47bd dce8 9bbc
00000100: ab89 24be 0011 843d 2692 3f3f add8 e93e
00000110: 2c72 dd3e b7ce 243d 2f10 de3e c54e f23d
00000120: d279 1abe 2b84 28be cb43 2abf 115e e6be
00000130: ad9a 9e3d 6645 d9bf 1193 793e a3f2 833e
00000140: 24c6 ef3d 606d 833e e32c 06be cdda 183f
00000150: c9fe 10be 8636 8abe 3861 bc3d 55bf d3bd
00000160: 05c6 a43d 1d63 42bf 2b26 1ac0 e69f fa3e
00000170: 2df4 223e bd4e 5dbe 2fa5 0dbf aa05 1e3c
00000180: ab33 f0be 9f36 dcbe f080 d33e df85 903c
00000190: d8bb 1dbe d6e7 d3bd 053a 8fbe fe0d 79be
000001a0: f95a 89bd 46d1 693f 7efc 7a3d a594 293e
000001b0: 9301 353e 7157 07bf 3be0 38bf 89f5 aebd
000001c0: 9b6c 3c3d efdf 6abd f37f ce3d b645 e23d
000001d0: 812c f83e 040c f7be 7f65 e73b e05e a03e
000001e0: 4dad 1d3f 6933 243e f2bc 4fbd 19a2 523f
000001f0: a90e 8bbe f2f7 253e 722d 363e f0b0 bfbe
00000200: e030 49bd c078 493f 61a1 033f cb03 09be
00000210: 458c b9be 90af 9d3d e9bb 24be 3ecd c4bd
00000220: 62f4 ae3c cd89 993e 2045 e53e 1bf4 f3bd
00000230: 5d54 5a3e 3809 10bd 2523 86be 7a04 ff3d
00000240: 7d4d e63d ff94 a5bf d634 9f3e 1072 2dbf
00000250: 6a22 fc3e 548a 02bc b389 39be cb1a fabe
00000260: d53c 8dbf e03f 123f 41b8 2cbf 4881 41be
00000270: 18c9 93be ff31 34be 1623 6c3e 1e27 1d3b
00000280: 4424 533e 58ac 193d 7ab0 e9be a6be e8bc
00000290: f7df 4b3e 47d9 c2bf ffa2 15bf 6946 11bf
000002a0: 68a2 52bf 3adc d2be 4535 a83e e1c9 a7be
000002b0: 5b73 893e a6a0 8a3e 0803 a63e ccb9 3f3d
000002c0: 01c0 723e e629 123e 80b6 543e 5708 863e
000002d0: 06ce ecbd 3ec8 6b3e 07d5 d8be 5982 55be
000002e0: b99c 0a3d 59fa c83c 1f77 813f f39d 633e
000002f0: c30e 92bb f044 0b3f ed8e 59be 01c5 b5be
00000300: eb75 a4be 6c59 ccbd 9394 8c3d b212 ffbd
00000310: eb0e 72bd 5646 27bf 6477 7dbe 54c3 3bbf
00000320: fe05 23be dfbc 793e 3f6a 243d 4d53 053f
00000330: 8b7b 2dbf c8ae bb3e ead6 063f fb21 4ebf
00000340: a88f 40bb 3025 b3bf 802e 84be f90f 24bd
00000350: 66b2 43bd 4aec 083e 007f 383e 2f9f 2ebe
00000360: dae0 613e 717f 8a3e 837e 403e e987 db3e
00000370: 3513 f33e f594 f63c 6d93 aa3f 4960 a1be
00000380: de33 2abe 3b9a 443e 5e51 933e c0c7 d53d
00000390: ef17 c13e 1e77 a23e e9f7 f23c d23e 7c3e
000003a0: ed4c 713e a0b3 f33e 2a2e 44bd 90d2 573e
000003b0: ff0b 813e 24e7 273f 107d 263e 3d03 253f
000003c0: 370c 68be 6c8e 1b3f d52d 13c0 c38a d03e
000003d0: 7952 e43e 99c1 0f3e c0d2 cebe 7b88 aabf
000003e0: 1ef3 6c3b 09f5 13bf 4531 133c 0ce2 cb3d
000003f0: f5df 11be 1c47 46be 07bf b5bd 65a3 43be
-0.44182354 -0.063329816 0.3613133 0.14051007 0.51707196 0.71523845 0.57581604 -0.21076457
0.10676083 0.15365696 0.07683332 -0.18889253 -0.754467 0.5067329 0.6102537 0.14681423
-0.23941228 -0.13258955 0.26272476 -0.23867483 -0.42131543 0.34555987 -0.34052256 -0.79155225
0.4115915 -0.31163684 -0.8119367 -0.17702048 -0.50956255 -0.051083576 0.38023818 -0.04227499
-1.7637118 0.16902971 0.5794421 -0.11906394 -1.0364687 0.56254 0.108754255 0.34591037
-0.14904566 1.1637836 0.44443107 -0.21077651 -0.16338822 -0.32397696 0.33170384 -0.08940832
0.06343996 -0.32650623 -0.20626214 -1.2810519 0.06811951 -0.6247928 -0.15515955 -0.0028457057
-0.16831215 -0.15893705 -0.1505357 -0.13497752 0.07568341 -0.19829667 -0.04869342 -0.019031934
-0.16068141 0.06448555 0.7483238 0.45673123 0.4325117 0.0402362 0.43371722 0.1183143
-0.15085533 -0.16456668 -0.66509694 -0.44993642 0.07744346 -1.6974304 0.24372508 0.25771055
0.11707714 0.25669384 -0.1310306 0.59708863 -0.14159693 -0.26994723 0.091982305 -0.10339228
0.08045582 -0.75932485 -2.4085796 0.48950118 0.15913458 -0.21612068 -0.55330175 0.009644905
-0.4691442 -0.43010423 0.4130931 0.01764196 -0.15403688 -0.103469536 -0.27973953 -0.24321744
-0.06706805 0.9133495 0.06127595 0.1656061 0.17676382 -0.528678 -0.7221715 -0.08542926
0.04600201 -0.057342466 0.10082998 0.110484526 0.48471454 -0.48251355 0.00706166 0.31322384
0.6159256 0.16035236 -0.0507173 0.8227859 -0.27159622 0.16207865 0.17790774 -0.3743968
-0.049118876 0.78699875 0.5141812 -0.13380353 -0.3623983 0.076995015 -0.16087307 -0.09609459
0.021356765 0.29987946 0.447793 -0.11911794 0.21321245 -0.03516504 -0.26198688 0.12452026
0.112452485 -1.2936095 0.31094998 -0.6775217 0.49245006 -0.00796755 -0.18118934 -0.48848566
-1.103419 0.57128716 -0.6746865 -0.18896973 -0.2886436 -0.17597197 0.23060259 0.0023979614
0.20619303 0.037517875 -0.45642453 -0.02841122 0.19909655 -1.5222558 -0.5845184 -0.5674806
-0.8227906 -0.41183645 0.3285314 -0.3277121 0.26845822 0.2707569 0.32424188 0.04680805
0.23706056 0.14273795 0.20772743 0.26178238 -0.11562733 0.23025605 -0.42350027 -0.20850505
0.03384087 0.024533438 1.0114478 0.22228222 -0.004457326 0.54402065 -0.21245928 -0.35501865
-0.32121214 -0.09977993 0.06864276 -0.12454738 -0.059096258 -0.653417 -0.24752575 -0.7334492
-0.15920255 0.24388455 0.040140387 0.5208023 -0.67766637 0.36656785 0.5267168 -0.805206
-0.00293825 -1.3995724 -0.25816727 -0.040054295 -0.047777556 0.13371387 0.18017197 -0.17052911
0.2205843 0.27050355 0.1879826 0.4287713 0.4747559 0.030100325 1.3326241 -0.31518772
-0.16621348 0.19199459 0.28773016 0.1043849 0.37713572 0.31731504 0.029659228 0.24633339
0.23564501 0.4759798 -0.047895588 0.21076417 0.25204465 0.6558707 0.16258645 0.64458066
-0.2266091 0.60764194 -2.2996724 0.40730867 0.44594172 0.14038695 -0.40395164 -1.33229
0.0036155651 -0.5779577 0.008983915 0.099552244 -0.14245589 -0.19363064 -0.08874326 -0.19105299

fc2.bias f4 [256]
00000000: c4d9 d1bf 6151 c0bd 14c2 863b 4a41 c9bd
00000010: cd16 bb3c 5c3e 10c0 7a17 c73f f4b5 b7bd
00000020: 0a2d 7cbe 11ea ad3f 5dbc dbbe e9ab 09bd
00000030: 1109 87bf 16e1 813f 6d90 973f 9889 503e
00000040: 343a 1cbd e7df d3bf bb7c 13be 589b 85bd
00000050: ba35 a6bd 01b1 223f c21c 203d be09 40be
00000060: 849a e0be 9699 f13e b7c4 1d3d 3bbd cfbf
00000070: f05d 0abd c9de 6b3c 193c d83f 7428 9a3f
00000080: 7da8 a53d d17c 8e3e 91d7 b0bd 81e1 0dbe
00000090: 1f54 23bf 99f0 7a3f 4f55 633e d0a2 c0be
000000a0: 45af 14c0 8332 58bd 9dc6 e6bd db7e bdbf
000000b0: f171 95bd 8caa 183f 02c5 a7bd ceca 0d3e
000000c0: 1873 2a3f a775 54bd 4682 04be 91d9 283f
000000d0: dad8 aabf 0bab 333f 7d62 a0bf 6dd6 963f
000000e0: 7262 85bf a247 53bd 64da 973d 4d9c 7f3e
000000f0: 75e9 63c0 5440 1cbc 66c6 2a3e 6fd0 b23d
00000100: 6a2e bbbf ea3e 04bd a4e9 b33f ebb6 23bf
00000110: 6a78 413e 3896 0d3e 4450 16bf b389 353f
00000120: 551b 04bf e075 0ebe 3f33 d53d 910a 6a3f
00000130: f989 7ebe 50f5 533e ec60 f23e 71be 813e
00000140: c748 eabe e745 c53e d4eb 613d eaf0 573f
00000150: ffdf 7a3f 8d7c 53bd 3f89 473e cb62 153d
00000160: 0eb6 0dc0 184a 1c3e 6795 03be ddfe 3d3f
00000170: e26c 173f c8a7 f7bd e9cd 92bd a8e5 d9bd
00000180: 16b5 5cbc 15ad 863f 631a 9d3c 0c6a cc3e
00000190: a1f1 7a3d fac2 bbbf dfa9 413f ded8 96be
000001a0: 91f7 86c0 40f2 9b3c 0906 3bbf 39ba 623f
000001b0: 4402 ac3f ab7a 21bf a689 e9bc e2f8 b4bf
000001c0: d603 f33f 4ec3 8dbd ee2a a13b 0e28 333f
000001d0: 9f00 17be 0fec 6e3f 39f1 4abd 255c b23f
000001e0: 069a 533d c35d 9ebd de1d 4dbe 1d17 a33f
000001f0: 36b3 233b fddd 333f 9100 a0bd f235 5ebc
00000200: 59fd 9dbf 0186 0dbd e931 65bd 04ee 92bd
00000210: 6092 793f 5075 0440 4265 0ebc f812 a4be
00000220: fea1 8abd 48cd 983f 28fd 07be 1a72 2c3a
00000230: 6c8e 19be ad73 963f 81ea 87bf 2dfb 743e
00000240: 2757 d83e 60f3 93bf 4001 6b3f 6790 49bd
00000250: 23df 6b3e 3a18 22bf f1ac fdbd aa07 5bbd
00000260: 093d 8dbe f8a9 a4bd 3aab a93d 8448 8e3f
00000270: 0179 c23d 6500 a13e 14f3 8b3e db84 07c0
00000280: 83ce a6be 0be8 9c3e 0234 16be 944d de3e
00000290: daa5 403f c1b6 0dbe 3a3b 483f d97e 91bd
000002a0: 30a3 fabd 606d 12bc 1fb8 32be 4423 23bf
000002b0: f0cf d53f 933c 4e3e e3e1 61bd b16c dd3f
000002c0: e19a cbbd a15f b03e 8deb 48be c81d 1c3e
000002d0: f37d 873f 8d0c 9abf 06a2 92bd 2d0c b8bf
000002e0: 4340 15c0 228a babd 4db1 f63e 1af7 683f
000002f0: d248 18bf b3b0 a3bd a4c8 bdbe 80f2 963b
00000300: 5eae 4f3f 8fbf e7bd 86a7 62bd c0df 393f
00000310: 7f82 dbbd 6051 ebbf 64b3 11bf f9d7 57bd
00000320: 5cb6 acbe 7b61 4bbe e8d8 143f 4c6a 6f3f
00000330: ebe2 17be db1a bfbf 1ef7 3fbd a8d9 6abf
00000340: 3e01 ab3e be1e 07bf 3ce9 ac3f 74f3 9abe
00000350: c450 85bf 66fe 943e a676 3abf 3040 dbbc
00000360: 6d75 90bd ae80 b43f cecd e4bd eca9 58be
00000370: 60d6 bbbf caf6 b8be e886 05be 36bb b9bd
00000380: 7c5b 1fbf 455d 36bd 0c61 003d 21af dbbd
00000390: 5177 783f 1b45 9dbd 2dc8 a2bd 59d1 efbe
000003a0: 0ae2 753f 5b69 973e e2b8 c93f 2bf7 73bd
000003b0: c6f9 aebd 07e1 9fbe 6c80 b13f 089f 8c3f
000003c0: 1c96 a8be 27e7 4ebe f5c8 23bf f6d2 623f
000003d0: 0cfc 3fbc e624 953f 1f1a 9dbe 52a1 97bc
000003e0: 2dbb b5bc e65a 623f 46a1 383f c2a6 4e3f
000003f0: 313c a7be cd4d a3bd 6226 68bf 4bb8 72bc
-1.6394582 -0.09390522 0.0041124914 -0.09826906 0.02283802 -2.253806 1.555404 -0.08970252
-0.24626556 1.3587056 -0.42917147 -0.033611212 -1.0549642 1.0146816 1.184095 0.20364988
-0.038141444 -1.6552705 -0.1440305 -0.0652377 -0.08115716 0.63551337 0.039089926 -0.18753716
-0.43867886 0.4718749 0.03851768 -1.6229624 -0.033780992 0.014396378 1.689334 1.2043595
0.08088777 0.27829602 -0.08634866 -0.13855554 -0.63800234 0.9802337 0.22200511 -0.37624216
-2.3231976 -0.052782547 -0.11268351 -1.4804338 -0.07297123 0.59635234 -0.08191873 0.13846895
0.6658187 -0.051870015 -0.1294032 0.6595698 -1.3347428 0.70182866 -1.2530056 1.1784188
-1.0420668 -0.051581986 0.074147016 0.24961968 -3.561124 -0.009536821 0.16677245 0.08731162
-1.462354 -0.032286562 1.4055676 -0.63950986 0.1889359 0.13826835 -0.58716226 0.7091324
-0.51604205 -0.13912153 0.10410165 0.91422373 -0.2485732 0.20699048 0.4733957 0.25340608
-0.4575865 0.38529894 0.055156544 0.8435198 0.9799804 -0.051632453 0.19485949 0.03647117
-2.2142367 0.1526264 -0.12849961 0.74217016 0.59150517 -0.120925486 -0.071681805 -0.106395066
-0.013470909 1.052157 0.019177621 0.39924657 0.06126559 -1.4668877 0.7564983 -0.29462332
-4.2177205 0.019036412 -0.73056084 0.88565403 1.3438191 -0.630778 -0.028508019 -1.4138453
1.8985546 -0.06922017 0.0049184477 0.69982994 -0.1474633 0.93328947 -0.049546454 1.393437
0.05166056 -0.077327274 -0.20030925 1.2741429 0.0024978644 0.702606 -0.07812608 -0.013562666
-1.234294 -0.034551624 -0.0559558 -0.07174304 0.97488976 2.0696602 -0.008691134 -0.32045722
-0.06769179 1.1937647 -0.13280165 0.0006578282 -0.14995736 1.1754051 -1.061844 0.23923941
0.42253992 -1.1558647 0.9179878 -0.04920998 0.23034339 -0.63318217 -0.123865016 -0.053474106
-0.2758563 -0.080402315 0.08284612 1.111588 0.09495736 0.31445614 0.2733389 -2.1174839
-0.3257943 0.30645785 -0.14668277 0.43418562 0.7525307 -0.13839246 0.7821537 -0.071042724
-0.12238157 -0.00893721 -0.17453049 -0.63725686 1.6704082 0.20140295 -0.055147063 1.7298795
-0.0994165 0.3444796 -0.19621105 0.15245736 1.0585312 -1.203508 -0.0715981 -1.4378716
-2.3320472 -0.09108378 0.48182145 0.9100205 -0.59486115 -0.07992687 -0.3706714 0.004606545
0.8112544 -0.11315834 -0.055335544 0.7260704 -0.107182495 -1.8384209 -0.56914353 -0.052696202
-0.3373288 -0.19861405 0.5814347 0.9352157 -0.14832656 -1.4930071 -0.04686653 -0.9173837
0.33399385 -0.52781284 1.3508677 -0.30263865 -1.0415273 0.2910034 -0.72837293 -0.026764005
-0.07053647 1.410177 -0.11172067 -0.2115857 -1.4674797 -0.36125785 -0.13039744 -0.09068911
-0.6224897 -0.044522543 0.03134255 -0.107267626 0.9705706 -0.076791964 -0.07948337 -0.46839407
0.96048033 0.29572567 1.5759547 -0.05956189 -0.08543734 -0.3122637 1.3867316 1.0986032
-0.32927024 -0.20205365 -0.6397851 0.8860315 -0.0117178075 1.1651886 -0.3068399 -0.01850954
-0.022183979 0.8841995 0.72121084 0.807232 -0.3266311 -0.07973824 -0.9068357 -0.014814447

fc3.weight f4 [256, 256]
00000000: f145 39bf c02f 65bd 318e 28bd 99d0 113d
00000010: 2748 33bf cce3 1bbf e105 a43d 6492 45bb
00000020: 3840 073f ec90 7cbe 1587 5ebe e046 163d
00000030: aae8 89be 13ae 5bbf a9ea 28bf 9d80 23bf
00000040: 87bf 1ebc 166f b6be d1c5 0bbf cb8b 9e3c
00000050: 4830 0d3d 800d 2d3e 0a1a eb3c 74da 5dbf
00000060: 9390 47bf afe5 b0be 77ea 08bd 50ad 6cbf
00000070: 5b8f 0dbd 174c 84be 9117 073f 42dc cd3b
00000080: 7c1e ecbc 8f86 2cbe db69 20bd 4f66 dabc
00000090: a6c3 fabd 5a8c a9bd 7765 d53d f095 9cbe
000000a0: f785 1bbf a75c c13b 12fb 1b3d 7bb2 4dbf
000000b0: 153c 2cbc d947 8fbe 1335 b0ba 67da 863d
000000c0: 0b1d 24bf 609d ebbc a562 983c c148 46bf
000000d0: 3462 5ebe 1a1e 583e 975c dcbe 9a34 24bf
000000e0: 2712 4ebf 5f40 03bd 0dac 40bf fb16 803d
000000f0: c960 05bf da87 6bbe dc4e ad3e 13d9 313e
00000100: 3488 13bf d9b2 29bf 9054 883e 3e85 aebe
00000110: 44e2 edbe a07a 28bf 432d 73bd 33ef 9fbf
00000120: 872d 373e 720c 4b3e 6547 dfbe 47db 36bb
00000130: 64b0 9bbd 0f5f d6be a915 86be 786a 05bf
00000140: 2182 983e ea95 0abf a40f 89bf 03b4 773e
00000150: 0d20 83be 5283 3ebd 8cba 72bd a273 2cbf
00000160: 9fcf ccbf 3ced b0bd 2aa8 3ebe f595 29bf
00000170: 8bf6 95bc e010 80bd 0436 e0be 8042 10bd
00000180: 0a5b 91bc 925d 24be 27b1 8e3c c7c2 17be
00000190: baac 75bf 427e 023e c0fa 253e c089 69bf
000001a0: 9258 7fbe e182 b0be 7ead b33d bbca 89bf
000001b0: d601 803e 8b64 1c3e aec1 6fbd d005 b7be
000001c0: f02c 8a3e fc09 2cbd 9015 a3be 0084 1dbf
000001d0: f482 9bbe b366 ed3e 256e 40bd 3176 98be
000001e0: 9016 07be 70e7 353b a706 05be 21d1 56be
000001f0: 29a8 37bd f8ac 96be 5efa deb8 3b9d 813c
00000200: 4118 17bf d747 94bc b257 463b f38d 213d
00000210: 4d7d 9fbe 6101 3a3e 7afb 073d 21aa f53d
00000220: 687c 533d e42d 123f 1b15 8fbc fc5f cdbd
00000230: 9fa6 26be a106 1a3e 1b98 38be 4b3a 693e
00000240: aae8 51bd bae6 3cbf f5b0 79bf 1eaf 84bd
00000250: 07df 6dbe ecf4 d93e e05b 843c 4e8e babd
00000260: a800 95bf d6f7 373d e9c9 60be 9d06 433e
00000270: eb31 02be 2693 3dbe cd46 9b3d b90a d3bf
00000280: 6352 4abf 304f 18bf 6ab8 0bbf 791c 83bf
00000290: d3cb fdbe 3cf7 803b e6db 9fbe 80d2 47bc
000002a0: 718c 3a3d 9571 c23c 6364 75be 464c 5cbf
000002b0: c1a2 ab3e d11b 5cbf c11a 0fbd 4367 18be
000002c0: 687e dfbe 02ad e0be 3cc9 79be 6bff a93d
000002d0: 9548 b6be 1d65 21be bef9 86bd 6f1e 21bf
000002e0: 43e4 0dbf 9ccf a0bb 4dac 4b3d f697 81be
000002f0: 4a82 15bf 45b8 163d 1e39 543d a6d7 193d
00000300: c18c 50be c5b4 1cbd 9b06 3fbd 3306 5b3e
00000310: 0e46 223c fe8e 0cbf acbc 74be 573f 78bd
00000320: 1775 5fbd 4a60 b5bd c18b 94be 9a34 11bf
00000330: d0f1 d13b b635 24be aa72 88bd 9795 17bf
00000340: 4029 df3d 6b83 c7be 960e 9c3e 06ab 21bf
00000350: c12e 23be d483 a6be d502 13be 2a36 f33c
00000360: 8618 ff3c 525d 0e3e 1030 94bb 459d dfbd
00000370: fba9 2ebf 454a f1be 525f 3bbe f15d 73bc
00000380: b446 4dbe 3948 83bd 9a21 1b3d c98e 7bbd
00000390: 8303 883e c84f 5f3d 44a4 d3bc fb61 a33e
000003a0: dcea c6be ba7c 05bf 20a3 3fbd d8eb 233d
000003b0: bc8c f33c 8bbf f8be 0c04 6bbe 30d1 69be
000003c0: 20ef 02bf 2652 bdbe 9ea3 883e 59fc 82bf
000003d0: f5a3 003b 4143 c0be 0a80 30bf 2515 60bd
000003e0: e4f9 fdba c76a 2abe d69b 96bd 51f5 20bf
000003f0: 84f9 47bf 95d8 1a3c 040c acbe 41ff f2be
-0.7237235 -0.05595374 -0.04115123 0.035599325 -0.7003197 -0.60894465 0.08008934 -0.003014707
0.52832365 -0.24664658 -0.21731217 0.036688685 -0.2693532 -0.8581249 -0.65983063 -0.63868123
-0.009689218 -0.35631627 -0.5459872 0.019353768 0.034469873 0.16899681 0.02869894 -0.8666146
-0.7795498 -0.34550235 -0.033426728 -0.92451954 -0.034560543 -0.25839302 0.52770334 0.0062823603
-0.02882313 -0.16848205 -0.03916345 -0.026660113 -0.12244348 -0.08278723 0.104197435 -0.30583143
-0.6075129 0.0059009376 0.038081236 -0.80350465 -0.010512372 -0.27984503 -0.0013443552 0.06584626
-0.64106816 -0.028761566 0.018601725 -0.77454764 -0.21717149 0.21105233 -0.4303939 -0.64142764
-0.8049645 -0.03204381 -0.7526253 0.06254383 -0.5210081 -0.23001042 0.33849227 0.17367963
-0.57629704 -0.66288525 0.26627016 -0.3408603 -0.4646169 -0.6581211 -0.059369337 -1.2494873
0.17888461 0.19828966 -0.43609157 -0.0027901696 -0.07602003 -0.418694 -0.261884 -0.52115583
0.2978678 -0.54135 -1.0707898 0.24189763 -0.2561039 -0.046511956 -0.059259936 -0.6736394
-1.6000861 -0.08638999 -0.18618837 -0.6624444 -0.018306037 -0.06253219 -0.4379121 -0.03521967
-0.017743606 -0.16051319 0.017418457 -0.14820395 -0.95966685 0.12743476 0.16208935 -0.91225815
-0.2493613 -0.34474853 0.087733254 -1.0764993 0.250014 0.15272729 -0.058534317 -0.35746622
0.2698741 -0.04200171 -0.31852388 -0.6152954 -0.30373347 0.46367416 -0.046980042 -0.29777673
-0.131922 0.0027756356 -0.12990819 -0.20978214 -0.044838104 -0.2942884 -0.000106324194 0.015822044
-0.59021384 -0.018100662 0.0030264673 0.039442014 -0.31150284 0.18164589 0.03319881 0.1199534
0.051632315 0.57101274 -0.017466119 -0.10028073 -0.16274498 0.15041591 -0.18026774 0.22776143
-0.051247276 -0.7378956 -0.9753564 -0.064787135 -0.2322961 0.42569673 0.01615709 -0.09109174
-1.1640825 0.04491409 -0.21952023 0.19045492 -0.12714355 -0.18513164 0.075818636 -1.6487647
-0.7903196 -0.5949583 -0.5457827 -1.0243064 -0.49569568 0.0039357226 -0.31222457 -0.012196183
0.04554409 0.0237358 -0.23964076 -0.86053884 0.3352261 -0.85979944 -0.034937624 -0.14883141
-0.43651128 -0.43881994 -0.24393171 0.0830067 -0.3560225 -0.15761228 -0.06590603 -0.6293706
-0.55426425 -0.0049075615 0.049724866 -0.2531125 -0.5840193 0.036796827 0.051812284 0.037559174
-0.20366193 -0.038258333 -0.04663716 0.21389084 0.009904398 -0.5490569 -0.23900098 -0.06060728
-0.054555025 -0.08856256 -0.29012874 -0.5672089 0.006407 -0.16036114 -0.066624954 -0.5921263
0.1089654 -0.3896745 0.30479878 -0.63151586 -0.15935804 -0.32522452 -0.14356549 0.029688913
0.031139623 0.13902786 -0.004522331 -0.10918669 -0.6822812 -0.47126976 -0.1829808 -0.01485394
-0.20046502 -0.0641026 0.03787384 -0.061415467 0.2656518 0.054519445 -0.025835164 0.3191069
-0.38851058 -0.5214344 -0.046786427 0.04001984 0.029730193 -0.48583636 -0.22950763 -0.22833705
-0.51146126 -0.36976737 0.2668733 -1.023326 0.0019628976 -0.3755131 -0.6894537 -0.054707665
-0.0019376841 -0.16642295 -0.07353942 -0.62874323 -0.78115106 0.009451051 -0.33602917 -0.47460368

fc3.bias f4 [256]
00000000: 83be 0e3e 78b9 29be 041c cdbe 3973 59be
00000010: 55fb 2a3f fb48 373e bc84 98be 751b c6be
00000020: 7449 4fbf 3cb1 6dbd e5a2 033f a940 04bf
00000030: 00b4 a4bf 2c13 f3be 73fb 29bf 8b6e 113d
00000040: 16a2 fc3b 8c93 6d3d 0306 11bf b16d ecbe
00000050: 899b 3dbe 5b40 72be f84b 3bbf 557c c63e
00000060: 064e e03f 4276 36be fcda 4fbe e3ab ea3d
00000070: 51b6 d03f 7813 593e 2605 07be 668b d2bc
00000080: eaea 19bf 1289 8a3e 26de 9bbe 7604 97be
00000090: 4a65 d43e 3ba9 69bf 5e9a 48bf 9b6a 56be
000000a0: d758 a63f ad18 0fbe 51f2 40bf 049a 56bf
000000b0: 67dc 79be 68a3 f0be 7772 e8bd 1733 7cbf
000000c0: 7d9c 4ebf ac99 193f 66e3 b5be 2592 90be
000000d0: 89c2 bfbe bc44 95bd cbbf d03e f718 0c3f
000000e0: fd55 73bf d297 d5be ee6a 1f3e f249 6dbe
000000f0: 30d6 bebe 8794 2bbf 3adb abbe 17ae afbe
00000100: 420d 10bf 561e 2cbf 606a 3abf 9b69 a2bd
00000110: fca9 edba 68c6 09bf c7af 24bf 8310 efbe
00000120: 9b46 63be 80c3 0bbe b04f 90bc 2448 3abe
00000130: 417f 18bf c273 93be d14b 75be 6ef4 533e
00000140: 7223 82be f982 a3be 2586 f7be cd0e 3dbf
00000150: 4c69 37be d785 333d c7f7 49bf 1f23 c83f
00000160: 2a73 4cbe e9c8 76be 9220 86bf 67a9 bebe
00000170: c809 58be 328a 40bf 4063 0e3f f756 35bf
00000180: 902e 43be 3eee 94be 9762 553c 9d4d fcbe
00000190: bc75 c7be 6518 77be b710 82be ba86 cabe
000001a0: b68e 54bf 7459 59bf 102f 48bf ddc6 0abe
000001b0: 0189 da3f ddb8 0abf 84c1 febd 9750 83bf
000001c0: 89c3 0a3f c60c 98be 40cd 10be 20b9 dbbf
000001d0: a990 cebd 5c1d e8be c963 afbd 1e60 1a40
000001e0: abac 23bf 130b d5be 0620 3abe 4a5e 3f3e
000001f0: 217e a5be aa06 9d3e 5f89 e5be 6d06 113f
00000200: 4d12 b6bd a2a3 01bf f9af d0bd 0cdf 34bf
00000210: 49dd f3be 203d 8cbf cb91 503e a3df 68bf
00000220: 777e 7bbe e95d 19bf aba8 1dbe 64af 7cbf
00000230: 8410 61bf b569 0ebf 66d1 3fbe 1c33 74be
00000240: 8d6e 41bf 9571 5abe c071 8f3d 52e0 b5be
00000250: cce0 51be dc40 39bf 2ba7 26bf cd1a 043f
00000260: 8834 00bf 081c fbbe 3970 993e c20c 8ebe
00000270: 9ad0 8c3f b1fc 60bf 3858 efbe 6d3e 8f3e
00000280: 9ff1 523f 4b3d d5be e320 c5be e952 8ebe
00000290: e586 91bf 21cc 9dbe c48a 203e faee 87bf
000002a0: 34af a0bf 375e 76be 97c5 00bf 63c8 83bf
000002b0: 2153 55be 7f4c f5be cb90 09bf 80fb 943e
000002c0: 5f27 aebe 77a0 a8be 4b64 e03c 3d16 d5bf
000002d0: b9b8 6cbe 39c9 aabe 6943 8bbe b681 d6be
000002e0: 1bfc 64bf 1a4f 53be 28c9 9e3f a2eb 0ebf
000002f0: dce7 b0be b632 81be bc3b 6a3e dad8 b83e
00000300: 704e 42bf 06ea dfbe 4873 b7be 94dd 0fbf
00000310: c358 863e 7bfd 903f 4b17 2cbf 1289 d9be
00000320: daca abbe 8420 17bf ab41 3abf ae3b 11bf
00000330: 9026 32bf c2e1 26bf 1378 87be 689d 713f
00000340: 1cb6 3c3f fc5d 03bf 40a2 93bf afe0 7bbd
00000350: 37d3 723e cce2 493f 2b0d 1abe 036a 88be
00000360: ed75 24bf 379b c5bd de79 81bf 01c2 5abe
00000370: b8d2 87bf 6d41 853f 7d0d 64bf 3243 32bf
00000380: 5ec2 d9be 3521 5cbe 1abf 01bf 6639 b3be
00000390: a91a dabe a8e1 c23b c186 343e e053 eabe
000003a0: a238 41be af83 c13f 9151 aebe 540c 9d3d
000003b0: 2529 a13d 0c7e f23e a05f 04bf 104d 213f
000003c0: 08e2 46be 8779 6fbf 5032 98be 3a88 bebe
000003d0: cea6 99be 2a43 8cbe a6fe 9e3e 83d5 a1be
000003e0: 31ce 01bf ad83 693e d4b8 13be 3baa fb3b
000003f0: 42c0 17bf dbd5 b33c 4ee3 bfbe 4629 303e
0.13939862 -0.16574657 -0.40060437 -0.2123536 0.6678975 0.17898934 -0.29788768 -0.38692823
-0.80971456 -0.058030352 0.5142043 -0.51661164 -1.2867432 -0.47475564 -0.66399306 0.035505813
0.007709752 0.05800204 -0.566498 -0.46177438 -0.18516363 -0.23657362 -0.73162794 0.38766733
1.7523811 -0.1781855 -0.2029838 0.11458566 1.6305639 0.21198833 -0.13185558 -0.025701236
-0.60124075 0.270577 -0.30442923 -0.2949559 0.41483527 -0.9127385 -0.78360546 -0.20939104
1.2995862 -0.13974257 -0.75369745 -0.8382876 -0.24400483 -0.4699967 -0.113499574 -0.98515457
-0.8070753 0.6000011 -0.35525054 -0.282365 -0.37453106 -0.07288501 0.40771326 0.54725593
-0.9505308 -0.41717392 0.15568134 -0.23172739 -0.37272787 -0.6702351 -0.33565694 -0.34312508
-0.5627023 -0.6723379 -0.72818565 -0.07930299 -0.0018132324 -0.5381837 -0.64330715 -0.46692285
-0.22194903 -0.13648796 -0.017616123 -0.18191582 -0.59569174 -0.28799254 -0.23954703 0.20698711
-0.25417668 -0.31935862 -0.48344532 -0.7385071 -0.17911261 0.04382881 -0.78893703 1.5635718
-0.19965807 -0.24100079 -1.047869 -0.3723862 -0.21097481 -0.7521087 0.55620193 -0.7083582
-0.19060731 -0.29088014 0.013023994 -0.49277964 -0.38957012 -0.241304 -0.25403377 -0.39555913
-0.8303026 -0.8490212 -0.7819681 -0.13552423 1.707306 -0.5418833 -0.12439254 -1.0258969
0.5420461 -0.29697245 -0.14140797 -1.7165871 -0.100861855 -0.453349 -0.085639544 2.4121165
-0.63935345 -0.4161001 -0.18176278 0.18688312 -0.3232279 0.30669147 -0.44831368 0.5665043
-0.08890209 -0.5064031 -0.10189814 -0.7065284 -0.47629765 -1.0956154 0.20368116 -0.9096624
-0.24559961 -0.5990892 -0.15396373 -0.98705125 -0.87915826 -0.55630046 -0.18732223 -0.23847622
-0.7555931 -0.2133239 0.07004118 -0.35522705 -0.2049591 -0.7236459 -0.6509883 0.51603395
-0.50080156 -0.49044824 0.29968432 -0.27744108 1.100116 -0.87885576 -0.46746993 0.27977315
0.82399935 -0.41648325 -0.38501653 -0.2779763 -1.1369292 -0.308198 0.15677935 -1.0619805
-1.2553468 -0.24059378 -0.503015 -1.0295528 -0.20832492 -0.47909924 -0.5373656 0.2909813
-0.34014413 -0.32934925 0.027391573 -1.6647412 -0.23117341 -0.33356646 -0.27199867 -0.41895837
-0.8944718 -0.20635644 1.2405138 -0.558283 -0.34551895 -0.25234002 0.2287435 0.36102945
-0.75900936 -0.43733233 -0.3583014 -0.56197476 0.26239595 1.1327356 -0.6722304 -0.4248739
-0.335532 -0.5903399 -0.7275645 -0.5673169 -0.6959009 -0.6518823 -0.26458797 0.9438081
0.73715377 -0.51315284 -1.153389 -0.06149357 0.23713385 0.7886169 -0.15044086 -0.2664338
-0.6424244 -0.096487455 -1.0115316 -0.21363069 -1.0611181 1.0410591 -0.8908308 -0.6963378
-0.42531103 -0.21497042 -0.5068222 -0.3500473 -0.42598465 0.0059473105 0.1762953 -0.45767117
-0.1886926 1.5118312 -0.34046605 0.07668367 0.07869176 0.4736179 -0.5170841 0.63008213
-0.19422162 -0.9354481 -0.29725885 -0.37213308 -0.30010074 -0.27394992 0.31053656 -0.3160821
-0.5070525 0.22804137 -0.14425975 0.007680205 -0.5927774 0.02195256 -0.37478107 0.17203245

action_out.weight f4 [4, 256]
00000000: de7f b43e ae49 1abd 3ecf febd 4437 59be
00000010: 3c70 683e 638e 69bd 5a78 f2bd bc7a 2cbd
00000020: 1b2c cd3d 0a69 203e b788 9f3e 2e10 6bbd
00000030: 20e1 3f3d 252f e23c e0a0 71bd 31fb 913e
00000040: f374 04bd c420 0abf 26ea f4bd cfee 313b
00000050: 15f3 a2bc 3570 c8bd 313c 283f 8baa 033e
00000060: 9b39 783d 3d08 813d 9947 dabd 1f18 0b3d
00000070: 8b2e 9e3d 0f6a aa3c c9e7 52bd 9910 7d3c
00000080: 62f6 fc3c d15e a83d 1cc7 13be c690 e13d
00000090: eb39 0a3d f800 35be b67d 823c 7274 d5bc
000000a0: 5bb8 f23d c6c7 2cbe 63be 58bd d3a8 e83c
000000b0: 31f5 523c c31c efbe 2f32 94be e6d4 3dbd
000000c0: b7db 383b a871 bd3c 1a1c d43d cbab 483d
000000d0: 2cd9 cebb 7df8 993d 3be8 f1ba 7163 f5bb
000000e0: 6b16 2bbb 9151 9b3d 0c46 853d 5155 153e
000000f0: 3d9f 063e 539b acbd 52ff 9a3c 93ee 2abd
00000100: 9bdd fc3d 1ab8 0ebd ada7 9ebd 1070 f23e
00000110: 6e99 80bc bd17 d13d 9350 a2bd bf20 8abe
00000120: c3ec f6bc 3c0d 98be f0fb 703d fe86 243f
00000130: 29d4 9dbd 18d4 c3bc fb44 e6bd 9b9f b4bd
00000140: 31e8 88be b9a8 c53e 7e99 b8bb b0d9 2e3c
00000150: 6d7b 3a3d 5a71 f9bd 1914 9abc a808 fb3c
00000160: 55b5 803d 9677 e2bd 1b50 88be 5abb e2bd
00000170: a72a 92bc 73c4 01be 39aa df3d 7af3 813c
00000180: 90db a7bc b313 c0bd a326 2f3f 265c a4bb
00000190: 8343 573b 10d6 1c3d 92be 0a3e 0e60 28bd
000001a0: 5dc6 80ba f48b b3bc 7978 d43c 4a0c bc3c
000001b0: f33a 32bd aa51 2ebd 346e 2a3e 9509 863c
000001c0: 960e dabb 09a0 cebe 2617 5e3c 4540 f0ba
000001d0: 020d 153d 7120 8abc 54c1 403d 3e93 90bc
000001e0: 59d5 1f3d 2639 cdbc e95e 633d 0406 273c
000001f0: cc2f f53d 7795 563c ac01 58bc 6d79 343d
00000200: 479a 8a3e 8d3a e83d 2c21 c8bc 1e65 b7bd
00000210: b1d2 26bd 93ac f9be 6813 1fbc 8183 003f
00000220: f0b1 b23d 448e a13e cd83 71bd c97a 80bc
00000230: db06 003e 3490 aebe 7429 81bd 06f6 3f3d
00000240: 6c27 3bbe dbdb 613d 3863 5cbd a09d 4bbd
00000250: 36fe 8d3d 6ef8 83ba 9835 353e 4766 9dbc
00000260: 2094 0a3d 9fcc 04bc fbf2 5fbc 74c6 d2bd
00000270: fe8b c93c 2f75 9b3c 2861 663e 19ba 1cbd
00000280: 7b8d 803c 27dc 843f ad4e 733e 5221 893c
00000290: 473a 1d3e 0dbe 43bc 2642 46bd 73c5 c9bc
000002a0: c436 2b3f 77c5 37bd e905 a83b ee7f a7be
000002b0: 5fca f4bd 6b73 353d 7755 b5bd a017 c8bd
000002c0: fffa 2a3e 1219 aabd a22f 093d 45ad f9be
000002d0: 955a 543d 9dea 95be 22cc 97bd d584 5a3d
000002e0: 27ff a03d 58ee 57bc 9e7f 35bc 4f80 18bb
000002f0: 841e 5c3d 0ec0 e2bc fec3 9d3d b0b7 803d
00000300: 6175 b63d 258c 6f3d 36e6 c5bd b125 433d
00000310: ad4c a6bc 51c9 363c 0ca9 5d3d d2de 8abf
00000320: 0a5f aa3d 77dc d03c b991 54be 7277 4a3d
00000330: 3da9 07bd 514a f6bb a548 9bbd d1e8 2d3d
00000340: cd42 a03d f24b 6ebd e97d b4be 4b0d 873c
00000350: 64be 34bd ac8d b1bd a62b 96be 689c 783d
00000360: c98e 853d 15ba 36bd 2c12 483c f31a b93c
00000370: d76b 033d 1c46 8bbd 72a4 273e fa38 003c
00000380: f976 16bf eb63 4cbd c2fa aebd ab5a 5b3e
00000390: 6583 39be f80d 993e 7109 e3ba 86a7 2fbf
000003a0: aac6 8cbe e6df 56b9 1d3f cb3e 8f8e 49bd
000003b0: 5155 9e3d 6496 c53b 1b6a d7bd 7920 8ebc
000003c0: d11a 823c df8e 5fbc e225 26bd 6548 ba3c
000003d0: 9876 87bd d8eb 64bd b36d de3d 03e3 ebbd
000003e0: b188 e63d e65e 6b3e b291 eabd 241c aabd
000003f0: 2e28 023c 845a 7bbd 0deb f8bc 6c61 4ebd
0.35253805 -0.037667923 -0.12441872 -0.21212488 0.22699064 -0.057020556 -0.118393615 -0.042109236
0.10018178 0.15665069 0.31158993 -0.057388477 0.046845555 0.02761037 -0.058991313 0.28511956
-0.032338094 -0.53956246 -0.11958723 0.0027150398 -0.019891301 -0.09787027 0.65716845 0.12858026
0.06060181 0.063003995 -0.106581874 0.03395855 0.07723721 0.020802526 -0.05149058 0.015445852
0.030879203 0.0822121 -0.14431423 0.110139415 0.03374664 -0.17676151 0.015929084 -0.026056502
0.11851569 -0.16873083 -0.052915942 0.028400814 0.012875841 -0.4670163 -0.28944537 -0.046345614
0.0028207132 0.023125485 0.103569224 0.04899196 -0.00631251 0.075180985 -0.0018456051 -0.007488661
-0.0026105891 0.07583917 0.06507501 0.14583327 0.13146682 -0.08428063 0.018920574 -0.04173143
0.123469554 -0.03484354 -0.07746825 0.47351122 -0.015698161 0.10209606 -0.079255246 -0.26978108
-0.030142194 -0.29697597 0.058834016 0.6426848 -0.07706482 -0.023904845 -0.11243626 -0.08819505
-0.26739648 0.38605288 -0.005633532 0.010672018 0.045527864 -0.12179823 -0.018808411 0.030643776
0.06284586 -0.110579655 -0.26623616 -0.11070891 -0.017842604 -0.12672596 0.10921139 0.015863169
-0.020490438 -0.09378757 0.6841833 -0.0050158678 0.0032846637 0.038290083 0.1354926 -0.04110723
-0.0009824742 -0.02191732 0.025936352 0.022955079 -0.04351325 -0.04255835 0.16643602 0.016361991
-0.006654571 -0.40356472 0.013555324 -0.0018329701 0.03638936 -0.016861172 0.047059372 -0.017648336
0.039021824 -0.025051665 0.055510435 0.010194305 0.11972007 0.013097159 -0.013183992 0.044061113
0.2707083 0.11339293 -0.02442988 -0.089548334 -0.040728275 -0.48764476 -0.009709217 0.5020066
0.08725345 0.31553853 -0.058963586 -0.015683549 0.12502615 -0.34094393 -0.06306735 0.046865486
-0.18276757 0.05514131 -0.05380556 -0.04971087 0.069332525 -0.0010068545 0.17696226 -0.019213809
0.03383267 -0.008105426 -0.013668771 -0.10291758 0.024602886 0.018976776 0.22498 -0.038263414
0.015692463 1.0379685 0.23760481 0.016739521 0.15354262 -0.011947167 -0.048402928 -0.024630284
0.6688044 -0.04486605 0.0051276577 -0.3271479 -0.11952662 0.044299524 -0.08854192 -0.09770131
0.1669731 -0.08305563 0.03349269 -0.48765007 0.0518442 -0.29280558 -0.07411982 0.053349335
0.078611664 -0.013179384 -0.01107779 -0.0023269837 0.05374004 -0.02767947 0.07703398 0.062850356
0.08909107 0.05848326 -0.0966305 0.047643367 -0.020300234 0.011156396 0.054116294 -1.0849249
0.083189085 0.02549575 -0.20758714 0.04943032 -0.033120383 -0.0075161834 -0.07582215 0.04245836
0.07825241 -0.058177896 -0.35252312 0.01648583 -0.044126883 -0.086696 -0.29330176 0.060696036
0.06521375 -0.044611055 0.012211364 0.022595858 0.032085266 -0.06800482 0.16371325 0.007826084
-0.5877529 -0.049899977 -0.08543922 0.21421306 -0.1811653 0.2989347 -0.0017321539 -0.68614995
-0.2749532 -0.00020492039 0.3969659 -0.04920822 0.077311166 0.006029891 -0.10518285 -0.017349469
0.015881928 -0.013644903 -0.04056347 0.022739599 -0.06614417 -0.05588898 0.10860767 -0.115179084
0.112565406 0.2298542 -0.114535704 -0.08306149 0.00794415 -0.06136562 -0.030385518 -0.050385877

action_out.bias f4 [4]
00000000: 282c 97bb 8f09 9dba 8944 59bc 2c48 9ebb
-0.004613418 -0.0011980998 -0.013260969 -0.004830381
